PPO-cleanrl/models/pruning/PPO-HalfCheetah-v4-0.65-l1.onnx (onnx, 5477 bytes, 7 tensors)

actor_logstd f4 [1, 6]
00000000: 4ed0 81bf 66c5 71bf c911 4abf e8df c4bf
00000010: e5a5 74bf a715 5abf
-1.0141695 -0.9444183 -0.7893339 -1.5380831 -0.95565635 -0.8518929

actor_mean.0.weight f4 [22, 17]
00000000: d771 cebe 44bc 8e3d 47f5 46be 1997 f43d
00000010: fdf3 39bc 3f27 c33d 7790 0fbc 3ecc 4dbe
00000020: ba45 973e 55b3 703e 95d8 36be cba0 b33e
00000030: a4ae 3cbf 24a7 9bbc ed5b 44bd 1e36 533f
00000040: 39f6 3ebd 30d4 92be 19cc 2bbe 34ba 12be
00000050: 6e7f 1e3e 2c41 323e 7c97 a73d 70df 0dbe
00000060: 9ddc 5f3e 826e 8cbe 2013 1f3e 7a4c 94be
00000070: 498e 163e 4e87 9fbd 79ee 1ebd 8191 c13e
00000080: 3c08 593e 0a5e fc3e db74 4cbe 634a 773e
00000090: 4148 af3d 95ff bebb bca7 333e 0419 e93e
000000a0: b6df 883d 98a7 063f 6f29 bd3d 97d4 93be
000000b0: ec0c 9bbd d8e8 1ebf 30b8 813e 6da2 e1bd
000000c0: 702f f1bd 5824 c83d fdc2 b13e cfe1 14bf
000000d0: 7bf9 79be ec56 183e b7fa dc3c b141 06be
000000e0: 0a52 033e 24dc 84bd c078 3dbe a3fd b5be
000000f0: 8354 f3be ed3b f8be cd83 663d 8bfe 18bb
00000100: 1248 3d3e e051 dcbe 37e7 15bf 7fcf 803d
00000110: 9697 86be 74c8 43bd ca40 5f3e 265d 993e
00000120: e5c8 cd3b 987a adbe 973a 8c3d 8672 3abe
00000130: 12fb bbbb 7575 3c3e 246e 7e3e 5f3f d0be
00000140: 839f 823d fa13 95be 0cac 693e 4b94 aebe
00000150: 5e29 b13e e0f7 84be b872 03bd 0377 943c
00000160: 6586 ae3e af9d 67be d62f 323e f9b3 983d
00000170: 864c c73e 1206 69be f628 b3be fb4e 8dbe
00000180: 7c51 6e3e de82 0dbe 894c 90be f642 a23e
00000190: 0871 bcbd 39b1 0abe 4190 89be fe33 d5bc
000001a0: 2b88 f2be df3e b63d 8301 b13e 2071 693e
000001b0: 9f2f 9b3e 0e68 e83d 63d2 0abe 0e63 1e3e
000001c0: fcf4 5dbe d2cf b5bd ddd8 32be e4e5 98be
000001d0: 2946 28be acd3 a53e 544c 9ebd 6676 ea3d
000001e0: 9182 a33e d4a6 593e 3e58 823e 2b7a 503e
000001f0: 2971 14be 249d 793d f7fc cbbd 2438 febd
00000200: 1936 273e cfc3 d3be be72 1d3e 1fbf 553e
00000210: 7649 2a3e 1a18 4cbe cab5 cf3e 92db a03d
00000220: aa42 aabe ab6f 8d3e 5b2c 643e 08fd 1b3e
00000230: 063c 8fbe 932f 62bc a105 6f3e 0336 e33d
00000240: ca95 803d ae13 99bd e575 cf3d 4f70 b1be
00000250: 81f3 d1bc 5d5c 7abe a745 08bf a763 103e
00000260: 8326 033e 477f 8cbe 20e8 22bf a042 b7bd
00000270: a7a1 993e 3d51 0ebe f16d bfbe abe8 21be
00000280: 9e5f 853e 5ce1 af3e c80e 113e 46d0 873c
00000290: f654 95be db48 e73b e83a 0d3d 5247 7cbe
000002a0: b39b d03c 9794 52be eac3 0d3f 489b 88be
000002b0: 2e0f 813e 1bbd 9c3c 37f1 7f3d 7612 2f3e
000002c0: be2a 94be f73e 183e 4836 6f3e f53f a23d
000002d0: a7db 3dbe 5e80 a1be 7ef1 a4be fdba 253e
000002e0: 4b73 183e 9ebf 68be 31a1 d6bd ec85 00bf
000002f0: 3ccb 003f 0609 30be a098 fa3d 7430 503e
00000300: 5d52 dbbe af81 c3be b321 523e dfc4 abbd
00000310: 12c9 0fbd a803 43be 6a2f 483e 915c 34bd
00000320: a314 813d aed0 813e 4752 ea3d f0d6 ce3b
00000330: 4f20 cbbe 85c1 253d f91d 923e 9611 95be
00000340: 68fc cc3d 2c0b febc a988 d73e c977 6b3d
00000350: 8140 cd3e cfc6 af3e 3657 443b 5374 84be
00000360: f5b3 773e 4339 143e 560e 5abd 20d3 9cbe
00000370: ce10 e4bd 2841 57be ca0d 32be f31e f6be
00000380: 9f5d 47be 2011 d23d da32 96bd 1a58 1ebe
00000390: 44d9 03bd a6a9 bd3e c3dd 43be b468 4e3e
000003a0: 1a1a 92be 6eb5 b63e bb41 89be add9 c5be
000003b0: 33da 5ebd 4028 3ebe ffa3 a9be a597 83be
000003c0: af40 e73e c2dd 5abe 3840 14be 160b e4bc
000003d0: 2aeb 82be e79a b9bc 22f8 9b3e 49b1 c2be
000003e0: 7f54 213e 216c f0bd e557 033e c469 9fbd
000003f0: a059 e93e de27 db3e 4df7 27be 6a2d d73e
-0.40321228 0.069695026 -0.19429503 0.11942882 -0.011349675 0.0952897 -0.00876247 -0.20097443
0.29545385 0.2350591 -0.17856057 0.35083613 -0.7370398 -0.019000597 -0.04793923 0.8250445
-0.046621535 -0.2867751 -0.16777076 -0.14328843 0.15478298 0.17407674 0.0818319 -0.13854766
0.21861501 -0.2742806 0.1553464 -0.28964597 0.14702715 -0.07789479 -0.038801644 0.37806323
0.21194547 0.49290496 -0.19966452 0.2414947 0.08558703 -0.0058288076 0.17544454 0.45526898
0.066832945 0.5259948 0.092364185 -0.2887313 -0.07570824 -0.6207404 0.25335836 -0.110173084
-0.11776626 0.09772557 0.34719077 -0.58157057 -0.24411575 0.14876908 0.026975019 -0.13110997
0.12824264 -0.06487301 -0.18503094 -0.35545072 -0.47525415 -0.4848322 0.05627804 -0.0023345079
0.18484524 -0.43031216 -0.5855593 0.06289577 -0.26287526 -0.04779859 0.21802059 0.2995388
0.006280052 -0.33882594 0.068471126 -0.1820775 -0.005736717 0.18404181 0.24846703 -0.40673348
0.06378081 -0.29116803 0.22819537 -0.34097514 0.34601873 -0.25970364 -0.032091826 0.018123155
0.3408691 -0.22618745 0.1740106 0.07456202 0.3892557 -0.22756222 -0.34992188 -0.2759932
0.23273271 -0.13819453 -0.28183392 0.31691712 -0.092012465 -0.13544168 -0.2686787 -0.026025768
-0.47369513 0.088987105 0.34571466 0.2279706 0.3030977 0.11347972 -0.13556819 0.15467474
-0.21675485 -0.08877529 -0.1746554 -0.29862893 -0.16433014 0.32388055 -0.07729402 0.11448364
0.31935552 0.21255046 0.25457948 0.20359103 -0.14496292 0.060940877 -0.099603586 -0.12413052
0.1632923 -0.41360328 0.15375802 0.20873688 0.16629586 -0.19931069 0.40568382 0.0785438
-0.33253986 0.27624258 0.22282545 0.15233243 -0.27975482 -0.013805288 0.23341991 0.11094286
0.0627857 -0.07474457 0.101299085 -0.34655997 -0.025628807 -0.24449296 -0.5323128 0.14100514
0.1280766 -0.27440855 -0.63635445 -0.089482546 0.30006143 -0.13898177 -0.37388566 -0.15811412
0.26049513 0.34351623 0.14165795 0.016578805 -0.29166383 0.0070582456 0.034480006 -0.24636582
0.025464868 -0.20564495 0.55377066 -0.2668097 0.25206894 0.019133141 0.0624859 0.17096886
-0.2893886 0.14867769 0.2336055 0.07922355 -0.18540822 -0.3154325 -0.32215494 0.16184612
0.14887731 -0.22729346 -0.104799636 -0.5020435 0.5031011 -0.17190942 0.12236142 0.20330983
-0.42836276 -0.38184878 0.20520668 -0.083871596 -0.035103865 -0.19044363 0.19549337 -0.04403359
0.06302764 0.25354522 0.114414744 0.0063122436 -0.39673087 0.040467758 0.28538492 -0.2911498
0.1000908 -0.031011187 0.4209645 0.057487283 0.40088275 0.34331366 0.0029959208 -0.25869998
0.24189742 0.14474969 -0.053236328 -0.30629826 -0.11136018 -0.21020949 -0.17388073 -0.48070487
-0.19469307 0.102571726 -0.07333918 -0.15463296 -0.032189623 0.37043494 -0.19127564 0.20157129
-0.2853554 0.35685295 -0.2680796 -0.38642636 -0.05440731 -0.18570042 -0.33132932 -0.25701633
0.45166537 -0.21373656 -0.14477623 -0.027837317 -0.2557004 -0.022656871 0.30462748 -0.38025883
0.15754889 -0.11739374 0.12826498 -0.07783845 0.4557619 0.42803854 -0.16402932 0.42026836

actor_mean.0.bias f4 [22]
00000000: 30d3 c83c b786 d7bd 5b88 28be f687 e6bd
00000010: b945 9fbd c4bf c3bd 60e2 ad3d 155f 583e
00000020: 9715 63be 29bf 693d 5f72 673c cf3c 953e
00000030: 4989 38bc f8bb a0bb cb20 463e ae74 2c3e
00000040: dafd 11be 5318 d1be 3fe2 0abe b296 09be
00000050: 0da4 22be 2450 a03d
0.024514765 -0.10523742 -0.16458265 -0.11256401 -0.077769704 -0.09558061 0.08490443 0.21130021
-0.22176205 0.05706707 0.014126389 0.29147956 -0.0112632 -0.00490522 0.19348447 0.16841385
-0.14256993 -0.4083887 -0.13562869 -0.13436392 -0.15882893 0.078277856

actor_mean.2.weight f4 [22, 22]
00000000: f7f7 1a3f 82c4 b23e 441f fa3d 9430 0cbe
00000010: 93ef cebd e2f4 d83e 16f1 7d3e 625c ba3d
00000020: 751f fcbd c458 783e 23e5 7cbe 84b3 b0be
00000030: b043 24be 2a96 7cbd ced5 8b3e 596b a83a
00000040: 07ac 483e f984 aa3d fffd 12bf d055 d43d
00000050: 046c 883e 5fb1 bd3e 1d7c 7dbd 3f7f 5abc
00000060: f077 88bd 28b8 093e 4d55 8d3e 6a4c adbe
00000070: 6ded 22bf 0483 99be 8848 fe3d efaa cbbc
00000080: 5bf6 053e 2624 733d f92b 993e 6ad4 adbe
00000090: f40a 283e d2c6 6e3d 30c0 0e3d 2186 04be
000000a0: 9cc7 f7bd b47c a6be 8009 a83e 75ee d9bd
000000b0: 9c7e 833e 5c88 cabd d1fd 133c d8ad ff3d
000000c0: 9f27 b23d f7c0 92be ac86 223e 982f 02be
000000d0: e7ac c4bd 1e85 f9bd d281 323e 5e97 ac3e
000000e0: f679 ccbb 7ebb 74be f1c9 01bf 34e5 3c3e
000000f0: 39f6 a13d e946 a63d d78c dfbd 1f0c 853e
00000100: 2b08 73bd d42b 29be b5b2 4cbf 60fd 4fbe
00000110: 5bb5 d63d c786 913e a67c ca3e eff6 fbbd
00000120: 88fc 38bf 8a5a c53d 49da df3d 7981 873d
00000130: a54c 5c3d 4336 98be 9a13 9c3e afb2 bebd
00000140: fa23 b5bd adca cb3e 476e 363e 7716 70be
00000150: e680 06be 5343 39be de47 973d fc21 a2be
00000160: b436 25be 18b5 b2be 6a13 c03d ac96 77be
00000170: c526 873e a81d 99be 21f5 cfbe 721e e7bc
00000180: eab0 bcbd 9356 55be 0090 2bbd 7bac ca3d
00000190: 52f2 833e 2bef 863d 91e9 5e3e b6a0 bebe
000001a0: 3da2 dcbe 7ec1 cbbd 1155 e7bd 716f 6f3e
000001b0: 202f efbd 76e6 433d 9d26 803e 4a85 09be
000001c0: 98f4 73be 04f3 84be 6e87 303e ab1b f53c
000001d0: 8fb0 62bd aadf ddbe 6924 0ebe 8ae6 253e
000001e0: 1b89 cbbd 20fb bd3e 0186 70be d559 d43d
000001f0: 83aa bcbe 64e1 553e f03f aa3e e5ec ebbd
00000200: f705 863c f4ea b63e d903 d2be 9a7a ca3e
00000210: 8131 46bd fa09 063e b260 4e3e fa81 5e3e
00000220: 23e0 b3bd 4edd a73d a64b ccbe 3a7d 803e
00000230: 8756 fabc 9555 18be 93d3 babe f3d6 d33e
00000240: b6f5 8b3e c8f0 9ebe d8fa 283e c502 cbbd
00000250: 4204 85bd 3913 1dbf f854 8a3d 64c7 113b
00000260: 157e 4dbe 1f19 52be e50c 2a3d 081e a33d
00000270: 3138 1a3e 5090 143d 5161 8dbd 31b0 68be
00000280: 7c62 df3d b2f7 423e d492 083e 6ac9 7c3e
00000290: c549 56bd f9cd f6bd c1ff 2bbe 0d97 debd
000002a0: 0011 37be 12da bbbc 4471 cabe a8be 943d
000002b0: ffc7 de3d 3382 13be 4ad2 3a3f 14c4 e3be
000002c0: 6cd4 afbd b0e5 a83e e0b1 cc3e 4468 83bd
000002d0: 6b03 743d 9a8d 47be 52b5 a2be 8fd7 4cbc
000002e0: a243 dc3e e663 323e eba4 973e 823f 973c
000002f0: 0d95 8d3d 0d34 b53e f152 4e3e b953 9a3d
00000300: 8d61 633c df5a 00be 1b0f 3c3e 02dd 023f
00000310: 6296 853e a1e2 7cbd 137a 233e 2e00 3dbe
00000320: abdb f5bd 43d8 68bd fcf8 473d 14dd a3bd
00000330: c93e 953d f5e8 d73d 22ec 1a3e 82e4 b43e
00000340: 85db 70bd 1467 2fbe a1bd 943d 0a2f 5d3e
00000350: 585d 0bbe 60b9 10bf 7c5f eebd 6ca7 46be
00000360: 34a9 853e 7385 af3e 8c26 093e de5c 543e
00000370: 6f3d 893e 8e97 933d 1711 c7be 8c47 643e
00000380: f354 843e df93 333e 3036 59ba 6cc1 c93e
00000390: 5cce e3bc afe9 643e 4d21 02be 4294 7c3d
000003a0: 81e0 94bc fe0e a5be 6846 9bbd bf63 b1bd
000003b0: 0a8a 13be 331e 5e3e 8561 0dbf 71c2 71bd
000003c0: 5674 943d 2683 773e fc73 683e e212 603e
000003d0: 1ea7 07bd daf1 da3e 1e4a 5f3e ed07 403e
000003e0: 041e f93c 9a40 8e3e 7f65 2d3c 1482 433e
000003f0: b2bd 9f3e 8376 4c3e 6c01 913d a911 a8bc
0.60534614 0.3491555 0.12212995 -0.13690406 -0.10104289 0.4237433 0.24798998 0.09099652
-0.123106875 0.24252611 -0.24696784 -0.3451196 -0.16041446 -0.061666645 0.27311558 0.0012849375
0.19596873 0.08326144 -0.5741882 0.1036793 0.2664491 0.37049386 -0.06188594 -0.013336002
-0.06663501 0.13449156 0.27604142 -0.33847362 -0.63643533 -0.2998277 0.12416178 -0.02486178
0.13082258 0.059360646 0.2991636 -0.33951122 0.16410428 0.05829508 0.034851253 -0.12941791
-0.12098619 -0.32517016 0.32819748 -0.10641185 0.25682533 -0.0988929 0.0090326825 0.1248433
0.086989634 -0.28662845 0.15871686 -0.12713468 -0.09603291 -0.12183593 0.17432335 0.33709234
-0.006240125 -0.23899648 -0.50698763 0.18446809 0.07908291 0.08118994 -0.10915535 0.2598581
-0.05933396 -0.16520625 -0.79960185 -0.20311499 0.104838096 0.2842314 0.39548224 -0.12302958
-0.7226033 0.096364096 0.109303065 0.06616492 0.05378403 -0.29728898 0.30483705 -0.09311425
-0.088447526 0.39803067 0.17815505 -0.2344607 -0.13135108 -0.18092088 0.073867545 -0.31666553
-0.16134149 -0.3490379 0.09378703 -0.2417857 0.26396766 -0.29905438 -0.40616706 -0.02821276
-0.09213431 -0.20833807 -0.041885376 0.09896179 0.25770813 0.065885864 0.21768786 -0.37231988
-0.43092528 -0.09949015 -0.11295522 0.23382355 -0.1167891 0.047827207 0.2502946 -0.13429752
-0.23823774 -0.25966656 0.17239162 0.02992042 -0.05534416 -0.43334705 -0.13881077 0.16201225
-0.0993826 0.37105656 -0.23488618 0.103686966 -0.3684884 0.20886761 0.33251905 -0.115197934
0.016360266 0.3572613 -0.4101856 0.39546663 -0.048387054 0.13089743 0.20154074 0.2172927
-0.08782985 0.081965074 -0.39901465 0.2509554 -0.030558838 -0.14876397 -0.36489543 0.4137493
0.273359 -0.31043077 0.1650194 -0.099126376 -0.06494953 -0.61357456 0.06754488 0.002224409
-0.20067628 -0.20517395 0.041516203 0.079647124 0.15060498 0.03627044 -0.06903327 -0.22723462
0.10907456 0.19039801 0.1333726 0.24686208 -0.052316446 -0.12051005 -0.16796781 -0.108686544
-0.17877579 -0.022931132 -0.3953954 0.07262927 0.1087799 -0.14405136 0.72977126 -0.44485533
-0.08585438 0.32987738 0.39979458 -0.064163715 0.059573572 -0.1948761 -0.3177896 -0.012502565
0.4302035 0.1742092 0.2961801 0.0184629 0.06913195 0.35391274 0.20148827 0.075355
0.013878238 -0.12534665 0.18365137 0.5111848 0.26091295 -0.061739568 0.15964536 -0.184571
-0.12004789 -0.05684687 0.048821434 -0.08001152 0.07287366 0.1054248 0.1512914 0.35330588
-0.0588031 -0.17129165 0.07262731 0.21599975 -0.13609827 -0.5653286 -0.11639306 -0.19399804
0.26105654 0.342815 0.1339361 0.20738551 0.26804683 0.07206641 -0.38880226 0.22292918
0.2584606 0.17536877 -0.00082859676 0.39405382 -0.02780836 0.22354768 -0.12708016 0.061664827
-0.018173458 -0.32238 -0.07581788 -0.08661603 -0.14408126 0.21691208 -0.5522693 -0.059023324
0.07248752 0.24171123 0.22700495 0.21882203 -0.03311836 0.42762643 0.21805617 0.18753023
0.03040982 0.27783662 0.010583281 0.1909259 0.31199414 0.19967084 0.07080349 -0.020516234

actor_mean.2.bias f4 [22]
00000000: 6963 353d 5f78 013e c71f 803d b907 57bc
00000010: 6c22 de3d 09bd 143e 7e0f 343e 8fb1 74bc
00000020: f520 c6be 4840 ea3c 4890 233e 3d5a 1f3d
00000030: 2125 fd3d 05c9 fb3d 789e 55be 0b48 3b3e
00000040: e52b 8e3e b08e dbbc 1f3b c0bd 5aed 14be
00000050: 34d7 0b3d e5cb ea3d
0.044284258 0.12643574 0.06256061 -0.0131244 0.10846409 0.14525236 0.17584035 -0.014934911
-0.3869702 0.028595105 0.15973008 0.038904417 0.123605974 0.12294201 -0.20861232 0.18289201
0.27767864 -0.026801437 -0.093862765 -0.14543667 0.03414078 0.11464671

actor_mean.4.weight f4 [6, 22]
00000000: 891d b53e f25b b4bd 1826 81bc 944b 4cbe
00000010: fddf 73be a0af 4abd 9639 25be de56 acbd
00000020: bbf7 f5bd 3e43 d5bd 83cf 4e3e c011 e7bc
00000030: b9d1 8bbd 479a 843e bc96 853e b7f4 453d
00000040: 157e 3bbd 21e8 833d 4b21 b03d 4a13 47bd
00000050: 90c0 f9bd a05d 523d 14fb 20bd 283e 503e
00000060: a98e d3bd f6d7 1f3e 056b 553d d4ff a0bd
00000070: 3cce edbd b3e8 3cbd ab53 5a3e 44bc 03be
00000080: 0a9c 2b3a 508e 32bd 2b4a 373d 4b12 2ebe
00000090: 8f63 6c3d e05a 21be 4f5c 423d b451 263e
000000a0: 3f4e 683d 49d0 04bc b1d5 00bb b0fc 89bd
000000b0: dde6 873d 5b4f a33d 52ac 47bd 7243 12be
000000c0: 7868 603d aceb b2bd b8b1 8c3c b7b6 433e
000000d0: 80c3 973d a878 d93c 18c5 dc3d 3b0a 9a3d
000000e0: 701e e4bd 5f6c e93d 9eda b0bd c0a4 9dbc
000000f0: 5279 30be 3e2e ac3c cac4 8ebd cd3d 433d
00000100: 91cf 09bd cd37 4f3d b1fc b63c 2135 f33d
00000110: dc73 c73d e634 543d 0c0d 8d3d 6d8f 08bd
00000120: 1b4f 08be 6b47 933d 91a2 a0bd 70f6 ce3d
00000130: ca16 203e 177d 413e 944d a43e 62ff 903d
00000140: 430e 103e 9d67 b43d d030 8abe 7525 693d
00000150: 7942 bb3d 6a91 4c3e e5ca 013d b426 e1bd
00000160: a5c4 a83d e4a7 363e 3d52 4d3e 2baa df3d
00000170: 7b4f 2e3c 58a4 7d3c a228 3abe a540 173d
00000180: a646 0ebb ed17 283e a17a e03d d115 483d
00000190: f816 f93c 7893 77bd 1cbc f93c 3ae3 803d
000001a0: 4d5e 2bbe fdc5 40bd 6dc9 8e3e f0bb 823d
000001b0: 8413 3fbd cc5e 8cbe f798 8b3d 5792 083c
000001c0: 8250 f6bd 0060 30bd 4091 a73b 55dc efbd
000001d0: 6966 90bd 6ea4 17bc 6b71 163d e149 163e
000001e0: 1ff5 a33c 748b e9bd cea5 103e 17ed bbbc
000001f0: 1f4f 00bd dce4 76bd a238 323d 58ba ae3d
00000200: e279 d2bd e5c3 d0bd 8e4d 04bc 6f87 0cbd
0.35374096 -0.088066 -0.015765235 -0.19950706 -0.23815913 -0.049483895 -0.16135249 -0.08415006
-0.120101415 -0.10413216 0.20196347 -0.028206706 -0.06827111 0.25898954 0.26091564 0.04832908
-0.045774538 0.064407595 0.086001 -0.04860238 -0.121949315 0.05135882 -0.039301947 0.2033621
-0.10329945 0.15609726 0.052104015 -0.07861295 -0.11611602 -0.046120357 0.2132098 -0.12864786
0.0006546384 -0.04359275 0.044748466 -0.16999166 0.057712134 -0.15757322 0.047451314 0.16242105
0.056715246 -0.0081063 -0.001965862 -0.067376494 0.066358306 0.0797412 -0.04874832 -0.14283541
0.05478713 -0.08736357 0.017174587 0.19112669 0.074103355 0.026546791 0.1077978 0.075214826
-0.11138618 0.11397623 -0.08635448 -0.019243598 -0.1723378 0.021018144 -0.06971128 0.04766636
-0.033645216 0.050590325 0.02233729 0.11875368 0.09738895 0.05180826 0.06887254 -0.033339906
-0.13311426 0.07191356 -0.07843507 0.10105598 0.15633693 0.18895374 0.32090437 0.070799604
0.1406794 0.08808825 -0.26990366 0.056920487 0.09143538 0.19977346 0.031687636 -0.1099371
0.08240632 0.17837483 0.20050903 0.10921129 0.010639067 0.015481077 -0.18179563 0.036926884
-0.002170959 0.16415377 0.109608896 0.04884893 0.03040646 -0.06044337 0.030485205 0.0629334
-0.16735192 -0.047063816 0.2788805 0.063835025 -0.04664947 -0.27416074 0.06816285 0.008335671
-0.120270744 -0.043060303 0.0051137507 -0.11711947 -0.07050783 -0.009255512 0.036729258 0.1467662
0.020014344 -0.11403552 0.1412575 -0.022940202 -0.031325456 -0.06027685 0.04351104 0.08531636
-0.102771536 -0.10193614 -0.008075131 -0.034308847

actor_mean.4.bias f4 [6]
00000000: a92a b63d 8e04 483d 3e8b 4d3d 8dbb a7bc
00000010: 0593 b63c f230 a5bd
0.088948555 0.04883247 0.05018162 -0.020475173 0.022286901 -0.08065976
