PPO-cleanrl/models/pruning/PPO-HumanoidStandup-v4-0.25-l2.onnx (onnx, 86494 bytes, 7 tensors)

actor_logstd f4 [1, 17]
00000000: 172e 9bbf 570e 93bf 675b 47bf 766a 7bbf
00000010: 3939 81bf a887 a9bf c640 8cbf e19c a5bf
00000020: 61d7 52bf 3dea f5bf 5f7f cdbf 2a4a 2dbf
00000030: 0ac9 58bf 01c6 9ebf 68cc b9bf 7532 a0bf
00000040: e8e0 2fbf
-1.212344 -1.1488751 -0.77873844 -0.9820932 -1.0095588 -1.3244524 -1.0957267 -1.2938501
-0.8235989 -1.9212109 -1.6054496 -0.6769129 -0.8468176 -1.2404176 -1.4515505 -1.2515398
-0.68702555

actor_mean.0.weight f4 [48, 376]
00000000: f6bd dc3d 854e bf3c ead5 4c3d 8965 2cbd
00000010: d54f 353d ae71 443d 9f20 8e3d 92c4 32be
00000020: a1ab fcbd 9376 b7bd 1e86 d63d 1ccf 62bc
00000030: 00f4 19bd 1cef 6a3d da4c 993c 5885 a6bc
00000040: 5758 d83a 9182 0b3d 2eb4 eabd 868f 543e
00000050: dd29 3fbd 2a61 90bd affb 163e 1c40 36bd
00000060: b58e 6e3e dff8 4dbd 1f3c 9fbd 5025 453d
00000070: d1d6 0dbe 40bc d83d 89d8 d7bc d816 f23d
00000080: 93c6 c5bc 84c6 eb3c 0628 693e 0236 533e
00000090: 366c 74bd 3329 ca3d 12ac 6a3d 5287 ab3d
000000a0: ae19 1f3c 8e83 1a3d 9c79 953e 61e8 aabe
000000b0: 3494 99be 6f2f 103d f5f2 e33c 46ec 1ebe
000000c0: 9b3e 293d 6eca 5ebd 3081 153d 0100 24bd
000000d0: dde1 f33d 61f0 2b3c ff5f a3bd 4ffb 8cbb
000000e0: 852a 063e d1fc 5d3d 206d fc3d 0eec 443c
000000f0: 26c9 3cbe 5335 41bd d110 113e fd8e 88bd
00000100: a334 ab3b 0a29 2a3d cf5b 51bd fe23 45be
00000110: a357 bebc cc66 b6bd 7a1b 4abe dafa 40bd
00000120: ccc0 083e 5e63 39bc 9f9f 40bd 7dfa 5f3d
00000130: 7304 8e3d 82fe 893c 9b98 b23c fa87 0c3d
00000140: bbf6 803c f3e5 a03d 88d8 2d3e 9318 64bd
00000150: cf54 8d3d 7bc8 f33d f2b7 ceb9 ca87 763d
00000160: c3a0 d63a 53f8 ec3c 18ed 2fbd dfb4 3bbc
00000170: 2d2a 26bd 39da 5dbd f018 85bd 89a7 46bc
00000180: 6b7f 063d 67be 0b3d 20b6 e13d ea1d fdba
00000190: ea40 62be 00f5 f03c e22c ec3d 0d06 f13d
000001a0: 7fa6 33bd 8fff cebc 2e83 563d 507d cdbd
000001b0: 5338 123d 4aed db3c 5ee1 9fbe 36b9 ab3d
000001c0: c926 c4bc 49cd e63d d678 5dbc 06c1 243e
000001d0: 1ce8 a7bb ea1f 953d 6eb3 93bb dea8 20bd
000001e0: afab 833c 45ae c53c 4f2f 923d a198 ca3d
000001f0: 0df6 b6bc 6d4c b03c e03c cabd bf96 073d
00000200: 55fe 543c 2dc2 183d a0e7 503d c5df 013e
00000210: d2a3 1dbd 04d8 bb3d e5af ed3c 180d 08bd
00000220: 9c82 773d 8ff1 abbc 166c 8dbd 44f3 833d
00000230: a886 953d 7802 833c a70a b23d 60ce 123e
00000240: 3e78 0cbc f03c abbd 0bd3 7f3e 74af 6e3c
00000250: aced 263d d0ac 0dbc f8a7 cc3c 4812 243d
00000260: 1d07 17bd 166b 843c d4f5 de3c 6f18 11bd
00000270: a193 9abb 283a 00be 9876 293c fed0 833d
00000280: c4c9 23bd 8b51 f93d f6da 55be c03d 8cbd
00000290: 9140 e93b 5e7c 5a3e 6212 05bd 700f a53b
000002a0: 49cf c63d 7afd 1cbc 117e 89be a31b 553e
000002b0: 2902 57bd 65b8 c1bd 7caf 95bd ed28 073e
000002c0: a33c 23bd c35f 223e 5f70 c63b 9629 d4bd
000002d0: 17d2 c1bd f5f9 e53d 9f27 dcbb 04a6 37be
000002e0: 3b3a 653c 490e 5b3d 17db 0ebe d049 bb3c
000002f0: 6113 97bd c557 39be 5a5b 19bd 1ac9 3e3e
00000300: 2ed9 fcbd e951 533e 196f 4cbe 3709 08bd
00000310: 4050 263e 0b4a 3fbd 4d11 75bd a809 ef3d
00000320: 6d9e 003a 28ee 673d fb7e 1b3e d9c7 9fbd
00000330: 8c02 843d 1234 8abd 5b7f 973c 04c0 fcbd
00000340: 28d6 b4bc 98ad ec3d 8095 1a3d 766a 84bc
00000350: c5f5 a63c 541a ce3d efa6 47bc 7649 ce3d
00000360: 9d1d b3bd a1b5 f73c da47 1fbd bb56 973c
00000370: 3dbd 3e3b 781a d03d 6da3 d73c 9866 c33d
00000380: 464b d03d be4a 42bc 2ed1 dfbd 949b 333d
00000390: c69c 633c 1e72 533d d098 87bd 1d27 0fbe
000003a0: 48d0 81bd 885c 2d3e 2584 1fbd 7614 cd3d
000003b0: 1017 2c3e 0c07 cbbd 719b 3bbe 7f3c 193e
000003c0: 988a 24be 2eb2 193d 21c6 343e 0f25 c6bd
000003d0: 3711 a9bc 15d1 2bbd 5d14 3dbd 8812 3d3e
000003e0: 9da6 11be 759c 63bc e5b5 953e 840c 1d3e
000003f0: 5499 34bd e563 463e d265 193e 7fbf 433d
0.1077842 0.02335287 0.05000869 -0.04208902 0.044265587 0.047959976 0.06939816 -0.17457798
-0.12337423 -0.08958163 0.104747996 -0.013843324 -0.037586212 0.05735694 0.018713403 -0.020327255
0.001650582 0.034060065 -0.11460148 0.20757875 -0.046670783 -0.070497826 0.14744447 -0.044494733
0.23296626 -0.05028617 -0.07775139 0.048131287 -0.13851477 0.10582781 -0.02634837 0.11820763
-0.02414254 0.028781183 0.22769174 0.20626071 -0.05967351 0.098711394 0.057293005 0.0837542
0.009710712 0.037723117 0.29194343 -0.33380416 -0.29995883 0.035201486 0.027825812 -0.15519819
0.04131947 -0.05439227 0.036500156 -0.040039066 0.119083144 0.0104943225 -0.07977294 -0.0043024193
0.13102157 0.054196183 0.123255014 0.01201917 -0.18436107 -0.047169995 0.14166571 -0.06667898
0.0052247806 0.041543044 -0.051112946 -0.19252011 -0.023235148 -0.08906326 -0.19737044 -0.04711423
0.13354796 -0.011315195 -0.047027227 0.054682244 0.06934442 0.016844992 0.021801284 0.034309365
0.01574265 0.07856359 0.16977131 -0.0556875 0.069009416 0.11903473 -0.00039428432 0.060188092
0.0016374815 0.028927004 -0.04295072 -0.011456697 -0.040567566 -0.05416319 -0.06498897 -0.012124904
0.03283636 0.03411713 0.11021066 -0.0019311283 -0.22095075 0.0294137 0.11531998 0.11768732
-0.043859955 -0.025268344 0.052371196 -0.10033667 0.035698246 0.026846547 -0.3122663 0.083849356
-0.023944275 0.11269624 -0.013517579 0.16089258 -0.005124105 0.07281478 -0.0045074737 -0.039223544
0.016073076 0.02413095 0.0713793 0.09892393 -0.022334123 0.021520818 -0.09874892 0.033102747
0.013000091 0.037294555 0.051002145 0.12683018 -0.03848631 0.09172061 0.029014537 -0.033215612
0.060427293 -0.020989208 -0.069053814 0.064428836 0.07301074 0.015992388 0.08693438 0.14336538
-0.00857359 -0.08361232 0.2498285 0.0145681985 0.040754005 -0.008647159 0.024982437 0.040056497
-0.036872018 0.016164344 0.02721683 -0.035423692 -0.004717306 -0.12522185 0.010343216 0.064363465
-0.03998734 0.12173756 -0.20884308 -0.068477154 0.0071182926 0.21336505 -0.032488234 0.0050372407
0.09707505 -0.009581918 -0.26853994 0.20811324 -0.052492294 -0.094589986 -0.073088616 0.13199206
-0.03985275 0.15856843 0.006055876 -0.103594944 -0.094638996 0.11229316 -0.0067185904 -0.17934424
0.013990934 0.05348042 -0.13950764 0.022862345 -0.07376743 -0.18099888 -0.037440635 0.18631402
-0.12346111 0.20636715 -0.19964255 -0.033211913 0.1624155 -0.046701472 -0.059830952 0.11671764
0.000490642 0.056623608 0.15185158 -0.0780179 0.06445798 -0.06748213 0.018493345 -0.123413116
-0.022074774 0.11556548 0.03774023 -0.016164046 0.020380864 0.100636154 -0.012185796 0.10072605
-0.08745883 0.030237975 -0.038886882 0.018473973 0.0029104494 0.101612985 0.026323045 0.095410526
0.10170607 -0.01185864 -0.1092857 0.043849543 0.013892358 0.051622503 -0.066209435 -0.13979764
-0.063385546 0.16929829 -0.038944382 0.10013668 0.16805673 -0.099134535 -0.18321015 0.14964484
-0.16068494 0.03752344 0.17653705 -0.09675037 -0.020638091 -0.041947443 -0.046161998 0.184641
-0.14223714 -0.013892283 0.29240337 0.15336806 -0.044091538 0.19374044 0.14980248 0.047790047

actor_mean.0.bias f4 [48]
00000000: abb3 edbb 4108 f43c 4167 81bd 50f3 11bd
00000010: 6f6e 4dbd e8e0 ae3c c579 7a3c 43ec c43c
00000020: 1fd5 8e3d 4a98 883d ff5e 15bd 3972 833d
00000030: c63d 1fbd 5336 c63c e3d4 b6bd 8313 87bd
00000040: 6cef 4b3c 2ff3 fc3c 32ff 49bc 3b3d a43c
00000050: 3381 d13d 0126 9bbc 74fd 203d 45aa bebc
00000060: b6d9 15bd 2903 3cbc d043 da3d 494c 93bd
00000070: 73a2 0a3d 14fd 0ebc a038 5d3d 07a3 85bd
00000080: 02ac ba3d 320d c13d fb75 05bd 3a68 96bd
00000090: e754 8dbd 66a8 7ebd 69ad e73c 4a7b c8bc
000000a0: 6933 aabd f528 39bd 3547 6ebd 8a93 75bc
000000b0: e0d5 ebbc 5219 a6bc da43 aeba c146 bdbc
-0.007254084 0.029789092 -0.06318522 -0.03563243 -0.050154146 0.021347478 0.015287821 0.02403844
0.069742434 0.06669672 -0.03646755 0.064182706 -0.03887727 0.024195826 -0.08927324 -0.065955184
0.012447219 0.030877678 -0.01232891 0.020048728 0.10229721 -0.01893902 0.03930421 -0.02327455
-0.03658458 -0.011475363 0.106574655 -0.071922846 0.03384633 -0.008727331 0.05400908 -0.065252356
0.09114839 0.09426345 -0.032583218 -0.073440984 -0.069009595 -0.062172316 0.02828093 -0.024472851
-0.08310587 -0.045205075 -0.058173377 -0.014988789 -0.028788507 -0.020275746 -0.0013295368 -0.023105027

actor_mean.2.weight f4 [48, 48]
00000000: c0b9 37be 01e4 f63e 3a0e ab3e d930 68bc
00000010: 8d2b eb3d f2a8 fabc 23c7 33be e610 923e
00000020: 3b75 9ebc a6b1 08bf cf63 d23d cb06 a93d
00000030: 0d1a 0a3e bd2a eb3d 128c 1f3c 8972 0bbe
00000040: e076 543d d999 efbd 8b4d 3e3e 69fb 45bd
00000050: 9abf 91be 40e7 a03d e446 0cbf ada5 bb3e
00000060: d900 17be 1503 15be 527c c73d b029 92be
00000070: 3ded 16be 1ca6 d83d c386 873d ad8e 94bc
00000080: 2459 8abe 7b5f 523c 744e ca3e acd6 5ebd
00000090: 5ab9 91bd 52c2 803e 6891 443c 328f 5f3e
000000a0: e062 cdbd 08d6 d63e d979 ffbc f62f b83e
000000b0: cc5d 573e 025f a93d 0cd1 a4be c0f9 3c3d
000000c0: 8e2f 84be 1224 423e 42a0 493e 111f 95bb
000000d0: 1340 973e 7089 85bd 0a65 c33d 4c89 263c
000000e0: bc76 26be db4b bebd d907 343e 2287 c33d
000000f0: 0689 87bd d3ef ed3e 471c 7f3d b607 19be
00000100: 40c3 05be 6cc4 09bf 25fc 0c3e ba95 25ba
00000110: 2c56 6a3e 5ef6 fdbd f5b3 073e c202 a9bd
00000120: f126 93be 0e08 15be 9c6d c8bd 88af f53d
00000130: d686 353d e20e cd3d 8998 d63d 09cf ce3d
00000140: 61c8 24bd 62d1 60be e852 da3d 0518 093f
00000150: 49d0 c2bd 796b b1be 3d74 9dbd cd31 f03d
00000160: 55a0 a83e cfc1 343e 21cf 273e c199 4d3d
00000170: 4153 75be 0e8a 91be 6ab6 fcbd 576c 86be
00000180: d0ef a93e 9ed1 58ba 60d4 573e 7dfc fa3d
00000190: b3dd c9be 8a93 883d 53ae 0dbe 599b 27be
000001a0: 89a8 973a 54a4 cbbd 6c96 603d deba a53e
000001b0: 1c21 0c3e 00d7 953e 4881 363e 2696 f33d
000001c0: 0636 aa3d 3a72 edbc c8f9 eabe d2bf 9bbc
000001d0: 626f fabc 7957 8cbe c00e 0cbf d050 c4be
000001e0: 2f31 c43a 780b 84be 2f58 993d 9e60 943d
000001f0: 1a83 d7bd 4238 b73e 10d1 9b3d dcd8 de3e
00000200: bcf2 0abc 1526 933d 6899 c03e 8b3a 893d
00000210: 9d5c 73be d881 d6bc 460a cc3e d3bb 953d
00000220: 0e0c 4f3e f223 bbbe 08b9 3ebe 7529 c3be
00000230: 3965 40bc e275 3bbd e62b bf3c 8535 26bd
00000240: 5156 19be 982c 8bbd 6608 e6be 0675 8c3c
00000250: e00f d4be 0e2d 13be f10f 1d3e 75d5 75be
00000260: 3f32 2abe f122 803e 0868 113f 14a7 5fbc
00000270: 3cf9 84be 0313 393e 6795 483e b24c fb3d
00000280: 159b 0c3e 61a7 d1be 22d0 0e3e 211e 52be
00000290: c1e1 dc3d 291f fcbb 4a97 00be 0b99 623d
000002a0: d442 a5bd cfb3 563e 4184 5cbe ffb0 1dbe
000002b0: ee42 92bd 1421 c83d 3724 2ebe c131 3c3e
000002c0: b97c 83be ca85 673e 8c1c 88bd daa0 10bf
000002d0: 4057 823d 80fd a6bd f969 2e3d 34c8 c93d
000002e0: 6d42 393e dbe0 88be 12c2 26bd 4cba 3c3d
000002f0: 7062 9c3e e3d0 61be d62b cbbe 6d53 253e
00000300: 596d 8a3d fdd6 90be ae32 273e b227 71be
00000310: f23e b1be e370 213e d779 ce3e cf85 11bd
00000320: ac6b cabe 9a82 10be b905 b2bd 4406 9cbe
00000330: 9ce1 d43d 2fbd abbe 91e5 a73c 6f02 3ebe
00000340: c088 993e aace 1fbd dc37 623c 678b 0a3d
00000350: 38b2 22be a41b 67bd e181 31be 6fcb 0a3f
00000360: dde7 1c3e 8b0a 80bc 619c 9dbe 4294 6ebd
00000370: dab5 0f3e 69d2 243e 7a42 fb3e f0e2 8cbe
00000380: 7712 fa3c 7854 a7bc a450 40be b076 b73e
00000390: c177 a33d 5c07 97bd 6908 bd3d a086 923d
000003a0: a620 483e e44b 5e3e 7e57 6f3c be3a 203d
000003b0: 0914 373e 79e1 02bf 9cb8 bf3d 8e5e c03e
000003c0: bd88 c73d d695 e8bc f006 07bd 01a0 363e
000003d0: a621 98bb ecfb 993e 61f5 28bf 5f73 11be
000003e0: 4699 36be 60f2 903d e0cb a03e f45e b7be
000003f0: bc86 1e3f 4755 34be 5992 693e 8162 89be
-0.17941952 0.48220828 0.33409292 -0.014171802 0.11482916 -0.030598138 -0.17556433 0.28528517
-0.01934301 -0.5339607 0.10272943 0.08253249 0.134865 0.11482761 0.009737985 -0.1361791
0.05187118 -0.11699266 0.18584268 -0.048335467 -0.28466493 0.078566074 -0.5479567 0.36649838
-0.14746417 -0.14551957 0.09740509 -0.2854743 -0.14738937 0.10578558 0.06617501 -0.01813444
-0.27021134 0.012840147 0.3951298 -0.054403946 -0.07115431 0.25148255 0.011997558 0.21831968
-0.100286245 0.41960168 -0.031186031 0.3597409 0.21031874 0.082700744 -0.3219074 0.046136618
-0.2581753 0.18959072 0.1969004 -0.0045508225 0.29541072 -0.06520355 0.09540756 0.01016457
-0.16256231 -0.09291812 0.17581119 0.09547259 -0.06617932 0.46472034 0.062282827 -0.14944348
-0.13062763 -0.5381534 0.1376806 -0.00063165615 0.22884434 -0.124005064 0.13252242 -0.08252479
-0.28740647 -0.14553854 -0.09786531 0.119963706 0.044318043 0.10012604 0.104783125 0.100980826
-0.04023016 -0.21954873 0.10660344 0.53552276 -0.095123835 -0.34652308 -0.07688186 0.11728249
0.32934824 0.17652057 0.16387607 0.05019546 -0.2395754 -0.2842564 -0.1233948 -0.26254532
0.33190775 -0.00082709815 0.21077108 0.122551896 -0.39426956 0.06668766 -0.1383603 -0.16367854
0.0011570613 -0.099434525 0.054830953 0.3236913 0.13684505 0.29265594 0.17822754 0.11893873
0.083110854 -0.028985132 -0.45893693 -0.019012365 -0.03057069 -0.27410486 -0.54710007 -0.38342905
0.0014968271 -0.2579 0.07487523 0.07244991 -0.105230525 0.3578511 0.07608235 0.43524826
-0.008480724 0.07184998 0.3761704 0.06700619 -0.23765798 -0.026184961 0.39851588 0.07311215
0.20219442 -0.36550862 -0.18625271 -0.38117567 -0.011742883 -0.04576672 0.023336362 -0.040578384
-0.14974333 -0.06795615 -0.44928282 0.017145645 -0.41418362 -0.14372656 0.15338112 -0.24007209
-0.1662073 0.25026658 0.56799364 -0.013650674 -0.259714 0.18073659 0.19588242 0.12270488
0.13731034 -0.40948012 0.13946584 -0.20519306 0.10785247 -0.0076941443 -0.12557712 0.055321734
-0.08069387 0.20967029 -0.21534826 -0.1539955 -0.07141672 0.09771934 -0.17006002 0.18378355
-0.25681093 0.2260963 -0.0664607 -0.5649544 0.06364298 -0.0815382 0.042581532 0.09852639
0.18091746 -0.2673405 -0.040712424 0.046076104 0.30543852 -0.2205234 -0.39681882 0.16145106
0.06759138 -0.28289023 0.16327927 -0.23550299 -0.34618336 0.15765719 0.4032733 -0.035528
-0.39535272 -0.1411232 -0.08692498 -0.3047353 0.10394594 -0.33542773 0.020495208 -0.18555616
0.29987144 -0.03901545 0.013807263 0.03382435 -0.15888298 -0.056422845 -0.17334701 0.54216665
0.15322824 -0.015630027 -0.3078337 -0.05824686 0.14034215 0.1609589 0.49074155 -0.2751689
0.030526383 -0.02042602 -0.18780762 0.3583274 0.079818256 -0.073744506 0.0923012 0.07154584
0.19543704 0.21708637 0.014608262 0.03911852 0.17878737 -0.51125294 0.09361383 0.3757214
0.09742878 -0.02839176 -0.0329656 0.17834474 -0.004642683 0.30075014 -0.6599942 -0.14204167
-0.17831907 0.07077479 0.31405544 -0.3581463 0.6192434 -0.17610656 0.22809733 -0.26832965

actor_mean.2.bias f4 [48]
00000000: b49f debd c795 34bd b897 0cbc 007d a4bb
00000010: 6fb6 863d 86ee b0bc 516f 0fbe 4615 2fbc
00000020: f86b 9c3d 3d9c a93c 1948 843c 1389 eabd
00000030: aaec d7bb 9e6b 873d c310 d23d a29b 55bc
00000040: 3ef8 e4bb a041 08bd f992 8b3c acb3 ed3c
00000050: 09b0 4dbd f425 41bb 3b74 ffbc 8e0e 2abc
00000060: c88f bebd a6ca b03b 551f 253d f925 86bc
00000070: 9170 ce3c df3c 1fbe cf00 64bd 073d c8bc
00000080: d6c3 21bd dd34 a8bc 6de5 2ebb 7b70 323e
00000090: 152b 87bc 6569 f43d 86fb a3bc 44b2 9c3c
000000a0: 13e5 233e 2d75 833c 3538 57be fa4e 42bd
000000b0: 5dbb 3a3d a9d8 76bd 9fd3 8f3c bc15 013e
-0.10870305 -0.04408815 -0.008581094 -0.005019784 0.06577765 -0.021598112 -0.14007308 -0.010686224
0.07637781 0.020704383 0.01614766 -0.11451926 -0.006589492 0.06612323 0.10257103 -0.013037594
-0.0069876006 -0.03326571 0.017037855 0.029016338 -0.05021671 -0.0029472085 -0.031183353 -0.010379447
-0.09304768 0.0053952513 0.040313084 -0.016375529 0.02520016 -0.15550564 -0.055664834 -0.024443163
-0.039493404 -0.02053302 -0.0026687041 0.1742572 -0.016500035 0.11934165 -0.020017397 0.019127972
0.16005354 0.016047085 -0.21017535 -0.0474386 0.04558884 -0.060265217 0.017556963 0.12605947

actor_mean.4.weight f4 [17, 48]
00000000: a2cc ddbd 4880 3cbd a809 b63c edb6 e23c
00000010: 4809 823d cf62 e23d 104c a33d faeb 89be
00000020: 9916 963d b4a6 98be 9399 11bd ef58 213d
00000030: 405a 853b 90ff 333e 4378 b53d 72b2 9b3b
00000040: 04d1 22be 9059 0ebc 61f4 4ebd 4012 09be
00000050: 3327 94bd 3173 353d d027 c13d 3514 aabd
00000060: e1d2 b83a bdd0 50bc 6856 5c3d d882 6bbe
00000070: da25 e3bd 44cf d8bd 4d70 b23d c112 82bd
00000080: 8352 0b3e aba9 333d 0898 2cbe 35b3 553e
00000090: bb94 4e3e 58f6 79bd ba62 22be d933 e1bc
000000a0: 3bd2 49bd ec46 13be b040 6dbc 11d3 c33d
000000b0: 5ad8 c0bd 641b eabd f74d 4d3e f135 5c3e
000000c0: f788 723e bb29 a63c df51 373d 4e68 f0bd
000000d0: 291c fdbd 0655 45be 753c bdbd 3bb5 993d
000000e0: f176 5b3c a1b4 27be 2b53 223e af08 273d
000000f0: 0466 09be 5495 a2bd d358 6b3d c64c c73d
00000100: b888 eb39 c52a 513e 35df 38be 3971 4e3d
00000110: a1c7 1fbd 6e99 253e 913a dbbb 9b91 a23d
00000120: cf52 43be a553 683d da19 3ebb 91c1 033d
00000130: 084d b1bd 599b cbbd dceb 3dbe d8fb 3ebb
00000140: 425c 8f3d 504a a2bd 1b0a 4b3c 5a0a 72bc
00000150: be67 9abe 694d 63bc d4db 78bd dd67 37be
00000160: d05c 20be 8d08 70bd 28b4 ba3c 479f bb3d
00000170: 5468 243e 41cf 03be 358d 3ebc bfb6 84be
00000180: 9a0f 7dbe b467 043c f30f 1a3e efac 7f3c
00000190: f85a ffbd fdef c63d bb6e 1ebe 98be 2e3d
000001a0: ff41 723d bdb6 f93d 4180 813d b9f7 87bd
000001b0: 39f8 203d 993a eebb 1728 86be ac20 57bb
000001c0: 2705 293d 2070 75bd 8f79 ebbd 6fe9 203e
000001d0: f9f0 9abc 8bc7 2b3d ef06 333c 2a33 78bd
000001e0: 1266 8cbd 5997 43be 22e4 443e 9f14 0fbe
000001f0: a91c 823c f5de 7dbb f29b 23bd 0d7d f73d
00000200: c3af aa3d 7688 bf3b e029 80bd a094 5dbd
00000210: fcca 743e c1d2 58bd 869a 8b3c 6abf 30bd
00000220: 4d39 19be bc41 823e ddba a83b 9b48 113d
00000230: 1d82 5c3d 655e 143d 2b18 003c 02c9 603d
00000240: 0dc4 1c3e 715f 7cbc b978 8b3e f2ea 19bd
00000250: 4be1 adba d101 103e 319f 66bc 9245 00be
00000260: 7e52 66bd e2ba a03d d8d6 00bc a91e c0bd
00000270: 2919 393e faeb e23c 92c8 a5bd cb25 da3d
00000280: 5e82 19be 13b2 f2bd 96b0 3f3d d681 023e
00000290: 3f6e 04be 8a04 a93d dc48 e6ba 0426 c8bd
000002a0: 3ce0 633c e39e e9bd f25f 98be 3a84 f9bd
000002b0: 6357 b13d 75de 213e 0672 243b 47f2 2fbe
000002c0: 46b6 0ebc 4477 debd 2e0a 4cbe 4f22 20bd
000002d0: b47f 5fbc 5d91 a33b 0a39 27bd fc20 bebd
000002e0: 5dcd 1c3e 8149 a3bd 6355 ba3d b25d 49bd
000002f0: b788 623d 6371 0d3e 1b9f b1bd f53f 673d
00000300: 97fe 3ebd cb69 363d 7544 e5bc c089 2fbe
00000310: d408 b3bd b15f eb3c 1e5d 853e 762b 46be
00000320: a522 04bc 2958 703d 7d32 623e aaea d0bd
00000330: 688d 883d bdfe a23d a0ac 343e 4cf9 8e3d
00000340: 782a 47bd 7d48 e93d 82e0 84bd 4721 b03c
00000350: 15f7 1f3d 5801 5f3d 8a25 063d 9c1c 98bd
00000360: 0e5d 09be 23a3 a5bd ec26 293e cbd2 e63d
00000370: 690e 153d 0141 093e a48e a6bd 30a1 e0bc
00000380: b0ed a73c 8df8 b3bc d794 463e 8433 703d
00000390: fdbb dabd 5b35 6fbd fe2e 2a3e 50b5 09be
000003a0: 90c6 033e f6c8 1e3d 167e 01bd 502a c7bd
000003b0: 1de6 303c d0e7 da3c 5e39 8a3c 5916 143d
000003c0: 9356 a0bd a14d 133e 52ca f4bc e03c 67bd
000003d0: 7c8f 90bd 568d 933d 8c88 9d3d a6ee 073d
000003e0: 88ae 0bbd ef30 07be 449f 19be 22f3 6c3e
000003f0: a012 2c3e 1a99 a8bd ca1e ab39 eb48 653e
-0.10830046 -0.046020776 0.022221401 0.027675116 0.063494265 0.110540025 0.07973492 -0.26937848
0.07328529 -0.29814684 -0.03554685 0.039391454 0.0040695965 0.17577958 0.08860829 0.004751497
-0.15900046 -0.008688346 -0.050526027 -0.13385868 -0.07234039 0.04429931 0.09431422 -0.083046354
0.0014100933 -0.01274508 0.05379334 -0.22999132 -0.11091204 -0.10586408 0.08712826 -0.06351233
0.13605694 0.04386298 -0.1685487 0.20869143 0.20173924 -0.061025947 -0.15857974 -0.027490543
-0.049272757 -0.14382523 -0.014480755 0.09561742 -0.09416266 -0.114310056 0.20049272 0.21504952
0.2368506 0.02028357 0.044755813 -0.117386445 -0.12358887 -0.19270715 -0.09240047 0.0750527
0.013395057 -0.16377498 0.15852039 0.040779766 -0.13417822 -0.07938638 0.057457756 0.0973144
0.00044924556 0.20426472 -0.18053897 0.050400946 -0.03900874 0.1617181 -0.0066903313 0.07937928
-0.19074558 0.056720395 -0.0029007108 0.03216702 -0.08657271 -0.099417396 -0.18547004 -0.002914181
0.07000019 -0.0792433 0.012392546 -0.014772976 -0.30157274 -0.0138734365 -0.06075652 -0.17910714
-0.15660405 -0.058601905 0.022790983 0.09161239 0.16055423 -0.1287203 -0.011630346 -0.25920674
-0.24712983 0.008081365 0.15045147 0.015605195 -0.12468523 0.09713743 -0.15471928 0.042662233
0.05914497 0.12193058 0.063232906 -0.06639046 0.039299224 -0.007270169 -0.2620246 -0.003282587
0.04126468 -0.059921384 -0.11497795 0.15714048 -0.018913733 0.041938346 0.010926946 -0.06059567
-0.06855406 -0.19100703 0.19227651 -0.1397271 0.015882807 -0.003873763 -0.039943643 0.120843984
0.08334305 0.005845125 -0.06257987 -0.054096818 0.23905557 -0.052935366 0.017041456 -0.043151297
-0.14963265 0.25440776 0.005149229 0.035469633 0.053835023 0.036222834 0.007818262 0.054879196
0.15309162 -0.015403614 0.27240542 -0.037577577 -0.0013265995 0.14063193 -0.01407604 -0.12526539
-0.056231014 0.07848145 -0.007863723 -0.09380848 0.18076004 0.027700413 -0.080948964 0.1065174
-0.14991137 -0.11850371 0.046799265 0.12744841 -0.1293268 0.08252819 -0.0017569321 -0.09772876
0.013908442 -0.11407258 -0.297607 -0.12183423 0.08659246 0.15807517 0.0025092377 -0.17182265
-0.00871045 -0.10862592 -0.19925758 -0.03909522 -0.013641287 0.004991694 -0.04082588 -0.09283635
0.15312715 -0.07973004 0.090983175 -0.04916162 0.055306163 0.13812785 -0.08672925 0.05645748
-0.046629515 0.044534486 -0.027986744 -0.17142391 -0.08741918 0.028732153 0.26047605 -0.19352517
-0.0080649005 0.058677826 0.22089572 -0.102010086 0.06667596 0.07958744 0.17643976 0.06981143
-0.048624486 0.11390779 -0.06488134 0.021500243 0.039053995 0.05444464 0.032750644 -0.07427332
-0.13414404 -0.080877565 0.16518754 0.11270674 0.036390696 0.13403703 -0.08132675 -0.02742061
0.02049908 -0.021969104 0.19392715 0.05864288 -0.10680387 -0.058400493 0.16619489 -0.13448071
0.12868714 0.03876587 -0.031614386 -0.09724867 0.010797051 0.026721865 0.016873058 0.036154125
-0.07829013 0.14385082 -0.02988163 -0.05645454 -0.070586175 0.07204692 0.0769206 0.033186577
-0.034101993 -0.1320226 -0.15002161 0.23139623 0.1680398 -0.08232327 0.000326386 0.22391097

actor_mean.4.bias f4 [17]
00000000: 73cd b03d bacd 86bc f0c8 433b e99d c7bb
00000010: df5b 213d a78b 06be 1e5b 393e ccd0 26bc
00000020: 2966 1fbd 45da d1bd 2f68 ef3d de28 bf3a
00000030: 0d52 583d beec 433d 68de 383c de31 5abd
00000040: d2b3 fa3c
0.08632936 -0.01645552 0.0029874407 -0.0060918224 0.039394256 -0.1313921 0.18101165 -0.010181617
-0.038915787 -0.1024671 0.11689793 0.0014584323 0.052812625 0.047833197 0.0112834945 -0.053270213
0.030603323
