PPO-cleanrl/models/pruning/PPO-HumanoidStandup-v4-0.4-l2.onnx (onnx, 67254 bytes, 7 tensors)

actor_logstd f4 [1, 17]
000000 17 2e 9b bf 57 0e 93 bf 67 5b 47 bf 76 6a 7b bf
       -1.212344 -1.1488751 -0.77873844 -0.9820932
000010 39 39 81 bf a8 87 a9 bf c6 40 8c bf e1 9c a5 bf
       -1.0095588 -1.3244524 -1.0957267 -1.2938501
000020 61 d7 52 bf 3d ea f5 bf 5f 7f cd bf 2a 4a 2d bf
       -0.8235989 -1.9212109 -1.6054496 -0.6769129
000030 0a c9 58 bf 01 c6 9e bf 68 cc b9 bf 75 32 a0 bf
       -0.8468176 -1.2404176 -1.4515505 -1.2515398
000040 e8 e0 2f bf
       -0.68702555

actor_mean.0.weight f4 [38, 376]
000000 f6 bd dc 3d 85 4e bf 3c ea d5 4c 3d 89 65 2c bd
       0.1077842 0.02335287 0.05000869 -0.04208902
000010 d5 4f 35 3d ae 71 44 3d 9f 20 8e 3d 92 c4 32 be
       0.044265587 0.047959976 0.06939816 -0.17457798
000020 a1 ab fc bd 93 76 b7 bd 1e 86 d6 3d 1c cf 62 bc
       -0.12337423 -0.08958163 0.104747996 -0.013843324
000030 00 f4 19 bd 1c ef 6a 3d da 4c 99 3c 58 85 a6 bc
       -0.037586212 0.05735694 0.018713403 -0.020327255
000040 57 58 d8 3a 91 82 0b 3d 2e b4 ea bd 86 8f 54 3e
       0.001650582 0.034060065 -0.11460148 0.20757875
000050 dd 29 3f bd 2a 61 90 bd af fb 16 3e 1c 40 36 bd
       -0.046670783 -0.070497826 0.14744447 -0.044494733
000060 b5 8e 6e 3e df f8 4d bd 1f 3c 9f bd 50 25 45 3d
       0.23296626 -0.05028617 -0.07775139 0.048131287
000070 d1 d6 0d be 40 bc d8 3d 89 d8 d7 bc d8 16 f2 3d
       -0.13851477 0.10582781 -0.02634837 0.11820763
000080 93 c6 c5 bc 84 c6 eb 3c 06 28 69 3e 02 36 53 3e
       -0.02414254 0.028781183 0.22769174 0.20626071
000090 36 6c 74 bd 33 29 ca 3d 12 ac 6a 3d 52 87 ab 3d
       -0.05967351 0.098711394 0.057293005 0.0837542
0000a0 ae 19 1f 3c 8e 83 1a 3d 9c 79 95 3e 61 e8 aa be
       0.009710712 0.037723117 0.29194343 -0.33380416
0000b0 34 94 99 be 6f 2f 10 3d f5 f2 e3 3c 46 ec 1e be
       -0.29995883 0.035201486 0.027825812 -0.15519819
0000c0 9b 3e 29 3d 6e ca 5e bd 30 81 15 3d 01 00 24 bd
       0.04131947 -0.05439227 0.036500156 -0.040039066
0000d0 dd e1 f3 3d 61 f0 2b 3c ff 5f a3 bd 4f fb 8c bb
       0.119083144 0.0104943225 -0.07977294 -0.0043024193
0000e0 85 2a 06 3e d1 fc 5d 3d 20 6d fc 3d 0e ec 44 3c
       0.13102157 0.054196183 0.123255014 0.01201917
0000f0 26 c9 3c be 53 35 41 bd d1 10 11 3e fd 8e 88 bd
       -0.18436107 -0.047169995 0.14166571 -0.06667898
000100 a3 34 ab 3b 0a 29 2a 3d cf 5b 51 bd fe 23 45 be
       0.0052247806 0.041543044 -0.051112946 -0.19252011
000110 a3 57 be bc cc 66 b6 bd 7a 1b 4a be da fa 40 bd
       -0.023235148 -0.08906326 -0.19737044 -0.04711423
000120 cc c0 08 3e 5e 63 39 bc 9f 9f 40 bd 7d fa 5f 3d
       0.13354796 -0.011315195 -0.047027227 0.054682244
000130 73 04 8e 3d 82 fe 89 3c 9b 98 b2 3c fa 87 0c 3d
       0.06934442 0.016844992 0.021801284 0.034309365
000140 bb f6 80 3c f3 e5 a0 3d 88 d8 2d 3e 93 18 64 bd
       0.01574265 0.07856359 0.16977131 -0.0556875
000150 cf 54 8d 3d 7b c8 f3 3d f2 b7 ce b9 ca 87 76 3d
       0.069009416 0.11903473 -0.00039428432 0.060188092
000160 c3 a0 d6 3a 53 f8 ec 3c 18 ed 2f bd df b4 3b bc
       0.0016374815 0.028927004 -0.04295072 -0.011456697
000170 2d 2a 26 bd 39 da 5d bd f0 18 85 bd 89 a7 46 bc
       -0.040567566 -0.05416319 -0.06498897 -0.012124904
000180 6b 7f 06 3d 67 be 0b 3d 20 b6 e1 3d ea 1d fd ba
       0.03283636 0.03411713 0.11021066 -0.0019311283
000190 ea 40 62 be 00 f5 f0 3c e2 2c ec 3d 0d 06 f1 3d
       -0.22095075 0.0294137 0.11531998 0.11768732
0001a0 7f a6 33 bd 8f ff ce bc 2e 83 56 3d 50 7d cd bd
       -0.043859955 -0.025268344 0.052371196 -0.10033667
0001b0 53 38 12 3d 4a ed db 3c 5e e1 9f be 36 b9 ab 3d
       0.035698246 0.026846547 -0.3122663 0.083849356
0001c0 c9 26 c4 bc 49 cd e6 3d d6 78 5d bc 06 c1 24 3e
       -0.023944275 0.11269624 -0.013517579 0.16089258
0001d0 1c e8 a7 bb ea 1f 95 3d 6e b3 93 bb de a8 20 bd
       -0.005124105 0.07281478 -0.0045074737 -0.039223544
0001e0 af ab 83 3c 45 ae c5 3c 4f 2f 92 3d a1 98 ca 3d
       0.016073076 0.02413095 0.0713793 0.09892393
0001f0 0d f6 b6 bc 6d 4c b0 3c e0 3c ca bd bf 96 07 3d
       -0.022334123 0.021520818 -0.09874892 0.033102747
000200 55 fe 54 3c 2d c2 18 3d a0 e7 50 3d c5 df 01 3e
       0.013000091 0.037294555 0.051002145 0.12683018
000210 d2 a3 1d bd 04 d8 bb 3d e5 af ed 3c 18 0d 08 bd
       -0.03848631 0.09172061 0.029014537 -0.033215612
000220 9c 82 77 3d 8f f1 ab bc 16 6c 8d bd 44 f3 83 3d
       0.060427293 -0.020989208 -0.069053814 0.064428836
000230 a8 86 95 3d 78 02 83 3c a7 0a b2 3d 60 ce 12 3e
       0.07301074 0.015992388 0.08693438 0.14336538
000240 3e 78 0c bc f0 3c ab bd 0b d3 7f 3e 74 af 6e 3c
       -0.00857359 -0.08361232 0.2498285 0.0145681985
000250 ac ed 26 3d d0 ac 0d bc f8 a7 cc 3c 48 12 24 3d
       0.040754005 -0.008647159 0.024982437 0.040056497
000260 1d 07 17 bd 16 6b 84 3c d4 f5 de 3c 6f 18 11 bd
       -0.036872018 0.016164344 0.02721683 -0.035423692
000270 a1 93 9a bb 28 3a 00 be 98 76 29 3c fe d0 83 3d
       -0.004717306 -0.12522185 0.010343216 0.064363465
000280 c4 c9 23 bd 8b 51 f9 3d f6 da 55 be c0 3d 8c bd
       -0.03998734 0.12173756 -0.20884308 -0.068477154
000290 91 40 e9 3b 5e 7c 5a 3e 62 12 05 bd 70 0f a5 3b
       0.0071182926 0.21336505 -0.032488234 0.0050372407
0002a0 49 cf c6 3d 7a fd 1c bc 11 7e 89 be a3 1b 55 3e
       0.09707505 -0.009581918 -0.26853994 0.20811324
0002b0 29 02 57 bd 65 b8 c1 bd 7c af 95 bd ed 28 07 3e
       -0.052492294 -0.094589986 -0.073088616 0.13199206
0002c0 a3 3c 23 bd c3 5f 22 3e 5f 70 c6 3b 96 29 d4 bd
       -0.03985275 0.15856843 0.006055876 -0.103594944
0002d0 17 d2 c1 bd f5 f9 e5 3d 9f 27 dc bb 04 a6 37 be
       -0.094638996 0.11229316 -0.0067185904 -0.17934424
0002e0 3b 3a 65 3c 49 0e 5b 3d 17 db 0e be d0 49 bb 3c
       0.013990934 0.05348042 -0.13950764 0.022862345
0002f0 61 13 97 bd c5 57 39 be 5a 5b 19 bd 1a c9 3e 3e
       -0.07376743 -0.18099888 -0.037440635 0.18631402
000300 2e d9 fc bd e9 51 53 3e 19 6f 4c be 37 09 08 bd
       -0.12346111 0.20636715 -0.19964255 -0.033211913
000310 40 50 26 3e 0b 4a 3f bd 4d 11 75 bd a8 09 ef 3d
       0.1624155 -0.046701472 -0.059830952 0.11671764
000320 6d 9e 00 3a 28 ee 67 3d fb 7e 1b 3e d9 c7 9f bd
       0.000490642 0.056623608 0.15185158 -0.0780179
000330 8c 02 84 3d 12 34 8a bd 5b 7f 97 3c 04 c0 fc bd
       0.06445798 -0.06748213 0.018493345 -0.123413116
000340 28 d6 b4 bc 98 ad ec 3d 80 95 1a 3d 76 6a 84 bc
       -0.022074774 0.11556548 0.03774023 -0.016164046
000350 c5 f5 a6 3c 54 1a ce 3d ef a6 47 bc 76 49 ce 3d
       0.020380864 0.100636154 -0.012185796 0.10072605
000360 9d 1d b3 bd a1 b5 f7 3c da 47 1f bd bb 56 97 3c
       -0.08745883 0.030237975 -0.038886882 0.018473973
000370 3d bd 3e 3b 78 1a d0 3d 6d a3 d7 3c 98 66 c3 3d
       0.0029104494 0.101612985 0.026323045 0.095410526
000380 46 4b d0 3d be 4a 42 bc 2e d1 df bd 94 9b 33 3d
       0.10170607 -0.01185864 -0.1092857 0.043849543
000390 c6 9c 63 3c 1e 72 53 3d d0 98 87 bd 1d 27 0f be
       0.013892358 0.051622503 -0.066209435 -0.13979764
0003a0 48 d0 81 bd 88 5c 2d 3e 25 84 1f bd 76 14 cd 3d
       -0.063385546 0.16929829 -0.038944382 0.10013668
0003b0 10 17 2c 3e 0c 07 cb bd 71 9b 3b be 7f 3c 19 3e
       0.16805673 -0.099134535 -0.18321015 0.14964484
0003c0 98 8a 24 be 2e b2 19 3d 21 c6 34 3e 0f 25 c6 bd
       -0.16068494 0.03752344 0.17653705 -0.09675037
0003d0 37 11 a9 bc 15 d1 2b bd 5d 14 3d bd 88 12 3d 3e
       -0.020638091 -0.041947443 -0.046161998 0.184641
0003e0 9d a6 11 be 75 9c 63 bc e5 b5 95 3e 84 0c 1d 3e
       -0.14223714 -0.013892283 0.29240337 0.15336806
0003f0 54 99 34 bd e5 63 46 3e d2 65 19 3e 7f bf 43 3d
       -0.044091538 0.19374044 0.14980248 0.047790047

actor_mean.0.bias f4 [38]
000000 ab b3 ed bb 41 08 f4 3c 41 67 81 bd 50 f3 11 bd
       -0.007254084 0.029789092 -0.06318522 -0.03563243
000010 6f 6e 4d bd c5 79 7a 3c 43 ec c4 3c ff 5e 15 bd
       -0.050154146 0.015287821 0.02403844 -0.03646755
000020 39 72 83 3d c6 3d 1f bd 53 36 c6 3c e3 d4 b6 bd
       0.064182706 -0.03887727 0.024195826 -0.08927324
000030 83 13 87 bd 6c ef 4b 3c 2f f3 fc 3c 32 ff 49 bc
       -0.065955184 0.012447219 0.030877678 -0.01232891
000040 3b 3d a4 3c 01 26 9b bc b6 d9 15 bd 29 03 3c bc
       0.020048728 -0.01893902 -0.03658458 -0.011475363
000050 d0 43 da 3d 49 4c 93 bd 73 a2 0a 3d 14 fd 0e bc
       0.106574655 -0.071922846 0.03384633 -0.008727331
000060 a0 38 5d 3d 07 a3 85 bd fb 75 05 bd 3a 68 96 bd
       0.05400908 -0.065252356 -0.032583218 -0.073440984
000070 e7 54 8d bd 66 a8 7e bd 69 ad e7 3c 4a 7b c8 bc
       -0.069009595 -0.062172316 0.02828093 -0.024472851
000080 69 33 aa bd f5 28 39 bd 35 47 6e bd 52 19 a6 bc
       -0.08310587 -0.045205075 -0.058173377 -0.020275746
000090 da 43 ae ba c1 46 bd bc
       -0.0013295368 -0.023105027

actor_mean.2.weight f4 [38, 38]
000000 c0 b9 37 be 01 e4 f6 3e 3a 0e ab 3e d9 30 68 bc
       -0.17941952 0.48220828 0.33409292 -0.014171802
000010 8d 2b eb 3d 23 c7 33 be e6 10 92 3e cf 63 d2 3d
       0.11482916 -0.17556433 0.28528517 0.10272943
000020 cb 06 a9 3d 0d 1a 0a 3e bd 2a eb 3d 12 8c 1f 3c
       0.08253249 0.134865 0.11482761 0.009737985
000030 89 72 0b be e0 76 54 3d d9 99 ef bd 8b 4d 3e 3e
       -0.1361791 0.05187118 -0.11699266 0.18584268
000040 69 fb 45 bd 40 e7 a0 3d d9 00 17 be 15 03 15 be
       -0.048335467 0.078566074 -0.14746417 -0.14551957
000050 52 7c c7 3d b0 29 92 be 3d ed 16 be 1c a6 d8 3d
       0.09740509 -0.2854743 -0.14738937 0.10578558
000060 c3 86 87 3d ad 8e 94 bc 74 4e ca 3e ac d6 5e bd
       0.06617501 -0.01813444 0.3951298 -0.054403946
000070 5a b9 91 bd 52 c2 80 3e 68 91 44 3c 32 8f 5f 3e
       -0.07115431 0.25148255 0.011997558 0.21831968
000080 e0 62 cd bd 08 d6 d6 3e d9 79 ff bc 02 5f a9 3d
       -0.100286245 0.41960168 -0.031186031 0.082700744
000090 0c d1 a4 be c0 f9 3c 3d 8e 2f 84 be 12 24 42 3e
       -0.3219074 0.046136618 -0.2581753 0.18959072
0000a0 42 a0 49 3e 11 1f 95 bb 13 40 97 3e 0a 65 c3 3d
       0.1969004 -0.0045508225 0.29541072 0.09540756
0000b0 4c 89 26 3c d9 07 34 3e 22 87 c3 3d 06 89 87 bd
       0.01016457 0.17581119 0.09547259 -0.06617932
0000c0 d3 ef ed 3e 47 1c 7f 3d b6 07 19 be 40 c3 05 be
       0.46472034 0.062282827 -0.14944348 -0.13062763
0000d0 6c c4 09 bf 25 fc 0c 3e ba 95 25 ba 5e f6 fd bd
       -0.5381534 0.1376806 -0.00063165615 -0.124005064
0000e0 f1 26 93 be 0e 08 15 be 9c 6d c8 bd 88 af f5 3d
       -0.28740647 -0.14553854 -0.09786531 0.119963706
0000f0 d6 86 35 3d e2 0e cd 3d 89 98 d6 3d 09 cf ce 3d
       0.044318043 0.10012604 0.104783125 0.100980826
000100 e8 52 da 3d 05 18 09 3f 49 d0 c2 bd 79 6b b1 be
       0.10660344 0.53552276 -0.095123835 -0.34652308
000110 3d 74 9d bd cd 31 f0 3d 55 a0 a8 3e cf c1 34 3e
       -0.07688186 0.11728249 0.32934824 0.17652057
000120 21 cf 27 3e 0e 8a 91 be 6a b6 fc bd 57 6c 86 be
       0.16387607 -0.2842564 -0.1233948 -0.26254532
000130 d0 ef a9 3e 9e d1 58 ba 60 d4 57 3e 7d fc fa 3d
       0.33190775 -0.00082709815 0.21077108 0.122551896
000140 b3 dd c9 be 53 ae 0d be 59 9b 27 be 6c 96 60 3d
       -0.39426956 -0.1383603 -0.16367854 0.054830953
000150 de ba a5 3e 1c 21 0c 3e 00 d7 95 3e 48 81 36 3e
       0.3236913 0.13684505 0.29265594 0.17822754
000160 26 96 f3 3d 06 36 aa 3d 3a 72 ed bc c8 f9 ea be
       0.11893873 0.083110854 -0.028985132 -0.45893693
000170 d2 bf 9b bc 79 57 8c be 2f 31 c4 3a 78 0b 84 be
       -0.019012365 -0.27410486 0.0014968271 -0.2579
000180 2f 58 99 3d 9e 60 94 3d 1a 83 d7 bd 42 38 b7 3e
       0.07487523 0.07244991 -0.105230525 0.3578511
000190 10 d1 9b 3d dc d8 de 3e 68 99 c0 3e 8b 3a 89 3d
       0.07608235 0.43524826 0.3761704 0.06700619
0001a0 9d 5c 73 be d8 81 d6 bc 46 0a cc 3e d3 bb 95 3d
       -0.23765798 -0.026184961 0.39851588 0.07311215
0001b0 0e 0c 4f 3e f2 23 bb be 08 b9 3e be e2 75 3b bd
       0.20219442 -0.36550862 -0.18625271 -0.04576672
0001c0 e6 2b bf 3c 85 35 26 bd 59 6d 8a 3d fd d6 90 be
       0.023336362 -0.040578384 0.06759138 -0.28289023
0001d0 ae 32 27 3e b2 27 71 be f2 3e b1 be d7 79 ce 3e
       0.16327927 -0.23550299 -0.34618336 0.4032733
0001e0 cf 85 11 bd b9 05 b2 bd 44 06 9c be 9c e1 d4 3d
       -0.035528 -0.08692498 -0.3047353 0.10394594
0001f0 2f bd ab be 91 e5 a7 3c 6f 02 3e be c0 88 99 3e
       -0.33542773 0.020495208 -0.18555616 0.29987144
000200 aa ce 1f bd dc 37 62 3c 67 8b 0a 3d a4 1b 67 bd
       -0.03901545 0.013807263 0.03382435 -0.056422845
000210 dd e7 1c 3e 8b 0a 80 bc 61 9c 9d be 42 94 6e bd
       0.15322824 -0.015630027 -0.3078337 -0.05824686
000220 da b5 0f 3e 69 d2 24 3e 7a 42 fb 3e f0 e2 8c be
       0.14034215 0.1609589 0.49074155 -0.2751689
000230 a4 50 40 be b0 76 b7 3e c1 77 a3 3d 5c 07 97 bd
       -0.18780762 0.3583274 0.079818256 -0.073744506
000240 69 08 bd 3d a0 86 92 3d a6 20 48 3e e4 4b 5e 3e
       0.0923012 0.07154584 0.19543704 0.21708637
000250 7e 57 6f 3c 79 e1 02 bf 9c b8 bf 3d 8e 5e c0 3e
       0.014608262 -0.51125294 0.09361383 0.3757214
000260 bd 88 c7 3d d6 95 e8 bc f0 06 07 bd 01 a0 36 3e
       0.09742878 -0.02839176 -0.0329656 0.17834474
000270 a6 21 98 bb 61 f5 28 bf 5f 73 11 be e0 cb a0 3e
       -0.004642683 -0.6599942 -0.14204167 0.31405544
000280 f4 5e b7 be bc 86 1e 3f 47 55 34 be 59 92 69 3e
       -0.3581463 0.6192434 -0.17610656 0.22809733
000290 81 62 89 be c9 bc d4 3d 50 e9 50 be 22 7b 9c be
       -0.26832965 0.103875704 -0.20401502 -0.30562693
0002a0 e6 f2 2b 3e c8 12 4d 3d 1e 67 47 3e 6b e0 70 3d
       0.16791877 0.05006674 0.1947293 0.05880777
0002b0 f3 91 cb bc 97 02 88 3e 17 a3 2d 3e 5c 65 9b be
       -0.024849867 0.26564476 0.16956745 -0.3035077
0002c0 cf b2 5a be 1c 90 cf 3d 0f d1 7e 3d 3b 5e 86 be
       -0.21357273 0.101349086 0.062211093 -0.26243767
0002d0 35 f5 15 be 78 80 5c 3e b6 a7 3d 3e 2b 65 19 3e
       -0.1464432 0.21533382 0.18521008 0.14979999
0002e0 19 d5 a3 3d da 19 27 3e c8 02 76 3e 8f 6f 04 bf
       0.079996295 0.16318455 0.24024498 -0.51732725
0002f0 e4 75 d5 3d d9 ec d4 bc 08 2e cc bc 31 c2 22 be
       0.104228765 -0.025991844 -0.024924293 -0.1589439
000300 ab f0 4b 3e b4 8c 48 3e 5a 96 eb bd 8d c4 08 3e
       0.19916026 0.19584924 -0.11503287 0.13356228
000310 2d 73 82 be c8 8a 4c 3d 0a b4 84 be b0 a9 7b 3e
       -0.25478497 0.04993704 -0.2591861 0.2457645
000320 fb cc 9a bd c2 bb 75 be 2c ea d5 3e a4 02 a1 3d
       -0.07558628 -0.23997405 0.4178022 0.07861832
000330 bd c5 75 3e 32 29 5d be dd ba cc be c2 b7 a2 be
       0.24001212 -0.21597746 -0.39986315 -0.3178082
000340 60 7e aa 3e a0 a4 e8 3c 75 d7 ec 3d d0 b9 d6 3e
       0.3329954 0.028398812 0.11564533 0.4193864
000350 b2 ed b1 3d 8d b3 a4 bd 00 73 08 bd 62 05 2b be
       0.08687915 -0.08042059 -0.033312798 -0.16701272
000360 13 c2 61 3e 39 ed 8a 3e 2c 9d 8e 3e 9d c8 7a 3e
       0.2204669 0.27134112 0.27854288 0.2449059
000370 5b 50 ef 3d bf b4 10 3e e0 97 8c be 83 37 f4 3e
       0.116852485 0.14131449 -0.2745962 0.47698602
000380 91 90 8a 3e 41 89 8d 3e 90 31 a3 3e 51 83 63 bc
       0.2706342 0.2764378 0.3187375 -0.013886289
000390 af b5 c7 3d 05 d4 33 3c 64 70 96 be 26 7a 53 3d
       0.0975145 0.010975842 -0.29382622 0.05163016
0003a0 db b6 6c 3c fa fc c4 3c 14 e3 dc bd 62 e3 bc 3d
       0.014447893 0.02404641 -0.10785499 0.09223057
0003b0 80 fd 41 be 77 2a 2b 3d 51 9c 5e 3d 01 ce c7 be
       -0.18944359 0.041788545 0.054348294 -0.39024356
0003c0 fa a5 9e 3d 9c 82 33 3e 87 9d 1d bf 8b 63 0e 3f
       0.07746501 0.17530292 -0.6156849 0.5562064
0003d0 75 ba 26 be e1 d7 33 3c 98 f8 7f 3b 65 d6 16 3f
       -0.16282065 0.0109767625 0.0039058086 0.5892089
0003e0 ba 24 20 3e 7a 9a 18 bc 9a cb 55 be 1e fb 9a 3e
       0.1563901 -0.009314174 -0.20878449 0.30269712
0003f0 ab d0 b6 be 8a 1e 3c 3e c2 d5 33 3e 0e ed f8 3d
       -0.35706076 0.18371025 0.17562011 0.121545896

actor_mean.2.bias f4 [38]
000000 b4 9f de bd c7 95 34 bd b8 97 0c bc 6f b6 86 3d
       -0.10870305 -0.04408815 -0.008581094 0.06577765
000010 86 ee b0 bc 51 6f 0f be 46 15 2f bc f8 6b 9c 3d
       -0.021598112 -0.14007308 -0.010686224 0.07637781
000020 3d 9c a9 3c 19 48 84 3c 13 89 ea bd c3 10 d2 3d
       0.020704383 0.01614766 -0.11451926 0.10257103
000030 a2 9b 55 bc ac b3 ed 3c 09 b0 4d bd f4 25 41 bb
       -0.013037594 0.029016338 -0.05021671 -0.0029472085
000040 8e 0e 2a bc c8 8f be bd a6 ca b0 3b 55 1f 25 3d
       -0.010379447 -0.09304768 0.0053952513 0.040313084
000050 f9 25 86 bc 91 70 ce 3c df 3c 1f be cf 00 64 bd
       -0.016375529 0.02520016 -0.15550564 -0.055664834
000060 07 3d c8 bc d6 c3 21 bd dd 34 a8 bc 6d e5 2e bb
       -0.024443163 -0.039493404 -0.02053302 -0.0026687041
000070 7b 70 32 3e 15 2b 87 bc 65 69 f4 3d 86 fb a3 bc
       0.1742572 -0.016500035 0.11934165 -0.020017397
000080 13 e5 23 3e 2d 75 83 3c 35 38 57 be fa 4e 42 bd
       0.16005354 0.016047085 -0.21017535 -0.0474386
000090 5d bb 3a 3d a9 d8 76 bd
       0.04558884 -0.060265217

actor_mean.4.weight f4 [17, 38]
000000 a2 cc dd bd 48 80 3c bd a8 09 b6 3c 48 09 82 3d
       -0.10830046 -0.046020776 0.022221401 0.063494265
000010 cf 62 e2 3d 10 4c a3 3d fa eb 89 be 99 16 96 3d
       0.110540025 0.07973492 -0.26937848 0.07328529
000020 b4 a6 98 be 93 99 11 bd ef 58 21 3d 43 78 b5 3d
       -0.29814684 -0.03554685 0.039391454 0.08860829
000030 72 b2 9b 3b 40 12 09 be 33 27 94 bd 31 73 35 3d
       0.004751497 -0.13385868 -0.07234039 0.04429931
000040 35 14 aa bd e1 d2 b8 3a bd d0 50 bc 68 56 5c 3d
       -0.083046354 0.0014100933 -0.01274508 0.05379334
000050 d8 82 6b be da 25 e3 bd 44 cf d8 bd 4d 70 b2 3d
       -0.22999132 -0.11091204 -0.10586408 0.08712826
000060 c1 12 82 bd 83 52 0b 3e ab a9 33 3d 08 98 2c be
       -0.06351233 0.13605694 0.04386298 -0.1685487
000070 35 b3 55 3e bb 94 4e 3e 58 f6 79 bd ba 62 22 be
       0.20869143 0.20173924 -0.061025947 -0.15857974
000080 3b d2 49 bd ec 46 13 be b0 40 6d bc 11 d3 c3 3d
       -0.049272757 -0.14382523 -0.014480755 0.09561742
000090 5a d8 c0 bd 64 1b ea bd f7 88 72 3e bb 29 a6 3c
       -0.09416266 -0.114310056 0.2368506 0.02028357
0000a0 df 51 37 3d 29 1c fd bd 06 55 45 be 75 3c bd bd
       0.044755813 -0.12358887 -0.19270715 -0.09240047
0000b0 3b b5 99 3d f1 76 5b 3c a1 b4 27 be 2b 53 22 3e
       0.0750527 0.013395057 -0.16377498 0.15852039
0000c0 af 08 27 3d d3 58 6b 3d c6 4c c7 3d 39 71 4e 3d
       0.040779766 0.057457756 0.0973144 0.050400946
0000d0 a1 c7 1f bd 6e 99 25 3e 9b 91 a2 3d cf 52 43 be
       -0.03900874 0.1617181 0.07937928 -0.19074558
0000e0 a5 53 68 3d da 19 3e bb 91 c1 03 3d 08 4d b1 bd
       0.056720395 -0.0029007108 0.03216702 -0.08657271
0000f0 59 9b cb bd dc eb 3d be d8 fb 3e bb 42 5c 8f 3d
       -0.099417396 -0.18547004 -0.002914181 0.07000019
000100 50 4a a2 bd 1b 0a 4b 3c 5a 0a 72 bc be 67 9a be
       -0.0792433 0.012392546 -0.014772976 -0.30157274
000110 69 4d 63 bc d4 db 78 bd d0 5c 20 be 8d 08 70 bd
       -0.0138734365 -0.06075652 -0.15660405 -0.058601905
000120 28 b4 ba 3c 47 9f bb 3d 54 68 24 3e 41 cf 03 be
       0.022790983 0.09161239 0.16055423 -0.1287203
000130 9a 0f 7d be b4 67 04 3c f3 0f 1a 3e f8 5a ff bd
       -0.24712983 0.008081365 0.15045147 -0.12468523
000140 fd ef c6 3d bb 6e 1e be 98 be 2e 3d ff 41 72 3d
       0.09713743 -0.15471928 0.042662233 0.05914497
000150 bd b6 f9 3d 41 80 81 3d b9 f7 87 bd 17 28 86 be
       0.12193058 0.063232906 -0.06639046 -0.2620246
000160 ac 20 57 bb 6f e9 20 3e f9 f0 9a bc 8b c7 2b 3d
       -0.003282587 0.15714048 -0.018913733 0.041938346
000170 2a 33 78 bd 12 66 8c bd 59 97 43 be 22 e4 44 3e
       -0.06059567 -0.06855406 -0.19100703 0.19227651
000180 9f 14 0f be a9 1c 82 3c f5 de 7d bb f2 9b 23 bd
       -0.1397271 0.015882807 -0.003873763 -0.039943643
000190 0d 7d f7 3d c3 af aa 3d 76 88 bf 3b e0 29 80 bd
       0.120843984 0.08334305 0.005845125 -0.06257987
0001a0 a0 94 5d bd fc ca 74 3e c1 d2 58 bd 86 9a 8b 3c
       -0.054096818 0.23905557 -0.052935366 0.017041456
0001b0 4d 39 19 be bc 41 82 3e dd ba a8 3b 9b 48 11 3d
       -0.14963265 0.25440776 0.005149229 0.035469633
0001c0 1d 82 5c 3d 65 5e 14 3d 0d c4 1c 3e 71 5f 7c bc
       0.053835023 0.036222834 0.15309162 -0.015403614
0001d0 b9 78 8b 3e 4b e1 ad ba d1 01 10 3e 31 9f 66 bc
       0.27240542 -0.0013265995 0.14063193 -0.01407604
0001e0 92 45 00 be 7e 52 66 bd e2 ba a0 3d d8 d6 00 bc
       -0.12526539 -0.056231014 0.07848145 -0.007863723
0001f0 a9 1e c0 bd 92 c8 a5 bd cb 25 da 3d d6 81 02 3e
       -0.09380848 -0.080948964 0.1065174 0.12744841
000200 3f 6e 04 be 8a 04 a9 3d 04 26 c8 bd 3c e0 63 3c
       -0.1293268 0.08252819 -0.09772876 0.013908442
000210 e3 9e e9 bd f2 5f 98 be 3a 84 f9 bd 63 57 b1 3d
       -0.11407258 -0.297607 -0.12183423 0.08659246
000220 75 de 21 3e 06 72 24 3b 47 f2 2f be 46 b6 0e bc
       0.15807517 0.0025092377 -0.17182265 -0.00871045
000230 44 77 de bd 2e 0a 4c be 4f 22 20 bd b4 7f 5f bc
       -0.10862592 -0.19925758 -0.03909522 -0.013641287
000240 5d 91 a3 3b 0a 39 27 bd 5d cd 1c 3e 81 49 a3 bd
       0.004991694 -0.04082588 0.15312715 -0.07973004
000250 63 55 ba 3d b2 5d 49 bd b7 88 62 3d 63 71 0d 3e
       0.090983175 -0.04916162 0.055306163 0.13812785
000260 97 fe 3e bd cb 69 36 3d 75 44 e5 bc d4 08 b3 bd
       -0.046629515 0.044534486 -0.027986744 -0.08741918
000270 b1 5f eb 3c 1e 5d 85 3e 76 2b 46 be a5 22 04 bc
       0.028732153 0.26047605 -0.19352517 -0.0080649005
000280 29 58 70 3d 7d 32 62 3e aa ea d0 bd a0 ac 34 3e
       0.058677826 0.22089572 -0.102010086 0.17643976
000290 4c f9 8e 3d 47 21 b0 3c 15 f7 1f 3d 58 01 5f 3d
       0.06981143 0.021500243 0.039053995 0.05444464
0002a0 9c 1c 98 bd 0e 5d 09 be 23 a3 a5 bd ec 26 29 3e
       -0.07427332 -0.13414404 -0.080877565 0.16518754
0002b0 cb d2 e6 3d 69 0e 15 3d 01 41 09 3e a4 8e a6 bd
       0.11270674 0.036390696 0.13403703 -0.08132675
0002c0 30 a1 e0 bc b0 ed a7 3c 8d f8 b3 bc d7 94 46 3e
       -0.02742061 0.02049908 -0.021969104 0.19392715
0002d0 84 33 70 3d fd bb da bd 5b 35 6f bd fe 2e 2a 3e
       0.05864288 -0.10680387 -0.058400493 0.16619489
0002e0 90 c6 03 3e f6 c8 1e 3d 16 7e 01 bd 50 2a c7 bd
       0.12868714 0.03876587 -0.031614386 -0.09724867
0002f0 1d e6 30 3c d0 e7 da 3c 93 56 a0 bd a1 4d 13 3e
       0.010797051 0.026721865 -0.07829013 0.14385082
000300 52 ca f4 bc 7c 8f 90 bd 56 8d 93 3d 8c 88 9d 3d
       -0.02988163 -0.070586175 0.07204692 0.0769206
000310 a6 ee 07 3d 88 ae 0b bd ef 30 07 be 44 9f 19 be
       0.033186577 -0.034101993 -0.1320226 -0.15002161
000320 22 f3 6c 3e ca 1e ab 39 eb 48 65 3e 97 32 90 bc
       0.23139623 0.000326386 0.22391097 -0.017602248
000330 3c 56 07 be 76 3b 87 3d 15 c1 8a bd a7 79 6d 3d
       -0.1321649 0.06603138 -0.06775109 0.057977345
000340 07 6c 38 3e 68 7e b0 3d 7b c4 00 be 71 a3 10 be
       0.18009959 0.0861786 -0.12574951 -0.14124848
000350 5c 0e 15 3e 51 1b 19 be 93 40 23 3e 27 33 2f bd
       0.14556259 -0.14951827 0.15942602 -0.042773392
000360 e2 45 4a bd 23 dd b6 bd 50 95 c1 bd a9 30 99 bc
       -0.04938305 -0.08928897 -0.09452307 -0.01869996
000370 71 45 ce bb 43 85 07 be bc ba 92 bd e1 38 2b be
       -0.006294899 -0.13234429 -0.07164523 -0.16720916
000380 16 31 9c 3d f5 ce 0c be ba ae e1 3b 81 bb 8c bc
       0.0762655 -0.13750823 0.006887284 -0.017179253
000390 bd 1d bd ba 29 7f 33 bd dc 4b c8 bd 64 5e 13 be
       -0.0014428418 -0.04382244 -0.09780094 -0.14391476
0003a0 8f f8 6e be cc de 80 3c 38 f4 e9 bd 3f 71 73 3d
       -0.23337005 0.015731238 -0.11423534 0.05943417
0003b0 0d 21 be 3d 4b 2a c0 bd b2 98 d9 bd 53 9e 77 bd
       0.09283648 -0.09383067 -0.106248274 -0.060453724
0003c0 aa 82 7a 3d a4 df f7 bc c1 96 24 bd 4b 74 84 3d
       0.061159767 -0.030258007 -0.040182833 0.064674936
0003d0 c4 7d d9 bd 2b 91 85 3d 16 81 58 bd ff 02 30 3e
       -0.10619691 0.06521829 -0.05285748 0.17188643
0003e0 3b 8b e7 bb ce ad 99 3c 96 97 7e bd da cc 24 3c
       -0.007066158 0.018759634 -0.062156282 0.010058606
0003f0 7b b6 1b be ff 36 50 be 26 09 87 bb b8 73 21 3d
       -0.1520633 -0.2033348 -0.0041209636 0.039417

actor_mean.4.bias f4 [17]
000000 73 cd b0 3d ba cd 86 bc f0 c8 43 3b e9 9d c7 bb
       0.08632936 -0.01645552 0.0029874407 -0.0060918224
000010 df 5b 21 3d a7 8b 06 be 1e 5b 39 3e cc d0 26 bc
       0.039394256 -0.1313921 0.18101165 -0.010181617
000020 29 66 1f bd 45 da d1 bd 2f 68 ef 3d de 28 bf 3a
       -0.038915787 -0.1024671 0.11689793 0.0014584323
000030 0d 52 58 3d be ec 43 3d 68 de 38 3c de 31 5a bd
       0.052812625 0.047833197 0.0112834945 -0.053270213
000040 d2 b3 fa 3c
       0.030603323
