PPO-cleanrl/models/pruning/PPO-Ant-v4-0.25-l2.onnx (onnx, 17682 bytes, 7 tensors)

actor_logstd f4 [1, 8]
0	0xbfe5cfb3	-1.795401
1	0xbffda6e0	-1.9816551
2	0xbfdfc661	-1.7482415
3	0xc001498d	-2.0201142
4	0xbfe6716d	-1.8003365
5	0xbff7afff	-1.9350585
6	0xbfedb40b	-1.857057
7	0xbff9679b	-1.9484743

actor_mean.0.weight f4 [48, 27]
0	0x3ea30b3a	0.31844503
1	0x3d30f882	0.043205746
2	0xbdfd5bf4	-0.12371054
3	0x3e8b3bb6	0.27193993
4	0xbe935ba4	-0.28780854
5	0xbe2e3fdd	-0.1701655
6	0xbe103460	-0.1408248
7	0xbe88bc19	-0.26706007
8	0xbe4fba8f	-0.2028601
9	0x3d5de9bb	0.05417798
10	0xbc915035	-0.017738441
11	0x3dd76da5	0.1051896
12	0x3e57d95a	0.21079007
13	0xbee70e84	-0.45128262
14	0xbee6fee4	-0.4511634
15	0x3deecc4b	0.116600595
16	0x3e9a0230	0.30079794
17	0xbeb223af	-0.3479285
18	0xbd6aadef	-0.057294782
19	0xbd014dd4	-0.031568363
20	0x3e857cc5	0.26071754
21	0xbe0d8141	-0.13818838
22	0xbc7443ac	-0.014908712
23	0xbec67bc8	-0.38766313
24	0xbd1f3529	-0.038869057
25	0xbe2a2228	-0.16614592
26	0xbd2e1e82	-0.042509563
27	0x3dbfa06d	0.09356771
28	0xbd02bfa5	-0.031921048
29	0x3ed84f16	0.42247838
30	0xbdb17b02	-0.0866604
31	0xbd6b8fbc	-0.057510123
32	0x3d90685d	0.07051156
33	0xbea59332	-0.32338864
34	0x3e3e5d91	0.1859038
35	0x3d117dd1	0.03552038
36	0x3d07e0d2	0.03317339
37	0xbe4af9be	-0.19821832
38	0xbe7d3108	-0.24725735
39	0xbdceeb29	-0.10103447
40	0xbe8e6148	-0.27808595
41	0x3d5abde7	0.05340376
42	0x3e0b6f18	0.13616598
43	0x3ee1c32e	0.44094223
44	0x3ea53a52	0.32271057
45	0x3ea581cc	0.3232559
46	0x3bff1742	0.007784755
47	0x3dd0a8be	0.10188435
48	0x3e6a3efe	0.22875592
49	0xbe2507b7	-0.16116224
50	0xbe23980c	-0.1597597
51	0xbea09f27	-0.31371424
52	0x3db6d41c	0.089271754
53	0xbe973809	-0.2953494
54	0xbe2beb9a	-0.16789094
55	0xbde83df8	-0.113399446
56	0xbe82d727	-0.25554773
57	0x3ed0ef6b	0.4080766
58	0xbd85effd	-0.06539915
59	0x3e2e670a	0.17031494
60	0xbe5fda50	-0.21860623
61	0xbe1c0f8a	-0.15240303
62	0xbdec1ab2	-0.11528529
63	0xbed6817e	-0.4189567
64	0xbe6cf828	-0.23141539
65	0x3da2ec79	0.0795526
66	0xbe8c3a7c	-0.2738837
67	0x3d77f71a	0.06053839
68	0xbda465ac	-0.08027205
69	0x3e60e942	0.21963981
70	0xbd01aa82	-0.03165675
71	0xbd92e49b	-0.07172509
72	0x3e8904a8	0.26761365
73	0x3a5e82bc	0.0008488109
74	0x3c120852	0.0089131165
75	0xbecea394	-0.40359175
76	0xbe8f37c9	-0.27972248
77	0x3e566ad4	0.20939189
78	0x3e4f7041	0.20257665
79	0xbda6b9e4	-0.081409246
80	0xbb0a1b83	-0.0021073527
81	0x3dadfd89	0.084956236
82	0xbe9e1103	-0.30872354
83	0xbe69cc4c	-0.2283184
84	0xbcf0cf6b	-0.02939578
85	0x3afe935e	0.0019422581
86	0x3e6d5751	0.2317784
87	0x3e488013	0.19580106
88	0xbe1c47f9	-0.1526183
89	0xbed3f7e4	-0.41400063
90	0x3dcc5fe1	0.09979225
91	0xbe9dde94	-0.30833876
92	0xbcdd016c	-0.026978217
93	0xbddf7d13	-0.10912528
94	0xbd637e34	-0.05554028
95	0x3e95cd15	0.29258028
96	0x3d1eb4b4	0.03874655
97	0x3e6d34c3	0.23164658
98	0xbeba543e	-0.36392397
99	0x3d1a914c	0.037736222
100	0xbe95220e	-0.29127544
101	0xbdb6a73b	-0.089186154
102	0xbeccd2c0	-0.4000454
103	0x3d9562f5	0.07294265
104	0x3df0dcf4	0.117608935
105	0xbe30cab7	-0.1726483
106	0xbe739b92	-0.23789814
107	0x3dd0fa3f	0.10203981
108	0x3e228317	0.1587032
109	0xbe2b670c	-0.16738528
110	0x3ea4adbe	0.32163805
111	0x3ce59420	0.028024733
112	0xbe3556b8	-0.17708862
113	0xbe7104b6	-0.23536953
114	0xbd5b0c9b	-0.05347882
115	0x3d570437	0.052494254
116	0xbd39309f	-0.045212384
117	0xbeedb75d	-0.46428958
118	0x3e0c2583	0.13686185
119	0xbcae8d78	-0.021307692
120	0xbdf596fe	-0.1199169
121	0x3e3cedd9	0.18450107
122	0x3e7778cb	0.24167173
123	0x3d8c756c	0.06858334
124	0xbe7135b9	-0.2355565
125	0xbeb4b69d	-0.35295573
126	0xbecb3bb5	-0.3969399
127	0xbeb1c598	-0.34721065
128	0xbe320ad9	-0.1738695
129	0xbed4a8b5	-0.41534963
130	0xbe49b717	-0.1969875
131	0xbad5565a	-0.0016276345
132	0x3e69c07b	0.22827332
133	0x3c9c7e76	0.01910327
134	0xbec08338	-0.37600112
135	0x3e8d0945	0.27546135
136	0xbe81c467	-0.25345156
137	0x3d78a2de	0.060702197
138	0x3eea0466	0.4570648
139	0xbe17b449	-0.14814867
140	0xbdd55afc	-0.104177445
141	0xbe572d49	-0.21013369
142	0x3eb84d7c	0.35996616
143	0x3dc1be88	0.09460169
144	0x3b909154	0.0044118557
145	0x3e9eb38a	0.30996352
146	0xbbfb00f2	-0.007660025
147	0x3dd58935	0.10426561
148	0xbd80e3be	-0.062934384
149	0x3e9b9963	0.30390462
150	0x3e902129	0.281503
151	0x3cbcae67	0.02303238
152	0x3b849c09	0.004046921
153	0x3e5e3ebd	0.2170362
154	0xbbd55d34	-0.006511355
155	0xbe264c0c	-0.16239947
156	0x3eeb07f1	0.45904496
157	0x3ea81c93	0.328343
158	0x3ec99fbb	0.39379677
159	0x3e104ba2	0.14091352
160	0xbe81d691	-0.25359014
161	0xbdb421e9	-0.0879553
162	0x3e451ed1	0.19250037
163	0x3d7ecc02	0.062206276
164	0xbd6312db	-0.055437904
165	0xbe76199f	-0.24033211
166	0x3c2f7852	0.010709839
167	0x3b3e0bdf	0.0028998775
168	0x3e4bd54c	0.19905585
169	0x3d8cbcef	0.06871974
170	0xbde54674	-0.111950785
171	0xbdce6cff	-0.10079383
172	0xbe5fb90d	-0.21847935
173	0xbe8529ae	-0.26008362
174	0x3db91d34	0.09038773
175	0xbebe94e6	-0.37222975
176	0x3e935e77	0.28783008
177	0xbf094b5b	-0.5363061
178	0x3e6aa950	0.2291615
179	0xbe251f79	-0.16125287
180	0x3cb9be41	0.022673728
181	0x3f01d63c	0.5071752
182	0x3d9541c6	0.07287936
183	0xbd87b1ba	-0.066256955
184	0xbd897424	-0.06711605
185	0xbe23fb82	-0.16013911
186	0x3e4c74a3	0.19966368
187	0x3e95dbd5	0.2926928
188	0xbe3336bb	-0.17501347
189	0x3e04f577	0.12984262
190	0xbe56c6d4	-0.20974284
191	0x3e3f1b25	0.18662699
192	0xbe45fd8a	-0.19334999
193	0x3dcf0ccb	0.10109862
194	0xbe316c9b	-0.17326586
195	0x3e57f1ac	0.21088284
196	0x3e7bf090	0.24603486
197	0x3e882b89	0.26595715
198	0xbc090040	-0.008361876
199	0x3d5579c5	0.05211808
200	0x3d88d63c	0.06681487
201	0xbd57f9ac	-0.05272834
202	0xbe06d4b2	-0.13167074
203	0xbe0a672f	-0.13515924
204	0x3d244758	0.0401071
205	0x3db19dec	0.08672699
206	0xbeac3a03	-0.3363801
207	0x3ea84401	0.32864383
208	0xbe3d83e0	-0.18507338
209	0x3dfd0314	0.12354103
210	0x3e356ec0	0.17718029
211	0x3ee42ca2	0.44565302
212	0x3e70a7a1	0.23501445
213	0x3ec78041	0.38965037
214	0xbe93e7a1	-0.28887656
215	0xbe330a9b	-0.17484514
216	0x3ee0ee8e	0.43932003
217	0x3e4714f0	0.19441581
218	0x3cd120ce	0.025528338
219	0x3ee8ecc4	0.45493138
220	0x3dd226b9	0.10261292
221	0x3e8eb98f	0.27875945
222	0x3e396fa5	0.18108995
223	0x3cc06020	0.023483336
224	0xbc747fc7	-0.014923043
225	0x3e28fc2e	0.16502449
226	0x3e33fb2a	0.1757628
227	0xbd8c8fd6	-0.06863372
228	0x3e6f0638	0.23342216
229	0xbe247bfe	-0.16062924
230	0xbe0ea1f8	-0.13928974
231	0x3db4078a	0.087905005
232	0xbebc335a	-0.36757928
233	0x3e6be988	0.23038304
234	0xbec5630c	-0.3855213
235	0xbe584f8b	-0.21124093
236	0xbe26ec86	-0.16301164
237	0x3ea0f731	0.31438592
238	0xbdd5df8a	-0.10443027
239	0xbdd379cc	-0.10325965
240	0x3e94838a	0.29006606
241	0x3d10a753	0.035315823
242	0xbe66b587	-0.22530185
243	0xbc21cbee	-0.009875281
244	0xbeb5d92f	-0.3551726
245	0xbe3dd302	-0.18537524
246	0x3d6d81c0	0.057985067
247	0xbecafd1b	-0.3964623
248	0x3e8a633e	0.2702884
249	0xbdc1a5af	-0.0945543
250	0x3e8dff7e	0.27733988
251	0x3ea53240	0.322649
252	0xbd64cd5b	-0.055859905
253	0x3e110fa6	0.14166126
254	0x3d7f83f5	0.062381703
255	0x3eaf01d6	0.34181088

actor_mean.0.bias f4 [48]
0	0x3d97200c	0.07379159
1	0xbd896deb	-0.06710418
2	0x3dc6d345	0.09708265
3	0xbcc1bff3	-0.023651099
4	0x3dd1f00c	0.102508634
5	0xbd9cda7c	-0.0765886
6	0x3dc5ca53	0.09657731
7	0x3e04bb2d	0.12962027
8	0xbd74654a	-0.05966691
9	0x3d3fd4cb	0.046833795
10	0x3d23485b	0.039863925
11	0xbdbeff83	-0.09326079
12	0xbd414ec6	-0.047194265
13	0x3e1547ef	0.14578222
14	0xbe6f7682	-0.23385051
15	0xbe4173e3	-0.18891864
16	0xbd902a99	-0.07039375
17	0x3d1d6df6	0.038434945
18	0xbdd47a9c	-0.103749484
19	0xbd8ef75b	-0.06980773
20	0x3e2c0c7a	0.16801634
21	0xbda72396	-0.08161084
22	0x3dc6d337	0.09708255
23	0xbcd4e7c6	-0.025989424
24	0x3ded5717	0.11588877
25	0xbc81879b	-0.015811732
26	0xbe3d3312	-0.18476513
27	0xbcf848f4	-0.030308224
28	0xbc85d45d	-0.016336614
29	0xbda8d0ca	-0.08242948
30	0xbe5704f0	-0.20997977
31	0xbdaa6ac8	-0.08321148
32	0xbe00613e	-0.12537095
33	0x3e059de7	0.13048516
34	0xbdbe05ec	-0.09278473
35	0x3d902ca1	0.07039762
36	0x3db7a724	0.089674264
37	0x3b5a9717	0.0033354217
38	0xbd0075c3	-0.031362306
39	0x3e1ae72a	0.15127245
40	0xbb53391f	-0.0032230092
41	0x3e30829d	0.17237325
42	0xbcc5c5e9	-0.024142222
43	0xbc912ff3	-0.01772306
44	0xbd98539a	-0.07437821
45	0xbcf51266	-0.029916
46	0x3d9a70f3	0.075410746
47	0xbd5906f2	-0.05298514

actor_mean.2.weight f4 [48, 48]
0	0xbc5b3304	-0.013378862
1	0xbbd1edf3	-0.0064065396
2	0xbe30c859	-0.17263927
3	0xbe9c13bc	-0.30483806
4	0x3f2185bb	0.6309468
5	0x3d5bced4	0.053664044
6	0x3de07495	0.10959736
7	0xbe887e79	-0.2665899
8	0x3dbbd8ce	0.091722116
9	0x3e7ac3d7	0.2448877
10	0xbe099c99	-0.13438644
11	0xbd5f94b2	-0.054585166
12	0xba26f02e	-0.0006368187
13	0xbeb6a67a	-0.35673887
14	0xbe6deff7	-0.2323607
15	0x3e506e50	0.20354581
16	0x3e088123	0.13330512
17	0x3d04418b	0.03228907
18	0xbe80d89c	-0.2516526
19	0x3de198cb	0.11015471
20	0x3e37bbc8	0.17942727
21	0x3ea2b99b	0.3178223
22	0xbd8193f9	-0.06327052
23	0x3e94724a	0.28993446
24	0x3d58b072	0.052902646
25	0xbe79c03f	-0.24389742
26	0x3e089be6	0.1334072
27	0x3eb8b9e8	0.36079335
28	0x3c1a0c44	0.009402338
29	0xbe7ce9dc	-0.24698585
30	0xbe40beb7	-0.18822752
31	0x3d6daae8	0.058024317
32	0xbdc48ed1	-0.095975526
33	0xbea943d1	-0.33059552
34	0x3e96edaa	0.29478198
35	0xbbeff671	-0.0073230793
36	0x3ee2d837	0.44305584
37	0x3ea5c596	0.3237731
38	0xbd001259	-0.031267498
39	0x3e7b8722	0.24563268
40	0xbda0ceb3	-0.07851925
41	0x3e9e0b76	0.3086812
42	0x3e3e0f31	0.18560483
43	0x3e3ca5b4	0.18422586
44	0x3dc689d1	0.09694255
45	0x3ec7a472	0.3899265
46	0xbe28aa7b	-0.16471283
47	0x390bafc0	0.00013321545
48	0xbd764d80	-0.060132504
49	0x3f05f685	0.52329284
50	0x3e19d75a	0.15023556
51	0xbe143e81	-0.14476968
52	0x3e5b4e6c	0.21416634
53	0x3dba2fef	0.09091174
54	0xbd99e731	-0.075147994
55	0x3eb35f4b	0.3503364
56	0xbebc57d5	-0.3678576
57	0x3e8e20c3	0.2775937
58	0xbdbeaa31	-0.09309805
59	0x3dfb8363	0.122809194
60	0x3e5222e0	0.20521116
61	0x3d9bebae	0.07613312
62	0xbd65d3b5	-0.056110103
63	0x3c908a8e	0.017644193
64	0xbe938358	-0.28811145
65	0xbbc77382	-0.0060867677
66	0xbdcbefc2	-0.099578395
67	0x3d963a90	0.07335389
68	0x3e895f5e	0.26830572
69	0x3e34f948	0.17673218
70	0x3e24c64a	0.16091266
71	0xbe950adb	-0.29109845
72	0x3e6936c5	0.22774799
73	0x3ecfa7d0	0.40557718
74	0x3f0ad238	0.5422702
75	0x3ac90eea	0.0015339528
76	0xbe357028	-0.17718565
77	0x3edad81a	0.42742997
78	0xbe241183	-0.16022305
79	0xbd0c2c54	-0.034221962
80	0xbe0e1315	-0.13874467
81	0x3e5a7431	0.21333386
82	0xbe439abf	-0.19102
83	0xbce39b21	-0.027783932
84	0x3d0f6227	0.035005715
85	0xbdb68e23	-0.08913829
86	0x3de5bf10	0.11218083
87	0x3e86ae91	0.2630506
88	0x3d2b4135	0.041810233
89	0x3da40f02	0.08010675
90	0xbdf4168d	-0.11918364
91	0xbd765719	-0.060141657
92	0xbe430675	-0.19045432
93	0xbde3bff4	-0.111205965
94	0xbef9dd2d	-0.48801556
95	0x3d574001	0.052551273
96	0xbd040824	-0.032234326
97	0x3e5bb37e	0.2145519
98	0x3e7046f8	0.23464572
99	0xbe502e14	-0.20330077
100	0xbe13959d	-0.14412542
101	0x3ea73f95	0.32665697
102	0x3e9d4487	0.30716345
103	0x3edde66d	0.43339863
104	0x3d965845	0.07341055
105	0x3d330359	0.043704364
106	0x3da29fe6	0.079406545
107	0xbd2a501f	-0.041580316
108	0xbe10b0b5	-0.14129908
109	0xbd31e025	-0.04342665
110	0x3e577513	0.21040754
111	0x3d5e8f0a	0.05433563
112	0x3db38664	0.08765867
113	0xbc3254bc	-0.01088446
114	0x3d433812	0.047660895
115	0x3dea490f	0.11439716
116	0xbe212578	-0.1573695
117	0x3e34afa6	0.1764513
118	0xbe9296be	-0.28630632
119	0xbe07eba9	-0.13273491
120	0x3cb6e51c	0.022326045
121	0xbd5d9158	-0.05409369
122	0xbe59e9af	-0.2128055
123	0xbea8c5f1	-0.32963517
124	0xbe05ff52	-0.13085678
125	0xbd8bd47b	-0.06827637
126	0xbe9122f3	-0.28346977
127	0xbeff7447	-0.498934
128	0xbcc7ccfe	-0.02438974
129	0xbea5b1ba	-0.32362157
130	0x3d94bbd5	0.072623886
131	0x3e8df37b	0.27724823
132	0xbdb77688	-0.08958155
133	0x3ec5d01a	0.3863533
134	0x3e0fe35b	0.14051573
135	0xbea4f964	-0.3222152
136	0x3e159161	0.14606239
137	0x3e2eb479	0.17061032
138	0xbe0f87ab	-0.14016597
139	0xbe71ebff	-0.23625182
140	0x3e64dd02	0.22349933
141	0xbe3366f3	-0.17519741
142	0xbe6a82ab	-0.22901408
143	0x3db9932b	0.09061273
144	0xbe143bc0	-0.14475918
145	0xbd639cc2	-0.055569418
146	0x3e09c765	0.13454969
147	0xbd4075c4	-0.04698731
148	0x3e963704	0.2933885
149	0x3e64e0c2	0.22351363
150	0xbdaf151f	-0.085489504
151	0x3f16818c	0.5879142
152	0x3da08bdd	0.07839177
153	0xbda0427f	-0.07825183
154	0x3e368b5a	0.17826596
155	0x3e776b2b	0.24161975
156	0x3cd3fbfb	0.02587699
157	0x3e1237c0	0.1427908
158	0xbe884209	-0.2661288
159	0xbe9cdfa3	-0.3063937
160	0xbdf5150f	-0.11966907
161	0x3e665ae0	0.22495604
162	0x3e505405	0.20344551
163	0x3cd626d3	0.02614156
164	0xbafcfd65	-0.0019301592
165	0x3c3d5b78	0.011557452
166	0x3dc291b0	0.09500444
167	0x3ea51767	0.32244417
168	0xbe807655	-0.2509028
169	0x3ea1d69f	0.31609055
170	0x3c3a8030	0.011383101
171	0xbe8cd75b	-0.27508053
172	0x3cbe17d2	0.023204718
173	0xbec737fc	-0.389099
174	0xbb0f6f14	-0.0021886276
175	0x3f1b6d8b	0.60714024
176	0x3e25b1ff	0.16181181
177	0xbe4bc8be	-0.19900796
178	0x3e143b4a	0.14475742
179	0xbdf35962	-0.11882283
180	0xbdad63dd	-0.08466313
181	0xbde3284f	-0.11091673
182	0x3e0647f2	0.13113382
183	0xbdfd26f7	-0.123609476
184	0x3d81970c	0.06327638
185	0x3ada3af5	0.0016649651
186	0xbdf223bd	-0.11823223
187	0x3e9b7731	0.30364373
188	0xbd3d25f2	-0.046178766
189	0x3e26bd2c	0.16283101
190	0xbc726e4f	-0.014796807
191	0xbe7de447	-0.24794112
192	0xbebe5f7c	-0.37182224
193	0xbd28be78	-0.04119727
194	0x3e7e5416	0.24836764
195	0x3e5e8f74	0.2173441
196	0x3d003012	0.031295843
197	0x3e7ffb42	0.24998191
198	0xbd30bbad	-0.04314773
199	0x3dd1fa27	0.10252791
200	0x3e2a6a4a	0.16642109
201	0xbe056bd9	-0.13029422
202	0xbe4bbece	-0.19897005
203	0xbddb39f8	-0.10704416
204	0xbeafa40c	-0.34304845
205	0xbe775a76	-0.24155602
206	0xbdb13972	-0.08653535
207	0xbd981c6b	-0.07427295
208	0x3e4d64fb	0.20058052
209	0x3e817e12	0.25291497
210	0x3e2d50be	0.16925332
211	0xbe4478b0	-0.19186664
212	0x3eac9a48	0.33711457
213	0xbed4f84e	-0.4159569
214	0xbe3d1a20	-0.18466997
215	0xbde40b38	-0.11134952
216	0x3e3ae22d	0.18250342
217	0x3cee9e49	0.02912821
218	0x3dc39996	0.095507786
219	0x3d11b044	0.03556849
220	0x3bb78f25	0.005601781
221	0x3d3f75a5	0.046743054
222	0x3d3ef85b	0.04662357
223	0xbe8365e6	-0.2566368
224	0x3e1a73de	0.15083262
225	0x3e70bf5f	0.23510502
226	0xbe592200	-0.21204376
227	0xbe17950e	-0.14802954
228	0x3ea044b0	0.31302404
229	0x3e08b5dd	0.13350625
230	0xbe336e59	-0.17522563
231	0x3df7a633	0.12092247
232	0x3e264033	0.16235428
233	0xbdc89e14	-0.09795776
234	0xbe83a8c7	-0.25714704
235	0xbeec4317	-0.46144935
236	0x3ea34525	0.3188869
237	0x3ed3ee71	0.41392854
238	0x3dcb9f0b	0.099424444
239	0xbebde4d0	-0.37088633
240	0x3e6b5a27	0.22983609
241	0xbe122564	-0.14272076
242	0x3c4365b8	0.011926107
243	0x3daaef3f	0.08346414
244	0x3e2547c0	0.16140652
245	0x3e02b503	0.12764363
246	0x3d834eeb	0.06411537
247	0xbddcb380	-0.107764244
248	0x3e7a52eb	0.24445693
249	0xbe511751	-0.20419051
250	0x3e6ac2a6	0.22925815
251	0x3e0a2209	0.13489546
252	0x3e904305	0.28176132
253	0x3e163cd2	0.14671639
254	0xbbf46624	-0.007458465
255	0xbd110f32	-0.035414882

actor_mean.2.bias f4 [48]
0	0xbc535382	-0.012898328
1	0xbd93a0a8	-0.07208377
2	0x3e0165ec	0.12636536
3	0xbd3dee73	-0.04636998
4	0x3e704ab2	0.23465994
5	0xbddff000	-0.10934448
6	0x3defc8bd	0.1170821
7	0xbdb9a40b	-0.09064492
8	0x3c15eb60	0.009150356
9	0x3ce2477a	0.027621973
10	0x3ba1d256	0.004938404
11	0xbd5d0222	-0.053957112
12	0x3d455814	0.0481797
13	0xbcee087b	-0.029056778
14	0x3e17e9eb	0.14835326
15	0xbe25b22d	-0.1618125
16	0xbcfc252d	-0.030779446
17	0xbe40d82c	-0.18832463
18	0xbb9ef93d	-0.004851489
19	0x3df1dc59	0.11809606
20	0xbd7f559a	-0.062337495
21	0x3dcd7ec0	0.10033941
22	0xbdd893e6	-0.105750844
23	0x3c80e22a	0.015732843
24	0x3d79a18d	0.060945082
25	0xbcb5d7f7	-0.022197707
26	0x3d4698be	0.04848551
27	0x3dacbb0d	0.084341146
28	0xbc32bf87	-0.0109099215
29	0x3ca510a0	0.020149529
30	0xbe0d98d1	-0.13827826
31	0x3d395f73	0.045257043
32	0x3b9c7f0a	0.0047758864
33	0x3cffb3ad	0.031213606
34	0xbc99acdd	-0.018759185
35	0x3d25560b	0.04036526
36	0xbd109a57	-0.03530344
37	0x3e109499	0.14119186
38	0xbd47168f	-0.048605498
39	0x3dae1fda	0.08502169
40	0xbc46520e	-0.012104524
41	0xbbbcd3e5	-0.0057625645
42	0xbc391162	-0.011295648
43	0xbd24c92b	-0.04023091
44	0xbb18e97b	-0.0023332525
45	0xbda3fb2e	-0.08006893
46	0xbdacc115	-0.08435265
47	0x3d3c1b02	0.045924194

actor_mean.4.weight f4 [8, 48]
0	0x3c9c2c2c	0.019064032
1	0xbd38691c	-0.045022115
2	0xbc14df32	-0.009086417
3	0x3d40dad1	0.04708368
4	0x3d5d0ea4	0.05396904
5	0x3e1c269e	0.15249106
6	0xbd3bdc54	-0.04586442
7	0xbd9b11b3	-0.07571735
8	0xbd97be65	-0.07409362
9	0x3c328fe5	0.010898565
10	0xbdcf81f8	-0.101322114
11	0xbde0e9bc	-0.10982081
12	0xbd63041c	-0.05542384
13	0x3d6625c6	0.056188367
14	0xbd8aaa91	-0.06770814
15	0xbd84affd	-0.064788796
16	0x3e0f71bd	0.14008231
17	0xbce4a148	-0.027908936
18	0xbd686b9a	-0.05674324
19	0x3d05d7d1	0.03267652
20	0xbc61b2f5	-0.013775577
21	0xbcb7c624	-0.022433348
22	0x3da3cb52	0.07997765
23	0xbd8bd065	-0.068268575
24	0xbb97bbf5	-0.0046305605
25	0xbd1ffeb9	-0.03906128
26	0xbe1f10c8	-0.15533745
27	0x3dad1fbe	0.0845332
28	0x3d42cc69	0.047558222
29	0x3d332883	0.043739807
30	0xbddc045b	-0.10743018
31	0x3dedff6a	0.11620982
32	0xbdc0bf50	-0.0941149
33	0xbdcdac4b	-0.10042628
34	0x3de89db7	0.11358207
35	0xbe368d58	-0.17827356
36	0xbe27fc65	-0.16404875
37	0xbcdefdda	-0.027220655
38	0x3dc27969	0.094958134
39	0xbccc1b9d	-0.02491551
40	0xbd078e2a	-0.033094563
41	0xbbb24731	-0.0054406156
42	0x3e143c8c	0.14476222
43	0x3ddcf4d4	0.10788885
44	0x3dd67aa8	0.104726136
45	0x3cf75920	0.030193865
46	0x3d6570ad	0.05601566
47	0xbd55adec	-0.052167818
48	0xbcbc67cd	-0.022998715
49	0x3dd819f9	0.10551829
50	0xbe099573	-0.13435917
51	0x3e07fcea	0.13280073
52	0x3cb7111f	0.022347031
53	0x3cb1ab4a	0.021688122
54	0xbe0281a9	-0.12744774
55	0xbd7192b8	-0.058977813
56	0x3d1d9396	0.038470827
57	0xbda1034e	-0.078619584
58	0xbd4f1d1a	-0.050564863
59	0x3d4f0492	0.050541468
60	0xbe44400c	-0.19165057
61	0x3dd1bd89	0.10241229
62	0x3c6083ec	0.013703328
63	0xbda745cb	-0.08167609
64	0x3dcfb22f	0.10141408
65	0x3a823d2a	0.0009936441
66	0xbc0f7766	-0.008756494
67	0xbdca8ae6	-0.09889774
68	0x3d81ebdc	0.06343815
69	0x3d0c0a8b	0.034189742
70	0x3dac14e6	0.084024236
71	0xbd4a621f	-0.04940998
72	0xbce9f1a2	-0.028557602
73	0x3d8b83f3	0.06812277
74	0xbdce11bd	-0.10061977
75	0x3da587d7	0.0808255
76	0x3d08b107	0.03337195
77	0xbd496442	-0.04916788
78	0xbdfc1675	-0.12308971
79	0x3df8edce	0.12154733
80	0xbce9cb8d	-0.028539443
81	0x3beeb982	0.007285298
82	0x3cb450bb	0.022011152
83	0x3c263cb2	0.010146307
84	0xbc17cbd0	-0.009264901
85	0x3ab390f8	0.001369982
86	0x3d9451af	0.072421424
87	0x3db319e7	0.08745175
88	0xbbff636d	-0.007793835
89	0x3d5faeea	0.05461017
90	0xbcede75d	-0.029040987
91	0xbd17c0b8	-0.037049025
92	0xbe160e85	-0.14653976
93	0x3db1a8a0	0.08674741
94	0x3c141141	0.009037317
95	0xbd9ed6e9	-0.077558346
96	0xbd445ae4	-0.047938243
97	0xbd6cf3b8	-0.057849616
98	0xbc8c8644	-0.017153867
99	0x3c7fbafd	0.015608546
100	0x3de49641	0.11161471
101	0xbe458934	-0.1929062
102	0xbca9e8f9	-0.020740973
103	0xbd26cb9b	-0.040721517
104	0x3cd494a3	0.025949782
105	0xbca6cd6b	-0.020361623
106	0x3c595f98	0.01326742
107	0x3d98c135	0.07458726
108	0xbdc2d093	-0.095124386
109	0xbcc4e3da	-0.02403443
110	0xbc7a0aaf	-0.015261336
111	0x3d9445d6	0.07239883
112	0x3b1b7e97	0.0023726576
113	0xbd981bf6	-0.07427208
114	0xbd1ecf09	-0.038771663
115	0xbd5b45fa	-0.05353353
116	0x3df449c4	0.11928132
117	0x3dae7041	0.085175045
118	0xbca28d17	-0.019842668
119	0xbe56f230	-0.20990825
120	0x3dca41be	0.098758206
121	0x3d32e1c3	0.043672334
122	0xbde99467	-0.114052586
123	0xbcc98012	-0.024597201
124	0xbb921534	-0.004458094
125	0x3d8da4dd	0.06916211
126	0xbcdd1af0	-0.026990384
127	0xbd3cd647	-0.04610279
128	0xbcb823be	-0.02247798
129	0xbc888cf5	-0.016668776
130	0x3d3c9810	0.046043456
131	0xbdbe7b6b	-0.09300884
132	0x3aa0602e	0.0012235695
133	0xbdfff357	-0.12497585
134	0xbcd6e228	-0.026230887
135	0x3d47a065	0.04873695
136	0x3d266c36	0.04063054
137	0x3e5e797d	0.21726032
138	0xbd44d53b	-0.048054915
139	0xbda7cfd6	-0.081939384
140	0x3d98b05c	0.07455513
141	0x3e2a0b6f	0.16605924
142	0xbdd687f6	-0.10475151
143	0xbd8100f5	-0.06299011
144	0x3d865503	0.065591834
145	0xbd1a1e0c	-0.03762631
146	0x3d1e9979	0.03872058
147	0x3c14b589	0.0090764845
148	0x3c2c54dc	0.010518279
149	0x3db419ca	0.087939814
150	0xbcfadbfa	-0.030622471
151	0xbe2b4c07	-0.16728221
152	0x3da6d491	0.081460126
153	0xbd9cfc39	-0.07665295
154	0x3e011ae0	0.12607908
155	0x3cfbc6dd	0.030734474
156	0x3daacaf4	0.083394915
157	0xbddcd356	-0.10782497
158	0xbd0ad222	-0.033891805
159	0x3da5fd57	0.08104961
160	0xbc90359d	-0.01760369
161	0xbd1f6315	-0.03891285
162	0x3d98dc79	0.07463927
163	0x3d37fa8d	0.04491668
164	0x3c5edd78	0.013602607
165	0x3dc2087d	0.09474275
166	0xbdf6653e	-0.12031029
167	0xbd5454a6	-0.05183854
168	0x3c1e19e2	0.009649726
169	0x3d9accd2	0.075585976
170	0xbcec0bd0	-0.028814226
171	0xbd6668d9	-0.056252334
172	0xbd90beac	-0.07067618
173	0xbc0158f3	-0.007894742
174	0x3c888826	0.016666483
175	0xbc4dbf3f	-0.012557804
176	0xbd5544ac	-0.052067444
177	0xbda4d49b	-0.08048364
178	0xbd70c507	-0.05878165
179	0x3d96a379	0.07355399
180	0x3c210b2c	0.009829324
181	0xbd127029	-0.035751496
182	0xbe20a4bf	-0.15687846
183	0x3c31b27a	0.010845775
184	0xbdaa53fb	-0.08316799
185	0xbdc98a69	-0.09840853
186	0xbdf92e96	-0.12167089
187	0x3d28d990	0.04122311
188	0x3cfbfad8	0.03075926
189	0x3def575e	0.11686586
190	0xbd9d1466	-0.07669906
191	0xbdafb6b9	-0.085797735
192	0xbde97043	-0.11398365
193	0xbd789bc3	-0.06069542
194	0xbb1bb249	-0.002375739
195	0xbc5718ee	-0.013128502
196	0xbd9ce052	-0.07659973
197	0x3c27e96e	0.010248525
198	0x3ded0109	0.11572463
199	0x3d253477	0.040333237
200	0xbd313c1a	-0.043270208
201	0x3dc010d1	0.093782075
202	0xbddc3a31	-0.10753287
203	0xbc0c1eeb	-0.008552293
204	0xbd8575df	-0.06516623
205	0x3de64aa8	0.11244708
206	0x3cb2aa2e	0.021809664
207	0x3ae7db68	0.001768929
208	0xbd7c0c84	-0.061535373
209	0xbc6c4de1	-0.014422865
210	0x3ae2b11f	0.0017295218
211	0xbdbf67c1	-0.09345961
212	0x3bb59255	0.005541126
213	0xbca26b0c	-0.019826435
214	0xbe0591d3	-0.13043909
215	0xbcd79e5a	-0.026320625
216	0x3e0e1a70	0.13877273
217	0x3c978282	0.018494848
218	0xbdb58f92	-0.088652745
219	0x3df06753	0.117384575
220	0xbcf5d813	-0.030010259
221	0xbdfec11b	-0.12439176
222	0xbd0eb5bf	-0.034841295
223	0x3cd5305b	0.026024034
224	0xbe1a810a	-0.15088287
225	0xbce5ab69	-0.028035836
226	0x3e073a97	0.13205944
227	0x3da73887	0.081650786
228	0xbcd0b84e	-0.025478508
229	0x3d4b6d77	0.04966494
230	0xbd7c9b2a	-0.061671413
231	0xbcc2505c	-0.023719959
232	0x3d9c4ca7	0.07631808
233	0xbc8ccbd9	-0.017187046
234	0xbe1a97b9	-0.1509694
235	0xbd2f858a	-0.042851962
236	0x3d2d37c9	0.04228953
237	0x3bc64484	0.006050648
238	0xbb194697	-0.0023388022
239	0x3c53410e	0.012893928
240	0xbda4f550	-0.08054602
241	0xbd21cd36	-0.039502345
242	0xbc59f4f3	-0.013303029
243	0x3d90b509	0.0706578
244	0x3e473057	0.19452034
245	0x3c83249d	0.01600867
246	0xbcbca9fb	-0.023030272
247	0x3d1ce6c4	0.038306013
248	0x3c1de7d2	0.00963779
249	0x3d2a88c5	0.04163434
250	0xbd279acf	-0.04091912
251	0xbc3d015a	-0.011535967
252	0x3d14d852	0.03633911
253	0x3bf11c0b	0.0073580793
254	0x3dc32974	0.09529391
255	0xbd1b3f21	-0.037902

actor_mean.4.bias f4 [8]
0	0xbc84e987	-0.016224636
1	0x3cf9da12	0.030499492
2	0x3dc403f6	0.09571068
3	0xbc761cb1	-0.015021489
4	0xbb2b2ca9	-0.0026119149
5	0x3d8cc8bd	0.06874225
6	0xbcb785c1	-0.022402646
7	0xbc8dab39	-0.01729356
