PPO-cleanrl/models/pruning/PPO-HalfCheetah-v4-0.05-l2.onnx (onnx, 21746 bytes, 7 tensors)

actor_logstd f4 [1, 6]
0	0xbf81d04e	-1.0141695
1	0xbf71c566	-0.9444183
2	0xbf4a11c9	-0.7893339
3	0xbfc4dfe8	-1.5380831
4	0xbf74a5e5	-0.95565635
5	0xbf5a15a7	-0.8518929

actor_mean.0.weight f4 [60, 17]
0	0xbd238261	-0.03991926
1	0x3c46dd4a	0.01213772
2	0x3ee48833	0.44635162
3	0xbe0fe78d	-0.14053173
4	0x3e3a480b	0.18191545
5	0xbed163a7	-0.4089634
6	0xbe6be2a0	-0.2303567
7	0x3df963cf	0.1217724
8	0xbde53f73	-0.111937426
9	0x3edddb57	0.43331406
10	0x3cc7090a	0.024296302
11	0xbd12154d	-0.035664845
12	0x3d6cfbc4	0.05785729
13	0xbe7bc9c9	-0.24588694
14	0xbd7a21a1	-0.061067227
15	0xbe944008	-0.28955102
16	0x3e17e716	0.14834246
17	0x3e9cd0da	0.3062809
18	0x3e9ad4c4	0.30240452
19	0xbeb153f2	-0.34634358
20	0xbdca9d66	-0.098933026
21	0x3d90b968	0.070666134
22	0xbe2fa7f4	-0.17153913
23	0x3dc8c59d	0.09803317
24	0x3ee8dc56	0.45480603
25	0x3e2f3c2b	0.17112796
26	0xbb14381a	-0.0022616447
27	0x3e1a9074	0.15094167
28	0x3e8c7d59	0.27439383
29	0x3e89c4ad	0.26907864
30	0xbc573cd9	-0.013137066
31	0xbe2de3aa	-0.16981378
32	0x3dbceb26	0.092245385
33	0xbe73c344	-0.23804957
34	0xbece71d7	-0.40321228
35	0x3d8ebc44	0.069695026
36	0xbe46f547	-0.19429503
37	0x3df49719	0.11942882
38	0xbc39f3fd	-0.011349675
39	0x3dc3273f	0.0952897
40	0xbc0f9077	-0.00876247
41	0xbe4dcc3e	-0.20097443
42	0x3e9745ba	0.29545385
43	0x3e70b355	0.2350591
44	0xbe36d895	-0.17856057
45	0x3eb3a0cb	0.35083613
46	0xbf3caea4	-0.7370398
47	0xbc9ba724	-0.019000597
48	0xbd445bed	-0.04793923
49	0x3f53361e	0.8250445
50	0xbd3ef639	-0.046621535
51	0xbeac9202	-0.33705145
52	0xbeee20b8	-0.46509337
53	0x3e205fdb	0.15661566
54	0x3ead5945	0.3385717
55	0x3e88061f	0.2656717
56	0x3e54ef10	0.2079432
57	0x3da32fb3	0.07968082
58	0x3e4460c5	0.1917754
59	0xbd31dc57	-0.043423023
60	0xbe2cb300	-0.16865158
61	0x3e1f2a51	0.15543486
62	0xbe302589	-0.17201819
63	0xbd80a628	-0.06281692
64	0x3e19a950	0.15005994
65	0x3d29a3b8	0.0414159
66	0xbdebd4a6	-0.11515169
67	0xbe1993ef	-0.14997838
68	0x3e50c222	0.20386556
69	0xbc8da5cd	-0.017290974
70	0xbec771c4	-0.38953984
71	0x3f2eab6d	0.68230325
72	0x3e000cbc	0.12504858
73	0xbe6033ff	-0.21894835
74	0x3e634a70	0.22196364
75	0x3de01127	0.109407715
76	0xbd0a561a	-0.03377352
77	0xbbc2d6c7	-0.0059460136
78	0x3e00b12a	0.12567583
79	0x3d1f9955	0.03896459
80	0x3cbd7ba0	0.023130238
81	0xbd9ca033	-0.07647743
82	0x3d651a96	0.055933557
83	0xbd8a9a04	-0.067676574
84	0x3d7e5b3a	0.06209872
85	0xbe92d430	-0.2867751
86	0xbe2bcc19	-0.16777076
87	0xbe12ba34	-0.14328843
88	0x3e1e7f6e	0.15478298
89	0x3e32412c	0.17407674
90	0x3da7977c	0.0818319
91	0xbe0ddf70	-0.13854766
92	0x3e5fdc9d	0.21861501
93	0xbe8c6e82	-0.2742806
94	0x3e1f1320	0.1553464
95	0xbe944c7a	-0.28964597
96	0x3e168e49	0.14702715
97	0xbd9f874e	-0.07789479
98	0xbd1eee79	-0.038801644
99	0x3ec19181	0.37806323
100	0x3e59083c	0.21194547
101	0x3efc5e0a	0.49290496
102	0x3e3c128c	0.1836645
103	0xbded60b1	-0.11590708
104	0xbf086598	-0.5328002
105	0xbcf97bc9	-0.030454533
106	0xbe9b916f	-0.30384395
107	0x3ec00ac6	0.3750822
108	0xbd869030	-0.0657047
109	0x3eb462d5	0.35231653
110	0xbdc5c65c	-0.09656975
111	0xbec76dce	-0.38950962
112	0xbd93fd00	-0.0722599
113	0xbe09ce15	-0.1345752
114	0xbe710c36	-0.23539814
115	0x3d99e9df	0.075153105
116	0x3dfce600	0.123485565
117	0xbbec5406	-0.007212165
118	0xbe05d9e2	-0.13071397
119	0x3ce249a7	0.02762301
120	0xbd25d07e	-0.040482037
121	0x3ec6bbb1	0.38815072
122	0xbea4cd8d	-0.32188073
123	0x3ed76b4c	0.4207405
124	0xbe93e2e0	-0.2888403
125	0xbd7b0a6e	-0.061289243
126	0xbe9a17ae	-0.3009619
127	0x3e464db1	0.19365574
128	0xbe6b2ac9	-0.2296554
129	0xbcd0d01f	-0.025489865
130	0xbc7feef1	-0.015620933
131	0xbd4c3017	-0.04985055
132	0xbc876256	-0.016526382
133	0xbe5e512f	-0.21710657
134	0xbd7057ef	-0.05867761
135	0x3ed1acfe	0.40952295
136	0xbe4c74db	-0.19966452
137	0x3e774a63	0.2414947
138	0x3daf4841	0.08558703
139	0xbbbeff95	-0.0058288076
140	0x3e33a7bc	0.17544454
141	0x3ee91904	0.45526898
142	0x3d88dfb6	0.066832945
143	0x3f06a798	0.5259948
144	0x3dbd296f	0.092364185
145	0xbe93d497	-0.2887313
146	0xbd9b0cec	-0.07570824
147	0xbf1ee8d8	-0.6207404
148	0x3e81b830	0.25335836
149	0xbde1a26d	-0.110173084
150	0xbdf12f70	-0.11776626
151	0x3dc82458	0.09772557
152	0x3eb1c2fd	0.34719077
153	0x3e16cfdb	0.14727728
154	0xbee16aa8	-0.44026685
155	0x3dc35a82	0.09538747
156	0xbe1afcf8	-0.15135562
157	0xbd83081f	-0.06398033
158	0xbf16124d	-0.58621675
159	0xbdfc3fe3	-0.12316873
160	0x3e94db98	0.29073787
161	0xbd1c9d3c	-0.038235888
162	0x3b8be9cf	0.0042698155
163	0xbd05cc91	-0.032665793
164	0xbe730e60	-0.23735952
165	0x3eb6c062	0.3569365
166	0xbda04396	-0.07825391
167	0xbe52b1b2	-0.20575598
168	0xbb715de5	-0.0036829647
169	0x3e8247db	0.25445446
170	0xbf14e1cf	-0.58157057
171	0xbe79f97b	-0.24411575
172	0x3e1856ec	0.14876908
173	0x3cdcfab7	0.026975019
174	0xbe0641b1	-0.13110997
175	0x3e03520a	0.12824264
176	0xbd84dc24	-0.06487301
177	0xbe3d78c0	-0.18503094
178	0xbeb5fda3	-0.35545072
179	0xbef35483	-0.47525415
180	0xbef83bed	-0.4848322
181	0x3d6683cd	0.05627804
182	0xbb18fe8b	-0.0023345079
183	0x3e3d4812	0.18484524
184	0xbedc51e0	-0.43031216
185	0xbf15e737	-0.5855593
186	0x3d80cf7f	0.06289577
187	0xbe673a5c	-0.22580856
188	0xbd7ff8b4	-0.06249304
189	0x3d3f27ab	0.04666869
190	0xbe2cabf6	-0.16862473
191	0xbd74745f	-0.059681293
192	0x3ec8dea4	0.3923236
193	0xbea64ca0	-0.32480335
194	0x3d86d978	0.065844476
195	0x3e962316	0.29323643
196	0x3e04de9c	0.12975544
197	0xbe88ac4f	-0.2669396
198	0xbdad7e07	-0.084713034
199	0x3e24d8a6	0.1609827
200	0x3d95ee8a	0.07320888
201	0x3def63c8	0.11688954
202	0x3ea3e2d6	0.32009
203	0xbd909302	-0.070592895
204	0xbe869796	-0.26287526
205	0xbd43c874	-0.04779859
206	0x3e5f40ca	0.21802059
207	0x3e995d26	0.2995388
208	0x3bcdc8e5	0.006280052
209	0xbead7a98	-0.33882594
210	0x3d8c3a97	0.068471126
211	0xbe3a7286	-0.1820775
212	0xbbbbfb12	-0.005736717
213	0x3e3c7575	0.18404181
214	0x3e7e6e24	0.24846703
215	0xbed03f5f	-0.40673348
216	0x3d829f83	0.06378081
217	0xbe9513fa	-0.29116803
218	0x3e69ac0c	0.22819537
219	0xbeae944b	-0.34097514
220	0x3eb1295e	0.34601873
221	0xbe84f7e0	-0.25970364
222	0xbd0372b8	-0.032091826
223	0x3c947703	0.018123155
224	0x3eae8665	0.3408691
225	0xbe679daf	-0.22618745
226	0x3e322fd6	0.1740106
227	0x3d98b3f9	0.07456202
228	0x3ec74c86	0.3892557
229	0xbe690612	-0.22756222
230	0xbeb328f6	-0.34992188
231	0xbe8d4efb	-0.2759932
232	0x3e6e517c	0.23273271
233	0xbe0d82de	-0.13819453
234	0xbe904c89	-0.28183392
235	0x3ea242f6	0.31691712
236	0xbdbc7108	-0.092012465
237	0xbe0ab139	-0.13544168
238	0xbf481fe4	-0.7817366
239	0x3b44b0bb	0.0030012566
240	0x3ee9db76	0.45675248
241	0xbd3130fa	-0.0432596
242	0x3d5a5f05	0.053313274
243	0xbe8e44bf	-0.27786824
244	0xbe9ca467	-0.3059418
245	0xbe3e3ca2	-0.18577817
246	0x3c7ff55b	0.015622462
247	0xbe864f3a	-0.2623232
248	0x3dcbd99a	0.099536136
249	0xbe8be5b6	-0.27323693
250	0xbdd6d88a	-0.1049052
251	0xbc945fbc	-0.018112056
252	0xbd4043a1	-0.046939496
253	0xbcea2dc4	-0.028586276
254	0xbda4f410	-0.08054364
255	0xbe899041	-0.2686787

actor_mean.0.bias f4 [60]
0	0xbd28f19e	-0.04124605
1	0x3e05df17	0.13073383
2	0x3cc8d330	0.024514765
3	0xbe5e31fd	-0.21698757
4	0xbe24da75	-0.1609896
5	0xbdd786b7	-0.10523742
6	0xbdacba56	-0.08433978
7	0x3d9ce091	0.0766002
8	0xbe28885b	-0.16458265
9	0xbd04b99a	-0.032403566
10	0xbde687f6	-0.11256401
11	0x3e05717f	0.13031577
12	0xbd9f45b9	-0.077769704
13	0xbdc3bfc4	-0.09558061
14	0xbd06263c	-0.032751307
15	0x3dade260	0.08490443
16	0xbc2b9b74	-0.010474075
17	0x3e004f00	0.12530136
18	0xbd32e18b	-0.043672126
19	0xbe171fd8	-0.14758241
20	0x3e585f15	0.21130021
21	0xbe631597	-0.22176205
22	0x3d69bf29	0.05706707
23	0xbb8e0557	-0.0043341327
24	0xbe5a95f8	-0.21346271
25	0x3d921f11	0.07134832
26	0x3dd48475	0.10376827
27	0xbe2d3a8e	-0.16916868
28	0x3c67725f	0.014126389
29	0xbddcae79	-0.107754655
30	0xbdd118a4	-0.10209778
31	0x3e953ccf	0.29147956
32	0xbb3fd0e5	-0.0029268798
33	0x3e3b8ba6	0.1831499
34	0xbc388949	-0.0112632
35	0xbedd54f1	-0.43228868
36	0xbec9bb3d	-0.39400664
37	0xbdc04638	-0.09388393
38	0x3db72e8c	0.08944425
39	0xbe0ce284	-0.13758284
40	0x3ea9423a	0.3305834
41	0xbba0bbf8	-0.00490522
42	0x3e4620cb	0.19348447
43	0x3e2c74ae	0.16841385
44	0xbe11fdda	-0.14256993
45	0x3e78c914	0.24295455
46	0x3dcc165a	0.09965201
47	0xbed11853	-0.4083887
48	0x3e0e97c8	0.13925087
49	0x3d978f56	0.07400386
50	0x3dca7dad	0.09887252
51	0xbe0ae23f	-0.13562869
52	0xbe0996b2	-0.13436392
53	0xbe22a40d	-0.15882893
54	0x3da05024	0.078277856
55	0x3e0f8369	0.14014973
56	0x3d913c27	0.07091551
57	0xbeaf86c9	-0.3428252
58	0xbe619bc4	-0.22032076
59	0xbe8f3808	-0.27972436

actor_mean.2.weight f4 [60, 60]
0	0x3d88cf36	0.06680147
1	0xbe7bc474	-0.2458666
2	0xbdc8d4be	-0.09806202
3	0xbc79b979	-0.015241974
4	0x3e5303be	0.20606896
5	0x3cf17415	0.029474298
6	0xbea75406	-0.32681292
7	0x3e4fa087	0.2027608
8	0xbcec51e2	-0.028847639
9	0xbc680ec7	-0.014163679
10	0x3ec19948	0.37812257
11	0xbcf921c5	-0.03041161
12	0x3ddb139e	0.10697101
13	0xbc4e342f	-0.012585684
14	0x3ecc1930	0.39862967
15	0xbec3e7df	-0.3826284
16	0xbdb8a2ce	-0.090154275
17	0xbf044609	-0.51669365
18	0xbc39b409	-0.011334428
19	0x3cc3b83d	0.023891563
20	0x3d5538af	0.05205601
21	0xbee37f37	-0.44432995
22	0xbe02f16e	-0.1278741
23	0xbe1c5022	-0.15264943
24	0x3e2f99fc	0.17148584
25	0x3d9d263e	0.0767331
26	0xbdef1e6c	-0.116757244
27	0x3e275145	0.16339596
28	0x3ede6314	0.43434966
29	0xbbf10ed6	-0.007356505
30	0x3d99ebc0	0.07515669
31	0x3e3c95b4	0.18416482
32	0xbe7780b5	-0.24170192
33	0xbd9c9488	-0.076455176
34	0xbd8807a0	-0.06642079
35	0x3e66b5b2	0.22530249
36	0x3e2e70c3	0.17035203
37	0x3e4d908b	0.2007467
38	0x3e9d4f1c	0.30724418
39	0x3d51fa59	0.05126414
40	0x3f11ed38	0.5700259
41	0xbdbf2451	-0.09333099
42	0x3f0bbd19	0.54585415
43	0x3e32639e	0.17420813
44	0xbe43c24d	-0.19117089
45	0xbe8a991f	-0.27069947
46	0xbe9c5e3c	-0.30540645
47	0x3e835a71	0.2565494
48	0x3df5a510	0.11994374
49	0x3dfcbd1a	0.12340756
50	0xbeaf8bab	-0.34286246
51	0x3cb89577	0.022532208
52	0xbe048518	-0.12941396
53	0x3d6edd89	0.05831674
54	0xbdec880c	-0.115493864
55	0xbe59d9e4	-0.21274525
56	0xbc5405a4	-0.012940798
57	0xbdaec582	-0.085337654
58	0xbe877ac4	-0.2646085
59	0x3eba4289	0.36378887
60	0xbe419ef1	-0.18908288
61	0x3ea5ccac	0.32382715
62	0x3ed12202	0.40846258
63	0x3e9c4757	0.30523178
64	0xbea1bc60	-0.3158903
65	0x3d749d41	0.05972028
66	0x3d4c9fae	0.04995697
67	0x3d4c0d7f	0.04981756
68	0xbe1f6a09	-0.15567793
69	0x3d806734	0.062696844
70	0xbec97732	-0.3934875
71	0x3d5c6ff7	0.053817715
72	0xbda6a26a	-0.08136447
73	0xbd0b073a	-0.03394244
74	0xbe3a60bd	-0.18200965
75	0xbc8e5d55	-0.017378489
76	0x3e3c6002	0.18395999
77	0xbedae4bb	-0.42752632
78	0xbdabd17b	-0.083895646
79	0x3e0f8f97	0.14019619
80	0x3e602ca5	0.2189203
81	0xbe1f17b7	-0.1553639
82	0xbdd60321	-0.104498155
83	0xbeb0b170	-0.34510374
84	0x3e3a982a	0.18222108
85	0xbe36777b	-0.17819016
86	0xbdd779c6	-0.10521273
87	0x3e33d71e	0.1756253
88	0xbe145230	-0.14484477
89	0xbe9fa22a	-0.3117841
90	0x3ea22f47	0.31676695
91	0x3ea2a748	0.3176825
92	0x3dbec446	0.0931478
93	0xbdd0cc8e	-0.10195266
94	0x3c2807de	0.010255782
95	0x3ea0d3a4	0.3141147
96	0x3c83ffe6	0.016113233
97	0x3dc9b0ef	0.098482005
98	0xbdd87a93	-0.10570254
99	0x3cbbf241	0.022942664
100	0x3c74b5ef	0.0149359545
101	0xbe12dd72	-0.14342287
102	0xbdcaf71d	-0.09910414
103	0xbeaab308	-0.33339715
104	0x3e6a1811	0.22860743
105	0x3e2e56e7	0.17025338
106	0x3e82eaa1	0.25569633
107	0xbd992515	-0.07477776
108	0x3ea15a3e	0.31514162
109	0xbe2c683f	-0.16836642
110	0x3e7a41cd	0.24439164
111	0x3e3dc249	0.18531145
112	0x3e5b9547	0.21443664
113	0x3d53742a	0.051624455
114	0xbec19f0a	-0.3781665
115	0xbdf87eb2	-0.1213354
116	0xbdcf8d1d	-0.10134337
117	0xbe9ce0e2	-0.30640322
118	0xbe8f05a6	-0.27933997
119	0xbe038836	-0.12844929
120	0xbe636c61	-0.22209312
121	0xbe3a5c70	-0.18199325
122	0x3f1af7f7	0.60534614
123	0x3edc226a	0.42995006
124	0xbd2d5934	-0.0423214
125	0x3eb2c482	0.3491555
126	0x3e293f04	0.16527945
127	0xbe1f97d8	-0.15585268
128	0x3dfa1f44	0.12212995
129	0xbe317cc0	-0.17332745
130	0xbe0c3094	-0.13690406
131	0x3f065cf4	0.52485585
132	0xbdceef93	-0.10104289
133	0x3ed8f4e2	0.4237433
134	0xbedc9a4d	-0.43086472
135	0x3e7df116	0.24798998
136	0xbe685fbb	-0.22692768
137	0xbe9d14a9	-0.30679825
138	0xbddb73fb	-0.10715481
139	0x3d691688	0.056906253
140	0x3dba5c62	0.09099652
141	0xbdfc1f75	-0.123106875
142	0x3e7858c4	0.24252611
143	0x3ea30749	0.31841496
144	0x3e0c25ba	0.13686267
145	0x3de32919	0.11091823
146	0x3ce14f67	0.027503682
147	0xbe8b6d88	-0.27232003
148	0xbe7ce523	-0.24696784
149	0xbe058fc4	-0.13043123
150	0xbcad325c	-0.021142177
151	0xbeb0b384	-0.3451196
152	0x3de9b756	0.11411922
153	0xbdd46d07	-0.10372358
154	0xbe2443b0	-0.16041446
155	0x3d07a01b	0.033111673
156	0xbe04f8c2	-0.12985519
157	0x3cb7e31d	0.022447163
158	0x3da00f6f	0.07815444
159	0x3f29c6cc	0.66318965
160	0xbd3c0366	-0.04590168
161	0xbd7c962a	-0.061666645
162	0x3e8bd5ce	0.27311558
163	0x3aa86b59	0.0012849375
164	0x3e48ac07	0.19596873
165	0xbe1460f3	-0.14490108
166	0x3e35fde5	0.17772634
167	0x3daa84f9	0.08326144
168	0x3e3c120d	0.18366261
169	0x3dc2175c	0.09477112
170	0x3e03899b	0.12845461
171	0xbf12fdff	-0.5741882
172	0x3dd455d0	0.1036793
173	0x3e886c04	0.2664491
174	0x3ebdb15f	0.37049386
175	0xbe6952f6	-0.22785553
176	0xbb90685f	-0.0044069733
177	0xbd97b19e	-0.07406925
178	0xbd819e34	-0.06329003
179	0x3e294d02	0.16533282
180	0xbcf7048c	-0.030153535
181	0x3d742391	0.05960423
182	0x3ebc9edd	0.36839953
183	0xbe86d4e4	-0.26334298
184	0x3ec4a66b	0.38408217
185	0x3d0681ba	0.03283856
186	0x3e5439e4	0.20725209
187	0xbeec2649	-0.4612296
188	0xbecd60e0	-0.40112972
189	0x3be2c088	0.006919924
190	0x3ba162d3	0.004925111
191	0xbe093154	-0.13397723
192	0xbe82d375	-0.25551954
193	0x3dedaa72	0.116047755
194	0xbe22e21e	-0.1590657
195	0xbb30cee1	-0.0026978778
196	0x3ddabb3b	0.10680243
197	0x3eb10546	0.34574336
198	0x3e0745e0	0.13210249
199	0xbed48777	-0.415096
200	0x3d071d61	0.032987002
201	0xbdd8ffa3	-0.10595634
202	0xbe3aabaa	-0.18229547
203	0xbe2b9fe4	-0.16760212
204	0x3e88317b	0.2660025
205	0x3e7a412c	0.24438924
206	0xbed54098	-0.41650844
207	0x3e05b557	0.13057457
208	0xbe9f3e52	-0.31102234
209	0xbdd0fabd	-0.102040745
210	0x3d847643	0.06467869
211	0x3dbd0ede	0.09231351
212	0x3eb93546	0.36173457
213	0xbdcde7ae	-0.10053955
214	0xbd9e004f	-0.077149026
215	0x3d61dc5d	0.055141795
216	0x3e3521b0	0.17688632
217	0xbe502109	-0.20325102
218	0xbe3a916c	-0.18219537
219	0x3d284c65	0.04108848
220	0xbec8f621	-0.3925028
221	0x3d8bbad2	0.068227425
222	0xbe5eac9e	-0.21745536
223	0xbe6ee206	-0.23328409
224	0xbc00d1f5	-0.007862558
225	0xbea7ceee	-0.32775062
226	0x3df7ac44	0.12093404
227	0x3e6081b9	0.21924485
228	0xbec46791	-0.38360265
229	0xbd2b8262	-0.04187239
230	0xbd8dfbfd	-0.069328286
231	0x3e6ed872	0.23324755
232	0xbe204368	-0.15650713
233	0x3d99eb34	0.075155646
234	0x3dff768e	0.124737844
235	0x3c71e078	0.01476299
236	0xbe698cee	-0.22807667
237	0x3dd297db	0.102828704
238	0xbd69c460	-0.057072043
239	0xbf0b7573	-0.5447609
240	0x3f39b6b2	0.72544396
241	0xbe9f9967	-0.31171724
242	0xbd7d7c1d	-0.06188594
243	0xbe27f6ba	-0.16402712
244	0x3e227dc5	0.1586829
245	0xbc5a7f3f	-0.013336002
246	0xbeb7ca27	-0.35896417
247	0x3e587a83	0.21140485
248	0xbd8877f0	-0.06663501
249	0x3e8301f1	0.2558742
250	0x3e09b828	0.13449156
251	0x3eab7d08	0.3349383
252	0x3e8d554d	0.27604142
253	0xbead4c6a	-0.33847362
254	0x3e309f60	0.17248297
255	0xbf22ed6d	-0.63643533

actor_mean.2.bias f4 [60]
0	0xbcdce500	-0.026964664
1	0xb9df92de	-0.000426433
2	0x3d356369	0.044284258
3	0xbe72be5f	-0.23705433
4	0x3e01785f	0.12643574
5	0x3d801fc7	0.06256061
6	0x3c144015	0.0090484815
7	0xbdfbac6a	-0.12288745
8	0xbd94bae1	-0.07262207
9	0x3db2e65a	0.08735342
10	0xbc60b62b	-0.013715307
11	0xbc5707b9	-0.0131244
12	0x3d43bf68	0.04778996
13	0x3dde226c	0.10846409
14	0x3e14bd09	0.14525236
15	0x3db2d6d0	0.087323785
16	0xbe5fa9db	-0.21842138
17	0x3e340f7e	0.17584035
18	0xbb479751	-0.0030455182
19	0x3d32b3ef	0.04362863
20	0x3d9e9704	0.07743648
21	0xbc74b18f	-0.014934911
22	0x3da4a036	0.0803837
23	0xbe2eb74a	-0.17062107
24	0x3e636b24	0.2220884
25	0x3cc441f9	0.02395724
26	0xbec620f5	-0.3869702
27	0x3d654335	0.055972297
28	0xbe0d29d6	-0.1378549
29	0x3deca309	0.11554534
30	0xbccf25fa	-0.025286663
31	0xbd101fac	-0.035186455
32	0x3e0b1c3c	0.1358499
33	0xbcd251b7	-0.02567373
34	0xbe1caccf	-0.15300296
35	0x3cea4048	0.028595105
36	0x3e239048	0.15973008
37	0xbe230f9c	-0.15923923
38	0xbeb92e43	-0.36168107
39	0xbd5e1153	-0.05421574
40	0x3d1f5a3d	0.038904417
41	0x3dfd2521	0.123605974
42	0x3dfbc905	0.12294201
43	0x3e6844fe	0.22682568
44	0xbe559e78	-0.20861232
45	0xbe0c7f4a	-0.13720432
46	0x3e3b480b	0.18289201
47	0x3e8e2be5	0.27767864
48	0x3d5ab78a	0.053397693
49	0x3ddcc539	0.10779805
50	0x3dacf974	0.08446017
51	0xbcdb8eb0	-0.026801437
52	0xbdc03b1f	-0.093862765
53	0xbe14ed5a	-0.14543667
54	0x3e599bba	0.21250811
55	0xbcb8b4ce	-0.022547152
56	0x3d4c4a46	0.04987552
57	0x3d0bd734	0.03414078
58	0x3deacbe5	0.11464671
59	0xbe3b9659	-0.18319072

actor_mean.4.weight f4 [6, 60]
0	0xbdf478ce	-0.11937104
1	0xbc377ce5	-0.011199211
2	0x3eb51d89	0.35374096
3	0xbd8c5e37	-0.068539076
4	0xbdb45bf2	-0.088066
5	0xbc812618	-0.015765235
6	0xbdf4453e	-0.119272694
7	0xbe190e31	-0.1494682
8	0x3e0c3490	0.13691926
9	0xbcd02771	-0.025409432
10	0x3dc9da16	0.0985605
11	0xbe4c4b94	-0.19950706
12	0xbdc33014	-0.095306545
13	0xbe73dffd	-0.23815913
14	0xbd4aafa0	-0.049483895
15	0xbe030a9c	-0.12797016
16	0xbcbe6e03	-0.023245817
17	0xbe253996	-0.16135249
18	0x3d54e47a	0.051975705
19	0x3d9540cc	0.0728775
20	0xbc5365b7	-0.012902669
21	0xbdac56de	-0.08415006
22	0xbd96fa70	-0.07371986
23	0x3ddb343b	0.107033215
24	0x3d610927	0.05494037
25	0x3d218199	0.039430235
26	0xbdf5f7bb	-0.120101415
27	0x3d6b9eb1	0.057524387
28	0xbd6935b5	-0.056935985
29	0xbd2145ba	-0.039373137
30	0xbc85cad6	-0.016332071
31	0xbcb6071b	-0.022220185
32	0x3cde26e0	0.027118146
33	0xbdc391e1	-0.095493086
34	0xbda527b4	-0.080642134
35	0xbdd5433e	-0.10413216
36	0x3e4ecf83	0.20196347
37	0xbcad9dc4	-0.021193393
38	0x3e19a5ad	0.15004607
39	0xbce16ab8	-0.027516708
40	0xbce711c0	-0.028206706
41	0xbd8bd1b9	-0.06827111
42	0x3e849a47	0.25898954
43	0x3d5c2688	0.053747684
44	0x3e8596bc	0.26091564
45	0xbde9e403	-0.11420443
46	0x3d45f4b7	0.04832908
47	0xbd3b7e15	-0.045774538
48	0x3df79467	0.120888524
49	0x3da0418e	0.078250036
50	0xbd77217a	-0.06033466
51	0x3d83e821	0.064407595
52	0x3db0214b	0.086001
53	0xbd47134a	-0.04860238
54	0x3df2df76	0.11859028
55	0x3e01d48c	0.12678736
56	0x3c9ea0bf	0.01936376
57	0xbdf9c090	-0.121949315
58	0x3d525da0	0.05135882
59	0x3c6c8d66	0.014438009
60	0x3e15a531	0.14613797
61	0xbe0b8b21	-0.13627292
62	0xbd20fb14	-0.039301947
63	0xbe46ffd4	-0.19433528
64	0x3e503e28	0.2033621
65	0xbdd38ea9	-0.10329945
66	0x3d83df32	0.064390555
67	0x3c8164ed	0.015795195
68	0x3dfa6bda	0.12227602
69	0xbd75a138	-0.059968203
70	0xbd7ccc1c	-0.06171809
71	0x3e1fd7f6	0.15609726
72	0x3e309a9a	0.17246476
73	0x3d556b05	0.052104015
74	0xbda0ffd4	-0.07861295
75	0x3d13fb1b	0.036128145
76	0x3d1b090a	0.037850417
77	0xbdedce3c	-0.11611602
78	0x3d5b1343	0.053485166
79	0xbd9ab296	-0.07553594
80	0xbcbd50e9	-0.02310987
81	0xbd3ce8b3	-0.046120357
82	0x3d013868	0.031547934
83	0xbde525f9	-0.11188883
84	0x3da6a25d	0.08136437
85	0x3c42a4db	0.011880125
86	0x3e5a53ab	0.2132098
87	0x3df1eff2	0.11813344
88	0xbdaa191c	-0.083055705
89	0xbc693bbe	-0.014235435
90	0x3d81a50c	0.06330308
91	0xbe07c9be	-0.13260552
92	0x3dd2c874	0.1029214
93	0x3d1b4f57	0.03791746
94	0x3dfaccf6	0.122461244
95	0xbe03bc44	-0.12864786
96	0x3a2b9c0a	0.0006546384
97	0x3d0341cf	0.03204518
98	0x3c248c61	0.010043235
99	0xbd9ea87f	-0.07746982
100	0xbd328e50	-0.04359275
101	0x3d374a2b	0.044748466
102	0xbe2e124b	-0.16999166
103	0x3e28c6d3	0.16482095
104	0x3d6c638f	0.057712134
105	0x3e0ee569	0.139547
106	0xbe215ae0	-0.15757322
107	0x3d425c4f	0.047451314
108	0x3c0b023d	0.00848442
109	0xbd14b53d	-0.036305655
110	0x3d450eaf	0.048109706
111	0x3e2651b4	0.16242105
112	0x3d684e3f	0.056715246
113	0xbc04d049	-0.0081063
114	0xbdbf9c0a	-0.09355934
115	0xbe05f65a	-0.13082257
116	0x3d9c33f6	0.07627098
117	0xbb00d5b1	-0.001965862
118	0xbd89fcb0	-0.067376494
119	0x3d815dce	0.0631672
120	0xbdded503	-0.108804725
121	0x3e110535	0.14162143
122	0x3d87e6dd	0.066358306
123	0x3d89a64f	0.06721174
124	0x3da34f5b	0.0797412
125	0xbd47ac52	-0.04874832
126	0x3d50e2fe	0.050997727
127	0x3dcedfcc	0.101012796
128	0x3c5a9734	0.013341714
129	0xbd174ad3	-0.036936592
130	0x3dc76ca6	0.0973752
131	0xbe124372	-0.14283541
132	0xbdd08816	-0.10182206
133	0x3d606878	0.05478713
134	0xbdb2ebac	-0.08736357
135	0xbdaf22fe	-0.08551596
136	0xbe2ea767	-0.17056046
137	0x3c8cb1b8	0.017174587
138	0x3c8b14d7	0.01697771
139	0x3dbdb15a	0.09262343
140	0x3e0ebfc7	0.13940345
141	0x3e43b6b7	0.19112669
142	0xbd387190	-0.045030177
143	0xbe07975a	-0.1324133
144	0x3d40be75	0.047056634
145	0x3e2def6b	0.16985862
146	0x3d97c380	0.074103355
147	0xbd63f010	-0.055648863
148	0x3df6d486	0.120522544
149	0xbcc5b1bd	-0.024132604
150	0x3e0408f9	0.12894048
151	0x3e0e2f31	0.1388519
152	0x3c1c4240	0.00953728
153	0xbcf96da0	-0.030447781
154	0x3df1f573	0.11814394
155	0x3cd978a8	0.026546791
156	0x3ddcc518	0.1077978
157	0x3da6bb94	0.081412464
158	0xbb94fbf2	-0.004546636
159	0x3e1bae94	0.15203315
160	0x3d9a0a3b	0.075214826
161	0xbde41e70	-0.11138618
162	0x3de96c5f	0.11397623
163	0xbc387988	-0.011259444
164	0xbdb0da9e	-0.08635448
165	0x3d8db7da	0.069198325
166	0xbc9da4c0	-0.019243598
167	0xbe307952	-0.1723378
168	0x3e720b54	0.23637134
169	0x3d8b0779	0.06788535
170	0xbd65894d	-0.056039143
171	0x3cac2e3e	0.021018144
172	0xbd8ec4ca	-0.06971128
173	0x3d433dcd	0.04766636
174	0x3d83591c	0.06413481
175	0xbcbccc7e	-0.023046728
176	0x3e0f0ace	0.13968965
177	0xbd09cf91	-0.033645216
178	0x3d4f37cd	0.050590325
179	0x3b8f2464	0.004368352
180	0x3db0b8c0	0.08628988
181	0x3ce0fb60	0.027463615
182	0x3cb6fcb1	0.02233729
183	0xbd23824f	-0.039919194
184	0x3df33521	0.11875368
185	0x3dc773dc	0.09738895
186	0xbd26f4bc	-0.04076074
187	0xbc08db64	-0.008353088
188	0x3dde307b	0.10849091
189	0xbde1d0ec	-0.11026177
190	0x3e021b97	0.12705837
191	0x3d5434e6	0.05180826
192	0xbcfd7b6b	-0.03094264
193	0x3d8d0d0c	0.06887254
194	0xbd088f6d	-0.033339906
195	0xbdb20458	-0.08692235
196	0xbc9e7543	-0.019343024
197	0xbe084f1b	-0.13311426
198	0xbd5bf9fd	-0.053705204
199	0xbc67b34e	-0.014141871
200	0xbe00a9ae	-0.12564728
201	0x3d93476b	0.07191356
202	0xbdc7376c	-0.09727368
203	0xbdb2416d	-0.08703885
204	0xbb433feb	-0.0029792737
205	0xbcf76ef7	-0.03020428
206	0xbda0a291	-0.07843507
207	0xbd2d7a82	-0.04235316
208	0xbd224fa4	-0.039626732
209	0xbdfcc39d	-0.12341998
210	0x3dd3604a	0.103211
211	0x3de47070	0.11154258
212	0xbe0fe179	-0.14050855
213	0xbd7bbc84	-0.06145908
214	0xbd1002b9	-0.035158847
215	0x3dcef670	0.10105598
216	0x3e2016ca	0.15633693
217	0xbdafa1c0	-0.08575773
218	0x3e5dafc6	0.21649083
219	0xbdc1eeb7	-0.09469359
220	0x3e417d17	0.18895374
221	0x3ea44d94	0.32090437
222	0x3d90ff62	0.070799604
223	0x3d5ac11b	0.053406816
224	0x3e100e43	0.1406794
225	0xbd9df8c8	-0.07713467
226	0x3db4679d	0.08808825
227	0xbe8a30d0	-0.26990366
228	0xbcb3a791	-0.021930488
229	0xbd494957	-0.049142208
230	0xbe0d7a3d	-0.13816161
231	0x3d692575	0.056920487
232	0x3dbb4279	0.09143538
233	0x3e4c916a	0.19977346
234	0x3de5d499	0.112221904
235	0xbdb17a3e	-0.08665894
236	0xbdb44ac5	-0.08803324
237	0x3d01cae5	0.031687636
238	0xbde126b4	-0.1099371
239	0x3e6a586d	0.22885294
240	0x3d9981a8	0.07495433
241	0xbd7f6a1c	-0.062357053
242	0x3da8c4a5	0.08240632
243	0xbd59834d	-0.053103734
244	0x3e36a7e4	0.17837483
245	0x3e4d523d	0.20050903
246	0xbaf68f89	-0.0018811087
247	0x3e2e4f12	0.1702235
248	0xbda2f88a	-0.07957561
249	0xbd5b048f	-0.053471144
250	0xbd6f326b	-0.05839769
251	0x3ddfaa2b	0.10921129
252	0x3d21cbb0	0.039500892
253	0x3c2e4f7b	0.010639067
254	0x3c7da458	0.015481077
255	0x3c52b7b3	0.01286118

actor_mean.4.bias f4 [6]
0	0x3db62aa9	0.088948555
1	0x3d48048e	0.04883247
2	0x3d4d8b3e	0.05018162
3	0xbca7bb8d	-0.020475173
4	0x3cb69305	0.022286901
5	0xbda530f2	-0.08065976
