PPO-cleanrl/models/pruning/PPO-HalfCheetah-v4-0.6-l1.pth (torch, 33868 bytes, 12 tensors)

actor_logstd f4 [1, 6]
0	0xbf81d04e	-1.0141695
1	0xbf71c566	-0.9444183
2	0xbf4a11c9	-0.7893339
3	0xbfc4dfe8	-1.5380831
4	0xbf74a5e5	-0.95565635
5	0xbf5a15a7	-0.8518929

weight f4 [64, 17]
0	0x3dea7bd9	0.11449403
1	0xbbee15d0	-0.007265784
2	0x3ddbf8e4	0.107408315
3	0x3db6509f	0.08902096
4	0xbd968ca9	-0.073510475
5	0x3ddb30a7	0.10702639
6	0x3d619c1b	0.055080514
7	0x3ba1dd76	0.0049397303
8	0x3cd6586a	0.026165206
9	0xbdfdbeba	-0.12389894
10	0x3b3c545b	0.0028736803
11	0x3e24953d	0.16072555
12	0x3e98c244	0.29835713
13	0x3c505685	0.01271594
14	0xbc99aa25	-0.018757889
15	0xbc278a74	-0.010225881
16	0xbd987eab	-0.07446035
17	0x3d11526f	0.035479005
18	0xbde44833	-0.111465834
19	0x3daf19e0	0.08549857
20	0x3ea477cc	0.32122648
21	0x3df44870	0.11927879
22	0xbe14c4cd	-0.14528199
23	0xbe0b8707	-0.13625728
24	0xbdd5fc90	-0.10448563
25	0xbcb88cab	-0.022528013
26	0xbdc1da9e	-0.09465526
27	0x3d6101f5	0.054933507
28	0xbcda38cc	-0.026638411
29	0x3c5c90ca	0.013462255
30	0xbd733e1c	-0.059385404
31	0x3c15172a	0.009099761
32	0xbe035ef5	-0.12829192
33	0xbccf8fb7	-0.025337083
34	0xbe85e464	-0.2615081
35	0x3ec5ab71	0.38607362
36	0x3dd4e77c	0.10395715
37	0xbd29aeac	-0.041426346
38	0xbd07aa27	-0.033121254
39	0xbd9d9635	-0.07694665
40	0xbd355d11	-0.04427821
41	0x3d8ba118	0.068178356
42	0x3e6fb81b	0.23410074
43	0xbe41548a	-0.18879905
44	0xbe7d5864	-0.2474075
45	0x3e8f6a30	0.28010702
46	0x3e74c66f	0.23903821
47	0xbe123eba	-0.14281741
48	0x3dfd0bca	0.12355764
49	0x3e2d2281	0.16907693
50	0x3e021d6d	0.12706538
51	0xbde5e097	-0.11224478
52	0x3e017f40	0.12646198
53	0xbe2b1d28	-0.16710341
54	0x3da5f935	0.08104173
55	0x3c0c3a98	0.008558892
56	0x3e399672	0.18123797
57	0x3e0369ed	0.12833376
58	0xbe413341	-0.18867208
59	0xbd9a8bf4	-0.07546225
60	0x3e3a775b	0.18209593
61	0x3d1b0755	0.03784879
62	0xbdd4578a	-0.10368259
63	0x3be5fb86	0.0070185093
64	0xbc61310b	-0.013744603
65	0xbd15729e	-0.03648626
66	0xbe129bbf	-0.14317225
67	0x3d7c4da3	0.061597478
68	0xbde08e73	-0.1096467
69	0x3dde2fbf	0.108489506
70	0x3de3751d	0.11106322
71	0x3e6a2263	0.2286468
72	0xbe471b7d	-0.1944408
73	0x3e401e3d	0.18761535
74	0x3e2c0397	0.16798244
75	0x3c2dd319	0.010609412
76	0x3e837318	0.25673747
77	0x3d943051	0.07235778
78	0xbe3f9227	-0.18708096
79	0xbe859e9e	-0.26097578
80	0xbed297d1	-0.41131452
81	0x3e565923	0.2093244
82	0xbd5438ed	-0.0518121
83	0x3decc97c	0.115618676
84	0xbd65b6aa	-0.056082405
85	0x3d646857	0.05576357
86	0x3bc2fb75	0.005950386
87	0x3c0e4985	0.008684521
88	0xbe1aee31	-0.15129925
89	0x3d0d5571	0.03450531
90	0xbea0fb7c	-0.31441867
91	0x3d767413	0.06016929
92	0x3dafdfa8	0.08587581
93	0x3e6f5c45	0.23375042
94	0xbd98c758	-0.07459897
95	0xbe4fa01a	-0.20275918
96	0xbe8d5677	-0.2760503
97	0xbe7765d5	-0.2415994
98	0x3dd27d9c	0.10277864
99	0xbd97b8b2	-0.07408275
100	0xbe4aceb5	-0.19805415
101	0xbdc63295	-0.096776165
102	0xbd220e5e	-0.039564483
103	0x3d5c2679	0.053747628
104	0x3dd6fd38	0.104975164
105	0x3d8e55ca	0.06949957
106	0xbe14c284	-0.14527327
107	0x3d49f074	0.04930158
108	0xbe43b547	-0.1911212
109	0x3cbd518a	0.02311017
110	0x3c801e1b	0.015639355
111	0x3d0c2c90	0.034222186
112	0x3e47e52c	0.19521016
113	0xbc64783b	-0.013944681
114	0x3da6d5d7	0.081462555
115	0x3d7b7397	0.061389532
116	0x3deffd12	0.11718191
117	0x3e392b78	0.18082988
118	0x3a1657e2	0.00057351415
119	0x3dcfccd6	0.10146491
120	0xbef2ffa4	-0.47460663
121	0xbe112ecc	-0.14178008
122	0x3e84d190	0.25941133
123	0x3d344801	0.04401398
124	0x3dd7c6fe	0.105360016
125	0x3c438e44	0.011935774
126	0xbc935dad	-0.017989004
127	0x3e6e76c1	0.23287489
128	0xbb190b38	-0.0023352634
129	0xbd12d964	-0.03585185
130	0x3e897d1e	0.2685327
131	0xbe123503	-0.14278035
132	0x3de39f5b	0.11114379
133	0x3d47b47b	0.048756104
134	0xbdc67a24	-0.09691265
135	0x3de3c2bf	0.11121129
136	0x3cb9421e	0.022614535
137	0xbe4a1f4d	-0.19738503
138	0xbe45b718	-0.19308126
139	0xbe5b33ec	-0.21406525
140	0xbdfe1831	-0.12406958
141	0xbd0c231d	-0.034213174
142	0xbd875634	-0.06608239
143	0xbd1a23c5	-0.03763177
144	0xbe33ccce	-0.17558596
145	0x3d546223	0.051851403
146	0xbe5d6da7	-0.2162386
147	0x3d6a0495	0.057133276
148	0xbe4b8601	-0.19875337
149	0x3d944a55	0.0724074
150	0xbe586ca4	-0.21135193
151	0x3d848dad	0.06472335
152	0x3c2d6448	0.010582991
153	0xbee2640f	-0.44216964
154	0x3ebc0443	0.36722
155	0xbe627156	-0.22113547
156	0x3e68f13f	0.22748278
157	0xbd3f2a74	-0.046671346
158	0x3e581e39	0.21105279
159	0x3d91b1ba	0.07113977
160	0x3d2b4a98	0.041819185
161	0xbdaa48ac	-0.08314642
162	0xbe59600e	-0.21228048
163	0x3cf48350	0.02984777
164	0xbe24ab1c	-0.16080898
165	0x3e3b57e8	0.18295252
166	0x3d8912a6	0.0669301
167	0x3ce65de1	0.028120937
168	0x3c8c112c	0.017098032
169	0xbd870ffa	-0.06594844
170	0x3e06619e	0.13123176
171	0xbdda3d9f	-0.106562845
172	0x3c0dce56	0.008655151
173	0xbddf4c98	-0.10903281
174	0x3dd6a3bc	0.104804486
175	0xbcf3e64f	-0.029772906
176	0xbe024dc6	-0.1272498
177	0xbd78eaa3	-0.060770642
178	0x3e7cefdc	0.24700874
179	0xbe79a7c6	-0.24380407
180	0x3c100f3e	0.0087926965
181	0x3d5beb6a	0.053691305
182	0x3bc8cc90	0.0061279014
183	0xbe0eb195	-0.1393493
184	0xbd6df25b	-0.058092456
185	0xbbb3033b	-0.0054630316
186	0x3dd9a681	0.10627461
187	0xbdd415f8	-0.10355753
188	0x3e142113	0.14465742
189	0xbe7acfca	-0.24493328
190	0x3d902009	0.0703736
191	0x3e123a67	0.14280091
192	0x3d6e7759	0.058219288
193	0xbcc1938b	-0.023629924
194	0x3dd19c40	0.102348804
195	0xbd8561d5	-0.065128006
196	0x3e8965a2	0.26835352
197	0x3e5540f5	0.2082556
198	0xbd9fa766	-0.077956006
199	0xbdd25e1e	-0.10271858
200	0xbd3e7101	-0.046494488
201	0x3db3b88e	0.087754354
202	0x3dc0db7a	0.09416862
203	0x3da75efc	0.08172414
204	0x3e30b1d9	0.17255343
205	0xbe550eb2	-0.20806387
206	0xbe577ca3	-0.21043639
207	0xbd4fd670	-0.050741613
208	0x3da19875	0.07890407
209	0xbde0bd9c	-0.10973665
210	0x3d927ba9	0.071524926
211	0xbd489760	-0.048972487
212	0x3e6bc4c7	0.23024283
213	0xbd5bc06b	-0.0536503
214	0x3e202966	0.15640792
215	0x3e474d19	0.19463004
216	0xbcca8ba9	-0.024724798
217	0x3debf59d	0.115214564
218	0x3ea0d32d	0.31411114
219	0x3ea345d5	0.31889215
220	0x3e3ad976	0.18247017
221	0x3b3f8e46	0.0029229089
222	0x3e361436	0.17781147
223	0x3e05bfb4	0.1306141
224	0xbe7220aa	-0.23645273
225	0x3df45e51	0.11932052
226	0x3e134faf	0.14385866
227	0x3e03fa8c	0.12888545
228	0x3e5b9724	0.21444374
229	0x3d53c27a	0.05169914
230	0xbc9ec595	-0.019381324
231	0xbe03aa05	-0.12857826
232	0x3c9c0d4d	0.019049311
233	0x3e832b5b	0.25619015
234	0x3b8dfb94	0.004332969
235	0xbe12bda8	-0.1433016
236	0xbe78e1d9	-0.24304904
237	0xbdd99cf2	-0.10625638
238	0x3e03d0bd	0.12872596
239	0x3ec40643	0.38286027
240	0xbe24b769	-0.1608559
241	0x3ca27a42	0.019833688
242	0x3b72887c	0.003700762
243	0x3e07f750	0.13277936
244	0xbabaf571	-0.0014263821
245	0x3d4fa0cc	0.050690457
246	0x3e4cbf83	0.19994931
247	0xbc340168	-0.010986663
248	0x3d87af13	0.0662519
249	0x3e5e0487	0.21681415
250	0x3da04d48	0.0782724
251	0x3db8dda5	0.0902665
252	0x3b3f8697	0.002922451
253	0x3cff82bc	0.031190269
254	0xbb226f02	-0.0024785404
255	0x3ee7c484	0.45267117

bias f4 [64]
0	0x3f17db04	0.59318566
1	0x3de5e0b5	0.112245
2	0x3ea44caf	0.32089755
3	0x3b083863	0.0020785562
4	0xbe10314c	-0.14081305
5	0xbc668662	-0.014070125
6	0x3f1dd3d5	0.61651355
7	0x3ecc3347	0.39882872
8	0x3dc67d89	0.09691913
9	0xbe20def2	-0.15710047
10	0xbe7bccb5	-0.24589808
11	0xbb18871f	-0.0023273898
12	0x3ddc98d1	0.10771335
13	0xbd2d4231	-0.042299453
14	0x3f2619a0	0.6488285
15	0x3e4ba894	0.19888526
16	0xbf29f082	-0.6638261
17	0xbe3616a9	-0.17782082
18	0x3f445041	0.7668496
19	0xbe36d774	-0.17855626
20	0xbde2a2c9	-0.11066205
21	0xbd9293f2	-0.071571246
22	0x3ebed245	0.37269798
23	0xbeedf424	-0.46475327
24	0xbe523d73	-0.20531254
25	0xbeb783cd	-0.35842744
26	0x3d8f380c	0.06993112
27	0x3ec45606	0.3834688
28	0x3e164050	0.14672971
29	0xbe15d0b0	-0.14630389
30	0x3e8162b0	0.25270605
31	0x3d9bc713	0.0760633
32	0x3e869317	0.26284096
33	0xbcac9be2	-0.021070424
34	0x3ec6f6f7	0.38860294
35	0xbf30f523	-0.6912405
36	0xbe86f1dd	-0.26356402
37	0x3d36ee7b	0.044661026
38	0x3e8d42ba	0.2758997
39	0xbd992e2e	-0.07479511
40	0xbee0c408	-0.4389956
41	0xbe0cdfbf	-0.13757227
42	0x3d228c94	0.039684847
43	0x3dbd1750	0.09232962
44	0xbd8f0c59	-0.06984777
45	0xbeea7efd	-0.4580001
46	0xbde155d0	-0.110026956
47	0x3e80118f	0.25013396
48	0xbf1aa79b	-0.60411996
49	0x3d981fca	0.07427938
50	0xbee2fd9a	-0.44334108
51	0x3d073167	0.033006098
52	0x3e7829bd	0.24234672
53	0x3d0a40b7	0.033753123
54	0xbd945b69	-0.072439976
55	0xbec2dd01	-0.38059238
56	0xbf313661	-0.692236
57	0x3a676208	0.00088265585
58	0xbf0aec8c	-0.5426719
59	0x3d6c9450	0.05775863
60	0xbf111bdd	-0.5668314
61	0xbcdb6216	-0.02678017
62	0xbe641663	-0.22274165
63	0xbe433820	-0.19064379

weight f4 [64, 64]
0	0x3def1ddf	0.11675619
1	0xbe29e116	-0.1658977
2	0x3d6c1e65	0.057646174
3	0xbd8145ec	-0.06312165
4	0xbeb552dc	-0.3541478
5	0xbd5b7898	-0.053581804
6	0x3e759e44	0.23986155
7	0x3c5ffe62	0.013671489
8	0xbdc7d260	-0.09756923
9	0xbe3b5f2a	-0.18298021
10	0xbe0c4316	-0.13697466
11	0xbecb73a6	-0.3973667
12	0x3dd86380	0.10565853
13	0xbe696e6a	-0.22796026
14	0x3ea06c7f	0.31332776
15	0x3e8f458b	0.27982745
16	0x3de788f1	0.113054164
17	0x3e6259cb	0.22104566
18	0xbe069615	-0.13143189
19	0x3e19e78c	0.15029734
20	0x3bbb7be2	0.005721555
21	0x3e05bd8c	0.13060588
22	0xbc4da0f0	-0.0125505775
23	0xbd46530e	-0.04841905
24	0x3d7e6a8d	0.062113333
25	0x3db13af3	0.08653822
26	0x3db2cc44	0.08730367
27	0xbe5cd0d0	-0.2156403
28	0xbd239b48	-0.03994301
29	0x3d888cf6	0.06667511
30	0xbd18c78a	-0.03729967
31	0x3b4aebae	0.003096323
32	0x3cbaf72c	0.022822939
33	0xbe8bf5f1	-0.27336076
34	0x3d7bc0e8	0.061463267
35	0x3da5a8dd	0.08088849
36	0xbe1580a5	-0.14599855
37	0xbd9b08ad	-0.07570014
38	0x3d6f91d3	0.05848868
39	0x3df3070a	0.11866577
40	0x3ca7f21f	0.020501195
41	0xbe448abd	-0.1919355
42	0x3d88df74	0.06683245
43	0xbd05a14f	-0.03262454
44	0xbe7e43b0	-0.24830508
45	0xbe2211a4	-0.15827042
46	0x3da4f96c	0.08055386
47	0xbf0c246b	-0.5474307
48	0xbc857d27	-0.016295029
49	0x3e26a791	0.16274859
50	0xbe7a13a6	-0.24421558
51	0xbad4a794	-0.0016224259
52	0xbbe7d253	-0.007074633
53	0x3cabcdb6	0.020972114
54	0x3e4b4946	0.1985217
55	0xbea7a85f	-0.32745644
56	0xbe81c938	-0.2534883
57	0xbe2362ea	-0.15955701
58	0x3ddd0bf6	0.10793297
59	0xbd64fdb8	-0.055906028
60	0xbda15fe4	-0.07879618
61	0x3c604295	0.013687749
62	0x3d5189c3	0.05115677
63	0xbd6dfbbb	-0.058101397
64	0x3e431edb	0.19054739
65	0x3d4601d4	0.048341587
66	0x3e069138	0.13141334
67	0x3c4efe54	0.012633879
68	0xbe4ca16c	-0.19983453
69	0xbe0c2c21	-0.13688709
70	0x3d80384b	0.06260737
71	0xbe3ecada	-0.18632069
72	0xbe44d199	-0.1922058
73	0xbdced7f3	-0.10099783
74	0x3d21c784	0.039496914
75	0x3d289049	0.041153226
76	0xbe3eea69	-0.18644108
77	0xbe4a512f	-0.19757532
78	0x3e376de0	0.17913008
79	0xbd5a3eca	-0.053282537
80	0x3d7609e9	0.060068045
81	0xbcec9ccd	-0.028883362
82	0xbcba1fac	-0.02272018
83	0x3cea133b	0.028573623
84	0xbe374635	-0.17897876
85	0xbda6f261	-0.08151699
86	0xbec0ed50	-0.37681055
87	0xbd1e3f14	-0.038634375
88	0xbd914c99	-0.07094688
89	0xbd547e6b	-0.051878374
90	0x3cd5a7a0	0.026080906
91	0xbe44446b	-0.19166724
92	0xbe165a06	-0.14682779
93	0x3ccc8bd2	0.024969015
94	0x3e54441c	0.20729107
95	0x3e69acc2	0.22819808
96	0xbda36bc6	-0.079795405
97	0x3eb10045	0.34570518
98	0xbcd1d633	-0.025614833
99	0xbd81d55c	-0.06339523
100	0x3d3ff6f0	0.046866357
101	0xbbf3ed99	-0.0074440953
102	0xb9cb9edb	-0.00038837534
103	0x3ebfafef	0.37438914
104	0x3da44b0d	0.08022127
105	0xbdb0bc7f	-0.08629703
106	0x3df1721c	0.11789343
107	0x3e0ca24a	0.13733783
108	0xbc8b0122	-0.016968314
109	0xbe84efca	-0.25964195
110	0xbdf38ace	-0.11891709
111	0x3e0645d2	0.13112572
112	0x3b837658	0.0040119104
113	0x3ea0aa7f	0.31380078
114	0xbe921227	-0.28529474
115	0x3d7528ca	0.059853353
116	0xbefefd90	-0.49802828
117	0xbe8307e8	-0.2559197
118	0x3d7f5d39	0.062344763
119	0x3dbe4aaf	0.092915885
120	0xbc1d248e	-0.009591235
121	0xbd9295fb	-0.07157513
122	0x3d88c03e	0.06677292
123	0x3ea91a9e	0.3302812
124	0x3d8e8492	0.069588795
125	0xbdb64378	-0.088995874
126	0xbec9a32e	-0.3938231
127	0xbe5c111b	-0.214909
128	0xbcbd7be2	-0.023130361
129	0xbe4d59ce	-0.20053789
130	0x3d8e8a1b	0.06959935
131	0x3e5b6fca	0.21429363
132	0xbe8e26dc	-0.27764022
133	0x3e1c3c14	0.15257293
134	0xbd2b203e	-0.041778795
135	0xbe898bef	-0.26864573
136	0xbe93ca7c	-0.2886542
137	0x3e9181b6	0.28419274
138	0xbcea7a0b	-0.028622648
139	0xbe9aba24	-0.3022014
140	0xbe8ab33b	-0.27089867
141	0x3b90f54c	0.004423773
142	0xbe42289d	-0.18960805
143	0x3dd1eee7	0.10250645
144	0xbdcfa4cc	-0.101388544
145	0x3e2955e4	0.16536671
146	0x3e4dd044	0.20098978
147	0xbdfdda9f	-0.12395214
148	0xbbb9598d	-0.0056564272
149	0xbdb2f858	-0.08738774
150	0x3eb50b09	0.35359982
151	0xbea1dcbc	-0.3161372
152	0xbe126554	-0.14296466
153	0x3d7c4950	0.061593354
154	0xbe671435	-0.22566302
155	0x3e1dacdd	0.15397973
156	0x3e9c2078	0.30493522
157	0x3c29851c	0.010346677
158	0xbdcaebbf	-0.09908246
159	0xbdc580c1	-0.096436985
160	0x3ec6d8f0	0.38837385
161	0x3d98ea6c	0.074665874
162	0x3d471574	0.048604444
163	0xbe424150	-0.18970227
164	0x3da7f540	0.082010746
165	0xbeb9832d	-0.36232892
166	0xbe8e609c	-0.27808082
167	0xba67c9e3	-0.0008842034
168	0xbd1b5ebc	-0.037932143
169	0xbd1958f7	-0.03743836
170	0x3d22a40a	0.03970722
171	0xbdb870ff	-0.09005927
172	0x3e94fb31	0.29097894
173	0xbd82765c	-0.063702315
174	0xbde652d0	-0.11246264
175	0x3df0e76c	0.1176289
176	0x3c22a459	0.009926879
177	0x3df888b1	0.12135447
178	0x3e06a2c4	0.13148028
179	0xbe4ab44f	-0.19795345
180	0x3b26db91	0.0025460462
181	0xbd0fc9e5	-0.03510465
182	0x3e8c0889	0.27350262
183	0xbe4c91ff	-0.19977568
184	0xbe890815	-0.2676398
185	0x3d9f901c	0.077911586
186	0x3e402705	0.18764885
187	0x3db0147a	0.085976556
188	0xbe328293	-0.17432623
189	0x3d242fe1	0.040084723
190	0xbda0db62	-0.07854344
191	0x3d37408c	0.04473929
192	0x3e99fc79	0.30075434
193	0x3d868ec2	0.06570198
194	0x3d346dcc	0.044050023
195	0xbe84e8f2	-0.25958973
196	0x3e460123	0.19336371
197	0x3efe2abe	0.49641985
198	0xbeca998d	-0.39570275
199	0xbd92621c	-0.07147619
200	0xbba1da8c	-0.004939383
201	0xbd9ec3ad	-0.07752166
202	0xbe8faeff	-0.280632
203	0xbd545bda	-0.05184541
204	0x3ad3d247	0.001616069
205	0xbe13dd74	-0.14439946
206	0xbe2bf7da	-0.16793767
207	0x3d08e5b6	0.033422194
208	0x3b97c097	0.004631113
209	0xbdb195e3	-0.08671167
210	0x3dd2cf6a	0.10293467
211	0x3c967791	0.01836756
212	0x3daac764	0.08338812
213	0x3d5283bf	0.051395174
214	0xbceede4e	-0.029158738
215	0x3ce504f2	0.02795646
216	0xbdc8b016	-0.09799211
217	0xbed3f08c	-0.4139446
218	0x3d9f1b51	0.07768882
219	0x3e134013	0.14379911
220	0xbe17bacc	-0.14817351
221	0x3e38562c	0.18001622
222	0x3d0633f6	0.032764398
223	0xbc20751b	-0.009793545
224	0xbe1caa0d	-0.15299244
225	0x3de47e72	0.1115693
226	0xbde85a95	-0.11345402
227	0x3e2ef2f0	0.17084861
228	0xbe533c2e	-0.20628425
229	0x3d378a66	0.04480972
230	0x3e4f8c4d	0.20268364
231	0x3d53ddfc	0.051725373
232	0xbe83a202	-0.2570954
233	0x3c5f2fde	0.013622252
234	0x3e3a8956	0.18216452
235	0xbe899346	-0.26870173
236	0x3e9b85bc	0.3037547
237	0xbe80c0ba	-0.2514704
238	0x3cccd64f	0.025004534
239	0x3c68b689	0.014203676
240	0x3c905058	0.017616436
241	0x3e08edc0	0.13371944
242	0x3da3cc34	0.07997933
243	0x3e42ba70	0.19016433
244	0xbcaab67a	-0.020838965
245	0xbe27d894	-0.16391212
246	0x3dc7ecc3	0.097619556
247	0xbe02d6be	-0.1277723
248	0xbca27a9c	-0.019833855
249	0x3d9a1b8c	0.075247854
250	0xbd1c45a2	-0.038152345
251	0x3dfa0bfd	0.12209318
252	0xbd3bc17d	-0.04583882
253	0x3ba96566	0.0051695583
254	0x3ead2cd7	0.33823273
255	0x3d4d6e8e	0.05015426

bias f4 [64]
0	0x3d87aef5	0.06625167
1	0x3d28a48f	0.04117256
2	0x3d1147f5	0.035469014
3	0xbd2cca9f	-0.042185422
4	0xbded1a8c	-0.11577329
5	0xbdc0e2ef	-0.09418284
6	0x3d47bd95	0.048764784
7	0xbd0bb8ac	-0.034111664
8	0xbdb86e2b	-0.09005388
9	0x3e5bd8ef	0.21469472
10	0x3a7562b8	0.00093607185
11	0x3dbb0a99	0.09132881
12	0xbb4f56e3	-0.0031637482
13	0xbd06f5a2	-0.032949097
14	0x3dc3bf75	0.09558002
15	0x3dc4fa70	0.0961808
16	0xbe29b850	-0.16574216
17	0x3e42cb03	0.19022755
18	0xbc9c02cc	-0.019044302
19	0x3cf7fc33	0.030271625
20	0x3e942221	0.28932288
21	0x3e575f59	0.21032466
22	0x3ce922d7	0.028458996
23	0xbce18910	-0.027531177
24	0x3e6638a1	0.2248254
25	0xbbc30655	-0.0059516826
26	0xbc00cbbb	-0.007861073
27	0x3d4bfdb5	0.0498025
28	0x3da9dc14	0.0829393
29	0x3dc9b76e	0.098494396
30	0x3d040d14	0.032239035
31	0x3db812ca	0.08987959
32	0x3e165082	0.14679149
33	0xbcd02da4	-0.025412388
34	0x3da0fcd6	0.07860725
35	0x3e09764f	0.13424037
36	0x3d640c4d	0.055675793
37	0x3d951497	0.07279318
38	0x3dd4da92	0.103932515
39	0xbc397295	-0.011318822
40	0xbcde17a2	-0.027110878
41	0xbe9bd24d	-0.30433884
42	0xbce6f81b	-0.028194478
43	0xbc487fd7	-0.012237511
44	0xbdcd0af6	-0.10011856
45	0x3d2e6e51	0.042585675
46	0x3d9c5c2d	0.07634769
47	0xbdef5b72	-0.11687364
48	0x3de1b82e	0.110214576
49	0xbd8cc849	-0.06874139
50	0xbdb010d0	-0.08596957
51	0xbde1f7e0	-0.110336065
52	0xbe4995ea	-0.19686094
53	0x3e3bb220	0.18329668
54	0x3e6741ae	0.22583649
55	0xbd96bc85	-0.07360176
56	0xbd398771	-0.045295183
57	0xbed82552	-0.42215973
58	0x3d5aed17	0.053448763
59	0xbdc07983	-0.093981765
60	0x3e928f71	0.28625062
61	0x3bf9946c	0.00761657
62	0xbe2df31e	-0.16987273
63	0x3e34c812	0.17654446

weight f4 [1, 64]
0	0x3e22f7af	0.15914796
1	0xbd238900	-0.039925575
2	0xbd6b674c	-0.05747156
3	0x3c3607ee	0.011110289
4	0x3b374fa6	0.0027971058
5	0x3da1ffff	0.079101555
6	0xbdd75c13	-0.10515609
7	0xbb857e38	-0.0040738843
8	0x3c93c2a8	0.018037155
9	0x3e586735	0.2113312
10	0x3cf64b10	0.03006509
11	0xbcd62d6e	-0.02614471
12	0x3ddcbe6e	0.10778509
13	0xbcb61a51	-0.022229346
14	0xbd08dc88	-0.03341344
15	0x3c085b7d	0.008322594
16	0xbe585e3a	-0.21129695
17	0xbc16ceda	-0.009204591
18	0x3c7ff579	0.01562249
19	0x3bcaa7f4	0.0061845724
20	0x3e767197	0.24066769
21	0x3ea85933	0.32880554
22	0x3c1befda	0.009517634
23	0x3c8378a7	0.016048742
24	0x3e70d83d	0.23519988
25	0x3dc72f4e	0.097258195
26	0xbdcb260f	-0.099193685
27	0x3d3c040e	0.045902304
28	0x3a8c9e95	0.0010728413
29	0xbe9f009f	-0.3105516
30	0x3d0be65c	0.034155235
31	0xbcbfcf4a	-0.023414273
32	0x3d919136	0.07107775
33	0x3d3d7fc0	0.04626441
34	0x3a96c9f4	0.0011504279
35	0xbd23af00	-0.039961815
36	0xbd568699	-0.052374456
37	0x3d7ceab9	0.061747286
38	0xbcfdfd71	-0.03100464
39	0xbd01ea00	-0.0317173
40	0x3dbce0d0	0.09222567
41	0xbe864e03	-0.26231393
42	0xbd7798f9	-0.06044862
43	0x3db2c122	0.087282434
44	0x3b619eb9	0.0034426881
45	0x3d827d9b	0.063716136
46	0x3c6377fe	0.013883589
47	0xbd97ffb1	-0.07421816
48	0x3d446e3b	0.047956686
49	0xbcb6a3c3	-0.022294885
50	0xbdfce885	-0.12349037
51	0xbbdf5db0	-0.0068165883
52	0xbe4a4bf6	-0.1975554
53	0x3df75943	0.12077572
54	0x3df7a2f0	0.12091625
55	0xbe009d8f	-0.12560104
56	0xbdd8b7db	-0.10581943
57	0xbe2ee24f	-0.17078517
58	0xba41e0ef	-0.00073958834
59	0xbd04ee88	-0.032454044
60	0x3e81b5a0	0.2533388
61	0xbc4d1a92	-0.012518542
62	0xbe49c613	-0.19704466
63	0x3e4ac61d	0.19802137

weight f4 [25, 17]
0	0x3e9cd0da	0.3062809
1	0x3e9ad4c4	0.30240452
2	0xbeb153f2	-0.34634358
3	0xbdca9d66	-0.098933026
4	0x3d90b968	0.070666134
5	0xbe2fa7f4	-0.17153913
6	0x3dc8c59d	0.09803317
7	0x3ee8dc56	0.45480603
8	0x3e2f3c2b	0.17112796
9	0xbb14381a	-0.0022616447
10	0x3e1a9074	0.15094167
11	0x3e8c7d59	0.27439383
12	0x3e89c4ad	0.26907864
13	0xbc573cd9	-0.013137066
14	0xbe2de3aa	-0.16981378
15	0x3dbceb26	0.092245385
16	0xbe73c344	-0.23804957
17	0xbece71d7	-0.40321228
18	0x3d8ebc44	0.069695026
19	0xbe46f547	-0.19429503
20	0x3df49719	0.11942882
21	0xbc39f3fd	-0.011349675
22	0x3dc3273f	0.0952897
23	0xbc0f9077	-0.00876247
24	0xbe4dcc3e	-0.20097443
25	0x3e9745ba	0.29545385
26	0x3e70b355	0.2350591
27	0xbe36d895	-0.17856057
28	0x3eb3a0cb	0.35083613
29	0xbf3caea4	-0.7370398
30	0xbc9ba724	-0.019000597
31	0xbd445bed	-0.04793923
32	0x3f53361e	0.8250445
33	0xbd3ef639	-0.046621535
34	0xbe92d430	-0.2867751
35	0xbe2bcc19	-0.16777076
36	0xbe12ba34	-0.14328843
37	0x3e1e7f6e	0.15478298
38	0x3e32412c	0.17407674
39	0x3da7977c	0.0818319
40	0xbe0ddf70	-0.13854766
41	0x3e5fdc9d	0.21861501
42	0xbe8c6e82	-0.2742806
43	0x3e1f1320	0.1553464
44	0xbe944c7a	-0.28964597
45	0x3e168e49	0.14702715
46	0xbd9f874e	-0.07789479
47	0xbd1eee79	-0.038801644
48	0x3ec19181	0.37806323
49	0x3e59083c	0.21194547
50	0x3efc5e0a	0.49290496
51	0x3e3c128c	0.1836645
52	0xbded60b1	-0.11590708
53	0xbf086598	-0.5328002
54	0xbcf97bc9	-0.030454533
55	0xbe9b916f	-0.30384395
56	0x3ec00ac6	0.3750822
57	0xbd869030	-0.0657047
58	0x3eb462d5	0.35231653
59	0xbdc5c65c	-0.09656975
60	0xbec76dce	-0.38950962
61	0xbd93fd00	-0.0722599
62	0xbe09ce15	-0.1345752
63	0xbe710c36	-0.23539814
64	0x3d99e9df	0.075153105
65	0x3dfce600	0.123485565
66	0xbbec5406	-0.007212165
67	0xbe05d9e2	-0.13071397
68	0xbe4c74db	-0.19966452
69	0x3e774a63	0.2414947
70	0x3daf4841	0.08558703
71	0xbbbeff95	-0.0058288076
72	0x3e33a7bc	0.17544454
73	0x3ee91904	0.45526898
74	0x3d88dfb6	0.066832945
75	0x3f06a798	0.5259948
76	0x3dbd296f	0.092364185
77	0xbe93d497	-0.2887313
78	0xbd9b0cec	-0.07570824
79	0xbf1ee8d8	-0.6207404
80	0x3e81b830	0.25335836
81	0xbde1a26d	-0.110173084
82	0xbdf12f70	-0.11776626
83	0x3dc82458	0.09772557
84	0x3eb1c2fd	0.34719077
85	0xbf14e1cf	-0.58157057
86	0xbe79f97b	-0.24411575
87	0x3e1856ec	0.14876908
88	0x3cdcfab7	0.026975019
89	0xbe0641b1	-0.13110997
90	0x3e03520a	0.12824264
91	0xbd84dc24	-0.06487301
92	0xbe3d78c0	-0.18503094
93	0xbeb5fda3	-0.35545072
94	0xbef35483	-0.47525415
95	0xbef83bed	-0.4848322
96	0x3d6683cd	0.05627804
97	0xbb18fe8b	-0.0023345079
98	0x3e3d4812	0.18484524
99	0xbedc51e0	-0.43031216
100	0xbf15e737	-0.5855593
101	0x3d80cf7f	0.06289577
102	0xbe869796	-0.26287526
103	0xbd43c874	-0.04779859
104	0x3e5f40ca	0.21802059
105	0x3e995d26	0.2995388
106	0x3bcdc8e5	0.006280052
107	0xbead7a98	-0.33882594
108	0x3d8c3a97	0.068471126
109	0xbe3a7286	-0.1820775
110	0xbbbbfb12	-0.005736717
111	0x3e3c7575	0.18404181
112	0x3e7e6e24	0.24846703
113	0xbed03f5f	-0.40673348
114	0x3d829f83	0.06378081
115	0xbe9513fa	-0.29116803
116	0x3e69ac0c	0.22819537
117	0xbeae944b	-0.34097514
118	0x3eb1295e	0.34601873
119	0xbe84f7e0	-0.25970364
120	0xbd0372b8	-0.032091826
121	0x3c947703	0.018123155
122	0x3eae8665	0.3408691
123	0xbe679daf	-0.22618745
124	0x3e322fd6	0.1740106
125	0x3d98b3f9	0.07456202
126	0x3ec74c86	0.3892557
127	0xbe690612	-0.22756222
128	0xbeb328f6	-0.34992188
129	0xbe8d4efb	-0.2759932
130	0x3e6e517c	0.23273271
131	0xbe0d82de	-0.13819453
132	0xbe904c89	-0.28183392
133	0x3ea242f6	0.31691712
134	0xbdbc7108	-0.092012465
135	0xbe0ab139	-0.13544168
136	0xbe899041	-0.2686787
137	0xbcd533fe	-0.026025768
138	0xbef2882b	-0.47369513
139	0x3db63edf	0.088987105
140	0x3eb10183	0.34571466
141	0x3e697120	0.2279706
142	0x3e9b2f9f	0.3030977
143	0x3de8680e	0.11347972
144	0xbe0ad263	-0.13556819
145	0x3e1e630e	0.15467474
146	0xbe5df4fc	-0.21675485
147	0xbdb5cfd2	-0.08877529
148	0xbe32d8dd	-0.1746554
149	0xbe98e5e4	-0.29862893
150	0xbe284629	-0.16433014
151	0x3ea5d3ac	0.32388055
152	0xbd9e4c54	-0.07729402
153	0x3dea7666	0.11448364
154	0x3ea38291	0.31935552
155	0x3e59a6d4	0.21255046
156	0x3e82583e	0.25457948
157	0x3e507a2b	0.20359103
158	0xbe147129	-0.14496292
159	0x3d799d24	0.060940877
160	0xbdcbfcf7	-0.099603586
161	0xbdfe3824	-0.12413052
162	0x3e273619	0.1632923
163	0xbed3c3cf	-0.41360328
164	0x3e1d72be	0.15375802
165	0x3e55bf1f	0.20873688
166	0x3e2a4976	0.16629586
167	0xbe4c181a	-0.19931069
168	0x3ecfb5ca	0.40568382
169	0x3da0db92	0.0785438
170	0xbeaa42aa	-0.33253986
171	0x3e8d6fab	0.27624258
172	0x3e642c5b	0.22282545
173	0x3e1bfd08	0.15233243
174	0xbe8f3c06	-0.27975482
175	0xbc622f93	-0.013805288
176	0x3e6f05a1	0.23341991
177	0x3de33603	0.11094286
178	0x3d8095ca	0.0627857
179	0xbd9913ae	-0.07474457
180	0x3dcf75e5	0.101299085
181	0xbeb1704f	-0.34655997
182	0xbcd1f381	-0.025628807
183	0xbe7a5c5d	-0.24449296
184	0xbf0845a7	-0.5323128
185	0x3e1063a7	0.14100514
186	0x3e032683	0.1280766
187	0xbe8c7f47	-0.27440855
188	0xbf22e820	-0.63635445
189	0xbdb742a0	-0.089482546
190	0x3e99a1a7	0.30006143
191	0xbe0e513d	-0.13898177
192	0xbebf6df1	-0.37388566
193	0xbe21e8ab	-0.15811412
194	0x3e855f9e	0.26049513
195	0x3eafe15c	0.34351623
196	0x3e110ec8	0.14165795
197	0x3c87d046	0.016578805
198	0xbe9554f6	-0.29166383
199	0x3be748db	0.0070582456
200	0x3d0d3ae8	0.034480006
201	0xbe7c4752	-0.24636582
202	0x3cd09bb3	0.025464868
203	0xbe529497	-0.20564495
204	0x3f0dc3ea	0.55377066
205	0xbe889b48	-0.2668097
206	0x3e810f2e	0.25206894
207	0x3c9cbd1b	0.019133141
208	0x3d7ff137	0.0624859
209	0x3e2f1276	0.17096886
210	0xbe942abe	-0.2893886
211	0x3e183ef7	0.14867769
212	0x3e6f3648	0.2336055
213	0x3da23ff5	0.07922355
214	0xbe3ddba7	-0.18540822
215	0xbea1805e	-0.3154325
216	0xbea4f17e	-0.32215494
217	0x3e25bafd	0.16184612
218	0x3e18734b	0.14887731
219	0xbe68bf9e	-0.22729346
220	0xbdd6a131	-0.104799636
221	0xbf0085ec	-0.5020435
222	0x3f00cb3c	0.5031011
223	0xbe300906	-0.17190942
224	0x3dfa98a0	0.12236142
225	0x3e503074	0.20330983
226	0xbedb525d	-0.42836276
227	0xbec381af	-0.38184878
228	0x3e5221b3	0.20520668
229	0xbdabc4df	-0.083871596
230	0xbd0fc912	-0.035103865
231	0xbe4303a8	-0.19044363
232	0x3e482f6a	0.19549337
233	0xbd345c91	-0.04403359
234	0x3d8114a3	0.06302764
235	0x3e81d0ae	0.25354522
236	0x3dea5247	0.114414744
237	0x3bced6f0	0.0063122436
238	0xbecb204f	-0.39673087
239	0x3d25c185	0.040467758
240	0x3e921df9	0.28538492
241	0xbe951196	-0.2911498
242	0x3dccfc68	0.1000908
243	0xbcfe0b2c	-0.031011187
244	0x3ed788a9	0.4209645
245	0x3d6b77c9	0.057487283
246	0x3ecd4081	0.40088275
247	0x3eafc6cf	0.34331366
248	0x3b445736	0.0029959208
249	0xbe847453	-0.25869998
250	0x3e77b3f5	0.24189742
251	0x3e143943	0.14474969
252	0xbd5a0e56	-0.053236328
253	0xbe9cd320	-0.30629826
254	0xbde410ce	-0.11136018
255	0xbe574128	-0.21020949

bias f4 [25]
0	0x3e05df17	0.13073383
1	0x3cc8d330	0.024514765
2	0xbdd786b7	-0.10523742
3	0xbdacba56	-0.08433978
4	0xbe28885b	-0.16458265
5	0xbde687f6	-0.11256401
6	0xbd9f45b9	-0.077769704
7	0xbdc3bfc4	-0.09558061
8	0x3dade260	0.08490443
9	0x3e585f15	0.21130021
10	0xbe631597	-0.22176205
11	0x3d69bf29	0.05706707
12	0x3c67725f	0.014126389
13	0x3e953ccf	0.29147956
14	0xbc388949	-0.0112632
15	0xbba0bbf8	-0.00490522
16	0x3e4620cb	0.19348447
17	0x3e2c74ae	0.16841385
18	0xbe11fdda	-0.14256993
19	0xbed11853	-0.4083887
20	0xbe0ae23f	-0.13562869
21	0xbe0996b2	-0.13436392
22	0xbe22a40d	-0.15882893
23	0x3da05024	0.078277856
24	0xbe8f3808	-0.27972436

weight f4 [25, 25]
0	0xbe7bc474	-0.2458666
1	0xbdc8d4be	-0.09806202
2	0x3cf17415	0.029474298
3	0xbea75406	-0.32681292
4	0xbcec51e2	-0.028847639
5	0x3ec19948	0.37812257
6	0x3ddb139e	0.10697101
7	0xbc4e342f	-0.012585684
8	0xbec3e7df	-0.3826284
9	0x3d5538af	0.05205601
10	0xbee37f37	-0.44432995
11	0xbe02f16e	-0.1278741
12	0x3ede6314	0.43434966
13	0x3e3c95b4	0.18416482
14	0xbd8807a0	-0.06642079
15	0xbdbf2451	-0.09333099
16	0x3f0bbd19	0.54585415
17	0x3e32639e	0.17420813
18	0xbe43c24d	-0.19117089
19	0x3e835a71	0.2565494
20	0x3cb89577	0.022532208
21	0xbe048518	-0.12941396
22	0x3d6edd89	0.05831674
23	0xbdec880c	-0.115493864
24	0x3eba4289	0.36378887
25	0xbe3a5c70	-0.18199325
26	0x3f1af7f7	0.60534614
27	0x3eb2c482	0.3491555
28	0x3e293f04	0.16527945
29	0x3dfa1f44	0.12212995
30	0xbe0c3094	-0.13690406
31	0xbdceef93	-0.10104289
32	0x3ed8f4e2	0.4237433
33	0x3e7df116	0.24798998
34	0x3dba5c62	0.09099652
35	0xbdfc1f75	-0.123106875
36	0x3e7858c4	0.24252611
37	0xbe7ce523	-0.24696784
38	0xbeb0b384	-0.3451196
39	0xbe2443b0	-0.16041446
40	0xbd7c962a	-0.061666645
41	0x3e8bd5ce	0.27311558
42	0x3aa86b59	0.0012849375
43	0x3e48ac07	0.19596873
44	0x3daa84f9	0.08326144
45	0xbf12fdff	-0.5741882
46	0x3dd455d0	0.1036793
47	0x3e886c04	0.2664491
48	0x3ebdb15f	0.37049386
49	0x3e294d02	0.16533282
50	0x3d742391	0.05960423
51	0x3ebc9edd	0.36839953
52	0x3d0681ba	0.03283856
53	0x3e5439e4	0.20725209
54	0xbecd60e0	-0.40112972
55	0x3ba162d3	0.004925111
56	0xbe82d375	-0.25551954
57	0x3dedaa72	0.116047755
58	0xbb30cee1	-0.0026978778
59	0x3d071d61	0.032987002
60	0xbdd8ffa3	-0.10595634
61	0xbe3aabaa	-0.18229547
62	0xbe9f3e52	-0.31102234
63	0x3dbd0ede	0.09231351
64	0xbd9e004f	-0.077149026
65	0x3d8bbad2	0.068227425
66	0xbe5eac9e	-0.21745536
67	0xbe6ee206	-0.23328409
68	0xbc00d1f5	-0.007862558
69	0x3e6081b9	0.21924485
70	0x3e6ed872	0.23324755
71	0xbe204368	-0.15650713
72	0x3d99eb34	0.075155646
73	0x3dff768e	0.124737844
74	0xbf0b7573	-0.5447609
75	0xbe9f9967	-0.31171724
76	0xbd7d7c1d	-0.06188594
77	0xbc5a7f3f	-0.013336002
78	0xbeb7ca27	-0.35896417
79	0xbd8877f0	-0.06663501
80	0x3e09b828	0.13449156
81	0x3e8d554d	0.27604142
82	0xbead4c6a	-0.33847362
83	0xbf22ed6d	-0.63643533
84	0xbe998304	-0.2998277
85	0x3dfe4888	0.12416178
86	0xbccbaaef	-0.02486178
87	0x3e05f65b	0.13082258
88	0x3d732426	0.059360646
89	0x3e992bf9	0.2991636
90	0xbeadd46a	-0.33951122
91	0x3e280af4	0.16410428
92	0x3d6ec6d2	0.05829508
93	0x3d0ec030	0.034851253
94	0xbe048621	-0.12941791
95	0xbdf7c79c	-0.12098619
96	0xbea67cb4	-0.32517016
97	0x3ea80980	0.32819748
98	0xbdd9ee75	-0.10641185
99	0x3d9cfcc3	0.07665398
100	0x3e446fd3	0.19183283
101	0x3e837e9c	0.25682533
102	0xbdca885c	-0.0988929
103	0x3e8030fd	0.25037375
104	0x3c13fdd1	0.0090326825
105	0x3dffadd8	0.1248433
106	0x3db2279f	0.086989634
107	0xbe92c0f7	-0.28662845
108	0x3e2286ac	0.15871686
109	0xbe022f98	-0.12713468
110	0xbdc4ace7	-0.09603291
111	0xbdf9851e	-0.12183593
112	0x3e3281d2	0.17432335
113	0x3eac975e	0.33709234
114	0xbbcc79f6	-0.006240125
115	0xbe74bb7e	-0.23899648
116	0xbf01c9f1	-0.50698763
117	0x3e3ce534	0.18446809
118	0x3da1f639	0.07908291
119	0x3da646e9	0.08118994
120	0xbddf8cd7	-0.10915535
121	0x3e850c1f	0.2598581
122	0xbd73082b	-0.05933396
123	0xbe292bd4	-0.16520625
124	0x3d558cbd	0.05213617
125	0x3e593663	0.21212153
126	0xbf4cb2b5	-0.79960185
127	0xbe4ffd60	-0.20311499
128	0xbe37fbd6	-0.17967162
129	0x3dd6b55b	0.104838096
130	0x3e9186c7	0.2842314
131	0x3eca7ca6	0.39548224
132	0xbdfbf6ef	-0.12302958
133	0xbf38fc88	-0.7226033
134	0x3dc55a8a	0.096364096
135	0x3ddfda49	0.109303065
136	0x3d878179	0.06616492
137	0x3d5c4ca5	0.05378403
138	0xbe983643	-0.29728898
139	0x3e9c139a	0.30483705
140	0xbdbeb2af	-0.09311425
141	0xbdb523fa	-0.088447526
142	0x3ecbcaad	0.39803067
143	0x3e366e47	0.17815505
144	0xbe701677	-0.2344607
145	0xbe0680e6	-0.13135108
146	0xbe394353	-0.18092088
147	0x3d9747de	0.073867545
148	0xbea221fc	-0.31666553
149	0x3e280830	0.16409373
150	0xbdde22dc	-0.10846493
151	0xbe2536b4	-0.16134149
152	0xbeb2b518	-0.3490379
153	0xbe9d7407	-0.30752584
154	0x3dc0136a	0.09378703
155	0xbe7796ac	-0.2417857
156	0x3e8726c5	0.26396766
157	0xbe991da8	-0.29905438
158	0xbecff521	-0.40616706
159	0xbce71e72	-0.02821276
160	0xbdbcb0ea	-0.09213431
161	0xbe555693	-0.20833807
162	0xbd2b9000	-0.041885376
163	0x3dcaac7b	0.09896179
164	0x3e83f252	0.25770813
165	0x3d86ef2b	0.065885864
166	0x3e5ee991	0.21768786
167	0xbebea0b6	-0.37231988
168	0xbedca23d	-0.43092528
169	0xbdcbc17e	-0.09949015
170	0xbde75511	-0.11295522
171	0x3e6f6f71	0.23382355
172	0xbdef2f20	-0.1167891
173	0x3d43e676	0.047827207
174	0xbe47d1a2	-0.19513562
175	0xbd36550b	-0.044514697
176	0x3e80269d	0.2502946
177	0xbe09854a	-0.13429752
178	0xbbf72bad	-0.0075430484
179	0xbe73f498	-0.23823774
180	0xbe84f304	-0.25966656
181	0x3e30876e	0.17239162
182	0x3cf51bab	0.02992042
183	0xbd62b08f	-0.05534416
184	0xbedddfaa	-0.43334705
185	0xbe0e2469	-0.13881077
186	0x3e25e68a	0.16201225
187	0xbdcb891b	-0.0993826
188	0x3ebdfb20	0.37105656
189	0xbe708601	-0.23488618
190	0x3dd459d5	0.103686966
191	0xbebcaa83	-0.3684884
192	0x3e55e164	0.20886761
193	0x3eaa3ff0	0.33251905
194	0xbdebece5	-0.115197934
195	0x3c8605f7	0.016360266
196	0x3eb6eaf4	0.3572613
197	0xbed203d9	-0.4101856
198	0x3eca7a9a	0.39546663
199	0xbd0d3ccc	-0.03448181
200	0x39f847af	0.00047355655
201	0xbd463181	-0.048387054
202	0x3e0609fa	0.13089743
203	0xbeb5fd3e	-0.3554477
204	0x3e4e60b2	0.20154074
205	0x3e5e81fa	0.2172927
206	0xbdb3e023	-0.08782985
207	0x3da7dd4e	0.081965074
208	0xbecc4ba6	-0.39901465
209	0x3e807d3a	0.2509554
210	0xbcfa5687	-0.030558838
211	0xbe185595	-0.14876397
212	0xbebad393	-0.36489543
213	0x3ed3d6f3	0.4137493
214	0x3e8bf5b6	0.273359
215	0xbe9ef0c8	-0.31043077
216	0x3e28fad8	0.1650194
217	0xbdcb02c5	-0.099126376
218	0xbd850442	-0.06494953
219	0xbf1d1339	-0.61357456
220	0x3d8a54f8	0.06754488
221	0x3b11c764	0.002224409
222	0xbe4d7e15	-0.20067628
223	0xbe52191f	-0.20517395
224	0x3ea0712c	0.31336343
225	0xbdee6380	-0.11640072
226	0x3d2a0ce5	0.041516203
227	0x3da31e08	0.079647124
228	0x3c9574f2	0.01824424
229	0x3e1a3831	0.15060498
230	0x3d149050	0.03627044
231	0xbd8d6151	-0.06903327
232	0xbe68b031	-0.22723462
233	0x3ddf627c	0.10907456
234	0x3e42f7b2	0.19039801
235	0x3e0892d4	0.1333726
236	0x3e7cc96a	0.24686208
237	0xbd5649c5	-0.052316446
238	0xbdf6cdf9	-0.12051005
239	0xbe2bffc1	-0.16796781
240	0xbdde970d	-0.108686544
241	0xbe371100	-0.17877579
242	0xbcbbda12	-0.022931132
243	0xbeca7144	-0.3953954
244	0x3d94bea8	0.07262927
245	0x3ddec7ff	0.1087799
246	0xbe138233	-0.14405136
247	0x3f3ad24a	0.72977126
248	0xbee3c414	-0.44485533
249	0x3e80d2da	0.25160867
250	0xbde44fae	-0.1114801
251	0xbdafd46c	-0.08585438
252	0x3ea8e5b0	0.32987738
253	0x3dc3a385	0.09552673
254	0x3eccb1e0	0.39979458
255	0xbd836844	-0.064163715

bias f4 [25]
0	0xbcdce500	-0.026964664
1	0x3d356369	0.044284258
2	0xbe72be5f	-0.23705433
3	0x3e01785f	0.12643574
4	0x3d801fc7	0.06256061
5	0xbc5707b9	-0.0131244
6	0x3dde226c	0.10846409
7	0x3e14bd09	0.14525236
8	0x3e340f7e	0.17584035
9	0xbc74b18f	-0.014934911
10	0xbec620f5	-0.3869702
11	0x3cea4048	0.028595105
12	0x3e239048	0.15973008
13	0x3d1f5a3d	0.038904417
14	0x3dfd2521	0.123605974
15	0x3dfbc905	0.12294201
16	0xbe559e78	-0.20861232
17	0xbe0c7f4a	-0.13720432
18	0x3e3b480b	0.18289201
19	0x3e8e2be5	0.27767864
20	0xbcdb8eb0	-0.026801437
21	0xbdc03b1f	-0.093862765
22	0xbe14ed5a	-0.14543667
23	0x3d0bd734	0.03414078
24	0x3deacbe5	0.11464671

weight f4 [6, 25]
0	0xbdf478ce	-0.11937104
1	0x3eb51d89	0.35374096
2	0xbd8c5e37	-0.068539076
3	0xbdb45bf2	-0.088066
4	0xbc812618	-0.015765235
5	0xbe4c4b94	-0.19950706
6	0xbe73dffd	-0.23815913
7	0xbd4aafa0	-0.049483895
8	0xbe253996	-0.16135249
9	0xbdac56de	-0.08415006
10	0xbdf5f7bb	-0.120101415
11	0xbdd5433e	-0.10413216
12	0x3e4ecf83	0.20196347
13	0xbce711c0	-0.028206706
14	0xbd8bd1b9	-0.06827111
15	0x3e849a47	0.25898954
16	0x3e8596bc	0.26091564
17	0xbde9e403	-0.11420443
18	0x3d45f4b7	0.04832908
19	0xbd3b7e15	-0.045774538
20	0x3d83e821	0.064407595
21	0x3db0214b	0.086001
22	0xbd47134a	-0.04860238
23	0xbdf9c090	-0.121949315
24	0x3d525da0	0.05135882
25	0x3e15a531	0.14613797
26	0xbd20fb14	-0.039301947
27	0xbe46ffd4	-0.19433528
28	0x3e503e28	0.2033621
29	0xbdd38ea9	-0.10329945
30	0x3e1fd7f6	0.15609726
31	0x3d556b05	0.052104015
32	0xbda0ffd4	-0.07861295
33	0xbdedce3c	-0.11611602
34	0xbd3ce8b3	-0.046120357
35	0x3e5a53ab	0.2132098
36	0xbe03bc44	-0.12864786
37	0x3a2b9c0a	0.0006546384
38	0xbd328e50	-0.04359275
39	0x3d374a2b	0.044748466
40	0xbe2e124b	-0.16999166
41	0x3d6c638f	0.057712134
42	0x3e0ee569	0.139547
43	0xbe215ae0	-0.15757322
44	0x3d425c4f	0.047451314
45	0x3e2651b4	0.16242105
46	0x3d684e3f	0.056715246
47	0xbc04d049	-0.0081063
48	0xbb00d5b1	-0.001965862
49	0xbd89fcb0	-0.067376494
50	0xbdded503	-0.108804725
51	0x3d87e6dd	0.066358306
52	0x3d89a64f	0.06721174
53	0x3da34f5b	0.0797412
54	0xbd47ac52	-0.04874832
55	0xbe124372	-0.14283541
56	0x3d606878	0.05478713
57	0xbdb2ebac	-0.08736357
58	0x3c8cb1b8	0.017174587
59	0x3e43b6b7	0.19112669
60	0x3d97c380	0.074103355
61	0x3cd978a8	0.026546791
62	0x3ddcc518	0.1077978
63	0x3d9a0a3b	0.075214826
64	0xbde41e70	-0.11138618
65	0x3de96c5f	0.11397623
66	0xbdb0da9e	-0.08635448
67	0x3d8db7da	0.069198325
68	0xbc9da4c0	-0.019243598
69	0xbe307952	-0.1723378
70	0x3cac2e3e	0.021018144
71	0xbd8ec4ca	-0.06971128
72	0x3d433dcd	0.04766636
73	0xbd09cf91	-0.033645216
74	0x3d4f37cd	0.050590325
75	0x3db0b8c0	0.08628988
76	0x3cb6fcb1	0.02233729
77	0xbd23824f	-0.039919194
78	0x3df33521	0.11875368
79	0x3dc773dc	0.09738895
80	0x3d5434e6	0.05180826
81	0x3d8d0d0c	0.06887254
82	0xbd088f6d	-0.033339906
83	0xbe084f1b	-0.13311426
84	0x3d93476b	0.07191356
85	0xbda0a291	-0.07843507
86	0x3dcef670	0.10105598
87	0x3e2016ca	0.15633693
88	0x3e417d17	0.18895374
89	0x3ea44d94	0.32090437
90	0x3d90ff62	0.070799604
91	0x3e100e43	0.1406794
92	0xbd9df8c8	-0.07713467
93	0x3db4679d	0.08808825
94	0xbe8a30d0	-0.26990366
95	0x3d692575	0.056920487
96	0x3dbb4279	0.09143538
97	0x3e4c916a	0.19977346
98	0x3d01cae5	0.031687636
99	0xbde126b4	-0.1099371
100	0x3d9981a8	0.07495433
101	0x3da8c4a5	0.08240632
102	0xbd59834d	-0.053103734
103	0x3e36a7e4	0.17837483
104	0x3e4d523d	0.20050903
105	0x3ddfaa2b	0.10921129
106	0x3c2e4f7b	0.010639067
107	0x3c7da458	0.015481077
108	0xbe3a28a2	-0.18179563
109	0x3d1740a5	0.036926884
110	0xbb0e46a6	-0.002170959
111	0x3e2817ed	0.16415377
112	0x3de07aa1	0.109608896
113	0x3d4815d1	0.04884893
114	0x3cf916f8	0.03040646
115	0xbd779378	-0.06044337
116	0x3cf9bc1c	0.030485205
117	0xbd4664d9	-0.04843602
118	0x3d80e33a	0.0629334
119	0xbe2b5e4d	-0.16735192
120	0xbd40c5fd	-0.047063816
121	0x3e8ec96d	0.2788805
122	0x3d82bbf0	0.063835025
123	0xbd3f1384	-0.04664947
124	0xbe8c5ecc	-0.27416074
125	0xbe05fd1a	-0.13084832
126	0x3d8b98f7	0.06816285
127	0x3e0b9f2c	0.13634938
128	0x3c089257	0.008335671
129	0xbdf65082	-0.120270744
130	0xbd306000	-0.043060303
131	0x3ba79140	0.0051137507
132	0xbdefdc55	-0.11711947
133	0xbd906669	-0.07050783
134	0xbc17a46e	-0.009255512
135	0x3d16716b	0.036729258
136	0x3e1649e1	0.1467662
137	0x3ca3f51f	0.020014344
138	0xbde98b74	-0.11403552
139	0x3e10a5ce	0.1412575
140	0xbcbbed17	-0.022940202
141	0xbd004f1f	-0.031325456
142	0x3e23d5e4	0.15999562
143	0xbd76e4dc	-0.06027685
144	0x3d3238a2	0.04351104
145	0x3daeba58	0.08531636
146	0xbdd279e2	-0.102771536
147	0xbdd0c3e5	-0.10193614
148	0xbc044d8e	-0.008075131
149	0xbd0c876f	-0.034308847

bias f4 [6]
0	0x3db62aa9	0.088948555
1	0x3d48048e	0.04883247
2	0x3d4d8b3e	0.05018162
3	0xbca7bb8d	-0.020475173
4	0x3cb69305	0.022286901
5	0xbda530f2	-0.08065976
