SAC-cleanrl/models/qat/sac-Ant-v4-seed-1-actor-x86.pt (torch, 96578 bytes, 10 tensors)

action_scale f4 [1, 8]
0	0x3f800000	1.0
1	0x3f800000	1.0
2	0x3f800000	1.0
3	0x3f800000	1.0
4	0x3f800000	1.0
5	0x3f800000	1.0
6	0x3f800000	1.0
7	0x3f800000	1.0

action_bias f4 [1, 8]
0	0x00000000	0.0
1	0x00000000	0.0
2	0x00000000	0.0
3	0x00000000	0.0
4	0x00000000	0.0
5	0x00000000	0.0
6	0x00000000	0.0
7	0x00000000	0.0

cpu f8 [256]
0	0x3f996b3780000000	0.024823062121868134
1	0x3f96c07a00000000	0.02221861481666565
2	0x3f91cffca0000000	0.01739496923983097
3	0x3fa09a7580000000	0.032428428530693054
4	0x3f9b9f7160000000	0.026975413784384727
5	0x3f9c681280000000	0.027740754187107086
6	0x3f9c2c04e0000000	0.02751166932284832
7	0x3f9071ee60000000	0.01605961285531521
8	0x3f9570ee00000000	0.020938605070114136
9	0x3f8f4931c0000000	0.01527632586658001
10	0x3facdde800000000	0.056380510330200195
11	0x3f9c0dea40000000	0.027396831661462784
12	0x3f927686a0000000	0.018030265346169472
13	0x3fa7b0e2a0000000	0.04627140238881111
14	0x3f8f9c9740000000	0.015435392037034035
15	0x3fa5e51420000000	0.0427633561193943
16	0x3f89f3c720000000	0.0126720005646348
17	0x3f93098680000000	0.018591023981571198
18	0x3f9c81c1e0000000	0.027838734909892082
19	0x3f8e255180000000	0.014719616621732712
20	0x3f9014eda0000000	0.015704834833741188
21	0x3f947d02e0000000	0.020008129999041557
22	0x3f92c6de00000000	0.018336743116378784
23	0x3f95a7d700000000	0.021148070693016052
24	0x3f971b98a0000000	0.022566208615899086
25	0x3f8f635a60000000	0.015326219610869884
26	0x3f92de8620000000	0.018426986411213875
27	0x3fa5916a40000000	0.04212505370378494
28	0x3f9df0e100000000	0.029239192605018616
29	0x3f9adcb220000000	0.026232512667775154
30	0x3fa235ad20000000	0.03556576743721962
31	0x3f9bbf7500000000	0.027097538113594055
32	0x3f9d139500000000	0.02839501202106476
33	0x3fa54612c0000000	0.04155024141073227
34	0x3f8c6a13a0000000	0.01387420017272234
35	0x3f92f74020000000	0.01852131076157093
36	0x3f8324dfc0000000	0.009347675368189812
37	0x3f93c57280000000	0.01930788904428482
38	0x3f978e2300000000	0.023003146052360535
39	0x3f9883a040000000	0.02393961325287819
40	0x3f92de0400000000	0.018425047397613525
41	0x3f99967f60000000	0.024988165125250816
42	0x3f908da520000000	0.01616533286869526
43	0x3f9daa1300000000	0.028969094157218933
44	0x3fa06cf900000000	0.032081395387649536
45	0x3f95ca4de0000000	0.02127954177558422
46	0x3f917d7400000000	0.01708012819290161
47	0x3f9974fce0000000	0.024860335513949394
48	0x3f8923be80000000	0.012275207787752151
49	0x3f9a5eeda0000000	0.025752747431397438
50	0x3fa01bce00000000	0.031462132930755615
51	0x3f9b1ec1a0000000	0.02648451365530491
52	0x3fa022e4c0000000	0.031516216695308685
53	0x3f977c9e20000000	0.022936316207051277
54	0x3f90b2f520000000	0.016307668760418892
55	0x3fa6daada0000000	0.044637132436037064
56	0x3f96d5c960000000	0.022299906238913536
57	0x3f971c7d80000000	0.022569619119167328
58	0x3f86cf1720000000	0.011137180961668491
59	0x3f92434620000000	0.017834754660725594
60	0x3f9e4b4000000000	0.02958393096923828
61	0x3f9355dc20000000	0.01888221688568592
62	0x3f9eb3dbe0000000	0.029982982203364372
63	0x3f9551f6e0000000	0.020820481702685356
64	0x3f8e0c4da0000000	0.014671904034912586
65	0x3fa0252d60000000	0.03153363987803459
66	0x3f9175fb00000000	0.01705162227153778
67	0x3fa0077480000000	0.031306877732276917
68	0x3f91451e60000000	0.016865229234099388
69	0x3f96eb64e0000000	0.022382332012057304
70	0x3f90cf6480000000	0.016416139900684357
71	0x3f8f072660000000	0.015150356106460094
72	0x3fa6f14ee0000000	0.04480978474020958
73	0x3f8e81b0c0000000	0.014895802363753319
74	0x3fb08de300000000	0.06466501951217651
75	0x3fa1d1d1e0000000	0.03480392321944237
76	0x3fac1adf60000000	0.05489252135157585
77	0x3f91b17460000000	0.01727849803864956
78	0x3f8bdd9ce0000000	0.013606286607682705
79	0x3f96dd9040000000	0.022329572588205338
80	0x3fa26777c0000000	0.035945646464824677
81	0x3f917c7f20000000	0.017076479271054268
82	0x3faa954980000000	0.051920220255851746
83	0x3f93f23560000000	0.01947863958775997
84	0x3f95ca2740000000	0.02127896621823311
85	0x3f9b4343a0000000	0.02662377990782261
86	0x3f9143e740000000	0.016860593110322952
87	0x3f86dab340000000	0.011159325018525124
88	0x3f93e54680000000	0.01942930370569229
89	0x3f957518a0000000	0.020954499021172523
90	0x3f90931600000000	0.01618608832359314
91	0x3f8d7db660000000	0.014399933628737926
92	0x3fa1a5b620000000	0.03446740284562111
93	0x3faa078b60000000	0.050838809460401535
94	0x3f9035ae20000000	0.015829773619771004
95	0x3f92a32ac0000000	0.018200557678937912
96	0x3f945f5fe0000000	0.019895074889063835
97	0x3f8f7b8660000000	0.01537232380360365
98	0x3fa4735fc0000000	0.03994273394346237
99	0x3f9fcd64a0000000	0.031056949868798256
100	0x3f94e6da60000000	0.020411884412169456
101	0x3f9213f440000000	0.017654243856668472
102	0x3f93786e80000000	0.01901409775018692
103	0x3f96b7dc60000000	0.02218574844300747
104	0x3f8effee00000000	0.015136584639549255
105	0x3f9ae54280000000	0.026265181601047516
106	0x3f90c05dc0000000	0.016358818858861923
107	0x3f9df47600000000	0.029252856969833374
108	0x3f93c297a0000000	0.019296998158097267
109	0x3f9ad7ad00000000	0.02621336281299591
110	0x3f9df59fe0000000	0.02925729565322399
111	0x3f95d251e0000000	0.021310118958353996
112	0x3fa1feaf20000000	0.035146210342645645
113	0x3f950afae0000000	0.020549697801470757
114	0x3f8f3b91e0000000	0.015250339172780514
115	0x3f94c332c0000000	0.020275872200727463
116	0x3f997f13a0000000	0.024898821488022804
117	0x3fa00707c0000000	0.031303636729717255
118	0x3fa98c1440000000	0.04989684373140335
119	0x3fa0ac4840000000	0.03256440907716751
120	0x3f9a49c980000000	0.025672100484371185
121	0x3f992b0f60000000	0.02457832358777523
122	0x3f8f81c240000000	0.015384213998913765
123	0x3fa5129a00000000	0.041157543659210205
124	0x3f9f6b8480000000	0.03068358451128006
125	0x3f9a5800e0000000	0.025726331397891045
126	0x3fa3d6e4e0000000	0.038748886436223984
127	0x3fa4bd40c0000000	0.04050638526678085
128	0x3f95c61be0000000	0.02126353792846203
129	0x3f9f3fc860000000	0.030516749247908592
130	0x3fb0f4e6a0000000	0.06623689085245132
131	0x3fa072b980000000	0.03212527930736542
132	0x3f90870600000000	0.016140073537826538
133	0x3fa4e15020000000	0.040781501680612564
134	0x3f9975bf00000000	0.02486322820186615
135	0x3f9041bcc0000000	0.015875767916440964
136	0x3f9a8ba640000000	0.025923345237970352
137	0x3f9fc3e460000000	0.03102070651948452
138	0x3f9bf20140000000	0.027290362864732742
139	0x3fa0155a20000000	0.03141290321946144
140	0x3f927457c0000000	0.01802193745970726
141	0x3fa639e980000000	0.04341058433055878
142	0x3f97ba59a0000000	0.02317180670797825
143	0x3f8b2394e0000000	0.013251460157334805
144	0x3f9496e140000000	0.020106811076402664
145	0x3f918a5aa0000000	0.017129341140389442
146	0x3fab335c60000000	0.05312622711062431
147	0x3fa4e1b240000000	0.04078442603349686
148	0x3f9a3fe720000000	0.025634394958615303
149	0x3fa7cbe020000000	0.04647732153534889
150	0x3f97999d60000000	0.023046931251883507
151	0x3f8eee7180000000	0.015103232115507126
152	0x3fa261f480000000	0.03590358793735504
153	0x3fa797e760000000	0.0460808090865612
154	0x3fa193ea60000000	0.034331630915403366
155	0x3f9858cc60000000	0.023776238784193993
156	0x3f94fe4aa0000000	0.02050129510462284
157	0x3fabd87240000000	0.054385729134082794
158	0x3f96479720000000	0.021757470443844795
159	0x3f966a40e0000000	0.0218896996229887
160	0x3fa1348460000000	0.03360379859805107
161	0x3f98a7d9c0000000	0.024077799171209335
162	0x3f85d1f560000000	0.010654370300471783
163	0x3f9888ee00000000	0.023959845304489136
164	0x3fa04c5160000000	0.0318322591483593
165	0x3fb4e7d1e0000000	0.08166228979825974
166	0x3f98784920000000	0.0238963533192873
167	0x3f94df2e20000000	0.02038261480629444
168	0x3f94a13180000000	0.02014615386724472
169	0x3f97839760000000	0.022962918505072594
170	0x3f954f37c0000000	0.020810004323720932
171	0x3fa7c18d60000000	0.04639856144785881
172	0x3fa4470fa0000000	0.03960465267300606
173	0x3fa6fbda80000000	0.04489023983478546
174	0x3f9051b080000000	0.01593662053346634
175	0x3fa329da00000000	0.03742867708206177
176	0x3fa26e0260000000	0.03599555417895317
177	0x3f89ca8a80000000	0.012593347579240799
178	0x3fa37d8ec0000000	0.038067303597927094
179	0x3f92bcd7c0000000	0.018298503011465073
180	0x3fa3dc2f40000000	0.03878924995660782
181	0x3f98c4af80000000	0.02418779581785202
182	0x3f93a1dbc0000000	0.019172128289937973
183	0x3fb1578900000000	0.06774193048477173
184	0x3f9337e4c0000000	0.018767904490232468
185	0x3f9f270da0000000	0.03042241372168064
186	0x3f9b8bc180000000	0.026900313794612885
187	0x3f8e559c20000000	0.014811725355684757
188	0x3fa08c5900000000	0.032320767641067505
189	0x3f96b297e0000000	0.022165654227137566
190	0x3f8e6b5560000000	0.0148531598970294
191	0x3f886e6a40000000	0.011929349973797798
192	0x3fa472e0c0000000	0.039938949048519135
193	0x3f9bd30fa0000000	0.02717232145369053
194	0x3f94619720000000	0.019903527572751045
195	0x3f909878c0000000	0.016206633299589157
196	0x3f95bb7700000000	0.021222934126853943
197	0x3f8f7d33c0000000	0.015375522896647453
198	0x3f9a1a0760000000	0.025489917024970055
199	0x3f91c0bb80000000	0.017336778342723846
200	0x3f8f8e6a80000000	0.015408355742692947
201	0x3f86d19d20000000	0.011141994036734104
202	0x3f9b0d3780000000	0.026417605578899384
203	0x3f8ab69260000000	0.01304354052990675
204	0x3f92559ec0000000	0.01790473982691765
205	0x3fa17e4940000000	0.0341666117310524
206	0x3f9919d960000000	0.024512669071555138
207	0x3f8f5db2a0000000	0.015315433032810688
208	0x3f9c2719a0000000	0.027492905035614967
209	0x3f96b78320000000	0.02218441851437092
210	0x3fa0eb5180000000	0.03304533660411835
211	0x3fa0939100000000	0.032375842332839966
212	0x3f9771ef20000000	0.022895561531186104
213	0x3f959b95c0000000	0.021101322025060654
214	0x3f83d408a0000000	0.009681765921413898
215	0x3f96949040000000	0.022051099687814713
216	0x3f964b95e0000000	0.021772710606455803
217	0x3f92224700000000	0.017708882689476013
218	0x3fa20f91a0000000	0.03527503088116646
219	0x3f94e9c500000000	0.020423009991645813
220	0x3f8db526c0000000	0.014505675062537193
221	0x3f8c58e640000000	0.013841437175869942
222	0x3f943d72a0000000	0.01976565457880497
223	0x3f9fc89120000000	0.031038539484143257
224	0x3fb4e59180000000	0.08162793517112732
225	0x3f88ec7a40000000	0.012169795110821724
226	0x3f9547ec40000000	0.02078217640519142
227	0x3f8e6efda0000000	0.01486013550311327
228	0x3f8ccf25e0000000	0.014066978357732296
229	0x3f8e1db5c0000000	0.014705104753375053
230	0x3f9cb8c300000000	0.0280485600233078
231	0x3fa12c3f40000000	0.03354070335626602
232	0x3fa19425e0000000	0.034333404153585434
233	0x3fa1966960000000	0.0343506745994091
234	0x3f9ab8e240000000	0.026095900684595108
235	0x3f954af320000000	0.020793722942471504
236	0x3f99475520000000	0.024686174467206
237	0x3f9c48efa0000000	0.027621978893876076
238	0x3f969151a0000000	0.022038722410798073
239	0x3f9d3a1c80000000	0.028541989624500275
240	0x3f8b8fae00000000	0.013457641005516052
241	0x3f947dda80000000	0.02001134306192398
242	0x3f921f6e40000000	0.017698023468255997
243	0x3f9aa5d140000000	0.026023168116807938
244	0x3fb69dce60000000	0.08834543079137802
245	0x3f955ca060000000	0.020861154422163963
246	0x3fa1776ae0000000	0.034114208072423935
247	0x3fa899c7c0000000	0.04804825037717819
248	0x3fa4fc8e40000000	0.04098934680223465
249	0x3f9f9a8960000000	0.030862947925925255
250	0x3f96fe3400000000	0.02245408296585083
251	0x3f999cc940000000	0.025012154132127762
252	0x3f94af1c20000000	0.020199241116642952
253	0x3f9b0520e0000000	0.026386750862002373
254	0x3f82f02460000000	0.009247097186744213
255	0x3f9a7b0ca0000000	0.025860020890831947

cpu f4 [256]
0	0xbee3da1c	-0.44502342
1	0xbf5c2c4a	-0.8600508
2	0x3f2871b2	0.65798485
3	0xbe9af4a3	-0.30264768
4	0x3ea6edf4	0.3260342
5	0x3f738369	0.9512239
6	0x3e268325	0.16260965
7	0xbfb5a31a	-1.41904
8	0xbf247930	-0.6424742
9	0xbfb51704	-1.4147649
10	0xbfa89ffd	-1.3173825
11	0x3f45157a	0.76985896
12	0xbfd7daea	-1.6863682
13	0x3f9443ff	1.1583251
14	0xbf983ff4	-1.1894517
15	0x3e9380ef	0.28809306
16	0xbff7b058	-1.9350691
17	0xbf6fc18b	-0.936547
18	0x3f094938	0.5362735
19	0x3de2e310	0.11078465
20	0xbfbf237d	-1.4932705
21	0xbf3f7208	-0.7478337
22	0x3f519fd0	0.8188448
23	0xbf2ae374	-0.66753316
24	0xbed3cb37	-0.41365978
25	0xbfa6ac3a	-1.3021309
26	0xbf01fb7b	-0.50774354
27	0x3f7df972	0.9920875
28	0xbf348f6d	-0.7053135
29	0xbe271bf8	-0.16319263
30	0x3e03eae8	0.12882578
31	0xbdb188c2	-0.086686626
32	0xbf833b2f	-1.0252436
33	0xbe3a5532	-0.18196562
34	0xbfce0c33	-1.6097473
35	0xbfa645d8	-1.2990065
36	0xbf0052ae	-0.5012616
37	0xbf737c39	-0.95111424
38	0xc0072515	-2.1116383
39	0xbf73a7ae	-0.95177734
40	0xbda2b3f5	-0.0794448
41	0xbff420a1	-1.9072458
42	0xbf62236a	-0.8833529
43	0x3f4c4eae	0.79807556
44	0xbf8c494d	-1.095987
45	0xbfaf3d37	-1.3690556
46	0xbf71cdea	-0.94454825
47	0x3f017f81	0.5058518
48	0xbf1e3294	-0.61795926
49	0xbd8c4ded	-0.06850801
50	0xbfcd27ac	-1.6027732
51	0xbf5c3382	-0.86016095
52	0xbf8283d2	-1.0196478
53	0xbf6b4fa7	-0.91918415
54	0x3e343c0f	0.17601036
55	0xbf8c4e9e	-1.0961492
56	0xbf6422dd	-0.891157
57	0x3f6af612	0.91781723
58	0x3f6cd5b2	0.92513573
59	0x3e0fd17d	0.14044757
60	0xbf82d8c5	-1.0222403
61	0xbf0c1aa9	-0.5472818
62	0x3ed0ac74	0.4075657
63	0xbf2bc37c	-0.6709516
64	0xbf9d9a5f	-1.2312735
65	0xbf3934ce	-0.723462
66	0xbf730b56	-0.9493917
67	0xbf90f5f0	-1.1325054
68	0xbf6871de	-0.9079875
69	0xbf0af083	-0.5427324
70	0xbeb0a11c	-0.34497917
71	0xbeeab521	-0.45841315
72	0xbf6012fc	-0.8752897
73	0xbfe27194	-1.7690911
74	0x3dce0404	0.1005936
75	0xbf4e2f30	-0.8054075
76	0xbf3f091a	-0.7462326
77	0xbf094602	-0.5362245
78	0xbfe5e650	-1.7960911
79	0xbeef54b1	-0.46744302
80	0xbf275d77	-0.6537699
81	0xbf147c93	-0.58002585
82	0xbf728165	-0.9472869
83	0xbfa40f69	-1.2817203
84	0x3f371edd	0.7153147
85	0xbfab776f	-1.3395823
86	0x3fe49154	1.7856851
87	0xbf856307	-1.0420846
88	0xbf534e44	-0.825413
89	0xbf7e8a46	-0.9942974
90	0xbf0eade7	-0.55734104
91	0xbf941639	-1.1569282
92	0x3faef1cd	1.3667542
93	0xbf710ecb	-0.941632
94	0xbfc77ed7	-1.5585583
95	0x3eb1cd0d	0.34726754
96	0xbff1af98	-1.8881712
97	0xbf833c37	-1.0252751
98	0xbf8333e9	-1.0250217
99	0xbf8b68fe	-1.0891416
100	0xbd807d24	-0.06273869
101	0xbe975fe9	-0.2956536
102	0xbed58960	-0.4170637
103	0xbf4a51b8	-0.7903094
104	0xc02a25e8	-2.6585636
105	0x3ed4157d	0.41422644
106	0xbf64917c	-0.8928449
107	0xbf314631	-0.6924773
108	0x3f10aee2	0.5651685
109	0xbf318e67	-0.69357914
110	0x3e05fc62	0.13084558
111	0x3da3fe67	0.08007508
112	0x3d115430	0.035480678
113	0x3e962ea6	0.29332465
114	0xbfd706f3	-1.6798996
115	0xbf766fe0	-0.9626446
116	0x3ff47a48	1.9099817
117	0x3f3da52f	0.74080175
118	0x3f521966	0.82070005
119	0xbfc17a6e	-1.5115488
120	0xbf90ff54	-1.132792
121	0xbed6bc74	-0.41940653
122	0xbf6e0966	-0.9298309
123	0xbe3fdd74	-0.18736821
124	0xbf261228	-0.64871454
125	0xbf582c2d	-0.84442407
126	0xbfac182c	-1.3444877
127	0xbe139607	-0.144127
128	0xbf967b93	-1.1756462
129	0xbf2119e2	-0.6293012
130	0xbea1c309	-0.31594113
131	0x3f0b4d4c	0.5441482
132	0xbe232505	-0.1593209
133	0xbf3534ec	-0.7078388
134	0x3fdc5b00	1.7215271
135	0x3f310c07	0.6915898
136	0xbfa4609c	-1.2841983
137	0x3f4f4399	0.8096252
138	0xbf41f70b	-0.7576758
139	0xbf841651	-1.031931
140	0xbfb5902a	-1.418462
141	0xbfd59cef	-1.6688517
142	0xbe68f1cf	-0.22748493
143	0x3e0ed679	0.13949002
144	0xbfbcac62	-1.4740107
145	0xbfd5f6ba	-1.671592
146	0x3e922dad	0.28550473
147	0x3d01f60c	0.03172879
148	0x3d5d197e	0.05397939
149	0x3f93421e	1.1504552
150	0xbf8acd1b	-1.0843843
151	0xbf8283f6	-1.0196521
152	0xbfbc07db	-1.4689897
153	0x3f4b8252	0.7949573
154	0x3f6d4091	0.92676646
155	0xbf2d59de	-0.6771525
156	0xbfae472f	-1.3615474
157	0xbf1d4ff5	-0.6145013
158	0xbf4c7a48	-0.79874086
159	0xbf693af1	-0.9110556
160	0xbf0d936b	-0.55303067
161	0xbf378fac	-0.717036
162	0xbf75e656	-0.9605459
163	0x3f6adda1	0.9174443
164	0xbf238ea0	-0.63889503
165	0xbfb3a4d6	-1.4034679
166	0xbf0b2110	-0.54347324
167	0xbf872af5	-1.0559984
168	0xbe190481	-0.14943124
169	0xbee9cbc2	-0.45663267
170	0xbfc25cf6	-1.518462
171	0xbff7ec29	-1.9368945
172	0xbf9a0ab1	-1.2034513
173	0xc00167be	-2.021957
174	0xbfb628b6	-1.4231174
175	0xbf98eabe	-1.1946638
176	0xbdc3deda	-0.0956399
177	0x3ec8b8b5	0.3920342
178	0xbfdb1918	-1.7117033
179	0xbf9f7eb0	-1.2460537
180	0xbf4fbc49	-0.81146675
181	0xc00791a4	-2.1182642
182	0xbf5820ad	-0.8442486
183	0xbff82b51	-1.9388219
184	0x3f669f7d	0.9008711
185	0xbfb23509	-1.3922435
186	0xbfc1b7d4	-1.5134225
187	0xbe5a9ff5	-0.21350081
188	0xbf9d34bd	-1.228172
189	0xbf314ed3	-0.692609
190	0xbf35bbe3	-0.7098982
191	0xbfccd313	-1.6001915
192	0xbfd66aa4	-1.6751294
193	0xbe2d7187	-0.16937838
194	0xbfa01879	-1.2507468
195	0xbf9dea56	-1.2337139
196	0xbfc4396d	-1.5330025
197	0xbf8531dd	-1.0405842
198	0xbfae6d72	-1.362715
199	0xc006ecb0	-2.1081963
200	0xbfd026cc	-1.626184
201	0xbff9e0e8	-1.9521761
202	0x3f036dff	0.51339716
203	0xbf980954	-1.1877847
204	0xbfc1cba1	-1.5140268
205	0xbea128ee	-0.3147654
206	0xbf9e05df	-1.2345542
207	0xbf9d50e1	-1.2290307
208	0x3f6d59b0	0.9271498
209	0xbeeec50d	-0.46634713
210	0x3f6a23ce	0.91460884
211	0xbff7a5a4	-1.9347425
212	0x3fb1622a	1.3858082
213	0xbf334143	-0.70021456
214	0xbf38a1ee	-0.72122085
215	0xbf3cfe67	-0.7382569
216	0xbff5f6fb	-1.9215997
217	0xbfd1cc4e	-1.6390474
218	0xbfa60108	-1.2969065
219	0xbff6bfe4	-1.927731
220	0xbfa54f4a	-1.2914822
221	0xbfd041d9	-1.6270095
222	0xbea2ff5d	-0.31835452
223	0xbf9ff1b7	-1.249564
224	0xc00c3f7c	-2.1913748
225	0xbfbbafb9	-1.4663001
226	0xbf774e1b	-0.96603554
227	0xbfb8e3e7	-1.444455
228	0xbfd2d166	-1.6470153
229	0xbfcb01ee	-1.5859964
230	0xbec57149	-0.38562992
231	0xbeed8760	-0.46392345
232	0xbf395551	-0.7239581
233	0xbf08294b	-0.5318801
234	0xbf7eea63	-0.99576396
235	0xbf3abe2e	-0.7294644
236	0xbf319414	-0.69366574
237	0xbf3d63b5	-0.73980266
238	0x3ec99a12	0.3937536
239	0xbf8799ea	-1.0593846
240	0xbec17ae4	-0.3778907
241	0xbfd5b572	-1.6695998
242	0x3e57df0b	0.21081178
243	0x3f7c8c1e	0.986513
244	0xbfcf2b1d	-1.6185032
245	0xbf83fc37	-1.0311345
246	0xbf9d3d17	-1.2284268
247	0x3f8618e8	1.0476351
248	0xbfb77f92	-1.4335806
249	0xbf8ae953	-1.0852455
250	0xbf63072a	-0.88682806
251	0xbd8d6853	-0.06904664
252	0xbf73587b	-0.95056885
253	0x3f72a8c2	0.94788754
254	0x3fe1c8ef	1.7639445
255	0xbf56d8d5	-0.8392461

cpu f8 [256]
0	0x3f9163f040000000	0.016982797533273697
1	0x3f968b6420000000	0.02201610989868641
2	0x3f940590e0000000	0.019552482292056084
3	0x3f8ba9fac0000000	0.013507803902029991
4	0x3f8a740d40000000	0.01291666366159916
5	0x3f9ced6320000000	0.028249310329556465
6	0x3f9da15be0000000	0.02893584780395031
7	0x3f96f11ae0000000	0.02240411750972271
8	0x3f90835d60000000	0.01612611673772335
9	0x3f82c72960000000	0.009168933145701885
10	0x3f88926c60000000	0.011998030357062817
11	0x3f92d94060000000	0.01840687356889248
12	0x3f823733e0000000	0.008894353173673153
13	0x3f97ad9de0000000	0.023123232647776604
14	0x3f93516ba0000000	0.018865281715989113
15	0x3f90bba620000000	0.016340823844075203
16	0x3f879e2b00000000	0.011532150208950043
17	0x3f8f3de3a0000000	0.015254762955009937
18	0x3f900423e0000000	0.01564079336822033
19	0x3f98809360000000	0.023927977308630943
20	0x3f88dee460000000	0.012143882922828197
21	0x3f8a584000000000	0.012863636016845703
22	0x3f8c415ea0000000	0.013796557672321796
23	0x3f89f9e6a0000000	0.012683679349720478
24	0x3f8e3529a0000000	0.01474983710795641
25	0x3f8b24ca00000000	0.013253763318061829
26	0x3f81cdcd00000000	0.008693315088748932
27	0x3f8a06bb20000000	0.012708150781691074
28	0x3f90db41c0000000	0.01646139845252037
29	0x3f8cf35760000000	0.014136011712253094
30	0x3f8a330300000000	0.012792609632015228
31	0x3f91044080000000	0.016617782413959503
32	0x3f838e7e40000000	0.009549127891659737
33	0x3fa13d2ae0000000	0.03366979584097862
34	0x3f9a158e00000000	0.02547284960746765
35	0x3f9385ade0000000	0.019064633175730705
36	0x3f8929da60000000	0.012286859564483166
37	0x3f86a9ce00000000	0.011066064238548279
38	0x3f873b9ea0000000	0.011344184167683125
39	0x3f8824a0a0000000	0.011788611300289631
40	0x3f94657dc0000000	0.01991840824484825
41	0x3f87d496e0000000	0.011635950766503811
42	0x3f885b9be0000000	0.011893480084836483
43	0x3f876adba0000000	0.011434284038841724
44	0x3f8e4e5fa0000000	0.014797923155128956
45	0x3f8c7aa7a0000000	0.013905820436775684
46	0x3f9c847940000000	0.027849096804857254
47	0x3f9498d0e0000000	0.020114196464419365
48	0x3f8d8fafa0000000	0.014434215612709522
49	0x3f8f0f3080000000	0.015165690332651138
50	0x3f81f84180000000	0.008774291723966599
51	0x3f8527aba0000000	0.010329571552574635
52	0x3f874f58a0000000	0.01138180959969759
53	0x3f92c48880000000	0.01832783967256546
54	0x3f8c7d2800000000	0.01391059160232544
55	0x3f913b64a0000000	0.016828129068017006
56	0x3f99043920000000	0.0244301725178957
57	0x3f9289ca40000000	0.01810375228524208
58	0x3f9afdcfc0000000	0.026358839124441147
59	0x3f841adce0000000	0.00981686171144247
60	0x3f8d075860000000	0.01417416613548994
61	0x3f84f5dbe0000000	0.010234563611447811
62	0x3f87470dc0000000	0.011365992948412895
63	0x3f8c4154e0000000	0.013796485029160976
64	0x3f899d4440000000	0.012506993487477303
65	0x3f8523b180000000	0.010321985930204391
66	0x3f9096c440000000	0.016200128942728043
67	0x3f84b8fd00000000	0.010118462145328522
68	0x3f9443de60000000	0.019790148362517357
69	0x3f8cfbf4c0000000	0.014152443036437035
70	0x3f8b5359e0000000	0.013342573307454586
71	0x3f862b9960000000	0.01082534622400999
72	0x3f916c6da0000000	0.017015183344483376
73	0x3f9bedd4c0000000	0.027274440973997116
74	0x3f8dc1ec40000000	0.014530034735798836
75	0x3f87d032c0000000	0.011627575382590294
76	0x3f8fe0f200000000	0.015565767884254456
77	0x3f814c44c0000000	0.008446251973509789
78	0x3f88d519a0000000	0.012125206179916859
79	0x3f97a6e160000000	0.023097535595297813
80	0x3f88475020000000	0.011854768730700016
81	0x3f87f542a0000000	0.011698265559971333
82	0x3f8d19b2c0000000	0.014209171757102013
83	0x3f9456e220000000	0.01986268348991871
84	0x3f8ad06ba0000000	0.013092842884361744
85	0x3f93c34240000000	0.019299540668725967
86	0x3f8c039ca0000000	0.01367876399308443
87	0x3fa0b6b680000000	0.032643988728523254
88	0x3f9d762620000000	0.028771014884114265
89	0x3f83ccb700000000	0.009667806327342987
90	0x3f88d22260000000	0.012119549326598644
91	0x3f8652c540000000	0.010900059714913368
92	0x3fa5e6ff80000000	0.042778000235557556
93	0x3f855f5ea0000000	0.010435809381306171
94	0x3f8da4eda0000000	0.014474731869995594
95	0x3f86156260000000	0.010782974772155285
96	0x3f83f73380000000	0.009748842567205429
97	0x3f8cbc0380000000	0.01403048262000084
98	0x3f8fbd8ee0000000	0.015498272143304348
99	0x3f8ec0b0c0000000	0.015015965327620506
100	0x3f87ab49e0000000	0.011557175777852535
101	0x3f9002a3a0000000	0.015635067597031593
102	0x3f90aee820000000	0.016292216256260872
103	0x3f844b3080000000	0.009909037500619888
104	0x3f910de2a0000000	0.01665453054010868
105	0x3f92c270c0000000	0.018319856375455856
106	0x3f8875fd00000000	0.011943794786930084
107	0x3f8d947540000000	0.01444331742823124
108	0x3f82d59860000000	0.009196463041007519
109	0x3f95d2ad20000000	0.021311478689312935
110	0x3f83a9e0e0000000	0.009601361118257046
111	0x3f94e6f540000000	0.02041228488087654
112	0x3f8dfc6c20000000	0.014641613699495792
113	0x3f8ac7e9e0000000	0.013076617382466793
114	0x3f8db4b900000000	0.014504857361316681
115	0x3f83d29300000000	0.009678982198238373
116	0x3f8d48b4c0000000	0.014298832044005394
117	0x3f84aa8900000000	0.010090894997119904
118	0x3f96b94d40000000	0.02219124510884285
119	0x3f91390780000000	0.01681911200284958
120	0x3f91d99320000000	0.01743154413998127
121	0x3f9b65c940000000	0.026755470782518387
122	0x3f95b45fe0000000	0.02119588665664196
123	0x3f948a3180000000	0.020058415830135345
124	0x3f8bc81920000000	0.013565250672399998
125	0x3f90d142c0000000	0.016423266381025314
126	0x3f8a1666e0000000	0.012738040648400784
127	0x3f8cdaba60000000	0.014089065603911877
128	0x3f916e9e60000000	0.017023539170622826
129	0x3f9f3cade0000000	0.03050491027534008
130	0x3f94ae4540000000	0.020196039229631424
131	0x3f869f7a80000000	0.01104636862874031
132	0x3f90d25de0000000	0.016427485272288322
133	0x3f8ad11ba0000000	0.013094154186546803
134	0x3f83902020000000	0.009552241303026676
135	0x3f86b52fa0000000	0.011087772436439991
136	0x3f8511b4c0000000	0.010287677869200706
137	0x3f84c38300000000	0.010138534009456635
138	0x3f97335680000000	0.022656776010990143
139	0x3f8e4a3140000000	0.014789948239922523
140	0x3f85a68d40000000	0.01057157851755619
141	0x3f903416e0000000	0.01582370512187481
142	0x3f8babf4c0000000	0.013511573895812035
143	0x3f8b2cb380000000	0.013268854469060898
144	0x3f8d9e0380000000	0.014461543411016464
145	0x3f8e239ca0000000	0.01471636164933443
146	0x3fa279bd40000000	0.03608504682779312
147	0x3f929c4b40000000	0.018174339085817337
148	0x3f8c3c8340000000	0.013787293806672096
149	0x3f9567bc40000000	0.020903531461954117
150	0x3f8a4e2ca0000000	0.012844418175518513
151	0x3f92ad3a80000000	0.018238939344882965
152	0x3f90ea41c0000000	0.016518618911504745
153	0x3f9f33e620000000	0.03047141619026661
154	0x3f82a06880000000	0.009095016866922379
155	0x3f95f39560000000	0.021437009796500206
156	0x3f84466d60000000	0.009899954311549664
157	0x3f80e1e620000000	0.00824336800724268
158	0x3f98f50680000000	0.024372197687625885
159	0x3f918d6680000000	0.017140962183475494
160	0x3f9c5bf940000000	0.02769460156559944
161	0x3f924aa2a0000000	0.0178628358989954
162	0x3f8cc56be0000000	0.014048426412045956
163	0x3f8b674080000000	0.013380531221628189
164	0x3f97493bc0000000	0.022740300744771957
165	0x3f8c7c5a60000000	0.013909059576690197
166	0x3f85a54f00000000	0.01056920737028122
167	0x3f88ab41c0000000	0.012045396491885185
168	0x3f95736ee0000000	0.020948154851794243
169	0x3f8a128dc0000000	0.012730700895190239
170	0x3f92def980000000	0.018428705632686615
171	0x3f8783b780000000	0.011481698602437973
172	0x3f8ad45460000000	0.013100299052894115
173	0x3f905588a0000000	0.015951285138726234
174	0x3f91c27080000000	0.017343290150165558
175	0x3f8a498a40000000	0.012835578992962837
176	0x3f83450dc0000000	0.00940905325114727
177	0x3f8d5c6e20000000	0.014336452819406986
178	0x3f93819560000000	0.019049009308218956
179	0x3f8b870dc0000000	0.013441188260912895
180	0x3f901651e0000000	0.015710143372416496
181	0x3f4b025a40000000	0.0008242550538852811
182	0x3f946b8dc0000000	0.019941534847021103
183	0x3f8a64d8a0000000	0.012887661345303059
184	0x3f8b14d820000000	0.01322335097938776
185	0x3f93efd0a0000000	0.01946950890123844
186	0x3f89947680000000	0.012490201741456985
187	0x3f9bb7c540000000	0.02706821635365486
188	0x3f98056960000000	0.023458143696188927
189	0x3f8938efe0000000	0.012315629981458187
190	0x3f9383d8e0000000	0.01905764453113079
191	0x3f91c28580000000	0.01734360307455063
192	0x3f99b12d00000000	0.025089934468269348
193	0x3f7eca0820000000	0.0075168912298977375
194	0x3f86f62ea0000000	0.011211742646992207
195	0x3f93919340000000	0.01911001279950142
196	0x3fa74d56a0000000	0.045511920005083084
197	0x3f9b15df40000000	0.02645062282681465
198	0x3f839fe8c0000000	0.009582346305251122
199	0x3f88144b40000000	0.011757457628846169
200	0x3fa36866e0000000	0.037905897945165634
201	0x3f8c6cf4a0000000	0.013879691250622272
202	0x3f876752e0000000	0.011427543126046658
203	0x3fa0d9e8e0000000	0.032912518829107285
204	0x3f8fef20e0000000	0.015592820011079311
205	0x3f8f5a0280000000	0.015308398753404617
206	0x3f95e4e420000000	0.021380962803959846
207	0x3f8f117a40000000	0.015170054510235786
208	0x3f9215f100000000	0.017661824822425842
209	0x3f8c577a80000000	0.01383872702717781
210	0x3f9bad2900000000	0.027027741074562073
211	0x3f976dda60000000	0.02287999354302883
212	0x3f8bb7b580000000	0.01353399083018303
213	0x3f937ceb20000000	0.019031213596463203
214	0x3f81e80760000000	0.008743341080844402
215	0x3f913413a0000000	0.01680021919310093
216	0x3f8c6428a0000000	0.013862912543118
217	0x3f8ad28700000000	0.01309686154127121
218	0x3f926bdfe0000000	0.017989633604884148
219	0x3f8fef6d20000000	0.015593388117849827
220	0x3f91e6cfc0000000	0.017482038587331772
221	0x3f89a28a00000000	0.012517049908638
222	0x3fa3678b80000000	0.037899360060691833
223	0x3f863c8c40000000	0.010857673361897469
224	0x3f9026a9e0000000	0.015772489830851555
225	0x3f875234e0000000	0.011387265287339687
226	0x3f8753fe80000000	0.011390674859285355
227	0x3f8ab22760000000	0.013035113923251629
228	0x3f94c9c760000000	0.02030097506940365
229	0x3f8cf0a4a0000000	0.014130865223705769
230	0x3f88336be0000000	0.01181682851165533
231	0x3f89f45860000000	0.012673082761466503
232	0x3f88d72c60000000	0.012129160575568676
233	0x3f948d1360000000	0.020069411024451256
234	0x3f8eed4740000000	0.015101009979844093
235	0x3f84896d20000000	0.010027744807302952
236	0x3f89e6da60000000	0.012647348456084728
237	0x3f9c4e58a0000000	0.027642617002129555
238	0x3f8a205820000000	0.012757004238665104
239	0x3fa370a040000000	0.03796864300966263
240	0x3f90667f80000000	0.016015999019145966
241	0x3f92325be0000000	0.017770228907465935
242	0x3f93160240000000	0.018638644367456436
243	0x3f879f7f40000000	0.011534685268998146
244	0x3f85386ae0000000	0.010361514054238796
245	0x3f47a2d080000000	0.0007213132921606302
246	0x3f88de9a20000000	0.012143329717218876
247	0x3f9d77c8a0000000	0.02877725102007389
248	0x3f8e0da7a0000000	0.014674481935799122
249	0x3f943b7f00000000	0.019758209586143494
250	0x3f872ab380000000	0.011311914771795273
251	0x3f94b60b80000000	0.02022569626569748
252	0x3f8d243a00000000	0.014229252934455872
253	0x3f91a3b800000000	0.017226099967956543
254	0x3f8b24df20000000	0.013253920711576939
255	0x3f946b34c0000000	0.01994020864367485

cpu f4 [256]
0	0xbd8ec86f	-0.069718234
1	0x3f2823a5	0.6567939
2	0x3e188d66	0.14897689
3	0xbee476f5	-0.44622007
4	0xbf0e54c0	-0.5559807
5	0xbeb34568	-0.3501389
6	0xbf4775d5	-0.7791417
7	0xbe4f4383	-0.20240597
8	0xbfc4fef9	-1.5390311
9	0xbd4af7b4	-0.049552634
10	0xbf05ad61	-0.5221768
11	0xbf5207d1	-0.82043177
12	0xbe861965	-0.2619125
13	0xbf816170	-1.010786
14	0x3f0a4153	0.54005927
15	0xbef83896	-0.48480672
16	0xbeb61de1	-0.3556967
17	0xbe5ddbfd	-0.2166595
18	0x3e64c428	0.22340453
19	0x3d566bfb	0.052349072
20	0xbe9e72d3	-0.3094698
21	0x3ea94fe8	0.33068776
22	0x3cad73bf	0.021173356
23	0xbef1dbb6	-0.4723794
24	0xbec39c9d	-0.38205424
25	0xbe29f06a	-0.16595617
26	0xbea41206	-0.32045
27	0xbeaef184	-0.34168637
28	0xbf2c803d	-0.67383176
29	0xbf0dcf14	-0.553941
30	0xbe4c7a33	-0.1996849
31	0x3ea9cbd8	0.33163333
32	0xbe8695fe	-0.2628631
33	0x3ea5c9b8	0.32380462
34	0xbcd66295	-0.026170054
35	0xbf75dab8	-0.96036863
36	0xbe862c4d	-0.26205674
37	0xbe9ba20f	-0.30397078
38	0xbe2d1e52	-0.16906098
39	0xbf255f26	-0.6459831
40	0xbf25dd4e	-0.6479081
41	0xbe960474	-0.29300272
42	0xbe9faaaa	-0.31184894
43	0xbdb6029b	-0.08887216
44	0xbeed9f25	-0.4641048
45	0xbe3ff221	-0.18744709
46	0x3eade440	0.33963203
47	0xbe3f77c3	-0.18698029
48	0xbeba6ef8	-0.36412787
49	0xbf2eaa16	-0.6822828
50	0xbe819953	-0.2531229
51	0xbeaf289c	-0.3421067
52	0xbea41da5	-0.32053867
53	0xbed3dd26	-0.4137966
54	0xbecc275d	-0.39873782
55	0x3e0c7e09	0.13719954
56	0x3fb96098	1.4482603
57	0x3ecece48	0.40391755
58	0x3ca952e7	0.020669414
59	0xbe6065da	-0.21913853
60	0xbee44351	-0.44582608
61	0xbf7f294a	-0.9967238
62	0xbda90359	-0.08252592
63	0xbed6c2be	-0.41945451
64	0xbd4151f2	-0.04719729
65	0xbf210f59	-0.62914044
66	0x3f4f307e	0.8093337
67	0xbe8a3bab	-0.26998648
68	0x3d9f83e6	0.077888295
69	0xbe19cd27	-0.15019666
70	0x3da48a49	0.08034188
71	0xbeb35991	-0.3502927
72	0x3e1444e9	0.14479412
73	0xbe6034ba	-0.21895114
74	0xbdcc0a2c	-0.09962878
75	0xbf0873b5	-0.53301555
76	0xbf458d1d	-0.77168447
77	0xbf2f830d	-0.6855934
78	0xbe5ec18e	-0.21753523
79	0xbe63f800	-0.22262573
80	0xbf72acfd	-0.9479521
81	0xbe928271	-0.28615144
82	0x3d463fee	0.04840081
83	0x3da8e8a7	0.082475
84	0xbf177d43	-0.5917551
85	0xbf27e692	-0.655862
86	0xbec43e09	-0.3832858
87	0x3f5b4685	0.8565448
88	0xbed20f1c	-0.41027153
89	0xbf1bc9b4	-0.6085465
90	0x3a8efa17	0.0010908273
91	0xbf0ab087	-0.5417561
92	0xbe56b9a8	-0.2096926
93	0xbef23be2	-0.47311312
94	0x3d1a3a84	0.03765346
95	0xbec248be	-0.37946123
96	0xbec4ed68	-0.38462377
97	0xbf0f8a1f	-0.5607013
98	0x3f8affda	1.085933
99	0xbecd35b3	-0.40080032
100	0xbee257a0	-0.44207478
101	0xbf12910b	-0.5725257
102	0xbdb628c7	-0.088944964
103	0xbef2554a	-0.47330695
104	0x3ed04767	0.40679476
105	0xbeb58728	-0.3545468
106	0xbf321c24	-0.6957419
107	0xbd10e13e	-0.035371058
108	0xbeb8b0e6	-0.36072463
109	0xbf0e5315	-0.55595523
110	0xbd33b4a3	-0.04387344
111	0x3e184737	0.14870916
112	0x3e2e7595	0.17037041
113	0xbeb34d74	-0.3502003
114	0x3e21047b	0.15724365
115	0xbee2c9ac	-0.44294488
116	0xbebb7d56	-0.3661906
117	0xbd96acf8	-0.0735721
118	0xbd912c97	-0.07088583
119	0xbf0e1331	-0.55498034
120	0x3e75044d	0.23927422
121	0xbf6bbce6	-0.9208511
122	0x3e340233	0.17578964
123	0xba917b81	-0.0011099429
124	0xbf04d32a	-0.5188471
125	0x3c7a2ca9	0.015269437
126	0xbf30d869	-0.69080216
127	0x3fc94c5b	1.5726427
128	0xbf1be9bb	-0.6090352
129	0xbf08b57a	-0.5340191
130	0x3ec7c305	0.39015976
131	0x3ec9e80b	0.39434847
132	0xbe118728	-0.14211714
133	0xbf1a76b8	-0.603374
134	0x3d0e7aac	0.034784958
135	0xbea10e10	-0.3145604
136	0xbf232a9a	-0.6373688
137	0xbf0846b5	-0.5323289
138	0x3e86bed6	0.2631747
139	0xbecac9e6	-0.3960716
140	0xbeadbd6e	-0.33933586
141	0xbe9a0ba5	-0.3008701
142	0xbefdb9f6	-0.4955594
143	0xbefc13ea	-0.49233943
144	0xbf219090	-0.6311121
145	0xbf795a04	-0.9740298
146	0x3eb994ff	0.36246487
147	0xbf177b22	-0.5917226
148	0xbb8242ac	-0.003975233
149	0x3f4b7585	0.79476196
150	0xbf2c22b3	-0.67240447
151	0xbee1a583	-0.44071588
152	0xbf4d0300	-0.800827
153	0xbf19aea4	-0.60032105
154	0xbd49a5b4	-0.049230292
155	0xbef55264	-0.47914422
156	0xbf00d64b	-0.50326985
157	0xbeb9a3be	-0.36257738
158	0xbd9b87ed	-0.07594285
159	0x3f206c54	0.62665296
160	0xbf85a2b6	-1.044028
161	0xbe2d9e54	-0.16954929
162	0xbcc7610f	-0.024338273
163	0xbf380067	-0.71875614
164	0xbf101019	-0.56274563
165	0xbee6a9e8	-0.45051503
166	0xbecb9c4b	-0.3976768
167	0xbeed43cf	-0.46340796
168	0xbe7302b2	-0.23731497
169	0xbf8473a5	-1.0347792
170	0x3eb31069	0.34973457
171	0xbe97a71b	-0.2961968
172	0xbe4464b3	-0.19179039
173	0xbe86871a	-0.2627495
174	0xbeb8c7f7	-0.3609006
175	0xbf002b2d	-0.5006588
176	0xbf4d1199	-0.80104977
177	0xbedc4881	-0.43024066
178	0xbede5267	-0.43422243
179	0xbf4037e4	-0.7508528
180	0xbde7ffd6	-0.11328094
181	0xbdcb86a9	-0.09937794
182	0x3dc4c136	0.096071646
183	0xbec4661a	-0.38359147
184	0x3e27f715	0.16402848
185	0xbd53d48d	-0.051716376
186	0xbe1b73c3	-0.15180878
187	0x3dcbb9cc	0.09947547
188	0xbdf6e36f	-0.12055098
189	0xbe9fabf6	-0.31185883
190	0xbf562757	-0.8365378
191	0xbf00b47b	-0.5027539
192	0x3fa64864	1.2990842
193	0xbf136d68	-0.57588816
194	0xbf267a0b	-0.6502997
195	0xbd0a16d7	-0.033713188
196	0xbe112fdd	-0.14178415
197	0x3eeb154f	0.45914695
198	0xbe9ec180	-0.31007004
199	0xbe3a6f5b	-0.18206541
200	0x3f8f9835	1.1218325
201	0xbda00470	-0.078133464
202	0xbedafde2	-0.42771822
203	0xbe65d171	-0.22443177
204	0xbe8e8c11	-0.27841237
205	0xbe8b3c80	-0.27194595
206	0xbd6e512c	-0.05818288
207	0xbfa7eb5f	-1.3118705
208	0xbe4caef3	-0.19988613
209	0xbea97495	-0.33096758
210	0x3e0dc20d	0.13843556
211	0xbe20b04a	-0.15692249
212	0xbf026889	-0.5094076
213	0xbf3fbe5a	-0.7489983
214	0xbe966799	-0.29375914
215	0xbea92bfc	-0.3304137
216	0xbd11df1d	-0.035613168
217	0xbd249ad3	-0.040186714
218	0xbf31362c	-0.69223285
219	0xbe99bc32	-0.30026394
220	0xbf2ddb9c	-0.6791322
221	0xbe821568	-0.25406957
222	0xbebd26e6	-0.3694374
223	0xbe33a722	-0.17544225
224	0xbe49235c	-0.19642395
225	0xbe8ea4a1	-0.27859977
226	0xbeec6128	-0.46167874
227	0xbebf6b21	-0.3738642
228	0x3e7b7a37	0.2455834
229	0xbe2470b6	-0.16058621
230	0xbf3a9bb4	-0.72893834
231	0xbf59d793	-0.85094565
232	0x3e7e35c1	0.24825193
233	0x3f58b3ef	0.84649557
234	0xbec8cd8e	-0.39219326
235	0xbf6b6701	-0.91954046
236	0x3ba265eb	0.004955997
237	0x3ee60aba	0.4493006
238	0x3d02bf4f	0.031920727
239	0x3fb2d9e0	1.397274
240	0xbf10c96d	-0.5655735
241	0xbed1c824	-0.40973008
242	0x3f08c184	0.5342028
243	0x3d8d45ff	0.06898116
244	0xbf221bb7	-0.6332354
245	0xb879166a	-5.93871e-05
246	0xbe2278ef	-0.15866445
247	0xbf260b05	-0.64860564
248	0xbf2785fa	-0.65438807
249	0xbf646742	-0.8922006
250	0xbef9d194	-0.48792708
251	0xbe92ced5	-0.28673425
252	0x3e47a429	0.19496216
253	0xb9c19494	-0.00036922528
254	0xbf3a3631	-0.7273894
255	0x3e8d70e4	0.2762519

cpu f8 [8]
0	0x3f80d57fc0000000	0.00821971707046032
1	0x3f8750a960000000	0.011384318582713604
2	0x3f902c0840000000	0.01579296961426735
3	0x3f82956320000000	0.009073995985090733
4	0x3f87ffe8e0000000	0.011718577705323696
5	0x3f86b53ec0000000	0.01108788512647152
6	0x3f89df5660000000	0.012633013539016247
7	0x3f84651820000000	0.009958446957170963

cpu f4 [8]
0	0x3f370b78	0.71501875
1	0xbe958147	-0.29200193
2	0xbe3540df	-0.17700528
3	0xbf80299e	-1.00127
4	0xbe67be90	-0.22631288
5	0x3eafe421	0.34353736
6	0xbf442cd9	-0.7663093
7	0xbda875ad	-0.0822557

cpu f8 [8]
0	0x3f67addaa0000000	0.0028905172366648912
1	0x3f75acbd00000000	0.005291689187288284
2	0x3f6a7ea5e0000000	0.0032342185731977224
3	0x3f6cf1b300000000	0.0035332199186086655
4	0x3f69e79e20000000	0.003162201726809144
5	0x3f66b4ea20000000	0.002771813655272126
6	0x3f6f2e0220000000	0.003806118154898286
7	0x3f6aedcae0000000	0.003287216415628791

cpu f4 [8]
0	0xbe83bfda	-0.2573231
1	0xbe04c1d9	-0.12964572
2	0xbe5a2276	-0.21302208
3	0xbe52a6ae	-0.20571396
4	0xbe475eba	-0.19469729
5	0xbe11ecc8	-0.14250481
6	0xbeadbdef	-0.3393397
7	0xbe844252	-0.25831848
