TD3/models/pruning/TD3-HumanoidStandup-0.7-l1.onnx (onnx, 144345 bytes, 6 tensors)

actor.l1.weight f4 [76, 376]
00000000: 63c1 57bd f945 9fbd b7d3 413d a08c 3f3d
00000010: 9c5a 99bd 27b2 613d c504 363b fbf0 b2bd
00000020: 3095 b5bc 4548 8bbd 65af 913c 8680 a2ba
00000030: 4c1b 0fbe 55f1 b73c 850e 983d 1acb 713d
00000040: 67bb 2f3d ba71 f03d 3466 ba3d 2a5c 1ebd
00000050: 63a8 333d 93f3 163d c648 a8bd 45ea aebd
00000060: 8b1d a63d 19a4 ae3c affc c3bb 68ac b0bd
00000070: 5f5d 813d 7f82 063d 9eb7 2a3c 8afb be3b
00000080: be38 5cbb f2cc 42bd d01f 99bd e206 2fbd
00000090: 3aba 4d3d 90af 2abc c159 3dbd 46dd ebbc
000000a0: a3ab 743d c885 25bd 3f27 c63d 9d5f cebc
000000b0: f9e1 ef3d 238e 4cbc dfd4 c8bc 171d 03bc
000000c0: 6b85 60bc 06da 9dbd 5ea5 313d 2dfa a7bd
000000d0: df73 a339 30ac 11bd 3a0c 513d ddce 783d
000000e0: 3843 c93c 99e2 a33d 34bf bd3c d7aa e93b
000000f0: 9b27 0fbe 8341 03be 258b a6bc 83a1 5c3d
00000100: 391e 113b 0f1a 5fbb eaac 27bd 1c72 ae3d
00000110: 4c1c 763d 67d3 443c ac6f c73d 6a8d 253e
00000120: e1d1 17be 4fab fdbc 84e4 c13b 5ce5 d1bd
00000130: c351 cd3b 68bb 7b3d 45ad 05bd c804 8fbc
00000140: 1188 cabd 6ecd 94bd 1610 c1bd f240 b03c
00000150: e19b 173c 9488 363c ac31 e13c 5eb8 143c
00000160: 39c9 1bbd 5ec2 c53c 841d bcbd 837b d5bb
00000170: 1062 5ebd fd95 19bd a538 c13c 8286 1fbb
00000180: 1340 2a3c f89d 9dbd 1a63 babc c579 13bd
00000190: 1c7c 263d ebaa 95bc 3b29 69bd 329e c93b
000001a0: d8d9 273d 6497 0b3d 19cb cc3c 4e03 75bc
000001b0: 3170 383d 9a79 c93d bc0e 883d 00eb 54bc
000001c0: d3ab 563a 43e2 9c3c 000e 23bd 7e1c d5bc
000001d0: 9f90 5f3d 80c1 d0bd 2ff8 e53d 4693 1a3c
000001e0: e6e1 0f3d 4611 e5bd 3c46 7c3d 5119 a53c
000001f0: 5902 5bbc 9f0f 67bc dc1a 9dbd 3070 7bbd
00000200: e708 a03d 8d4d fcbd aaaa e53d a7a6 b73d
00000210: f5a9 823c 82b9 903d 733a b0bc a9c1 5abd
00000220: abcc 49bd 8b84 c83d dfa2 bcbd eaf5 a3bd
00000230: 2fdc c13d ff6d c63c aa20 9ebc 6d7d fb3b
00000240: 437f d6ba c1e9 58bc 086e a53c f320 4abd
00000250: 4705 e8bb 23e1 0ebd 0f09 a8bb 4dcc 393d
00000260: 269c 39bd 6478 aabd b317 633d 7738 d03d
00000270: 5722 dbbb fad2 de3d 07c9 51bd 735c 6dbd
00000280: e380 843d c051 a13b d590 07bd 5369 623d
00000290: 54db c2bc 1435 a5bc 9309 03bd 870a 4a3d
000002a0: a463 6a3d 7b96 91bd 553b febd 7bea 8c3d
000002b0: ca09 af3d b3e4 d53c 39cb 873c 1b56 4bbd
000002c0: a6fa 8cbd d913 963d d134 57bc d4e8 30bc
000002d0: c99c c2bc 277d 53bd 993b 5d3c 4bf1 c9bc
000002e0: 2c39 8ebd 0aed 98bc c266 34bc f3c1 b5ba
000002f0: eefd 97ba e6ec 56bb c7d1 86bc bd0b 4f3d
00000300: 07d9 c4bd 935b 3a3d 01e7 5e3c dfc0 b4bd
00000310: 6843 9f3d 3f0a d53d 23fa c1bd e9a7 95bd
00000320: 4f14 1bbd ccc8 413d ee25 ffbc 4d00 f73c
00000330: de50 583c 36e5 f53b 05b0 763d 85eb c8bc
00000340: 32eb cabd 6ba0 fd3c 64f5 84bc 7efc 023d
00000350: 28df 783d 5474 a73c b1cb b8bd 0994 e93b
00000360: 5dc8 783c 66ab 023e 90e7 193d ee12 4d3c
00000370: 751c aebd 18ef f03c 4197 1e3d 7e90 e7bc
00000380: 8a7d d4bd f684 3abd 618b dd3d 1f2b abbd
00000390: c557 f43c eec2 c53d 3340 eb3c 9d90 9b3d
000003a0: 08ee 463d deee 7e3d b2e7 20bd 4f84 923d
000003b0: 1b14 5b3d 5481 743c c344 703d 4021 e8bc
000003c0: ec57 dbbd f2b5 afbc fff1 1c3d f0bd 96bc
000003d0: 5a54 bcbd 3226 89bc 4eab 0ebd 4227 303c
000003e0: 502b b1bc 750e 36bd f7be 713d 2f54 8c3d
000003f0: 897b 1f3e 0550 b8bc 020d 96bc e95b 8d3c
-0.052674662 -0.07777018 0.047321048 0.04676497 -0.074879855 0.05510154 0.002777384 -0.087373696
-0.022165865 -0.06800894 0.01778383 -0.0012397922 -0.13975257 0.022453943 0.074246444 0.059031583
0.04290333 0.117404416 0.09101525 -0.038662113 0.043861758 0.036853384 -0.082170054 -0.08540777
0.081111036 0.021318482 -0.00598105 -0.08626634 0.06316637 0.032839295 0.010419754 0.0058283256
-0.0033603157 -0.047558732 -0.07476771 -0.042731173 0.050226428 -0.010417834 -0.046228174 -0.028792035
0.059733998 -0.040410787 0.09675454 -0.025192076 0.11713023 -0.01248506 -0.024515567 -0.008002541
-0.013703684 -0.077076 0.043370597 -0.08202014 0.00031176113 -0.0355646 0.05103705 0.060744155
0.024568185 0.080022044 0.023162462 0.0071309614 -0.13979952 -0.1281796 -0.020330021 0.053864967
0.0022143258 -0.0034042632 -0.040936388 0.085178584 0.06008558 0.012013293 0.097380966 0.16167226
-0.14826156 -0.030965475 0.0059171338 -0.10248825 0.0062658503 0.06145802 -0.032635946 -0.017458335
-0.09889234 -0.07265745 -0.09426896 0.021515343 0.009253473 0.011140961 0.027489506 0.00907716
-0.038033698 0.024140533 -0.09185317 -0.006514968 -0.05429274 -0.037496556 0.02358658 -0.0024341648
0.010391253 -0.07696146 -0.022752333 -0.0360048 0.040645704 -0.018269977 -0.056924086 0.0061528916
0.040979236 0.034079924 0.024999188 -0.014954401 0.04502887 0.09837647 0.06643435 -0.0129954815
0.0008189056 0.019150859 -0.039808273 -0.026014563 0.05458128 -0.10193157 0.11228978 0.009434527
0.035127543 -0.11184935 0.06159042 0.020153673 -0.013367259 -0.014102845 -0.07671139 -0.061386287
0.07814198 -0.12319479 0.11214192 0.08967333 0.015950182 0.07066633 -0.021512246 -0.053407345
-0.049267452 0.097909056 -0.09210753 -0.08005889 0.09465825 0.024222372 -0.019302685 0.007674864
-0.0016364831 -0.013239325 0.020194069 -0.04934783 -0.0070807072 -0.034882676 -0.005128033 0.045360852
-0.04531493 -0.08323744 0.055442523 0.1016702 -0.0066874432 0.10880084 -0.051217105 -0.057949495
0.06469896 0.0049230754 -0.033097107 0.055276226 -0.023786224 -0.020166911 -0.031991553 0.049326446
0.05722393 -0.0710878 -0.124136604 0.06880661 0.08546789 0.026110029 0.016576396 -0.049642663
-0.06883745 0.073280044 -0.013135151 -0.010797698 -0.023756402 -0.051633026 0.013502979 -0.02465119
-0.069444984 -0.018667717 -0.0110108275 -0.0013867005 -0.0011596063 -0.003279501 -0.016457452 0.050548304
-0.09611707 0.04549749 0.01360488 -0.0882585 0.077765286 0.10402345 -0.09471538 -0.07307417
-0.037861165 0.047310635 -0.031146016 0.03015151 0.013202874 0.0075041307 0.06022646 -0.024526367
-0.09908141 0.030960282 -0.016230293 0.031979077 0.060759693 0.020441212 -0.09023226 0.007128243
0.015184489 0.12760696 0.03757435 0.01251672 -0.085015215 0.029410884 0.038718466 -0.028267141
-0.10375507 -0.045536958 0.108176 -0.08357834 0.029827008 0.096563205 0.028717136 0.07595942
0.048566848 0.06223952 -0.039283462 0.07154142 0.05348597 0.014923412 0.058659326 -0.028336167
-0.10710129 -0.021449063 0.038316723 -0.018401116 -0.09195776 -0.016741846 -0.034831338 0.010751547
-0.021627098 -0.04444738 0.05902001 0.06851994 0.15574469 -0.022499094 -0.01831675 0.01725574

actor.l1.bias f4 [76]
00000000: bcc0 89bb 34d2 05bd 553b 1bbd 2c2d 093b
00000010: 14ee 573d db80 11bc 53ad 92bc 0465 b03b
00000020: 77ba 513d ff45 623d 4b38 66bc 0465 273b
00000030: ff92 a43a e3f6 5e3d ca6f ab3d cc58 8abb
00000040: 015d 8d3d 12fc e0ba 4255 683d 10ee 0c3c
00000050: b873 323d f2ef b3bc 5ff7 203d 1793 24bd
00000060: 1cfd 763b 633a 0c3c c04e 853d 8b38 0f3d
00000070: 3542 bf3c 5b78 06bc 7993 ce3b 12d4 273b
00000080: 8b19 433c 6370 783c 2f8f 253d 63da 68bc
00000090: 4829 99bc 6dda 813d 431d 00bd 4477 abbb
000000a0: e767 35bd 412b 263d c817 da3b 25cc 9ebc
000000b0: 4158 8cbc 7fbe 6e3c 4e3b 913c 830e 5dbc
000000c0: 0a4f 5d3c 95ad 4cbc dd29 59bc 4652 603d
000000d0: 5e22 c73b 2b82 8b3d 7288 083d 6f5e 923c
000000e0: 4dc9 aebb 5450 9d3c 9faa 3e3b 06f4 d53c
000000f0: 7523 4cbd 54a4 86bd d658 6a3d 4aa4 7ebd
00000100: fdb9 55bd 9d99 6ebd 1c3c 0fbc e14c 243d
00000110: 209b 563c 2827 8c3c abed 393c 0d71 0e3c
00000120: 1b11 6ebc bc4f d6bc 98de bebc b223 2d3d
-0.004203884 -0.03267117 -0.03789838 0.0020931466 0.052717283 -0.008880819 -0.017904913 0.0053831358
0.051203217 0.055242535 -0.014051507 0.0025542388 0.0012556015 0.05443467 0.083709314 -0.004222011
0.06902505 -0.0017164967 0.056721933 0.00860168 0.04356739 -0.021965 0.03929841 -0.04017934
0.0037687486 0.008558842 0.06509161 0.034966033 0.023347 -0.008207406 0.006304201 0.0025608581
0.011907945 0.015163514 0.040419754 -0.014212224 -0.018696442 0.063404895 -0.031277906 -0.0052327234
-0.044288542 0.040568594 0.006655667 -0.019384453 -0.017131926 0.014571785 0.017728474 -0.013492229
0.013507614 -0.012492557 -0.01325461 0.054765962 0.006077095 0.06811937 0.03333325 0.017867295
-0.0053340555 0.019203342 0.0029093397 0.026117336 -0.049838502 -0.06574312 0.057213627 -0.062168397
-0.052179325 -0.058251966 -0.008742359 0.04011238 0.013098508 0.017108515 0.011348168 0.008693946
-0.014530445 -0.026161067 -0.0232995 0.04227037

actor.l2.weight f4 [76, 76]
00000000: a786 37bd 5617 d5bd 23b3 a73b add8 583d
00000010: 1b28 79ba f93a 93bc 5be4 7ebd 77fb 8f3c
00000020: f810 abbd 4b92 c9bc 795a 9bbd 2563 6b3b
00000030: af41 7ebd ff73 0c3c 4972 aa3c 91a2 e0bd
00000040: d960 08bd 5856 313c d4cc d23a a87c 7f3d
00000050: 5425 9e3d ba1f 08be 4cc4 38bd 51a3 b3bd
00000060: e42e 493d 6802 8abd 70a1 a5bd 1d49 4cbd
00000070: e13c dc3c bf2d c83c 87a8 1b3d 0ec7 83bd
00000080: 6c0d d63d cc2a 51ba 8a6f 08bd ff92 f23a
00000090: f8c7 273e 597d 85bd 1336 7a3d bd13 cc3c
000000a0: d1e1 d43c c194 fd3d db64 b43c 84c8 41bb
000000b0: ac62 843d 3f82 23be fb08 cd3d 40a4 2b3d
000000c0: 28cb 84bd bb78 76bc 7fe3 07be c16a ee3d
000000d0: a766 983c e104 943c 6e38 39bd 1c1f a2bd
000000e0: 100d f7bd df46 8cbd 95e1 783c f66d 95bd
000000f0: ef15 b4bd c63b 723c d51d 31bd a315 3d3d
00000100: 15f1 aabd 1fe8 4ebd 2160 f7bc 0192 61bd
00000110: 8345 25bc a44c 9e3c e007 2fbd 5175 103d
00000120: 2b79 edbc 2a62 cf3c af2d 18bd 92e0 83bd
00000130: 362c b6bd 82bb 463e 9be7 bf3d e20a cdbc
00000140: 496e 5e3d 461e cdbc 03a9 7dbd 72e2 843d
00000150: cfaf 6b3a 3ce8 22bb 7fb9 793d 8cee 233d
00000160: 4165 703d c5d1 c73d b2ac 66bd 70ab 063e
00000170: 3eae 133d adfd b03d 4041 25bc 0188 f8bc
00000180: 904e d3bc b5a2 26bd cdab 093e 810d 633d
00000190: 15f5 54bd 96df 57bd 23b3 793d a114 e43d
000001a0: 1dd7 4ebc 45fb 033e ba0f 51bc feda 603c
000001b0: 5937 2b3c b24c 523c af03 653d aaac 123e
000001c0: fc24 93bc cf40 823c 5603 05bd 2db1 363d
000001d0: 797c 8fbd 02b0 9fbd f9b8 813d c714 f73c
000001e0: 4b47 00bd 65f0 70bd e2a3 bbbc 6d54 7a3d
000001f0: a7e1 c43d a380 90bd 26dd 31bd 358d 2f3e
00000200: 7ed3 dd3c a6b8 0d3b d6ec f1bd 4e91 b93d
00000210: 5805 1c3d 66f2 163e 44af db3c fa24 8b3d
00000220: 3a2b bd3d 1746 84bd 4728 073e 5be0 9ebd
00000230: 7566 63bc 2f38 a93d 8067 763c 537b 8d3d
00000240: 9da0 b83c b9a4 853d 5f46 833d aaf8 7dbb
00000250: 59b1 c43c bf65 debd 219e c13d 4ad4 7c3d
00000260: 2eac df3d 88ee d4bd 6c94 4d3d 0bb8 3cbc
00000270: c168 d53d aa36 c1bd 0ba1 ce3c b21e 9b3d
00000280: b5a0 fd3d b622 0d3d 126c 853d fc77 9bbd
00000290: 9243 67bd f83c 633d 2bfe e33d bc4e a1bb
000002a0: 4885 45bd 9365 b33d 80cd 1f3d c6f6 d43b
000002b0: cb64 053e d48a 803d 0250 ce3d c21c d1bc
000002c0: 3295 8f3b 7a41 c63c 6fc5 e53d ff85 09bb
000002d0: 728d 8c3a 3c66 78bd 0472 d13d cc53 a9bd
000002e0: d2ae dbba 02d5 053d f38b 0dbd 6134 bebc
000002f0: be82 7c3d 4cf5 3a3d 3d48 963d 918c 2b3c
00000300: bcd5 2b3e 9957 263c 942e 353c 44e2 bc3d
00000310: 5125 b33d 80db c83d 3374 dfba 1b25 bd3b
00000320: aa64 60bd 295a 023d 48bc 0abc 7fec 813d
00000330: ee30 f73d 4139 ef3d 090f 4f3d 0c9f 923d
00000340: 530f 32bd 4873 163e 14aa d03d 848d 403d
00000350: e41b 9e3d 033a 653d c145 073e 1b65 f43d
00000360: db49 093d 042c 7ebc d096 e63c 6271 583d
00000370: a99e 783d 91e5 253d 3ae5 e83d d723 a2bc
00000380: 6074 f63c f749 2f3d 7bbf bf3d 2d35 613c
00000390: e9e8 ae3d cefb 1dbe 73fa 9b3c 24a1 9d3b
000003a0: 3eab 3d3d 7708 75bd c16a 863d b816 18bd
000003b0: b780 5c3d fe5a 03be d5af 623b bbde 7dbd
000003c0: 5252 db3c 8973 933d 73fc ce3c a3cb 433d
000003d0: a2ef 0a3b 84dd 0f3d 41fd 0e3d c168 acbc
000003e0: 24d3 003c d93f 933d c473 84bd a93b 51bd
000003f0: 7a05 e53c 4d8e 873c a5a2 cfbc 17db e63b
-0.04480615 -0.104048416 0.0051177903 0.052941013 -0.00095045724 -0.017972456 -0.062229495 0.017575962
-0.08352846 -0.02460589 -0.07585616 0.003591725 -0.06207436 0.0085725775 0.020806449 -0.10968507
-0.033295486 0.010823809 0.0016082772 0.06237474 0.077219635 -0.13293353 -0.04510908 -0.087713845
0.049116984 -0.0673874 -0.080874324 -0.049874414 0.026884498 0.024435876 0.038002517 -0.06434451
0.10451779 -0.00079790945 -0.033309497 0.0018506943 0.16384876 -0.06518049 0.061086725 0.024911756
0.025986584 0.12381888 0.022020748 -0.002956898 0.06464133 -0.15967654 0.100114785 0.041904688
-0.064840615 -0.015043433 -0.13270377 0.116414554 0.018603636 0.018068733 -0.04521983 -0.0791609
-0.12063038 -0.06849455 0.015190502 -0.07296364 -0.08793246 0.014784759 -0.04324134 0.046163213
-0.08346764 -0.050514337 -0.030197205 -0.05507088 -0.010087374 0.019323654 -0.04273212 0.03526813
-0.028988441 0.025315363 -0.037152942 -0.06439318 -0.08895151 0.19407466 0.09370347 -0.025029603
0.054304395 -0.02503885 -0.06192876 0.064885035 0.0008990736 -0.002485766 0.06096792 0.040022418
0.058690313 0.09756807 -0.05631704 0.13151336 0.036054842 0.08642135 -0.010086358 -0.03033829
-0.025794297 -0.040682513 0.13444443 0.0554328 -0.05199154 -0.052703463 0.060961854 0.11136747
-0.012624529 0.1288882 -0.012760097 0.013724087 0.010450208 0.012835668 0.055911716 0.14323679
-0.017961971 0.015900044 -0.032473885 0.04460256 -0.07006163 -0.07797243 0.06334109 0.030161275
-0.03131799 -0.058823008 -0.022905294 0.06111567 0.09613352 -0.070557855 -0.043423794 0.1714371
0.027078386 0.0021624952 -0.11812751 0.09060918 0.038091034 0.14740905 0.026816972 0.06794162
0.092367604 -0.06458681 0.13198958 -0.07757636 -0.013879408 0.08262669 0.015039325 0.06908288
0.022537524 0.06525559 0.064099066 -0.0038752952 0.024010347 -0.1085925 0.09453989 0.061725892
0.109215125 -0.10397059 0.050190374 -0.011518489 0.10420371 -0.094342545 0.025223276 0.07574214
0.12384168 0.03445693 0.065147534 -0.075912446 -0.056460924 0.055478066 0.11132463 -0.004922716
-0.04822281 0.08759608 0.03901434 0.0064991442 0.1302673 0.06276479 0.10073854 -0.025526408
0.004381799 0.024201144 0.11219298 -0.002098441 0.0010723306 -0.060644373 0.10226825 -0.08267936
-0.0016760475 0.032673843 -0.034557294 -0.023218336 0.061648123 0.04564409 0.07337997 0.010470525
0.16780752 0.010152721 0.011058468 0.09222844 0.08747352 0.09807491 -0.001704818 0.0057722456
-0.0547835 0.031824265 -0.008467741 0.06343936 0.120698795 0.11680842 0.050551448 0.07159242
-0.043471646 0.14692414 0.1018869 0.04700996 0.077201635 0.055963527 0.13210203 0.11933347
0.0335177 -0.015513424 0.028148085 0.052842505 0.060698185 0.040502135 0.113718465 -0.01979248
0.030084789 0.042795148 0.09362694 0.013745588 0.08540518 -0.15428087 0.019040322 0.004810469
0.046305887 -0.059822526 0.065633304 -0.03713104 0.05383369 -0.1282768 0.0034589667 -0.06197999
0.026772652 0.07199771 0.025266862 0.047801625 0.0021199961 0.035123363 0.03490949 -0.021046044
0.00786284 0.07189912 -0.06467393 -0.051082287 0.027956713 0.016547346 -0.02534611 0.0070451605

actor.l2.bias f4 [76]
00000000: d79c 6dbc 1449 473d 2a01 da3c 6c70 2ebd
00000010: 8d5a e43c 65e4 b03c e006 a9bc be0c 12bd
00000020: f822 b7bc fd1b 9d3c 6a50 103d dc99 a93d
00000030: 3333 f03c e269 313b 0b34 4d3d a0b3 ff3b
00000040: e99a 7cbc 23a5 55bd 6192 0f3d e075 543d
00000050: 9354 273d 36fd 52bd 9008 11bc edea 6dbb
00000060: fd12 743b e1fd 563d 95b5 6f3d da6a 53bd
00000070: 2d0c 6f3c 2164 723d 0a10 603d 97a0 4abc
00000080: 5ec8 923d e5c2 87bd cf1e 4bbd 94e3 6cbc
00000090: 1ce9 8e3d 1f61 2d3b 216b 043d be9f 133d
000000a0: 436c 823c 7001 8f3c 62e1 25bc 4162 febc
000000b0: 3b0c 963b 626e 1d3c ae43 8b3d eb80 36ba
000000c0: 21e9 e93a a7ec 3b3d 253e c33c 2c32 72bd
000000d0: 7d06 7fbd 5ee0 68bd 5a26 1c3c 562d 423c
000000e0: 6834 6bbd f9b7 0d3c 9510 6cbd bf0f 58bd
000000f0: bafc 393d 759f 363d b689 f33b 6314 503d
00000100: 7e1e 343b 2bc8 0cbd 0ef1 ee3c 433c d4ba
00000110: 7ca0 473d 1b51 7dbd c193 063d 7f88 2a3d
00000120: 157d bfbc a91f 983c 0382 bb3c 8efc 62bb
-0.014502726 0.048653677 0.026611883 -0.042587683 0.02787521 0.021593282 -0.020633161 -0.035656683
-0.022355542 0.019178385 0.03523294 0.082812995 0.029321289 0.0027071168 0.05009846 0.0078033954
-0.015417793 -0.05215944 0.035051707 0.051870227 0.04085214 -0.051511012 -0.008852139 -0.0036303357
0.0037242763 0.05248821 0.05852278 -0.051615573 0.014590305 0.05917752 0.054702796 -0.012367389
0.07167123 -0.0662897 -0.04958993 -0.014458556 0.06978056 0.0026455594 0.03232873 0.036041014
0.015920764 0.01745674 -0.010124536 -0.03105271 0.0045790947 0.009608837 0.06800018 -0.00069619593
0.0017845967 0.045879986 0.023833344 -0.05912988 -0.062262047 -0.0568546 0.009530628 0.011851629
-0.057423025 0.0086498195 -0.057633 -0.05274939 0.045407034 0.044585664 0.007432188 0.050800692
0.0027483995 -0.034370583 0.029167678 -0.0016192276 0.048737034 -0.061844926 0.032855753 0.04163408
-0.023375073 0.018569784 0.022889143 -0.0034635398

actor.l3.weight f4 [17, 76]
00000000: fe61 fcbc eee9 183d 4d07 d03d 4385 123c
00000010: 84e0 f43d 265f a03d 3f98 833c a92c 1b3d
00000020: a859 e33c 5270 36ba 5343 f13b 4624 0a3c
00000030: fb17 9bbd f9c1 683d c631 b43d 1777 eabd
00000040: 842e af3d c31b d13c 7d7f b53c 0a17 423d
00000050: 7be9 cdbd ce18 e6bc 431a 0ebc 5a09 3f3c
00000060: 843d 8b3b e522 2fbd df41 41bd 1f17 21be
00000070: e7d1 553c eed1 b03d 21d5 0abd e65b a1bd
00000080: 918b 2b3d 371b 293d 2580 b7bd 6a63 eebc
00000090: 4ee9 5d3d cf3b cd3d fb6f c1bd bca1 033c
000000a0: 6018 d03d 0350 20bc 9782 443e cbb5 2bbe
000000b0: 5533 82bd ecfe 08bd 09bd 8a3d 59a7 ae3b
000000c0: 2ae5 2ebe 4c50 873d 1378 183c cd11 f3bd
000000d0: fffb a13d f132 93bd 1887 ea3c ab6e 303d
000000e0: e240 773d 9af7 9abd 9dae c5bd ad1e 5ebd
000000f0: ef02 053d b0b6 643c 55f2 b73d fd34 3c3e
00000100: 9723 3b3e 1e4e 183e be09 abbd df8b 0abd
00000110: 8421 343e 34e9 45bd d5d1 21bd 5bbf 013d
00000120: 738a 3dbc 151b 973d 80aa 4abd 7713 c93c
00000130: fb75 403d 8dd0 26bd 0218 5d3d 5b21 65bd
00000140: daf0 813c 74c2 1dbe dd54 de3c b9d2 dd3d
00000150: a4ae 36be fe2f e23c 60a2 0e3e fc45 0d3e
00000160: 5145 aebd 7980 be3c 9964 b63d c611 debd
00000170: 72d7 013e 9ee6 14bc 1d96 2c3d 40dd 47be
00000180: 3cef 9d3c 9f98 4cbd 6cd9 e0bd 3a9f 07be
00000190: 6e59 f73c 4c89 e73d 91aa 513c 2e7c e9bc
000001a0: f331 743d fac3 dfbc e889 d83c 4c53 0c3d
000001b0: 37fb b0bc eb24 74be d0cf 29bc bed4 5e3d
000001c0: 9eff 1c3c 5b85 1cbd 7be9 45bd 617a b03d
000001d0: 8caf 983d c251 0b3d 6169 663d deaf 7cbd
000001e0: c3e7 e6bb 2b32 9c3d c947 04be 74f8 e23c
000001f0: 4864 b63d 33ae b4bd 0274 403c 56f5 9abc
00000200: 4efe 183d 56d4 e03c 13f7 c0bd 0331 bc3d
00000210: 10bb 97bc 753c e6bc f3db 9abc 63a9 36bd
00000220: 5ff3 123e 5f56 2bbe 98ed 96bd ad61 e5bd
00000230: 0986 aa3d 5580 053e 15b2 04be 9d21 0a3d
00000240: fa6f 0abe ff1d 023e 7bcc c1bc ae67 52bc
00000250: 3c5a 1f3d 83e4 30bb 89b5 ac3c 6b6b 5abd
00000260: 191e 353e a9b5 bcbd 6c25 913d 19e7 0dbd
00000270: d5bd 283c 3e2f 583d 35f9 85bc 4c67 083d
00000280: 4371 56bc 66d9 8cbd 4471 b539 a551 9dbd
00000290: faeb dcbc fc1c d23d 6450 a3bd 3ab8 67bd
000002a0: c78e ea3d b853 e93b 4fac 94bd 5384 4e3e
000002b0: e81e 34be 05b1 233e d6cc 9a3b 4f99 dfbd
000002c0: bf79 37be 386b 6dbd bf55 023b d780 0b3e
000002d0: 8eab 4abc f838 cc3d 9951 2dbd 9cde 5c3c
000002e0: 1f2d f4bd 82e7 1d3c 98ad bd3c 4ec8 fabb
000002f0: f37f cf3a e4ab b63d 5a98 643e c920 64bd
00000300: d104 af3d aa70 8e3b 9692 6e3d 2826 df3b
00000310: 4455 923d 7e5b 153d 1760 ac3c ff83 a53d
00000320: a99d 653e a322 b6bc 6597 3c3c 3867 8a3d
00000330: 30ec 2d3c d332 d4bb 0a80 5b3d 94da 563d
00000340: ccc6 8a3b cae5 33bd 9e5b 18be 614a fd3a
00000350: ad18 4fbd 199c 0b3e 908a 6f3c 3548 203b
00000360: 5b26 bcbd fd04 38bd 0936 07be e3f2 943d
00000370: 42ca 0dbe c109 873d 6aad c73d b0f1 bdbd
00000380: 604d 17bd e8a2 c63d 6e0d c13d 41ba cfbd
00000390: ac4f b7bd 97ab 903d 84e9 4e3d 2ff1 423b
000003a0: d1bc 70bd 0cc3 eebb ab74 ca3d a67e 8c3b
000003b0: 33fc 873d eef2 83bd 92a6 fc3d f760 5d3c
000003c0: dfba e2bd 34ef 063d 5258 b73d 0fb3 8cbd
000003d0: 5019 3fbd 1a37 b03d dcdd 7d3b 6827 a3bd
000003e0: d6c8 efbc 323b 733c 64db 483d 8fea cdbc
000003f0: c06e 283d 44a9 b6bc f009 0f3e 1811 8b3d
-0.030808445 0.037332468 0.101576425 0.008942905 0.119568855 0.07830648 0.016063808 0.037884388
0.027752712 -0.0006959486 0.007362762 0.0084315 -0.07572933 0.05682561 0.08798556 -0.11448496
0.08553794 0.025525933 0.022155518 0.047385253 -0.100542985 -0.028088 -0.0086732535 0.011659944
0.0042492766 -0.042757887 -0.04718196 -0.15731476 0.013050533 0.08633791 -0.03389466 -0.07878856
0.041881148 0.04128572 -0.089599885 -0.029100139 0.054177575 0.10021173 -0.09445187 0.008034166
0.10160899 -0.009784701 0.19190441 -0.16768567 -0.06357447 -0.033446237 0.06774337 0.005330008
-0.17079607 0.06607112 0.009305972 -0.118686296 0.079093926 -0.07187451 0.02862887 0.04307429
0.06036461 -0.075667575 -0.096524455 -0.054228473 0.0324735 0.013959572 0.08981768 0.18379588
0.18275295 0.1487355 -0.083514675 -0.033824798 0.1759091 -0.048318103 -0.039506752 0.03167663
-0.011568653 0.07378212 -0.049479008 0.024545414 0.046987515 -0.040726233 0.053977974 -0.055940013
0.015861917 -0.15406209 0.027140075 0.10831208 -0.17840058 0.027610775 0.13929129 0.13796228
-0.08509315 0.02325462 0.08905906 -0.10843234 0.12679842 -0.009088187 0.042135347 -0.19517994
0.019279115 -0.04995024 -0.1097897 -0.13244334 0.03019401 0.11305484 0.012797014 -0.028501596
0.059617948 -0.027315129 0.026432946 0.034259126 -0.021604164 -0.23842208 -0.010364488 0.054402106
0.009582428 -0.038213115 -0.048318367 0.08617092 0.07455358 0.034013517 0.05625284 -0.061691158
-0.007046671 0.07626756 -0.12918009 0.027706362 0.08905846 -0.08822288 0.011746408 -0.018915813
0.0373519 0.027445 -0.09422126 0.09189036 -0.018521816 -0.028105 -0.018903708 -0.044595134
0.14350651 -0.16732167 -0.07369536 -0.11200271 0.083263464 0.13037236 -0.12958558 0.033723462
-0.13519278 0.12706755 -0.023657074 -0.012842102 0.038904414 -0.0026991672 0.021082656 -0.053325098
0.17687263 -0.092143364 0.07087216 -0.03464422 0.010299166 0.05277943 -0.016354183 0.033301637
-0.013088527 -0.06877403 0.000346074 -0.07681588 -0.026967991 0.102594346 -0.07974318 -0.056572177
0.11453014 0.0071205758 -0.07259428 0.20167665 -0.17589915 0.15985496 0.0047241254 -0.10917913
-0.17917536 -0.05796358 0.0019887534 0.13623367 -0.012370003 0.099718034 -0.042314146 0.013480809
-0.11922669 0.009637715 0.023154065 -0.0076532727 0.0015830979 0.08919504 0.22323743 -0.05569533
0.085458405 0.0043469267 0.058245264 0.0068099685 0.071451694 0.036464207 0.021041913 0.08081817
0.22423424 -0.022233313 0.011510705 0.06757969 0.0106153935 -0.0064757853 0.053588904 0.052454546
0.004235124 -0.043920316 -0.14878699 0.0019324535 -0.050560642 0.13633765 0.014620438 0.0024457101
-0.09187003 -0.044926632 -0.13204207 0.072728895 -0.13846686 0.06593657 0.09749873 -0.09274614
-0.036939025 0.09699041 0.0942639 -0.10142947 -0.08950743 0.07063978 0.050515667 0.0029745807
-0.05877382 -0.007286435 0.09885534 0.0042875586 0.066399 -0.064428195 0.12336458 0.013511888
-0.11070799 0.032942966 0.08952393 -0.0687009 -0.046655 0.0860426 0.0038736975 -0.079665005
-0.02927057 0.014845656 0.049037352 -0.02513626 0.041121244 -0.022297509 0.13968635 0.0679037

actor.l3.bias f4 [17]
00000000: 1faa 7fbb 936c 99bd f31a 81bc 24af 593d
00000010: 609a 203d 029f bc3a 23ed 153d 1d2e 72bd
00000020: 1cea c03c 8d15 90bb 018d 8e3d b41e 66bb
00000030: cd9f 8dbd eb7a 2bbd fa9e 5dbc c82e ae3c
00000040: 4256 81bd
-0.0039011312 -0.07491412 -0.01575992 0.053145543 0.039209723 0.001439065 0.036603104 -0.05912601
0.023549132 -0.0043971003 0.06960488 -0.0035113515 -0.06915245 -0.04186527 -0.0135266725 0.021262541
-0.063152805
