TD3/models/pruning/TD3-Ant-0.3-l1.onnx (onnx, 155785 bytes, 6 tensors)

actor.l1.weight f4 [179, 27]
0	0xbe0d87e1	-0.13821365
1	0xbf47779d	-0.7791689
2	0x3faba4e7	1.3409699
3	0xbf4f6915	-0.8101972
4	0x3f92f124	1.147984
5	0xbde66c76	-0.11251156
6	0xbe96737d	-0.29384986
7	0xbee248f6	-0.4419629
8	0x3c913592	0.01772574
9	0x3f350e5b	0.7072503
10	0x3f1ea887	0.619759
11	0xbee0d4f7	-0.4391248
12	0x3e85decb	0.2614654
13	0xbde8b9a6	-0.11363535
14	0x3e3bf662	0.18355706
15	0x3e5583e6	0.20851097
16	0xbd33219a	-0.043733217
17	0x3e5a7e12	0.21337155
18	0x3ddf8f71	0.10916031
19	0x3c700ec9	0.014651963
20	0xbd8dfbd7	-0.069328
21	0x3d7e8282	0.06213618
22	0x3b471232	0.0030375835
23	0xbd296703	-0.041358005
24	0x3db0090f	0.08595478
25	0x3c45e2f9	0.01207804
26	0xbc304a11	-0.010759846
27	0xbf02462e	-0.50888336
28	0x3f4466db	0.76719445
29	0x3e9e746c	0.30948198
30	0x3c2b6232	0.010460423
31	0xbd10ce7f	-0.03535318
32	0x3f7bc73f	0.983509
33	0x3d80f657	0.062969856
34	0x3de10606	0.10987477
35	0xbb7dd580	-0.0038731992
36	0x3f1b7403	0.60723895
37	0xbecd4332	-0.40090328
38	0x3e9faa37	0.3118455
39	0xbf94b902	-1.161896
40	0xbec3b086	-0.38220614
41	0xbdf5bf92	-0.1199943
42	0x3d4bf3b5	0.049792964
43	0x3e8d51b9	0.27601412
44	0x3ee5e287	0.4489939
45	0xbd490215	-0.04907425
46	0x3c5fc0cb	0.013656805
47	0x3d788dd0	0.060682118
48	0xbd5fc395	-0.05462988
49	0x3d739834	0.059471324
50	0x3c041b3a	0.008063132
51	0x3da3eb42	0.08003856
52	0xbd0593e3	-0.03261174
53	0x3c846a48	0.01616396
54	0x3dafac75	0.085778154
55	0xbd98fae4	-0.074697286
56	0x3f1528f0	0.5826559
57	0xbf21a130	-0.6313658
58	0xbf4e7aef	-0.8065633
59	0xbd8ce4e4	-0.06879595
60	0xbef349c3	-0.47517213
61	0x3f37b35a	0.71758044
62	0x3e7581ea	0.2397534
63	0x3dee3a30	0.11632192
64	0x3e58c756	0.2116979
65	0xbef3be9d	-0.47606364
66	0xbe73977e	-0.23788258
67	0xbea1ac11	-0.3157659
68	0x3e15e65e	0.1463866
69	0x3b6377c8	0.0034708846
70	0xbe991be4	-0.2990409
71	0xbcc8c5bb	-0.024508348
72	0xbe4ce93c	-0.20010847
73	0x3be0f259	0.0068648276
74	0xbdd2689b	-0.10273858
75	0xbd952a7a	-0.072834924
76	0xbdc3b52b	-0.095560394
77	0x3d8739f1	0.06602848
78	0x3cc807fd	0.024417872
79	0xbde0ff85	-0.109862365
80	0xbdce0b07	-0.10060697
81	0x3f264183	0.6494371
82	0xbef6b473	-0.48184547
83	0xbfb88c37	-1.441779
84	0x3f5e2ef7	0.8679041
85	0x3f12c2c5	0.57328445
86	0x3e1a58e5	0.15072973
87	0x3d598dc4	0.053113714
88	0xbed9ddc0	-0.42551994
89	0x3e80bef5	0.2514569
90	0x3e7d2537	0.24721228
91	0xbe04d9cf	-0.12973712
92	0x3d45b0de	0.048264377
93	0xbe8a6bcf	-0.27035376
94	0x3cfba889	0.030720012
95	0xbe10eb2d	-0.14152212
96	0xbe73306f	-0.23748945
97	0xbdacb982	-0.0843382
98	0x3e8ea87c	0.27862918
99	0x3cf3500f	0.02970126
100	0x3da0dfcb	0.07855185
101	0xbd7bfd4c	-0.06152086
102	0x3cfa5637	0.030558689
103	0xbd7f8d17	-0.062390413
104	0x3dcf3d60	0.10119128
105	0x3d53d5c0	0.05171752
106	0x3ce68366	0.028138828
107	0x3d730fe5	0.05934133
108	0xbec37a95	-0.3817946
109	0xbf18b132	-0.5964538
110	0xbf2b256f	-0.66853994
111	0x3fdc321c	1.7202792
112	0x3eabe610	0.3357396
113	0xbe46844c	-0.19386405
114	0x3ba325fa	0.0049788924
115	0xbe728f5c	-0.236875
116	0x3e36a274	0.17835408
117	0x3f296a41	0.66177756
118	0x3e6db431	0.23213269
119	0x3eac45dc	0.33647048
120	0xbdce09b0	-0.100604415
121	0xbeb68fe3	-0.35656652
122	0x3c0b724b	0.008511136
123	0x3e56e345	0.20985134
124	0xbdcc5695	-0.09977452
125	0xbe6e3254	-0.23261386
126	0x3dc269bf	0.09492826
127	0xba58df60	-0.00082730316
128	0xbdaa4a56	-0.0831496
129	0xbe368cfc	-0.17827219
130	0xbbf12b78	-0.007359918
131	0xbd985205	-0.07437519
132	0x3e03c242	0.12867072
133	0x3d8dcbaa	0.069236115
134	0xbdb7eb17	-0.08980387
135	0x3f2428d6	0.6412481
136	0x3f188c48	0.5958905
137	0x3f9cb7ad	1.2243553
138	0x3f251f78	0.6450114
139	0x3e09e8f9	0.13467778
140	0x3e96af00	0.2943039
141	0xbe975602	-0.29557806
142	0xbe196b0b	-0.1498224
143	0x3ed2185d	0.41034213
144	0x3e9be502	0.30448157
145	0xbedf2d24	-0.43589127
146	0xbed98275	-0.42482343
147	0xbdfb296c	-0.1226376
148	0xbe8bd8d0	-0.27313852
149	0xbd01bb3e	-0.03167271
150	0xbe32e3c1	-0.17469694
151	0x3cc1c8ef	0.023655383
152	0x3c9e793e	0.019344922
153	0xbdab991f	-0.08378815
154	0xbc585d00	-0.013205767
155	0xbd3fb70f	-0.046805438
156	0xbd0d1171	-0.03444046
157	0xbd97275d	-0.07380555
158	0xbd16b8a4	-0.03679718
159	0xbc8d9ce0	-0.017286718
160	0x3da8d57c	0.08243844
161	0x3c894cab	0.016760191
162	0xbf1142e3	-0.56742686
163	0x3f256761	0.6461087
164	0xbf7a139d	-0.9768618
165	0x3f599cf8	0.8500514
166	0x3fb0be95	1.3808161
167	0x3e7ca183	0.24670987
168	0xbe548d5c	-0.2075705
169	0x3f7a6d76	0.97823274
170	0xbe884162	-0.26612383
171	0xbd873b1b	-0.0660307
172	0x3e89a22e	0.26881546
173	0x3e972a00	0.2952423
174	0x3e002df9	0.12517537
175	0xbe395494	-0.1809867
176	0xbd9e6a77	-0.0773515
177	0x3ddf0b1a	0.10890789
178	0xbda46bff	-0.08028411
179	0x3e221a8f	0.15830444
180	0x3e698f8f	0.2280867
181	0x3d3824cf	0.04495698
182	0x3d044d0e	0.032300048
183	0x3d5e449a	0.054264642
184	0x3bdf2dea	0.0068108933
185	0x3d01305e	0.031540267
186	0x3d6225c0	0.055211782
187	0x3d28b085	0.041183967
188	0xbc175117	-0.009235642
189	0x3eedfe56	0.46483105
190	0x3c5ccf3a	0.013477141
191	0xbf67b14e	-0.9050492
192	0xbe3bdb83	-0.18345456
193	0x3f23cc4c	0.6398361
194	0x3e609541	0.21931936
195	0xbe1e630e	-0.15467474
196	0xbe0ecfe4	-0.13946491
197	0x3e4a9f68	0.19787371
198	0x3f5dcb4d	0.8663834
199	0xbf0362ad	-0.5132244
200	0xbef55990	-0.47919893
201	0xbdfbd76e	-0.12296949
202	0xbe486019	-0.19567908
203	0x3e66ddaa	0.22545496
204	0x3f1a75ef	0.603362
205	0xbe07a61e	-0.13246962
206	0xbe5a7c2e	-0.21336433
207	0x3c48132c	0.012211602
208	0xbceeceee	-0.029151406
209	0x3d014de6	0.03156843
210	0xbc14f3f0	-0.009091362
211	0x3c93f8b1	0.018062921
212	0xbc34ee6d	-0.011043173
213	0x3c2afce9	0.010436275
214	0x3ca04649	0.019564765
215	0xbd0e3cb1	-0.03472585
216	0xbf97e06a	-1.1865361
217	0xbf9bd813	-1.2175316
218	0x402c2fb8	2.6904125
219	0xbfdf38b7	-1.7439183
220	0xbda9f46d	-0.08298574
221	0x3dc4f9f8	0.0961799
222	0x3eabfd28	0.3359158
223	0x3e8169b4	0.25275958
224	0xbdbb51a2	-0.091464296
225	0xbe186404	-0.14881903
226	0x3ddba680	0.10725117
227	0xbe8da681	-0.27666095
228	0x3e277477	0.16353022
229	0xbd63aeaa	-0.055586495
230	0xbea581f1	-0.323257
231	0x3e58a860	0.2115798
232	0x3e980d20	0.29697514
233	0x3da035c0	0.07822752
234	0xbdfb46e4	-0.12269381
235	0x3c70aaea	0.014689187
236	0x3b0d199d	0.002153016
237	0xbda1a68d	-0.07893095
238	0x3d510a62	0.051035292
239	0xbd66abf4	-0.05631633
240	0x3c78d8e8	0.015188433
241	0xbcacb69b	-0.021083167
242	0xbbe56367	-0.007000375
243	0xbd2b72f5	-0.04185768
244	0xbfb28ba8	-1.394887
245	0x3ea6d477	0.32583973
246	0xbf3440bf	-0.70411295
247	0x3f5d94b2	0.86555016
248	0x3e9d085b	0.30670437
249	0x3e12ef21	0.14349033
250	0xbc3a7f37	-0.011382869
251	0x3f06724a	0.5251814
252	0x3e92598c	0.28583944
253	0xbbaa5948	-0.0051986314
254	0x39b5c0c3	0.0003466663
255	0xbc2f282c	-0.01069073

actor.l1.bias f4 [179]
0	0x3e9f6f05	0.3113939
1	0xbe8a3a17	-0.26997444
2	0x3e2e94b1	0.17048909
3	0xbed2436b	-0.4106706
4	0xbeae6a2c	-0.34065378
5	0xbf0eb6cb	-0.5574767
6	0xbdef5db8	-0.11687797
7	0xbee4c5ba	-0.44682103
8	0x3e74ade7	0.23894463
9	0x3decb347	0.11557632
10	0xbf48488d	-0.78235704
11	0xbc34dab0	-0.011038467
12	0xbccbc83d	-0.024875754
13	0xbe93ec96	-0.28891438
14	0xbeafcec8	-0.3433745
15	0xbec89097	-0.39172813
16	0xbca46152	-0.020065937
17	0xbf111816	-0.5667738
18	0xbe4d875a	-0.20071164
19	0xbead9358	-0.33901477
20	0xbeaa506c	-0.33264482
21	0xbf27d3a8	-0.65557337
22	0x3da0b5e8	0.07847196
23	0x3de2c604	0.11072925
24	0x3d329253	0.043596577
25	0xbf3a8059	-0.72852093
26	0xbda17b4f	-0.078848474
27	0xbe855484	-0.26041043
28	0xbf46857a	-0.7754742
29	0x3e107313	0.14106397
30	0x3cc69cfd	0.02424478
31	0xbd610ce7	-0.054943945
32	0xbf3b9e45	-0.73288375
33	0x3e7c3d39	0.2463273
34	0xbdf7cd87	-0.12099748
35	0xbe131aec	-0.14365739
36	0xbe66a92d	-0.22525473
37	0xbe52151c	-0.20515865
38	0xbe93b4ad	-0.28848782
39	0x3e359b3f	0.17735003
40	0xbec6b7eb	-0.38812193
41	0xbe13f149	-0.14447512
42	0x3f692847	0.91077083
43	0xbd8939df	-0.06700491
44	0x3da6cbbe	0.081443295
45	0xbecad9f9	-0.39619425
46	0xbc78eefb	-0.015193696
47	0xbed21d9d	-0.41038218
48	0xbe6ed554	-0.23323566
49	0x3e129df3	0.14318065
50	0xbf2e5a6b	-0.68106717
51	0xbe86d80c	-0.26336706
52	0x3e453bb3	0.19261055
53	0xbf1a6163	-0.6030485
54	0xbf0ec1d0	-0.55764484
55	0xbee8191a	-0.4533165
56	0xbea7b1a3	-0.32752714
57	0xbeddbe73	-0.43309364
58	0x3e695096	0.22784647
59	0x3e8ead1b	0.27866444
60	0xbee681fc	-0.45021045
61	0x3eae82ef	0.3408427
62	0xbed337da	-0.4125355
63	0xbf13d550	-0.57747364
64	0xbdbbe207	-0.09173971
65	0x3e256735	0.16152652
66	0xbe0bc6df	-0.13650082
67	0xbed99dfa	-0.4250334
68	0x3e8113ad	0.25210324
69	0xbf2ec624	-0.6827109
70	0x3e76ddeb	0.24108092
71	0xbf4237b7	-0.75866264
72	0xbe45f3ae	-0.19331238
73	0xbe60f738	-0.21969306
74	0xbe21fef2	-0.1581991
75	0x3cedfbea	0.029050786
76	0x3e0d6601	0.13808443
77	0xbe32ff28	-0.17480147
78	0xbe724833	-0.23660354
79	0xbded998b	-0.116015516
80	0x3e8a5660	0.27019024
81	0xbe162ad2	-0.14664772
82	0xbefef9ae	-0.49799865
83	0x3d4d01be	0.05005049
84	0xbe6c7178	-0.2309016
85	0xbdc182ba	-0.09448762
86	0x3e7e5482	0.24836925
87	0xbe802aac	-0.25032556
88	0x3ce0b6ca	0.02743091
89	0xbe714afc	-0.2356376
90	0x3e4cfc05	0.20018013
91	0xbf3fae68	-0.748755
92	0x3e73e429	0.23817505
93	0x3e1db215	0.15399964
94	0x3e96df90	0.2946744
95	0x3c106268	0.008812524
96	0xbe6d8c6d	-0.231981
97	0xbf7adda2	-0.97994435
98	0xbe8fb956	-0.28071088
99	0xbe684b3f	-0.22684954
100	0x3d20fa1a	0.039301015
101	0xbdf10de0	-0.117702246
102	0x3d83d625	0.06437329
103	0xbda2597b	-0.07927223
104	0xbea37af9	-0.31929758
105	0xbeb46f95	-0.3524138
106	0xbe36afee	-0.1784055
107	0xbeb501ef	-0.35353038
108	0xbe75ed48	-0.24016297
109	0xbd9cfbff	-0.07665252
110	0x3e2cb3c6	0.16865453
111	0xbeaba7be	-0.33526415
112	0x3e12e923	0.14346747
113	0xbe82b750	-0.2553048
114	0xbf438b1b	-0.76384133
115	0xbdedf1e3	-0.11618402
116	0xbeca1fa9	-0.3947728
117	0x3e345bad	0.17613097
118	0x3e0df7b5	0.13864024
119	0x3da50ede	0.08059476
120	0x3c4f55ef	0.0126547655
121	0x3de7bc84	0.113152534
122	0xbf00812c	-0.501971
123	0x3dddc0ad	0.108277656
124	0x3e3e75e0	0.18599653
125	0xbf4fd074	-0.8117745
126	0xbb93fdb2	-0.004516327
127	0xbf394ad7	-0.7237982
128	0xbef8b553	-0.4857584
129	0xbdfc3c68	-0.12316209
130	0x3ce1518e	0.027504709
131	0xbe1c104a	-0.15240589
132	0xbe4a2fee	-0.19744846
133	0xbeb196d9	-0.346854
134	0xbe6c8f43	-0.23101525
135	0x3ee48863	0.44635305
136	0xbf0c9f68	-0.54930735
137	0xbf2f60b1	-0.68506914
138	0xbeaceb6e	-0.3377337
139	0xbe845e0e	-0.25853008
140	0x3c0ac040	0.0084686875
141	0xbef21682	-0.47282797
142	0x3cfcb10d	0.030846143
143	0xbec21e56	-0.3791377
144	0xbe41b6ef	-0.1891744
145	0xbe46e403	-0.19422917
146	0xbe178fb0	-0.14800906
147	0x3eab627f	0.33473584
148	0x3e197698	0.14986646
149	0xbd0120ce	-0.031525426
150	0x3e61ee34	0.22063524
151	0xbe2050bf	-0.15655802
152	0xbe8149f9	-0.2525175
153	0xbf3a27d1	-0.72717005
154	0xbe942814	-0.28936827
155	0xbe3b04e6	-0.18263587
156	0xbea3a4f2	-0.3196178
157	0xbea791a5	-0.32728305
158	0x3ea2bbd2	0.3178392
159	0x3d2897d1	0.04116041
160	0xbf0fc9d1	-0.5616732
161	0x3e2b73fc	0.16743463
162	0x3f190313	0.59770316
163	0xbf08bee9	-0.53416306
164	0xbe1862bf	-0.14881419
165	0x3e94e1b4	0.29078448
166	0xbd259a91	-0.04043061
167	0x3c0644d3	0.00819512
168	0x3eeb50ea	0.4596017
169	0xbd93d498	-0.072182834
170	0x3f17be6d	0.5927494
171	0xbe7d94ff	-0.24763869
172	0x3e3497f2	0.17636088
173	0xbcf0e68f	-0.029406814
174	0x3d63f26a	0.055651106
175	0xbe97b6d8	-0.29631686
176	0x3e02cf75	0.12774451
177	0xbf4c6056	-0.79834497
178	0x3dc784cf	0.09742128

actor.l2.weight f4 [179, 179]
0	0xbe8c5043	-0.27404985
1	0xbf4249d2	-0.7589389
2	0x3db9b2cd	0.09067307
3	0xbe4c0f95	-0.19927819
4	0x3e135baf	0.14390443
5	0xbe789a0d	-0.24277516
6	0x3e1226ee	0.14272663
7	0x3f00d70e	0.5032815
8	0x3e9e7367	0.3094742
9	0x3ea827ab	0.32842764
10	0xbe8c182e	-0.27362198
11	0x3c8c9d97	0.017164988
12	0xbeb1832c	-0.3467039
13	0xbe30368b	-0.17208306
14	0xbe8f2867	-0.27960512
15	0xbe94a0d8	-0.29028964
16	0x3e05c509	0.13063444
17	0x3dce041e	0.10059379
18	0xbebba607	-0.36650106
19	0xbe08bd70	-0.13353515
20	0xbe09aa30	-0.13443828
21	0x3e2cb6ef	0.16866659
22	0xbe02694d	-0.12735482
23	0x3e27bdd5	0.16381009
24	0xbf050967	-0.5196747
25	0xbee66d3b	-0.4500521
26	0x3de41c9b	0.111382686
27	0x3cde73e8	0.027154878
28	0x3d6cc919	0.05780897
29	0xbdcd4ce5	-0.10024432
30	0xbb953678	-0.0045536123
31	0xbe07db69	-0.13267292
32	0xbe84d1f6	-0.25941437
33	0xbb64b29f	-0.0034896506
34	0xbe9e5ab6	-0.30928582
35	0xbe606af4	-0.219158
36	0xbe43d5dc	-0.1912455
37	0xbe4fd791	-0.20297076
38	0x3dcabe0b	0.09899529
39	0xbe0672b2	-0.1312969
40	0xbf2d57a7	-0.6771187
41	0xbe491cfb	-0.19639961
42	0xbf308af9	-0.68962055
43	0x3e35f4aa	0.17769113
44	0x3eec0867	0.4610016
45	0x3d6d4b44	0.057933107
46	0xbe8f0b1a	-0.27938157
47	0xbdfb71be	-0.12277554
48	0x3e29b15a	0.1657156
49	0x3d31623d	0.043306578
50	0xbd94e472	-0.07270135
51	0xbda51819	-0.08061237
52	0x3cfd7227	0.030938221
53	0x3e642dd2	0.22283104
54	0xbe29b78e	-0.16573927
55	0xbf3fe0bd	-0.749523
56	0x3ecaaf57	0.395869
57	0xbc2b7df7	-0.010467044
58	0xbeb19baf	-0.3468909
59	0xbc7e2c90	-0.015513554
60	0x3bc4adc3	0.0060021593
61	0x3ea70660	0.3262205
62	0xbe18599b	-0.14877932
63	0xbf018f11	-0.50608927
64	0xbd432123	-0.047639024
65	0xbdbe8573	-0.09302797
66	0x3e38c783	0.18044858
67	0xbd142c3e	-0.036175005
68	0x3c17057a	0.009217614
69	0xbcc7f26c	-0.024407588
70	0x3e473ffd	0.19458003
71	0x3edae60a	0.4275363
72	0xbdfcad51	-0.12337745
73	0x3e0f1449	0.13972582
74	0xbe3cee9c	-0.18450397
75	0x3d088ad4	0.03333552
76	0xbe06b625	-0.1315542
77	0xbd8d391b	-0.06895658
78	0x3d7fd774	0.06246133
79	0xbe204739	-0.1565217
80	0x3ded6d78	0.11593145
81	0xbd888b0b	-0.06667145
82	0x3d5dd05a	0.054153778
83	0x3db8adf1	0.09017552
84	0xbda6d715	-0.081464924
85	0xbd071ae8	-0.032984644
86	0xbe87d12c	-0.26526773
87	0xbd9a9382	-0.07547666
88	0xbe89033f	-0.2676029
89	0x3e05b6f9	0.1305808
90	0xbe19401b	-0.1496586
91	0x3e2c1bac	0.16807431
92	0xbeaaab8e	-0.3333401
93	0xbede9ad6	-0.43477505
94	0xbc85d96a	-0.016339023
95	0x3e0446b6	0.12917599
96	0x3e523770	0.2052896
97	0xbf1bbc2d	-0.6083401
98	0xbd7c45fa	-0.061590172
99	0xbdd0f236	-0.10202448
100	0x3e76acc6	0.24089345
101	0xbe99fa1e	-0.30073637
102	0xbe10489e	-0.14090201
103	0x3e8f2aa4	0.2796222
104	0xbf5c20c8	-0.8598752
105	0x3e0b0b8a	0.1357862
106	0x3e0cd2c2	0.13752273
107	0x3efbc19a	0.49171144
108	0xbe1d0628	-0.1533438
109	0xbe431e8d	-0.19054623
110	0x3cb59a0d	0.022168184
111	0x3e8af382	0.27138907
112	0x3dd83aca	0.10558088
113	0xbec4ec29	-0.38461426
114	0x3d187fbc	0.037231192
115	0x3f2a6c81	0.66571814
116	0xbd842650	-0.0645262
117	0x3de6064f	0.11231672
118	0xbda3fea7	-0.080075555
119	0xbdfd6f5d	-0.123747565
120	0xbc7e840d	-0.015534413
121	0x3e272a5b	0.16324751
122	0xbf088f06	-0.53343236
123	0x3e971a52	0.29512268
124	0x3ca2a85b	0.019855669
125	0x3e0d075e	0.13772342
126	0x3d426df9	0.04746816
127	0x3d76e531	0.060277168
128	0x3e2485f8	0.1606673
129	0xbe9306ce	-0.2871613
130	0x3e8448bb	0.2583674
131	0x3ba81ef2	0.005130642
132	0xbe103a71	-0.14084794
133	0x3e42df73	0.19030552
134	0xbd857a1d	-0.06517432
135	0xbe7c6f82	-0.24651912
136	0xbe7af478	-0.2450732
137	0xbc78f9e2	-0.015196295
138	0xbc8c225a	-0.017106224
139	0x3da2e6ac	0.079541534
140	0x3e2535ef	0.16133855
141	0xbe5a3981	-0.21310998
142	0x3dbb8b61	0.09157444
143	0xbe659696	-0.22420725
144	0x3dad8038	0.084717214
145	0xbed013fc	-0.40640247
146	0xbea229ee	-0.31672615
147	0x3da1fd5e	0.07909654
148	0xbbbe5036	-0.0058079017
149	0xbf13d453	-0.57745856
150	0x3dd58d3f	0.10427331
151	0x3de7a6fe	0.11311148
152	0xbd90c381	-0.070685394
153	0xbda31798	-0.079634845
154	0xbf06431e	-0.5244616
155	0xbec6f17c	-0.38856113
156	0x3e2e01ca	0.1699287
157	0xbce1c9a6	-0.027561974
158	0x3e717078	0.2357806
159	0x3ef0c34d	0.47024003
160	0x3c4a0f3b	0.012332733
161	0x3ea157cf	0.31512305
162	0xbdbb02aa	-0.091313675
163	0xbec7fd3b	-0.39060387
164	0x3e27223d	0.16321655
165	0xbd1e3da1	-0.038632993
166	0x3f00e069	0.5034242
167	0x3e554987	0.2082883
168	0xbe3d5671	-0.18490006
169	0x3f57809b	0.8418061
170	0x3e1652d0	0.14680028
171	0xbdbf8257	-0.09351032
172	0xbe0180cf	-0.12646793
173	0x3e0772e9	0.13227428
174	0xbeade911	-0.33966878
175	0xbe51e281	-0.2049656
176	0xbe065dbc	-0.13121694
177	0x3dcf26d7	0.1011483
178	0xbcf8dd98	-0.030379102
179	0xbee59cef	-0.44846293
180	0xbe4359a0	-0.19077158
181	0xbe9ae2a9	-0.30251053
182	0x3c5fb565	0.013654088
183	0xbda03576	-0.07822697
184	0x3e5adbbf	0.21372889
185	0xbef38a75	-0.47566572
186	0x3d81515b	0.063143454
187	0x3ebd7676	0.3700444
188	0x3d6bd852	0.057579346
189	0x3eb0b80e	0.34515423
190	0xbdc242fc	-0.094854325
191	0xbf337565	-0.70101005
192	0xbcf1a272	-0.029496405
193	0xbe24403b	-0.16040127
194	0xbd98f990	-0.07469475
195	0x3da1d6ae	0.07902275
196	0xbde2c2f9	-0.11072344
197	0xbe12b538	-0.14326942
198	0x3ecc08b4	0.3985039
199	0xbe605a07	-0.21909343
200	0xbdc65bda	-0.09685488
201	0xbe2d940a	-0.16951004
202	0x3e6748d5	0.22586377
203	0x3e67da7b	0.22641937
204	0x3d9c616c	0.07635769
205	0x3ec2d438	0.38052535
206	0x3e9c35d9	0.30509833
207	0x3ea37a77	0.3192937
208	0xbd470c77	-0.04859587
209	0xbe9a1f25	-0.30101886
210	0xbe0e7569	-0.13911976
211	0xbde48a07	-0.11159139
212	0x3e8dcc44	0.27694905
213	0xbf09339b	-0.5359437
214	0xbd13ec04	-0.036113754
215	0x3ce2f1dc	0.027703218
216	0xbc37aeac	-0.011211079
217	0xbebf3dcb	-0.37351832
218	0xbe5580c1	-0.20849897
219	0x3d437b87	0.047725227
220	0x3e56677c	0.20937914
221	0xbed4a92e	-0.41535324
222	0x3e2519bc	0.16123098
223	0x3e05c8bd	0.13064857
224	0xbe2f217f	-0.17102621
225	0xbc526c66	-0.012843227
226	0x3e722cd8	0.23649919
227	0x3d9bda25	0.07609967
228	0x3d21f137	0.03953668
229	0xbdeb9a7f	-0.11504077
230	0xbf0de3d4	-0.55425763
231	0x3ecfc4c3	0.40579805
232	0x3e590160	0.21191931
233	0xbe39f900	-0.18161392
234	0x3d980242	0.07422306
235	0xbd6ef607	-0.0583401
236	0xbc344dda	-0.011004889
237	0xbedad8ab	-0.4274343
238	0x3e39d638	0.18148124
239	0x3e390214	0.18067199
240	0x3e213cad	0.15745802
241	0xbe8dcd23	-0.2769557
242	0x3e603317	0.21894489
243	0xbe324d89	-0.1741239
244	0xbdfa9781	-0.12235928
245	0xbd025601	-0.0318203
246	0x3da6cf84	0.08145049
247	0x3d2c01d4	0.04199393
248	0xbdba89ec	-0.09108338
249	0x3eacdb2f	0.33760974
250	0x3eb9958c	0.36246908
251	0x3e503647	0.20333205
252	0x3c7cbd88	0.015426047
253	0xbe7544dc	-0.23952049
254	0x3db5101a	0.08840962
255	0xbebb3a0c	-0.36567724

actor.l2.bias f4 [179]
0	0x3e35fbf6	0.17771897
1	0xbe934191	-0.2876096
2	0xbe10dfa1	-0.14147808
3	0x3d12ba20	0.035822034
4	0xbd9e985c	-0.07743904
5	0xbe4b60a4	-0.19861084
6	0x3e2373c3	0.15962128
7	0xbec1acda	-0.37827188
8	0x3ea3076f	0.3184161
9	0xbf13ea52	-0.5777942
10	0x3e267602	0.16255954
11	0xbdf17867	-0.11790543
12	0xbe23b3dd	-0.15986581
13	0xbf0836f7	-0.5320887
14	0xbd8297b4	-0.06376591
15	0xbde194d8	-0.11014718
16	0xbe385b90	-0.18003678
17	0x3e5a7845	0.21334942
18	0xbed248a7	-0.41071054
19	0xbeb8f650	-0.36125422
20	0x3e622a88	0.22086537
21	0x3e6d3c75	0.23167594
22	0xbea3126f	-0.3185
23	0x3e459a6c	0.19297189
24	0x3dbc71aa	0.09201367
25	0xbf016231	-0.50540453
26	0x3dff82a3	0.12476089
27	0xbc7a5c49	-0.015280792
28	0xbe5cbb75	-0.21555884
29	0xbe094c5c	-0.13408035
30	0xbe21e4da	-0.15809956
31	0xbec3911a	-0.3819664
32	0x3d97b29e	0.074071154
33	0xbda47075	-0.08029262
34	0xbdac8fc7	-0.08425861
35	0xbe8921a6	-0.26783484
36	0xbe371bcf	-0.17881702
37	0xbe44e67c	-0.19228548
38	0xbde73986	-0.112902686
39	0xbe1e7fa0	-0.15478373
40	0x3e0a651b	0.13515131
41	0x3d9e84f1	0.077402
42	0x3e98e034	0.29858553
43	0xbe43e38c	-0.19129771
44	0xbed22938	-0.41047072
45	0xba09a302	-0.00052504253
46	0xbe4f1e30	-0.2022636
47	0xbeb77afb	-0.35836014
48	0xbc3504b6	-0.011048486
49	0x3ee03e2e	0.4379744
50	0xbe9d7646	-0.30754298
51	0xbeb3ea13	-0.35139522
52	0x3dc3017e	0.09521769
53	0xbee34821	-0.44390967
54	0xbe8cf143	-0.27527818
55	0x3e1d8452	0.15382507
56	0xbebc14da	-0.36734658
57	0xbe6d47a8	-0.23171866
58	0x3e82d4ac	0.2555288
59	0x3ecd528f	0.4010205
60	0xbd36732d	-0.044543434
61	0xbee687d3	-0.450255
62	0x3dff932c	0.12479243
63	0xbcad6bb0	-0.021169513
64	0x3e39a290	0.18128419
65	0xbe90d17c	-0.28284824
66	0xbf22e667	-0.63632816
67	0x3c4bf807	0.012449271
68	0x3e35ccfa	0.17753974
69	0x3e1957cb	0.14974897
70	0x3e6e43ee	0.232681
71	0xbe1bea68	-0.15226138
72	0xbeb240d6	-0.3481509
73	0xbe33335c	-0.17500061
74	0xbb48ae45	-0.003062145
75	0xbe019088	-0.1265279
76	0xbe6ebe11	-0.23314692
77	0xbda5a4f0	-0.080881
78	0xbddf2f43	-0.10897686
79	0x3ea6cef7	0.32579777
80	0x3e9c63ff	0.3054504
81	0x3c105ead	0.008811635
82	0x3ecd686d	0.40118733
83	0xbeab5cb8	-0.33469176
84	0xbd7e5af5	-0.062098462
85	0xbe61218e	-0.21985456
86	0xbece945c	-0.40347564
87	0xbc952018	-0.01820378
88	0x3e8da487	0.27664587
89	0x3ea0af63	0.3138381
90	0x3dd1d480	0.10245609
91	0x3f298a9e	0.6622714
92	0x3d49b1da	0.049241878
93	0xbcc18139	-0.023621188
94	0x3e18d3c4	0.14924532
95	0x3dddbf9b	0.108275615
96	0xbd943214	-0.07236114
97	0x3e63aafa	0.22233191
98	0x3dd982ba	0.10620637
99	0xbeabcc08	-0.335541
100	0xbe3c4eba	-0.18389407
101	0xbe3effb6	-0.18652233
102	0x3dbeb954	0.09312692
103	0x3dff798c	0.12474355
104	0xbd90e236	-0.07074396
105	0xbde85c2f	-0.113457076
106	0xbe7f2d76	-0.24919686
107	0x3e2b20e5	0.16711767
108	0x3eca9e04	0.3957368
109	0x3e3ef443	0.18647866
110	0xbed5644b	-0.4167808
111	0x3dab55b4	0.08365956
112	0xbdc98137	-0.09839099
113	0x3e1b7938	0.1518296
114	0x3e18ef58	0.14935052
115	0xbe5ff8bc	-0.21872228
116	0xbed30502	-0.41214758
117	0xbe8fa86f	-0.28058192
118	0x3c04f2b4	0.008114506
119	0xbebc781e	-0.36810392
120	0xbe8397df	-0.25701806
121	0xbef179eb	-0.4716333
122	0x3d263ede	0.0405873
123	0xbe6cec46	-0.23137006
124	0xbf1adec3	-0.6049616
125	0x3dd89704	0.10575679
126	0xbe3ca54d	-0.18422432
127	0xbdde95e2	-0.10868432
128	0x3d4e67dc	0.050392017
129	0x3d559f15	0.052153666
130	0xbda8ac45	-0.08235983
131	0xbe548069	-0.2075211
132	0xbe8fec81	-0.28110126
133	0xbe86fc18	-0.26364207
134	0xbc972038	-0.01844798
135	0x3e59a676	0.21254906
136	0x3ea0cb56	0.31405133
137	0x3d80c494	0.06287494
138	0xbd5065e6	-0.050878428
139	0x3da34668	0.07972413
140	0xbe2a4a5e	-0.16629931
141	0xbe024b46	-0.12724027
142	0x3e4361ff	0.19080351
143	0x3dbc2238	0.09186214
144	0x3e1564c7	0.14589225
145	0x3d98267d	0.07429216
146	0x3e873eba	0.26415044
147	0xbebbed7e	-0.3670463
148	0xbe31deac	-0.17370099
149	0xbe347cc1	-0.17625715
150	0x3c892a6d	0.016743863
151	0x3d285b19	0.041102502
152	0xbcfd5a58	-0.030926868
153	0xbcf9751f	-0.030451356
154	0xbe136531	-0.1439407
155	0x3e0afb43	0.13572411
156	0xbe25ac4a	-0.16179004
157	0xbe3bc171	-0.18335511
158	0xbc181eaa	-0.009284655
159	0x3ddbe8d8	0.10737771
160	0x3c8e5749	0.017375605
161	0xbdd4003a	-0.10351606
162	0xbd586953	-0.05283482
163	0x3e0a56db	0.13509695
164	0x3db04dd0	0.086085916
165	0xbebe54ce	-0.37174076
166	0x3e7f3f84	0.24926573
167	0xbe71edf1	-0.23625924
168	0xbdabd40c	-0.08390054
169	0xbd654ebe	-0.055983298
170	0xbd28a9ca	-0.04117755
171	0x3e156621	0.1458974
172	0xbe2d13e7	-0.16902123
173	0xbd72115e	-0.059098594
174	0x3de91469	0.11380846
175	0x3da57357	0.0807864
176	0x3e68e680	0.22744179
177	0xbe7fda89	-0.24985708
178	0xbd13bd7f	-0.03606939

actor.l3.weight f4 [8, 179]
0	0xbe80eb8d	-0.2517971
1	0x3e5350d3	0.206363
2	0xbd32b8d6	-0.043633305
3	0xbd9031dc	-0.0704076
4	0xbedaa495	-0.4270369
5	0x3ebe08d1	0.371161
6	0x3ddee28c	0.10883054
7	0xbea6f2b3	-0.3260704
8	0xbc2fb25f	-0.010723679
9	0x3ec20787	0.37896368
10	0x3d7fd429	0.06245819
11	0x3fa93533	1.321936
12	0xbdeb70fd	-0.1149616
13	0x3e44cfd7	0.1921991
14	0x3fab2b85	1.3372656
15	0x3e3a9ef7	0.18224703
16	0xbd78c295	-0.060732443
17	0xbd0cb7dc	-0.03435503
18	0x3f1fb777	0.6238932
19	0x3f51eea3	0.82004756
20	0x3d8ea785	0.069655456
21	0x3cc73b6b	0.024320325
22	0x3f221634	0.6331513
23	0x3d6b54ee	0.057454042
24	0x3decc9bf	0.115619175
25	0xbe94c1aa	-0.29054004
26	0xbfc290a0	-1.5200386
27	0x3f04ae7e	0.51828754
28	0xbd814cbc	-0.06313464
29	0x3e14bf9a	0.14526215
30	0xbd44512a	-0.047928967
31	0x3ea91481	0.33023456
32	0x3edeff35	0.43554083
33	0x3c647624	0.013944183
34	0x3d39e1cb	0.04538135
35	0x3f1ead3d	0.6198309
36	0xbf3648ef	-0.7120504
37	0xba0164ae	-0.0004935962
38	0xbf6de57d	-0.92928296
39	0xbd217e7b	-0.03942726
40	0x3e3fc40f	0.18727134
41	0xbe983b6a	-0.2973283
42	0x3d2dcb35	0.04243012
43	0xbf472884	-0.77796197
44	0xbe51e4ab	-0.20497386
45	0x3e111f64	0.14172131
46	0xbdfe04f3	-0.12403288
47	0x3d74dc35	0.05978032
48	0xbf84c756	-1.0373333
49	0xbd9238c6	-0.07139735
50	0x3f06859e	0.52547634
51	0x3eb4d322	0.35317332
52	0xbe11704f	-0.14202999
53	0xbf2a3dd1	-0.66500574
54	0xbe81e876	-0.25372666
55	0x3d3e7eaa	0.046507515
56	0x3f3a12de	0.7268504
57	0x3eedab53	0.46419773
58	0x3dd6c76d	0.10487256
59	0xbef0b638	-0.47014022
60	0xbc9abdc0	-0.018889308
61	0xc05495d6	-3.3216453
62	0xbe08a7f3	-0.13345318
63	0x3e8137b1	0.25237802
64	0xbe55f41d	-0.20893903
65	0x3ebdd881	0.37079242
66	0x3d8c2768	0.06843454
67	0xbe009d90	-0.12560105
68	0x3e3d6bd9	0.18498172
69	0xbe71a555	-0.23598225
70	0xbe54b569	-0.20772327
71	0x3dbb054c	0.0913187
72	0xbe78123a	-0.24225703
73	0xbdd9145d	-0.10599587
74	0x3e75d74d	0.24007912
75	0xbe1e0850	-0.15432858
76	0x3e2545f3	0.16139965
77	0xbe6803d7	-0.22657715
78	0x3f61c53f	0.881916
79	0x3dd4aa65	0.10384063
80	0xbd8a3615	-0.067485966
81	0x3d05bc81	0.032650474
82	0xbc02402c	-0.00794987
83	0x3edd6c50	0.43246698
84	0x3e1ad702	0.15121081
85	0x3e11f77d	0.14254566
86	0x3e546dbb	0.20744984
87	0x3dabf0e0	0.08395553
88	0x3cd50c80	0.026006937
89	0xbe268829	-0.16262878
90	0x3e1ed1d7	0.15509735
91	0xbe65fdb9	-0.22460069
92	0x3e0e6146	0.13904294
93	0xbe27fd50	-0.16405225
94	0xbd8f1c2b	-0.069877945
95	0xbf4706f4	-0.77744985
96	0x3cf814dc	0.030283384
97	0x3bb27fe8	0.0054473765
98	0x3e85eb69	0.26156166
99	0x4025a40c	2.5881376
100	0x3d736d96	0.05943068
101	0x3f339c08	0.7015996
102	0xbd47beac	-0.048765823
103	0xbe2b8beb	-0.16752593
104	0x3cc41061	0.023933591
105	0x3db171dd	0.08664296
106	0x3c6be434	0.01439767
107	0xbd2717d6	-0.040794216
108	0xbe1d6678	-0.1537112
109	0xbd2536bc	-0.040335402
110	0x3ce345d7	0.027743263
111	0xbdc3e731	-0.09565581
112	0xbf6b5760	-0.919302
113	0xbe5537c0	-0.20822048
114	0xbeb12f69	-0.34606484
115	0xbe0fad38	-0.14030921
116	0x3f0dcb75	0.55388576
117	0xbe998a5b	-0.2998837
118	0xbefbc146	-0.49170893
119	0x3d169958	0.036767334
120	0x3eb82492	0.359654
121	0xbf6048c1	-0.87611014
122	0x3ec184ef	0.37796733
123	0x3e3e4875	0.18582328
124	0x3f238a20	0.6388264
125	0x3dbf145a	0.09330054
126	0xbd350fed	-0.04420464
127	0xbf35cbed	-0.7101429
128	0xbea55017	-0.32287666
129	0x3df88019	0.12133808
130	0x3d4d2f2a	0.050093807
131	0xbcac0d93	-0.021002566
132	0xbe31e3cf	-0.17372058
133	0xbe4b810b	-0.19873445
134	0xbd15f86a	-0.03661386
135	0xbb88bc60	-0.0041728467
136	0x3dba7847	0.09104972
137	0xbdb054c2	-0.08609916
138	0x3e92dc62	0.28683764
139	0xbf12c58e	-0.57332695
140	0xbd8f9fec	-0.070129246
141	0x3dd524f2	0.104074374
142	0x3e120afc	0.14262003
143	0x3eaf03c5	0.34182563
144	0xbf0c62f9	-0.5483852
145	0xbd1c9139	-0.038224433
146	0xbd81c8da	-0.063371375
147	0x3f533e21	0.82516676
148	0xbe688ef8	-0.22710788
149	0x3f2a82e5	0.6660598
150	0xbf38f70a	-0.7225195
151	0xbe7d4912	-0.24734905
152	0xbe608ee1	-0.21929504
153	0xbdbe577f	-0.09294032
154	0x3e1ccecd	0.15313263
155	0x3e851fd5	0.26000848
156	0x3d8ff3b0	0.070289016
157	0x3e342a02	0.1759415
158	0x3e557363	0.20844798
159	0x3e42a49a	0.19008103
160	0xbe48066b	-0.19533698
161	0x3d9ef6fc	0.07761952
162	0x3d40312e	0.0469219
163	0xbebe2943	-0.37140855
164	0xbbe1ea10	-0.0068943575
165	0x3e04b95c	0.12961334
166	0xbf3f41d2	-0.7470981
167	0xbec76e55	-0.38951364
168	0xbe5e51dc	-0.21710914
169	0x3e0b282a	0.1358954
170	0xbe744154	-0.23853046
171	0xbd8140ce	-0.06311189
172	0xbe036f2d	-0.12835379
173	0x3f28b5ff	0.65902704
174	0x3adf2004	0.0017023091
175	0xbfc2fd53	-1.5233558
176	0xbc078d24	-0.008273397
177	0xbf088104	-0.5332186
178	0xbcc86f6f	-0.024467198
179	0xbe932219	-0.28736952
180	0x3d876cca	0.06612547
181	0x3df49058	0.11941594
182	0xbe3ba90b	-0.18326204
183	0xbec74e2e	-0.38926834
184	0xbe52ebb3	-0.20597725
185	0xbde495c7	-0.1116138
186	0x3f846ed6	1.0346324
187	0xbe27aa8d	-0.16373654
188	0x3d8f5525	0.06998662
189	0xbd8f5ad1	-0.06999744
190	0xbf32a4bc	-0.69782615
191	0xbc12bb10	-0.008955732
192	0x3f1b746e	0.6072453
193	0x3e86963c	0.26286495
194	0xbdfef643	-0.124493144
195	0x3d36b372	0.044604726
196	0xbe260dee	-0.16216251
197	0x3e952b7c	0.29134738
198	0x3ee99cd0	0.4562745
199	0xbdbc70e6	-0.09201221
200	0xbd8ee4c0	-0.06977224
201	0xbdc97095	-0.098359264
202	0xbd1a065a	-0.037603714
203	0x3d52eae9	0.05149356
204	0x3d685b05	0.056727428
205	0xbc9db9ca	-0.01925363
206	0xbea01670	-0.31267118
207	0xbe385894	-0.1800254
208	0xbe2163ef	-0.15760778
209	0x3d1badfd	0.038007725
210	0x3dc29af4	0.09502211
211	0x3ec3f50b	0.3827289
212	0x3da4c838	0.08046001
213	0xbe0fa29e	-0.14026877
214	0xbeaa1e14	-0.33226073
215	0xbf931619	-1.1491119
216	0xbd37f206	-0.044908546
217	0x3f55e7ec	0.8355701
218	0xbd3c6046	-0.04599025
219	0xbe0c38d1	-0.13693549
220	0xbc508522	-0.012727054
221	0xbdfd744b	-0.12375697
222	0xbf437b3a	-0.76359904
223	0xbef91e4b	-0.48655924
224	0x3d1b8c66	0.03797569
225	0x3ef8fcee	0.4863047
226	0x3e5019da	0.20322362
227	0x3f4c8fcf	0.79906934
228	0x3d9905f6	0.0747184
229	0xbf293894	-0.66101956
230	0xbf230ac9	-0.6368833
231	0xbe3d2d9b	-0.18474428
232	0xbea87a49	-0.32905796
233	0xbd57d1b5	-0.052690227
234	0xbca40c09	-0.02002527
235	0x3e93c6f4	0.28862727
236	0xbf09a3e4	-0.537657
237	0x3e10efcf	0.1415398
238	0x3e2f089c	0.17093128
239	0xbf5837d0	-0.84460163
240	0x3e91d36a	0.2848161
241	0x3d807b8d	0.062735654
242	0xbdf3e724	-0.11909321
243	0x3dbb5e4c	0.09148845
244	0xbf164f69	-0.5871492
245	0x3f1e8646	0.61923635
246	0xbd2a0c2a	-0.041515507
247	0x3c4e7351	0.012600736
248	0xbd0998ef	-0.033593114
249	0x3d502e97	0.05082568
250	0xbd6782d7	-0.056521263
251	0x3e6b9cc9	0.23009028
252	0xbd5654c3	-0.05232693
253	0xbe6d178f	-0.23153518
254	0xbc406ce1	-0.011744709
255	0x3d2d4f21	0.04231179

actor.l3.bias f4 [8]
0	0xbe39fe46	-0.18163404
1	0x3e099a79	0.13437833
2	0xbe7c6e14	-0.24651366
3	0x3d8704c6	0.06592707
4	0xbd5675b7	-0.052358355
5	0x3e3c0ecc	0.1836502
6	0x3e822e10	0.25425768
7	0x3d5d43dd	0.054019798
