SAC-cleanrl/models/pruning/SAC-Ant-v4-0.4-l2.onnx (onnx, 122630 bytes, 8 tensors)

fc1.weight f4 [153, 27]
000000 7b ad 40 40 6d 6a b0 be 01 16 66 c0 ca b7 01 c0
       3.0105884 -0.34456196 -3.595093 -2.0268426
000010 7a a7 ee bd ff 12 e7 3b 24 59 ce 3b 75 07 d7 be
       -0.11653037 0.007051825 0.0062972475 -0.41997877
000020 10 ec 92 3e 73 e8 b1 3d bc d7 2c bb 6f 5d 75 3e
       0.28695726 0.08686914 -0.0026373705 0.23961423
000030 05 ac 1b bf 62 cb b7 3c 6f 47 1c 3c a7 0b 77 3e
       -0.60809356 0.022435848 0.0095385155 0.24125539
000040 42 05 f2 bc 21 3f d5 bd c4 5c 56 bd 54 d6 d1 bb
       -0.029543523 -0.104124315 -0.052334562 -0.0064037237
000050 df d8 d2 bb 55 63 71 bd ed 3e 5e 3c b8 d6 ab 3b
       -0.0064345445 -0.05893262 0.013564807 0.0052441023
000060 ef 8d ae bc 36 da 08 bc 73 5c f8 bc 1f 69 10 3e
       -0.021307914 -0.008352807 -0.03031752 0.141026
000070 92 59 e5 3f da 55 82 3f 7b e3 da bc 19 77 6e 3f
       1.791796 1.018245 -0.0267198 0.9315048
000080 67 05 f6 bd 0b 71 82 bc d4 67 21 3f 16 f3 2b 3e
       -0.12012749 -0.015923044 0.63049054 0.16791949
000090 85 f0 e2 bd 00 28 20 3d 9f 49 a2 3f e4 12 39 be
       -0.11081032 0.039100647 1.2678717 -0.18073612
0000a0 cd de 95 be 4e cc 57 bd f0 f7 51 3d 97 ff 6d 3e
       -0.29271546 -0.052685075 0.051261842 0.23242031
0000b0 76 c2 d2 bc 19 c3 8e bb 35 1c 5e bd ee 95 8a bc
       -0.025727492 -0.0043567535 -0.05422612 -0.016917195
0000c0 1f 3c be bc 47 dd 1c 3c 2e 6d ca bc 06 71 01 3d
       -0.023222027 0.009574241 -0.024710264 0.03160193
0000d0 22 16 cb 3c e3 75 5d bd 4f a9 3d bf 1f 63 c2 be
       0.024790827 -0.054067504 -0.7408647 -0.37966248
0000e0 3a 73 b1 3f 9d 15 86 3e 75 d5 33 c0 b2 4c f9 be
       1.3863289 0.26188365 -2.8099034 -0.48691326
0000f0 ef 05 16 be 1c ce 82 bc 66 7f 10 3f 0b c7 06 3d
       -0.14650701 -0.015967421 0.56444395 0.032904666
000100 fe 4e bd 3e 0e 41 aa 3d f0 42 1a 3e a0 5d c2 3d
       0.3697433 0.083131894 0.15064597 0.09490514
000110 fd 3e a1 3d 3b d2 9a 3e 57 56 3a 3d 17 ac 50 3e
       0.07873342 0.30238518 0.045492496 0.20378147
000120 40 d8 06 bf 3b e0 30 bd 0e a8 71 3b 1c 65 39 bd
       -0.5267372 -0.043182593 0.003687385 -0.04526244
000130 0c 2c aa 3c 8b 7d 62 bd cf 64 34 3d fc dc 9d bd
       0.020772956 -0.05529551 0.04404145 -0.07708165
000140 27 3a 69 3c a6 c5 67 bf 91 51 54 3f 28 64 72 bf
       0.014235056 -0.9053596 0.8293696 -0.94684076
000150 66 ec 47 40 e0 a7 79 be 86 c6 e0 3e 2b 50 f9 bc
       3.1238036 -0.24380445 0.4390146 -0.030433735
000160 ad 52 2c bd 15 a8 c2 3e fd 2f 83 3e 74 0a 01 3e
       -0.042071033 0.3801886 0.2562255 0.12601644
000170 2e 4a 9a be 65 62 2c 3d 64 3a 05 bc 7d d5 a5 3b
       -0.3013472 0.042086024 -0.008131597 0.00506085
000180 f8 e2 09 bb 6b 06 d2 be ab 7f a5 3e 2b 54 b9 bd
       -0.0021039825 -0.41020522 0.32323965 -0.09049257
000190 21 cb ab bb 82 20 44 3d 6f 12 50 3c 96 0d 12 3c
       -0.0052427207 0.047882564 0.012699707 0.008914372
0001a0 69 a6 a5 3c 8c a4 3c 3d 01 20 11 bd 28 22 be bb
       0.020220952 0.04605536 -0.035430912 -0.0058024116
0001b0 f6 c7 ca bf 56 a0 8c be ce 72 3d 40 6b 55 6e 3f
       -1.5842273 -0.27466077 2.9601321 0.9309909
0001c0 57 de 44 bf 7b ec 7c 3e 0e c8 c4 bd 32 49 a3 bc
       -0.76901764 0.24699585 -0.0960847 -0.019932363
0001d0 83 69 b7 be 51 c3 5b be be 0e b4 3e ea f1 e1 3e
       -0.35822687 -0.21461226 0.35167497 0.44129878
0001e0 66 15 81 3e 46 2b e9 bd 8e 37 8d 3b 8e 0a e2 be
       0.25211638 -0.11385207 0.004309601 -0.44148678
0001f0 87 7f a3 3e 1e f9 af 3e 89 db fe bd d1 35 4b bd
       0.31933233 0.3436975 -0.12444217 -0.04961187
000200 4d a0 1f 3c d2 a0 5d 3c c3 01 a5 bc 18 bd d5 3b
       0.0097428085 0.013527112 -0.020142442 0.006522786
000210 48 2f 88 bd 0a f6 ce bd 1b e3 01 3e b5 e3 bf bf
       -0.06649643 -0.10105522 0.1268429 -1.4991366
000220 c9 70 12 bf 2f 8d 23 c0 41 e0 56 3d 47 08 a9 bf
       -0.57203346 -2.5554922 0.05245996 -1.3205651
000230 8b 2a 0c be ad 75 5a be 4b ed 6b 3e d9 2d 07 be
       -0.13688104 -0.21333952 0.23039739 -0.13201083
000240 90 e9 e7 bd b8 54 19 3e d7 61 7d 3e 74 b3 bf be
       -0.113238454 0.14973724 0.24744354 -0.374416
000250 df 27 12 bd e5 67 79 3c 7d 19 b3 be 9f e5 6b be
       -0.035682555 0.015222524 -0.34980384 -0.23036812
000260 2f 55 7e be e0 77 46 be e8 e6 b8 bd 81 a1 0b bc
       -0.24837182 -0.19381666 -0.09028417 -0.008522392
000270 10 ef 09 3e 20 a4 a6 bd 92 22 f2 bc ce be 2f bc
       0.13470101 -0.08136773 -0.0295575 -0.010726644
000280 9e c6 38 bd 5d a1 72 3d 52 e0 d5 bd 66 97 83 c0
       -0.04511129 0.05923592 -0.10443176 -4.1122313
000290 35 44 b0 3e 1a 8b 3b c0 22 a0 34 3f e9 cd c8 be
       0.34427038 -2.930365 0.70556843 -0.39219597
0002a0 95 52 15 bc 04 27 01 be 5a 6c a3 3e 14 f6 15 be
       -0.009113927 -0.1261254 0.31918603 -0.14644653
0002b0 ce 93 bd be 8e 0f 58 be 88 a7 be 3e 7f df 39 be
       -0.3702683 -0.21099684 0.3723719 -0.18151663
0002c0 15 47 b1 3d 99 81 2f 3d 30 3d 86 be 95 85 04 be
       0.08656136 0.042848203 -0.26218557 -0.12941583
0002d0 42 b2 9a be 2d 0c 67 bd c9 6f 5e bb 70 fd b3 bd
       -0.30214125 -0.056408096 -0.003394114 -0.08788574
0002e0 48 a8 8f bc e7 29 4d bd 78 b2 3c bd 57 b8 74 bd
       -0.017536297 -0.05008879 -0.04606864 -0.059746113
0002f0 83 6c f3 bc 05 f6 23 bf 05 2a e5 3e cf b7 8b 3f
       -0.029714828 -0.6404727 0.4475862 1.0915469
000300 eb 2e 16 40 89 8b 9f 3f 66 e3 14 3f 69 90 06 3d
       2.3466136 1.2464458 0.5815948 0.032852564
000310 41 5b bd bd f2 d6 bb 3e 1c af 94 3c 64 67 a6 bd
       -0.09245921 0.36687428 0.018149905 -0.08125189
000320 7b 24 c8 3d e5 0f 96 be a9 3a a2 3d d6 21 bd bd
       0.09772583 -0.29309002 0.07921345 -0.09234969
000330 4f 1b 28 be 27 65 25 be f9 fb 79 3e 30 fb ef bd
       -0.16416667 -0.16151868 0.24412526 -0.11717832
000340 65 7a 4e 3d 47 c3 91 3d e2 cb 33 3c 03 06 0c 3d
       0.050409693 0.07117324 0.010973902 0.03418542
000350 24 40 00 3c 38 b8 82 bd d5 90 8a 3b dd 34 cc 3c
       0.007827792 -0.06382793 0.004228691 0.02492755
000360 55 b4 1e bf f5 63 36 c0 86 db f7 3e dc 79 19 40
       -0.61993915 -2.849851 0.4840967 2.3980627
000370 1c 32 82 3f e7 24 bc 3e 92 b1 db 3e 20 c0 e6 3e
       1.0171542 0.36746904 0.42908913 0.45068455
000380 c1 3e 95 3e 67 15 40 3e b8 96 8f 3e 8d 47 73 bd
       0.2914944 0.18758164 0.28044677 -0.059394408
000390 99 1b b8 3e 5c f0 a3 3c 98 34 84 bd 57 ff dc 3d
       0.35958555 0.020012073 -0.06455344 0.1079089
0003a0 fe de 04 bd 5d 6e ce 3e 7a 46 42 bd 28 89 03 bb
       -0.032439224 0.40318576 -0.047430493 -0.0020070765
0003b0 20 6c 03 bd c5 b9 16 3d 62 82 9a 3d fa 39 7d bc
       -0.032085538 0.036798257 0.075444 -0.015455717
0003c0 ae 51 db 3c 66 65 f6 bc 18 66 e1 3b 99 ed b5 bd
       0.026772346 -0.030077647 0.0068786256 -0.08883209
0003d0 b8 09 f9 3e e7 8a 8c 40 50 74 a8 bf 7d 18 b9 3f
       0.48640227 4.391956 -1.3160496 1.4460598
0003e0 61 66 20 3f 80 56 7d be 51 f6 3e bf 14 c0 12 3f
       0.6265622 -0.24740028 -0.745946 0.5732434
0003f0 fa 28 5d be c6 b6 93 3d 8f 91 6e 3f 1f 91 53 be
       -0.21597663 0.07212596 0.93190855 -0.20660828

fc1.bias f4 [153]
000000 bb b3 81 bf 26 6a 48 bf c3 6d 09 bf 57 67 be bc
       -1.0132974 -0.7828697 -0.5368311 -0.023242636
000010 f9 b9 ab 3d a6 83 71 3e 41 43 42 3f ba 30 9c 3d
       0.08385081 0.23585376 0.7588387 0.07626481
000020 b1 be 73 3f 08 01 85 3c da a0 74 3c 43 5e b6 bd
       0.95212847 0.016235843 0.014930928 -0.08904698
000030 60 8f 94 bd 94 df 36 bf 6f eb 35 be 93 eb aa 3d
       -0.07253909 -0.71434903 -0.17765592 0.083457135
000040 06 10 83 be ab ac 2d be ed 2c 59 bf 54 b3 19 3f
       -0.25598162 -0.16960399 -0.84834176 0.6003926
000050 7a d3 ad be 84 0a ea 3c 32 6e 10 3e bc b5 9a be
       -0.33950406 0.028569467 0.14104536 -0.30216777
000060 0a a3 39 bf 6e c8 28 bf cc 6e ee 3c 9a 73 3f bf
       -0.725144 -0.6593083 0.029105566 -0.7478577
000070 2b dd 35 be a6 f0 9e bf 93 cd 2b bf 5c 04 06 be
       -0.1776015 -1.241719 -0.67110556 -0.130876
000080 4a d5 2d 3e c2 a2 9f be 70 64 b2 bd 2c cd 29 be
       0.16975895 -0.31178862 -0.08710563 -0.16582173
000090 8e 8b 89 bd 5e fa d7 3d 76 4a 3e be 43 d3 9e 3e
       -0.06716071 0.105458006 -0.18583092 0.31020555
0000a0 79 d4 fc be 34 10 87 be 98 1a 8f 3e 0e 42 e6 3d
       -0.49380854 -0.2637955 0.27949977 0.11243068
0000b0 60 57 88 be 1a c6 57 3e cd fd 3d bf 76 5b 6a be
       -0.26629162 0.21071663 -0.74215394 -0.22886452
0000c0 4b 38 50 bf 2f 41 d6 be b6 75 15 bf d3 0b 28 3e
       -0.81335896 -0.41846606 -0.5838274 0.1641076
0000d0 04 f5 88 3e fe a6 02 bf ca f9 50 bf c4 cf 63 be
       0.26749432 -0.5103606 -0.8163115 -0.22247225
0000e0 7d 2b 0f bf 63 af fa be 9d 37 83 3c fd 6c eb bd
       -0.5592573 -0.48961934 0.01601773 -0.11495397
0000f0 b0 a0 ed 3d 4f 56 27 bf 7d cf 30 3f 2e 37 1d bf
       0.11602914 -0.6536607 0.690666 -0.6141232
000100 ce ef 13 3e b3 36 b8 bd a5 66 51 3e 09 bc c1 be
       0.14446947 -0.08994808 0.20449312 -0.37838772
000110 34 cd af 3e 6b d6 ae be 28 f2 73 3f 7c 1d f8 be
       0.34336245 -0.34147963 0.95291376 -0.48459995
000120 5b 69 0b 3f 6a f7 c8 3e 69 00 7d 3e f0 48 4b 3d
       0.54457635 0.39251262 0.24707188 0.049630105
000130 9f f9 19 be f5 e2 a7 3e a2 42 03 be cf 0b 82 be
       -0.15036629 0.32790342 -0.12818387 -0.25399634
000140 43 17 b9 bd 35 a6 aa 3e b8 89 f3 be 69 c4 04 3e
       -0.0903764 0.3332993 -0.4756601 0.1296555
000150 4c ac 5c bf 02 af a9 be fa 43 8a bf 98 d3 a7 3e
       -0.86200404 -0.33141333 -1.0801995 0.3277862
000160 aa 48 97 be f8 51 20 bf 81 db 13 be 74 0e 17 bf
       -0.29547626 -0.62625074 -0.14439203 -0.5900643
000170 79 36 77 3e 82 e5 3e be b3 ac 63 bf bc 9f 44 be
       0.24141873 -0.18642238 -0.88935393 -0.19201559
000180 56 1a 92 3d 82 a9 5d 3e 60 d5 1a bf 08 7c 86 bf
       0.071339294 0.21646693 -0.60481834 -1.0506601
000190 a7 30 79 be 37 65 f7 3e a8 be 0a 3e df 08 fb be
       -0.24334966 0.48319408 0.13549292 -0.49030206
0001a0 c4 21 07 3e 96 c8 51 bf 19 99 21 bf 89 93 53 bf
       0.13196474 -0.81946695 -0.63124233 -0.82646996
0001b0 14 de 73 be 51 3e e3 be d0 85 eb 3e a9 4a 37 bf
       -0.23815185 -0.4438348 0.46000528 -0.715983
0001c0 ad 5c 7b be 7f 6e 4e be ab 64 d9 3d d0 c5 8b be
       -0.24547072 -0.20159338 0.10614904 -0.27299356
0001d0 ef c5 e2 be f6 db 11 3f e3 cc 26 3e f8 32 db bd
       -0.44291636 0.5697626 0.16289096 -0.10703081
0001e0 a1 65 3d bf e8 ed c2 bd b3 60 1d 3f 44 6e 25 be
       -0.739832 -0.09518033 0.61475676 -0.16155344
0001f0 ad ce e3 bd 1e f2 d8 3d 44 9e 89 3e 2a 46 37 bf
       -0.11123405 0.10593055 0.2687856 -0.71591437
000200 c2 fb 23 bf b7 b5 bc be 3c 49 0a bf 18 10 f5 be
       -0.64056027 -0.36857387 -0.54017997 -0.4786384
000210 8e c4 b4 3e 0c f5 73 bf 0b 89 02 3d 30 4b 49 3d
       0.3530621 -0.95295787 0.031868976 0.04914397
000220 63 6f 72 bf e1 93 26 be 63 ed 01 bf 7b f5 81 bf
       -0.9470121 -0.16267349 -0.5075285 -1.015304
000230 6e d5 a5 3d ed e9 0a be 9e 55 a7 be 58 44 a0 be
       0.08097349 -0.13565798 -0.32682508 -0.31302142
000240 aa c0 4f 3f b6 3e 16 3d a6 a8 73 be 2c 08 ea 3b
       0.8115336 0.0366809 -0.23794803 0.0071420874
000250 dd e4 9d 3d 84 75 c0 3d ae b7 4e be 46 e4 6d bd
       0.07709668 0.09397414 -0.20187256 -0.058079027
000260 97 ac 84 3c
       0.016195579

fc2.weight f4 [153, 153]
000000 bd a3 a8 be 90 05 0e 3f d2 cf 9a 3e 04 26 17 bf
       -0.32937422 0.5547724 0.3023668 -0.5904238
000010 e2 e6 a1 3d 9f 40 1f bf ec ae 5b be 30 06 5e 3e
       0.079053655 -0.6220798 -0.21453446 0.21682048
000020 ba b5 24 bf b9 6e c3 3c 17 32 eb bc 45 84 b5 be
       -0.6433979 0.023856508 -0.028710408 -0.35452476
000030 fa 8a 28 3e 82 b7 d9 bd 76 64 97 be d9 88 cc bc
       0.16459265 -0.106307045 -0.29568833 -0.024967598
000040 06 f0 9f 3e 96 19 b1 3e 21 f9 fe be 90 7b 81 bf
       0.3123781 0.34589833 -0.49799445 -1.0115833
000050 70 1a 38 be ba 5a 0e bf 43 c4 e1 be 80 a9 24 bf
       -0.17978835 -0.5560719 -0.44095048 -0.64321136
000060 90 c7 e6 be 7b 26 95 be 0b 0f 9a be 45 af 6f bf
       -0.4507413 -0.2913092 -0.30089602 -0.93626815
000070 b7 0f c9 3e f2 30 e3 bd 07 ed 78 bc cf c0 eb be
       0.39269802 -0.1109332 -0.0151932305 -0.4604554
000080 9d 46 88 be 02 2b d5 be e3 6b aa bd 65 36 fe bd
       -0.26616374 -0.41634375 -0.08321359 -0.12412719
000090 c6 11 56 be a2 a6 0d 3f 5c ce 7b 3e 02 76 20 bf
       -0.20905218 0.55332386 0.24590439 -0.62680066
0000a0 d9 ad 95 be 92 ce 43 be d6 14 5b bf 8b 6e ab be
       -0.29234198 -0.19121769 -0.8557867 -0.33482775
0000b0 03 5c ff be 41 bf e0 be 87 fc b4 bd 05 32 ec bc
       -0.49874887 -0.43895915 -0.08837228 -0.028832445
0000c0 36 c9 65 be c3 1f 14 be c1 6f 1e bd 9f 08 36 bd
       -0.22440037 -0.14465241 -0.038680796 -0.044441815
0000d0 cf 3d 8f be 6e ea 42 be 1a 70 0d be e7 36 8f be
       -0.27976844 -0.1903474 -0.13812295 -0.27971575
0000e0 1b 3f c3 be a0 b0 26 3e 91 11 2a 3f 1e ec 79 bf
       -0.38134083 0.16278315 0.66433054 -0.9762591
0000f0 c2 d8 36 bf f2 97 13 bf 05 67 31 be 99 04 72 3d
       -0.71424496 -0.57653725 -0.17324455 0.059086416
000100 fd bc 0d bf 89 9b 85 bd 6e 4b 30 bf 1b 79 54 bf
       -0.553665 -0.065238066 -0.68865097 -0.8299729
000110 20 df 1e 3d 75 97 23 be 62 d4 3f bf f9 c9 42 3e
       0.038787007 -0.15975745 -0.74933445 0.19022359
000120 ab 25 9d bf bc 83 44 be 58 ce ec be 75 ab 11 be
       -1.227712 -0.19190878 -0.46251178 -0.14225562
000130 eb df 62 bf 7f 17 fd be 72 9d 06 be da df 65 bf
       -0.8862292 -0.4943199 -0.13145998 -0.89794695
000140 38 55 1b 3e 0a 0b 0e bf 42 26 88 be e7 85 12 be
       0.15169227 -0.55485594 -0.26591688 -0.14308892
000150 f3 9f ec be 02 c5 88 be 2f 8c 85 3e d2 7e ee 3b
       -0.46215782 -0.26712805 0.26083514 0.0072783018
000160 ff 56 8f be ce a8 00 bf 19 ad ee be d5 2f a6 bf
       -0.2799606 -0.50257576 -0.46616438 -1.2983347
000170 79 3e 56 be 22 56 2e 3f 09 26 be be a3 3a fd be
       -0.20922269 0.6810018 -0.37138394 -0.494588
000180 b8 f1 18 be 26 06 2b bd cf 79 a6 3e 46 5f 1b bf
       -0.14935958 -0.04175391 0.32514808 -0.6069225
000190 04 60 a7 be 54 f3 c9 be ca 80 1a bf 8f 97 d7 be
       -0.32690442 -0.39443457 -0.60352767 -0.42107818
0001a0 b5 7a 03 bf 6b 94 81 ba 46 aa 2d 3f b2 0b 21 3e
       -0.5135911 -0.0009886151 0.6783794 0.15727118
0001b0 c7 aa cf 3e 88 f3 10 be 16 b0 44 bf 7f e1 8e 3e
       0.4055998 -0.141554 -0.76831186 0.27906415
0001c0 a4 7d 88 be 2f 28 6a be ec 0a f9 be 79 78 04 3e
       -0.26658356 -0.22866891 -0.48641145 0.12936582
0001d0 73 d2 fd be 05 a2 da 3d 96 4c 10 be 7d a5 b0 be
       -0.49574623 0.10675434 -0.14091715 -0.34501258
0001e0 2b 22 4c bd 87 fd 11 be 34 85 cd bd 16 85 88 3e
       -0.049837273 -0.1425687 -0.10035172 0.26664037
0001f0 ea ac 38 3e 66 7d ee bd 74 ae d2 be d8 3e 80 bd
       0.18034711 -0.116450116 -0.41148722 -0.062619865
000200 40 38 85 3e ab f1 31 3d da 4b 3d be f5 e0 04 3f
       0.26019478 0.043443363 -0.18485966 0.5190576
000210 8b 40 2e bf 2b 8d 43 bd 3b 92 8b be e1 90 4b be
       -0.68067235 -0.04774205 -0.27260002 -0.19879486
000220 01 d5 8b be e7 d0 8f bd db 35 cf be 8a 50 de be
       -0.27310947 -0.07022267 -0.40470776 -0.4342082
000230 8f 55 02 bf 5b 92 ed 3d 83 eb fe 3d ac 05 c0 be
       -0.509118 0.11600181 0.12447264 -0.37504327
000240 6c fb 54 bf 65 a1 63 be 44 77 5d bd eb 94 b0 be
       -0.8319614 -0.22229536 -0.05406882 -0.34488615
000250 49 8a 28 3d 43 71 42 bf 61 8e 37 be 48 26 8d be
       0.041147504 -0.75954074 -0.17925407 -0.2756827
000260 6f 05 7c be 09 e3 21 3f 6e ec 63 3d 1a 57 16 bf
       -0.24611448 0.63237053 0.0556454 -0.58726656
000270 b4 db 1b be 7e e9 3d bd f2 37 f0 be 8a 8f 07 3c
       -0.15220529 -0.046365254 -0.46917683 0.0082739685
000280 4d 30 a1 bf 32 5e 4f be c2 00 8c be cf 73 f8 be
       -1.2592865 -0.20250776 -0.27344328 -0.48525855
000290 bc 4e a8 be 01 16 92 bd ca 7e 1f be b3 2c 9d be
       -0.3287257 -0.07133103 -0.1557571 -0.30698165
0002a0 af 7c 01 bb 62 58 a0 bf 5c c3 fa be 96 24 c5 be
       -0.0019758155 -1.2526972 -0.48977172 -0.38504475
0002b0 e3 24 ac 3d 32 53 8e 3c b4 de e2 be 81 e2 a0 bf
       0.08405473 0.017373655 -0.44310534 -1.2569124
0002c0 7f b6 29 3d 6d 74 98 3e 7e 4e c8 be e9 3f 64 be
       0.041433807 0.29776326 -0.39122385 -0.22290005
0002d0 d5 19 98 3d f0 71 bf be 27 eb b0 3e 29 32 02 3f
       0.07426802 -0.37391615 0.34554407 0.5085779
0002e0 cf 47 1e bf 3c a3 d9 bf d1 8d 97 be a4 41 4a bf
       -0.6182832 -1.700294 -0.29600385 -0.7900641
0002f0 6b 87 cf be 5c 0f a2 be aa 30 a2 3b 13 b6 86 3d
       -0.40533003 -0.31652343 0.004949649 0.06577697
000300 1d 2f 12 bf ce a8 93 3e 9f 99 63 be c6 a4 24 be
       -0.5710314 0.28839725 -0.2222657 -0.16078481
000310 cb d9 36 3e 35 48 6e be e3 b9 bb bd 39 d3 3c be
       0.17856519 -0.23269732 -0.091663145 -0.1843995
000320 22 6f 30 bf 00 5d 0b bd 19 e7 15 be 88 91 07 bf
       -0.68919575 -0.03402424 -0.14638938 -0.5295644
000330 31 0a 29 3e 87 ed cd bf 2e 3f ad be 45 91 b6 3d
       0.16507794 -1.6088113 -0.33837265 0.08914427
000340 f9 d2 e8 be 73 fb f6 be e7 48 7b 3e 25 eb 0a bd
       -0.4547346 -0.48238716 0.24539529 -0.033915658
000350 aa b1 63 3e b4 40 e0 3d e2 94 22 be cd 89 24 bf
       0.22235742 0.10949841 -0.15877107 -0.6427277
000360 89 28 15 3f 3d 35 b3 be c8 e0 c2 be c7 84 32 3d
       0.58264977 -0.35001555 -0.3806212 0.043583658
000370 30 45 36 3a 1a 08 2a bd c1 fa 22 bf ac eb ea be
       0.0006953059 -0.041511633 -0.6366387 -0.45882928
000380 4b 98 5a 3e 73 13 91 be 64 c3 70 3e ff c3 17 bf
       0.21347158 -0.2833515 0.23512036 -0.5928344
000390 c9 b3 47 be c6 b4 b8 bd 92 a5 b8 be ba 4c e7 3d
       -0.19502176 -0.09018855 -0.3606382 0.11293931
0003a0 6c 52 94 bf ff ca ad 3e 0d 2c 73 bf 10 a7 3f 3e
       -1.1587653 0.33943936 -0.9498909 0.18716073
0003b0 db 03 26 bf aa 74 33 3e 2e 29 e8 bd 34 17 84 be
       -0.6484963 0.17524973 -0.113359794 -0.25798953
0003c0 6d 99 b5 be a0 73 96 3e 01 53 16 bf d8 11 07 3e
       -0.35468617 0.2938509 -0.58720404 0.131904
0003d0 b3 c1 b9 be 56 41 1f bf 43 cf cd bc 37 85 8c bd
       -0.36280593 -0.6220907 -0.025123244 -0.06861346
0003e0 19 67 46 3e c0 53 1f bf e5 a6 85 be c4 b0 47 bf
       0.19375266 -0.6223717 -0.26103893 -0.780041
0003f0 ec 80 ec bd 80 a9 94 bf fa 2e 30 bf 26 6d a9 be
       -0.115480274 -1.1614227 -0.6882168 -0.33091086

fc2.bias f4 [153]
000000 ff 06 7e bd 75 4e 88 be 3e 72 15 be b7 be 91 bd
       -0.06201839 -0.26622358 -0.14594361 -0.07116454
000010 05 8d 96 be ff 07 83 be 24 ee 2c be f6 cf ba 3c
       -0.29404464 -0.25592038 -0.16887718 0.022804242
000020 5d cd f5 bc 9e 03 83 be ed c0 2f be 2c 0b ac be
       -0.030005151 -0.25588697 -0.17163439 -0.33602273
000030 5d 5b d6 be 2e 6c a2 be 3b c3 07 bf 47 14 df bd
       -0.4186658 -0.3172316 -0.53032273 -0.108925395
000040 48 af aa be 3c 1e 84 3e cf 01 e1 be 7e 9d fb be
       -0.33336854 0.25804317 -0.43946692 -0.49143595
000050 cd 2c 02 bf ec 3c 22 be 7c 1a 9d be 83 70 c0 3e
       -0.5084961 -0.15843552 -0.30684268 0.3758584
000060 db 26 5f bf fc b3 e7 3a b0 50 ee be 0b 91 43 3f
       -0.87168664 0.0017677541 -0.46545935 0.76393193
000070 4a 75 47 bf e6 68 8d be ee 1d 63 3e c9 ee 0e bd
       -0.77913344 -0.27619094 0.22179386 -0.034895692
000080 44 9b 1a 3f 1f 96 0b bf 35 26 6e 3d e2 14 0a 3e
       0.60393167 -0.5452594 0.058141906 0.13484529
000090 55 6d 56 be a7 df 04 bf 45 b3 56 3d 5e 3a 3e 3e
       -0.20940144 -0.51903766 0.05241706 0.18576953
0000a0 8b b2 02 be db fc 6f be 18 05 f2 be fc 15 fa 3c
       -0.12763421 -0.234363 -0.4726951 0.030528061
0000b0 ec f0 93 be 31 70 91 be 73 26 d6 be c8 93 93 bd
       -0.28894746 -0.28405908 -0.4182621 -0.072059214
0000c0 f1 35 91 bb 61 f7 12 bf c3 0a 9d 3e 31 4c 01 3f
       -0.004431479 -0.5740872 0.30672273 0.50506884
0000d0 7e b3 48 be fd 8d 70 3e 62 9c ed bd 36 28 f9 be
       -0.19599721 0.23491664 -0.11602093 -0.4866349
0000e0 4d 09 fb 3e f9 3e 63 be ea 96 45 be 3a 0a 28 bf
       0.49030533 -0.22191991 -0.1929585 -0.65640604
0000f0 d1 e2 84 be 4f bc 49 bc d8 0c e9 3e 30 cb 6b be
       -0.25954297 -0.012312963 0.45517612 -0.23026729
000100 1c 36 56 3e ce 3d be bd a8 40 f9 be 76 b2 d2 3a
       0.20919079 -0.09289132 -0.4868214 0.0016074914
000110 79 ee 5f be f5 ec fc be 1b a0 9b 3e 9a a7 b9 be
       -0.21868314 -0.49399534 0.30395588 -0.36260682
000120 97 3b eb 3d 03 c6 8f be eb f8 8a be 27 79 0c bf
       0.11485975 -0.28080758 -0.27143034 -0.54872364
000130 78 5f 81 3e 6c 68 31 3e 4f 95 1e bf cf 1d 00 3f
       0.2526815 0.1732499 -0.61946577 0.50045484
000140 c0 5e d4 3a 30 be a2 3e 1f e9 c8 be d2 d3 07 be
       0.0016202554 0.31785727 -0.39240357 -0.13264397
000150 ac 74 53 be 5c c8 2b bd 9c 49 f4 bd 36 2e 8f be
       -0.20649976 -0.041939124 -0.119281024 -0.27964944
000160 3a 92 22 3f 3d b8 18 be bd 62 2e bd aa 40 8f 3c
       0.63504374 -0.14914031 -0.042574633 0.017486889
000170 0c b8 83 bd a1 d4 35 bf d0 05 2f bf bc 61 93 3d
       -0.064315885 -0.7102757 -0.68368244 0.07196376
000180 b0 ba 05 be 1b e9 a2 be 48 8f 87 bd 4a 6a d2 be
       -0.13059497 -0.3181847 -0.066191256 -0.41096717
000190 89 20 dc be 19 17 97 3d 50 7a 1d be f4 54 1e be
       -0.42993572 0.073774524 -0.1537869 -0.15462095
0001a0 22 0b b4 bd bb c5 17 3d 30 e1 8a 3d dd d9 a6 bd
       -0.08791186 0.037053805 0.06781232 -0.08147023
0001b0 5f 6c b3 be 08 5f f3 be 58 52 a8 bd c0 91 d0 3c
       -0.35043618 -0.4753344 -0.08218831 0.025460124
0001c0 d7 1c ef bd c3 f8 18 3e 0d 6a cb be 13 df 97 3e
       -0.11675423 0.14938645 -0.39729348 0.2966238
0001d0 51 f4 aa be 6f b5 8e 3e 7b 4b 2d bd b5 56 97 3e
       -0.33389524 0.27872798 -0.042308312 0.2955834
0001e0 b4 01 11 be f3 b2 18 be 55 c4 80 be 47 f3 af bc
       -0.14160806 -0.14912014 -0.2514979 -0.021478308
0001f0 2c f1 de 3d 8f bc c7 be e3 13 cb 3d 78 9b 36 be
       0.10885844 -0.39011046 0.099159025 -0.17832744
000200 04 0e e9 be 15 33 45 bc 64 ae 28 be 3c f4 f9 be
       -0.45518506 -0.012036105 -0.16472775 -0.4881915
000210 95 61 f6 bc d4 53 2a 3f e9 c8 0d bd a6 d0 a3 be
       -0.030075828 0.6653416 -0.03461543 -0.31995124
000220 93 e0 be be dd aa 6b bc 71 d1 8d bc 83 d1 a6 be
       -0.37280712 -0.014383999 -0.017311784 -0.3258172
000230 15 7d 36 bf ea e3 9b bd d4 d8 9e 3e 9c 15 ad 3e
       -0.7128461 -0.076118305 0.31024802 0.3380555
000240 19 a5 cd be 97 4c f5 be 32 c6 e3 bd 4e df 8e 3e
       -0.40165022 -0.47909996 -0.11121787 0.27904743
000250 8b e6 79 bd e8 3b 12 3e 41 1f d8 bc 2c 0e 75 be
       -0.06101088 0.14280665 -0.02638209 -0.23931187
000260 92 8c b4 be
       -0.35263497

fc_mean.weight f4 [8, 153]
000000 54 ff 7f 3e 9f ce 40 3f cb 71 34 be 07 8e 7f bf
       0.24999744 0.7531528 -0.17621534 -0.9982609
000010 b8 63 51 bf da 49 8d be f9 da db 3c 46 e3 3b 3e
       -0.81792784 -0.27595407 0.026837813 0.18348417
000020 2e ad 51 bf 49 35 d0 be 21 bd 9d be 37 0d d4 3e
       -0.81904876 -0.40665653 -0.30808356 0.41416332
000030 e2 9e c5 bc 20 bd f9 bc 00 2a 33 bf 54 aa 85 be
       -0.024123613 -0.03048569 -0.6998596 -0.26106513
000040 3a 5f 89 3f d3 12 5c be 40 04 1e be 93 a9 ef 3d
       1.0732186 -0.21491556 -0.15431309 0.117022656
000050 86 28 8d be f2 7a 1a 3e 61 dc 78 3d 21 ce e1 be
       -0.2756998 0.15085962 0.060757045 -0.44102576
000060 b5 9e f3 be fc 9e 1e bd 03 5a 4e 3e ce ec 4a 3d
       -0.4758202 -0.038725838 0.20151524 0.04954224
000070 50 e6 cb 3e 30 36 8e bd fc 6d dd 3e de a0 68 bf
       0.39824152 -0.06943929 0.43247974 -0.90870464
000080 1e 75 67 3d dd 3e 08 be ee 6f 1a bf 02 ff ee 3e
       0.056508176 -0.1330523 -0.6032704 0.4667893
000090 32 18 d4 3d 96 c3 22 be 4f 1a a5 3e 79 b1 09 be
       0.103561774 -0.15894923 0.32246634 -0.13446607
0000a0 31 46 02 3f 9d 62 0b 3f 46 87 89 3d f1 ff 36 bd
       0.50888354 0.54447347 0.067152545 -0.04467768
0000b0 ad fa b5 bd 06 36 43 be 1d 26 8e be 7c a2 18 be
       -0.08885703 -0.19063577 -0.27763453 -0.14905733
0000c0 66 e8 b5 3d 8d 12 01 bf b0 9d 3f 3e be 67 e8 bd
       0.08882217 -0.5041893 0.18712497 -0.11347912
0000d0 08 b3 2e 3e af 0e 9a be 06 1e 95 bd 1b e6 7e 3e
       0.17060483 -0.30089328 -0.07281117 0.24892466
0000e0 a2 88 bc 3e e0 5b ac 3d 30 c8 95 be a0 81 48 3e
       0.36822993 0.08415961 -0.29254293 0.19580698
0000f0 3b c2 0c bf 0b a3 e7 3d fa 42 15 3e 3d 51 d8 bd
       -0.5498387 0.11310395 0.14576331 -0.1056237
000100 88 32 56 be e5 33 94 be 3c 60 5c 3e 51 5f c1 bb
       -0.20917714 -0.28945842 0.21521086 -0.005901255
000110 11 44 7c 3e 2c 68 1d bf 34 91 81 3e 49 b1 11 bf
       0.2463534 -0.6148708 0.25306094 -0.5691114
000120 06 65 04 3e 6d 2a 8c bd b5 01 bc 3e a3 40 18 3d
       0.12929162 -0.068440296 0.36720052 0.037171017
000130 18 d9 eb be 7a a6 a6 be 1e 67 03 bd 30 dc 66 be
       -0.46064067 -0.32548887 -0.032080762 -0.22544932
000140 07 c6 8f be 66 fc 89 3d 63 99 db 3e 2c fe 4c be
       -0.2808077 0.06737594 0.42890462 -0.20018834
000150 28 77 18 bf 72 2c bf 3e 09 17 eb 3e dc 29 9f 3b
       -0.5955682 0.37338597 0.45916012 0.004857285
000160 7a 2a ac 3d 56 34 cd 3d af f8 82 3f 0c f7 1f 3d
       0.08406539 0.10019748 1.0232142 0.03905396
000170 f0 85 a7 3e b9 6f 5c 3d f1 b8 f0 bc 9b f2 a4 be
       0.32719374 0.053817485 -0.029385062 -0.32216343
000180 d8 53 fa 3d c0 8e 6c 3e 20 ff 33 be 0a d3 2d 3e
       0.12223023 0.2310133 -0.17577791 0.16975036
000190 3d fa 71 3f f4 44 e6 bd a3 1f 6c be f5 46 f8 3b
       0.9452246 -0.112436205 -0.23058943 0.007576818
0001a0 17 2c 7a 3d b7 10 01 3d 94 9e 04 be d0 55 84 be
       0.061077204 0.03151008 -0.12951118 -0.2584672
0001b0 73 e2 08 bd 71 40 da bd e8 03 2c be 72 e8 cd bb
       -0.033419084 -0.106568225 -0.16798365 -0.006283813
0001c0 4f 43 c5 3e b7 0f 0b be fa bc 97 be 93 99 0b be
       0.38527915 -0.13580213 -0.29636365 -0.13632803
0001d0 b5 a3 6a 3e 41 f0 60 3d 23 5d 8b 3e b9 17 f8 bd
       0.22914012 0.054916624 0.27219495 -0.121139
0001e0 0f 29 c5 3e e8 d2 4b bc a9 60 3c be 77 6b 79 3e
       0.38507888 -0.012440421 -0.18396248 0.24357401
0001f0 3d 5b b1 3d 6f 9e 2c 3e 1d 49 8e bd 99 85 f5 be
       0.086599804 0.16857313 -0.06947539 -0.4795349
000200 34 aa ab be 21 6b 3a bd cf f4 16 be 57 06 d7 be
       -0.33528292 -0.045512322 -0.14741825 -0.41997024
000210 31 78 24 3e 7a 23 39 3d e5 38 d5 be 78 69 46 be
       0.16061474 0.04519985 -0.4164497 -0.1937617
000220 4b f9 43 3f 4a 47 56 be a9 89 23 be e3 4a c4 bc
       0.76552266 -0.20925632 -0.15970482 -0.02396149
000230 e5 2c 12 bf 8b aa 82 3d 22 23 62 bd ea f1 95 bd
       -0.57099754 0.06380185 -0.055209287 -0.07321532
000240 42 e8 1e 3f c8 c0 ee be 01 f7 3d 3d 05 8c 8f 3e
       0.6207315 -0.46631455 0.04637814 0.28036514
000250 02 85 91 be 79 4f 47 be 00 4c 80 3d 85 e8 8d bd
       -0.2842179 -0.1946391 0.06264496 -0.06929115
000260 58 d9 0c be 9c 50 25 bf 7a 11 95 bf cf 46 5b 3d
       -0.13754785 -0.64576125 -1.1645958 0.053534325
000270 7d eb 46 3f 0d dc 8b 3e d0 82 fa 3d 54 2f be 3e
       0.77703077 0.27316323 0.12231982 0.37145483
000280 75 24 a0 bd ce 97 48 3e 1c 7c 98 3e 6b ee 43 3e
       -0.078194536 0.19589159 0.29782188 0.19133918
000290 a6 85 c7 bc 89 55 83 3e a8 f8 81 be e3 57 2a be
       -0.02435572 0.25651196 -0.25385022 -0.16635089
0002a0 b7 a6 ad bd 8b ba 82 bf 69 4e b2 be 9b 36 6c be
       -0.08479064 -1.0213178 -0.34825447 -0.23067705
0002b0 65 3b 0e bc 12 14 43 bd e1 53 b5 3d c0 53 e8 3d
       -0.008681153 -0.047626562 0.08853889 0.11344099
0002c0 1c 6c ae 3e a5 e6 04 3f 81 c6 49 3e fa f5 fa 3e
       0.34066856 0.51914436 0.1970463 0.4901579
0002d0 ad 08 b8 3c 70 ef b9 be 49 4e 4b be 68 bf 13 3d
       0.022465074 -0.3631549 -0.19854082 0.03607121
0002e0 b6 d3 00 3d ae b8 23 bc 25 3e f0 bd 02 97 dd bc
       0.031451903 -0.009992762 -0.11730603 -0.027049545
0002f0 7c ff 75 3e 28 ca aa bd 09 6e a1 3e c0 90 2e 3d
       0.24023241 -0.083393395 0.31529263 0.042618513
000300 1e 84 31 bf ff 66 ae bc fc ab 20 be 86 33 25 3e
       -0.6934222 -0.021289347 -0.15690607 0.16132936
000310 cf 2b 07 3d 6c 7d 0d bd b1 06 99 3e b3 dd 67 bd
       0.033000764 -0.03454344 0.29887918 -0.056607913
000320 8c d5 0b 3c 3c a4 dc 3c ac 30 b8 3c 28 b0 d5 bd
       0.0085348 0.026933782 0.022484146 -0.1043399
000330 01 9d f5 3d 60 eb fa be 59 8f 87 bc cf fe 27 3d
       0.11992837 -0.49007702 -0.016547846 0.04101449
000340 45 10 0c 3e c0 f8 8e be cc 4a 11 3f 1d ec 14 3d
       0.13678081 -0.27924156 0.56754756 0.036357988
000350 5b 80 03 3e 85 32 1b bf ab 84 ff bc 75 37 f8 3d
       0.12841932 -0.6062396 -0.03119119 0.121199526
000360 53 eb 52 3f 75 fd 10 bc a9 9d b7 3d 7c b2 fa 3d
       0.82390326 -0.008849491 0.08965618 0.122410744
000370 f7 9a 82 3d a9 cb 01 be e9 d0 4c bf bb 54 f8 bc
       0.063772134 -0.12675346 -0.8000627 -0.03031384
000380 b3 77 24 3e e2 22 39 be f9 ec 41 bf c6 48 b6 3d
       0.16061287 -0.18079713 -0.75752217 0.08900599
000390 2a fb 9a bd 55 2b bd 3e a5 07 9b bd 1e 26 4e be
       -0.07567437 0.36947122 -0.075698175 -0.20131728
0003a0 6c 0d f5 3d d0 81 00 be b2 f6 a9 3c 04 e9 1e be
       0.11965451 -0.1254952 0.020747516 -0.15518576
0003b0 44 29 00 bf b7 0a 8d be 4e 5a 08 3d e5 4d 05 bf
       -0.50062966 -0.27547237 0.033289246 -0.5207198
0003c0 f5 f9 da 3d f6 50 a9 bd 65 0d 39 3e 5a 34 bf 3d
       0.10692207 -0.08267395 0.18071516 0.09336157
0003d0 2d ed e7 3e 4f 25 45 bb 82 a2 ce 3d 76 03 29 3e
       0.45298138 -0.0030082052 0.1008959 0.16505226
0003e0 6f 7f e3 bd 81 e5 96 3c 47 f0 f1 bc 80 09 1c be
       -0.111082904 0.018419983 -0.029533518 -0.15237999
0003f0 16 47 9f be ed 8d a8 be a5 1b 14 3e 2a 4b 77 3e
       -0.31108922 -0.3292078 0.1446367 0.24149767

fc_mean.bias f4 [8]
000000 0b 3c a0 3d 6c 40 94 bd da 4c e5 3d 71 0e ea bb
       0.07823952 -0.0723885 0.11196299 -0.007142835
000010 20 ae 01 be 1d 5e 6d 3e d2 ff 39 be c7 92 b7 3e
       -0.1266408 0.23180433 -0.18163994 0.3585417

fc_logstd.weight f4 [8, 153]
000000 f2 b5 d8 bd c5 c4 95 3e 0e 24 98 bd a5 a1 17 3e
       -0.10581578 0.29251686 -0.07428752 0.14807756
000010 b5 85 4a 3e 84 32 0f bd b9 33 72 3b 1f 70 1f bc
       0.19777568 -0.034960285 0.0036957099 -0.009731322
000020 3e a9 ba bc e8 09 ed 3c ed 2d 44 3d b9 89 ff bd
       -0.02278578 0.028935388 0.04789536 -0.124774404
000030 54 e6 1a 3a 52 22 8a bd 9b f0 9a 3e 54 e9 12 3d
       0.00059089554 -0.06744827 0.30261692 0.03586705
000040 94 b7 69 3e b1 59 28 3e 61 0b b7 3d a4 f6 f6 3b
       0.22823936 0.16440465 0.08937717 0.007536726
000050 57 82 01 3d 13 cb 07 3c 23 65 c7 3a a9 d3 9d bd
       0.031618442 0.008288163 0.0015212636 -0.077063866
000060 dc b8 88 3e e4 a7 1e 3d 59 5b 91 3b cc 08 e9 3b
       0.26703537 0.03873433 0.0044359383 0.0071116444
000070 b2 3d 0f bd 5a b5 58 bc d3 77 c9 3d 83 81 65 3e
       -0.034970947 -0.013226831 0.09837308 0.22412686
000080 8d 47 ef bb 64 a1 09 3d 06 82 ba 3d c4 4e e3 3c
       -0.0073022307 0.03360118 0.09106831 0.02774752
000090 6d ab 67 3c 09 6d 10 bc f0 d8 76 3d 12 09 88 bc
       0.014139992 -0.0088150585 0.06026548 -0.016605888
0000a0 1f 5c ff 3d 34 0a b2 3c 56 85 71 3b d5 cf ad 3d
       0.124687426 0.02173338 0.0036853156 0.084869064
0000b0 23 db d9 3c 9f 49 e9 3c e0 25 9a 3d 65 52 19 3e
       0.02659375 0.028477488 0.07526755 0.14972837
0000c0 ee b0 09 bd bd 29 b1 bc cd 31 88 3c 28 ff b8 bc
       -0.033616 -0.021626348 0.01662531 -0.022582605
0000d0 94 b5 e6 bc 37 ee 85 bb 00 a1 8d bc 96 cb 02 3c
       -0.028162755 -0.0040872353 -0.017288685 0.007983109
0000e0 e2 32 45 3d 50 cc 70 3c 2b b4 15 3d 20 9c 18 3d
       0.04814423 0.014697149 0.036548775 0.037258267
0000f0 8a 5d 46 3e 45 87 36 b9 33 50 82 3c 04 d9 02 3d
       0.1937162 -0.00017407264 0.015907383 0.031945243
000100 11 54 00 bd 4e f0 9d 3d 67 e7 b5 3b d6 12 04 3b
       -0.031330172 0.0771185 0.005551267 0.0020152829
000110 14 61 d6 3d 96 31 32 3c ad 66 cd 3c 10 bf dd 3d
       0.10467735 0.01087608 0.025073374 0.10827458
000120 c6 29 b4 bc b6 4d d5 3d 39 48 0c bd 9c ae 15 3d
       -0.021992575 0.10415213 -0.034248564 0.036543474
000130 06 bd fa 3c 46 16 2b bd 85 61 7b 3b 0d c7 35 bd
       0.030607712 -0.04176929 0.0038357687 -0.044379283
000140 cd 92 3f bd a1 7a 53 bc 03 09 a9 3d 5b da 16 3e
       -0.04677086 -0.012907655 0.08253672 0.14731734
000150 c7 44 45 3e 42 d4 4b 3e b2 e3 7b 3d 8e ac 78 bb
       0.19264518 0.19905189 0.061496444 -0.0037944647
000160 c9 b6 1d 3d 6e 8d db bb 07 c5 1b 3e 70 2e 7d 3b
       0.038504396 -0.0067002093 0.15211879 0.0038632415
000170 10 a4 ca 3d 84 e4 eb bb 8e f0 6b 3c 86 89 aa 3c
       0.09894574 -0.007198872 0.014400614 0.02081753
000180 70 5a a6 3c a7 3c 89 3d a8 7b 81 bd f3 85 57 3d
       0.020306796 0.06701022 -0.06322414 0.05261798
000190 a4 2e ee 3d ec 6b 38 bd 1b 4e a3 3d 0e 08 d6 bb
       0.1162999 -0.045024797 0.07973882 -0.006531722
0001a0 94 ab 06 bd 28 d5 44 bb e3 db b2 bc fc a8 9e bd
       -0.032878473 -0.0030034278 -0.021833366 -0.07747075
0001b0 17 f0 88 3c 8b a3 18 3d 1c 6e 1f 3d 69 01 40 3c
       0.016716046 0.03726534 0.038923368 0.011719086
0001c0 26 72 41 3d 7b ca 36 bd db 5a 57 3d 45 b6 35 3c
       0.047228 -0.044626694 0.05257688 0.01109082
0001d0 a1 67 07 3e bb 32 e3 3b ea 41 60 3d f4 82 79 3b
       0.13223125 0.006933538 0.05475036 0.003807244
0001e0 69 82 a3 3d eb 25 c1 39 95 c3 ba 3d 69 ab 21 3d
       0.07983858 0.0003684008 0.091193356 0.03947011
0001f0 9f 42 9c bc cc 37 40 3c 77 b6 ce bc 41 34 38 3d
       -0.019074736 0.011732053 -0.02523349 0.04497171
000200 c6 e9 81 bc da 1a 52 3c 21 af 60 bc 1d 52 1d 3e
       -0.015858542 0.012823785 -0.013713629 0.15363355
000210 35 bf 10 be 1d ce 87 3c 81 30 db 3d 64 9f 21 ba
       -0.1413544 0.016577775 0.10702611 -0.00061654137
000220 74 14 5c 3e ff e5 1f 3d ef 7d 68 bd fd e7 dd 3c
       0.21492177 0.0390377 -0.056760725 0.02708816
000230 63 64 d9 3d 25 67 d1 bc b0 4d a6 bd 0b 01 52 bc
       0.1061485 -0.025561878 -0.081202865 -0.0128176315
000240 d2 f9 95 3c 67 e4 84 3d bc ea c2 3d 1c 5b 17 3d
       0.0183076 0.06488877 0.09517428 0.036952123
000250 fc ae 18 3d 7f 6c b7 3c 4b 2f 43 bb 3e 04 45 ba
       0.037276253 0.022390602 -0.0029782827 -0.0007515586
000260 86 01 6a bc 0e 6b 8f 3c 8d 34 91 3e 71 d9 90 bd
       -0.01428259 0.017507102 0.28360406 -0.07072724
000270 97 fa 18 3e a3 2e 11 3e 51 65 55 3d 33 68 64 3c
       0.14939342 0.14177947 0.052098576 0.013940859
000280 95 87 e5 3c e7 b0 db bc 3c c5 2f 3b e6 39 15 bd
       0.028018752 -0.026817752 0.0026820442 -0.03643217
000290 3c b8 04 3d 5e f2 a9 3b eb 27 78 bd 4a da 9d 3e
       0.032402262 0.005186363 -0.060584944 0.30830604
0002a0 fe b9 85 bc 95 44 97 3e c7 d1 ef 3d b6 a4 1e 3d
       -0.01632404 0.2954451 0.11709934 0.0387313
0002b0 74 3d 4e 3b 21 21 4e 3d ca 47 0b bd 32 3a 46 bc
       0.0031469734 0.050324563 -0.03400401 -0.012098836
0002c0 17 28 11 3e 32 bc 6c 3e fc 19 53 3c fb eb d9 3d
       0.1417545 0.23118666 0.012884613 0.10640713
0002d0 76 a7 3a bb f6 95 a5 3d 6a c4 39 3d ba fc fe 3d
       -0.0028481162 0.080852434 0.04535333 0.124505475
0002e0 d7 be f8 3c b9 28 26 bb 50 5b 03 3c 39 d2 ab bc
       0.030364437 -0.0025353862 0.008017376 -0.020974265
0002f0 2d 2d d9 3d aa b5 e8 3c 75 53 c0 3b 16 eb 9f bc
       0.1060432 0.028406937 0.005869324 -0.019521277
000300 a6 2f a5 3d 22 dd 95 3e 3e 13 4d 3c 8c 41 37 bd
       0.08065729 0.29270273 0.012516795 -0.044740245
000310 b9 00 61 3d e5 9a 19 3b 2c e1 9c 3b 34 a1 6a bc
       0.05493233 0.0023438272 0.0047875848 -0.01432066
000320 ec 9e ac 3d ff 60 6b 3b 71 16 68 3c 9f 3a d7 3c
       0.084287494 0.0035915968 0.014165507 0.02627307
000330 62 2c be bc 22 3c 20 bd e5 3c 55 bd 5b 84 00 3d
       -0.023214523 -0.039119847 -0.052060027 0.031376224
000340 df d8 8f bc 26 6e 3d 3d 9c 48 71 3d e3 a7 35 bc
       -0.017559467 0.046247624 0.058907136 -0.011087391
000350 3a f5 57 3d a1 36 2a 3e 6b 14 ea 3c 23 2c 10 bc
       0.0527241 0.16622402 0.02857419 -0.0087995855
000360 b6 3e 7b 3e f3 09 3a 3d da 39 8d 3d 55 02 af bc
       0.24535641 0.045419645 0.068958 -0.021363417
000370 41 40 e0 bc 23 75 9d 3d 28 72 1b 3e d8 3e 8b bb
       -0.027374389 0.07688358 0.15180266 -0.004249435
000380 f5 ca 17 3c c7 b8 b4 3c 38 cc 16 3e 16 66 ba bb
       0.009264697 0.022060765 0.14726341 -0.005688439
000390 22 33 17 3d d5 c6 e2 bd 87 fa 0d bd 2c 77 e6 3c
       0.036914 -0.110730805 -0.03466275 0.028132997
0003a0 8f 6e bc bc aa dd 21 bc c6 5f 38 bc b1 b9 57 3d
       -0.023001937 -0.009879509 -0.011253303 0.052667323
0003b0 ee ef 02 3e 17 33 d0 3d 20 c4 ca bc 11 23 a5 3d
       0.12786838 0.101659946 -0.024751723 0.08063329
0003c0 84 92 48 bc cb 1e 76 3c 9f 39 06 bd 67 86 78 3d
       -0.012241963 0.01502199 -0.032769796 0.06067505
0003d0 79 7d 20 bd 04 79 4a 3d 12 b5 cd bc cc 66 8e 3c
       -0.03918216 0.049431816 -0.025110755 0.017383002
0003e0 45 8a 7c 3c 7e 21 dd 3c bc b8 1b 3e bc d4 9f bc
       0.015413825 0.02699351 0.1520719 -0.01951062
0003f0 5f 3b d7 3d 3d c5 6a 3e 00 6a 7d bc 16 32 d0 3d
       0.10509371 0.22926803 -0.015467167 0.10165803

fc_logstd.bias f4 [8]
000000 0c 34 56 be 37 45 85 be 4c df 55 be 19 86 28 be
       -0.20918292 -0.2602937 -0.20885962 -0.16457404
000010 39 1c 84 be 7f 04 6b be 2c 48 57 be aa 55 33 be
       -0.25802782 -0.22950934 -0.21023625 -0.17513147
