SAC-cleanrl/models/pruning/SAC-Humanoid-v4-0.1-l1.onnx (onnx, 592168 bytes, 8 tensors)

fc1.weight f4 [230, 376]
0	0x3f13e849	0.57776314
1	0x3e73dd0d	0.23814793
2	0xbd61f93f	-0.05516934
3	0x3fcf8a6d	1.6214119
4	0xbb5ea40c	-0.0033972291
5	0xbfb9b6eb	-1.4508947
6	0xbffbfbeb	-1.9686254
7	0xbe3af25e	-0.18256518
8	0x3fce31c8	1.6108942
9	0x4061afe5	3.5263608
10	0x3fd5ead2	1.6712286
11	0x40543a28	3.3160496
12	0x3fa5a7e4	1.2941861
13	0x3e88da91	0.26729253
14	0x3fc9a9dc	1.5754962
15	0x4009d20d	2.1534455
16	0xbe6b9c7b	-0.23008911
17	0x3fede218	1.8584623
18	0x3e65e9c1	0.22452451
19	0x3f0eabfe	0.5573119
20	0xc0216351	-2.5216868
21	0x403293c4	2.790269
22	0xc055e3c2	-3.3420262
23	0xbe909532	-0.28238827
24	0x3ec91f91	0.39281896
25	0x3e7e8d9e	0.2485871
26	0x3f10ef8a	0.5661551
27	0x3e459b1f	0.19297455
28	0x3e45fad6	0.19333968
29	0x3eb41e59	0.35179403
30	0xbe259f1b	-0.16173975
31	0x3d9afca8	0.075677216
32	0x3dd140c3	0.102174304
33	0xbd7f8f85	-0.06239273
34	0xbe874613	-0.2642065
35	0xbe9f0082	-0.31055075
36	0x3e17f936	0.1484116
37	0x3df3ef1c	0.11910841
38	0x3d194197	0.037416067
39	0xbccf335a	-0.025293041
40	0x3ec25ebd	0.37962905
41	0xbe15d775	-0.14632972
42	0xbdfe173a	-0.12406774
43	0xbed5d152	-0.4176126
44	0x3ca00e10	0.019537956
45	0x3cd927eb	0.026508292
46	0xbce04173	-0.027374959
47	0x3c78803c	0.015167292
48	0xbc73fb8c	-0.014891516
49	0xbbb944e0	-0.0056539625
50	0xbd4b1432	-0.049579807
51	0xbcc96d12	-0.024588142
52	0x3ce53f26	0.027984213
53	0xbc4d62c3	-0.012535754
54	0x3d52668e	0.051367335
55	0x3f051efa	0.5200039
56	0x3f0514c5	0.51984817
57	0xc0977241	-4.732697
58	0xbf97391b	-1.1814302
59	0x3f1b00d7	0.60548156
60	0xbe4abfc3	-0.19799714
61	0xbf341201	-0.7033997
62	0x3e3c6f0a	0.18401733
63	0x3e99779c	0.29974067
64	0xbe24659d	-0.16054387
65	0xbef1a300	-0.47194672
66	0xbf001efd	-0.50047284
67	0xc00e16f2	-2.2201505
68	0x3e449f22	0.1920133
69	0x4020b13c	2.5108175
70	0xbe245c28	-0.1605078
71	0xc029694b	-2.6470516
72	0x3db08b78	0.086203516
73	0xbe367a39	-0.17820062
74	0xbdeae67a	-0.11469741
75	0xbfe1f502	-1.7652895
76	0xc026a2f6	-2.6036963
77	0xc018d6db	-2.3881137
78	0x3ecfa082	0.40552145
79	0x3fb3bb3a	1.4041512
80	0xbf7aa2cc	-0.9790466
81	0xbfc10bbb	-1.5081705
82	0x3f3cf2a6	0.7380775
83	0xbf9ec5e2	-1.2404139
84	0xbdcf8bac	-0.10134062
85	0x3e8b9e62	0.27269274
86	0x3da05985	0.078295745
87	0xbff7e8b0	-1.9367886
88	0xbfe9983e	-1.8249586
89	0xc05d9569	-3.4622443
90	0xbf41cdd6	-0.75704706
91	0xc0349add	-2.821952
92	0xbeb3c541	-0.3511143
93	0xbebcffed	-0.36914006
94	0xbe2a2778	-0.16616619
95	0x3f028336	0.5098146
96	0x3f08a8c8	0.5338254
97	0xc055d062	-3.3408437
98	0xc0001fac	-2.001933
99	0xbfcdd9dc	-1.608211
100	0xbe8df69f	-0.2772722
101	0xbfbef8dd	-1.4919697
102	0x3cf957e8	0.030437425
103	0xbe7f6908	-0.2494241
104	0xbe28eeae	-0.16497299
105	0x3f05cefc	0.5226896
106	0x3f159dc8	0.5844388
107	0xc0886f60	-4.2635956
108	0xbda231cd	-0.07919655
109	0x3dd5ca93	0.104390286
110	0xbdaa3050	-0.08309996
111	0x3f1edffb	0.6206052
112	0x3ea738af	0.32660434
113	0xbea8ccb0	-0.32968664
114	0xbe003028	-0.1251837
115	0x3ebc956b	0.36832747
116	0x3dcc5422	0.099769846
117	0xbfd3987e	-1.6530912
118	0x3fd63cd8	1.6737318
119	0xbffbcb68	-1.967145
120	0x3f132601	0.57479864
121	0xbfcb51fc	-1.5884395
122	0x3ef581ef	0.47950694
123	0xbeafc0ff	-0.34326932
124	0xbdd54c01	-0.10414887
125	0x3ec4b92a	0.3842252
126	0x3eaecbd4	0.34139884
127	0xc0889386	-4.268008
128	0x3fe937bd	1.8220135
129	0xbf67c790	-0.90538883
130	0xbedffbf4	-0.43746912
131	0xbf872e2b	-1.0560964
132	0xbf386190	-0.7202387
133	0xbe3de6cd	-0.18545075
134	0xbdcbc27c	-0.09949204
135	0x3eec40ef	0.4614329
136	0x3edcc03f	0.43115422
137	0xc0a95d88	-5.2926674
138	0x3f003a6c	0.50089145
139	0x3d4c6d26	0.04990878
140	0xbf61d615	-0.8821729
141	0x3e4e6826	0.20156917
142	0xbfa31f8a	-1.2744
143	0xbe5603af	-0.20899843
144	0xbdece488	-0.115670264
145	0x3e9f306f	0.3109164
146	0xbe438214	-0.1909259
147	0x3e37cc74	0.17949086
148	0x404e9a5b	3.228171
149	0xbffd5e46	-1.9794395
150	0x3fcc90bc	1.598167
151	0x400e51df	2.223747
152	0xbf9732e8	-1.181241
153	0x3e0ee906	0.13956079
154	0xbe38a494	-0.18031532
155	0x3eaeb009	0.3411868
156	0x3f5868b0	0.8453474
157	0x3f9e8beb	1.238645
158	0x405ca110	3.4473305
159	0xc03ed331	-2.98164
160	0x3ff2c604	1.896668
161	0x402c654a	2.6936822
162	0xbf95777d	-1.167709
163	0x3f6af021	0.9177266
164	0xbe221ed1	-0.15832068
165	0x3f5249df	0.8214397
166	0x3e18669f	0.14882897
167	0x3f3c8ee6	0.73655546
168	0xbfe00f93	-1.7504753
169	0xbfaa3ecd	-1.3300415
170	0xbff8d609	-1.9440318
171	0x3fc3f28f	1.5308398
172	0x3fbed82b	1.4909719
173	0x3eb86d21	0.3602076
174	0xbda429ac	-0.08015761
175	0x3f310eec	0.69163394
176	0x3f20bfee	0.6279286
177	0x3e8be08c	0.27319753
178	0xc0279b97	-2.6188715
179	0xc00b964e	-2.1810489
180	0xc0250023	-2.5781333
181	0x3ffbfff4	1.9687486
182	0x3f8a6ced	1.0814492
183	0x3f8fc99d	1.1233402
184	0xbe28db49	-0.164899
185	0x3d421aed	0.04738896
186	0xbd369dff	-0.04458427
187	0xbd24a773	-0.040198755
188	0xbae5873f	-0.001751162
189	0xbce46fa7	-0.027885271
190	0x3c972a2e	0.01845273
191	0xbe442fc3	-0.19158845
192	0xbed82474	-0.42215312
193	0x3ee52751	0.4475656
194	0xbf3875a1	-0.7205449
195	0xbebff475	-0.37491193
196	0x3e00780a	0.12545791
197	0x3df30605	0.118663825
198	0xbe759f15	-0.23986466
199	0x3da5ea8d	0.08101378
200	0xbfaf8bad	-1.3714501
201	0xbe24357b	-0.16036026
202	0x3ea7d07b	0.32776245
203	0x3c10f8a4	0.008848343
204	0xbdbdc1ca	-0.09265478
205	0x3de98364	0.11402014
206	0xbfd49240	-1.6607132
207	0xbde00158	-0.10937756
208	0x3e8fa95a	0.28058892
209	0xbe91f35b	-0.28505978
210	0x3e0635be	0.13106439
211	0xbd6bc821	-0.057563905
212	0xbfc7b5bf	-1.560234
213	0x3da1e02d	0.07904086
214	0x3e79b388	0.24384892
215	0x3dbd205e	0.09234689
216	0x3e736c56	0.23771796
217	0xbd2c607c	-0.042084202
218	0xbeece96a	-0.4627183
219	0xbea8b1e7	-0.3294823
220	0xbf16deec	-0.589339
221	0x3dc5a39d	0.096503474
222	0x3e22d78f	0.15902542
223	0xbd28bd89	-0.04119638
224	0xbed636b2	-0.41838604
225	0xbed2f191	-0.41199926
226	0xbf0fd709	-0.5618749
227	0x3e7b0470	0.24513412
228	0x3f2394b9	0.6389881
229	0x3dd376a5	0.10325364
230	0xbf93d2f6	-1.1548755
231	0x3f359351	0.7092791
232	0x3da4b8b5	0.080430426
233	0x3e8d5802	0.27606207
234	0x3ea1a1a7	0.31568643
235	0x3e402865	0.1876541
236	0xbebbc908	-0.36676812
237	0x3e643b65	0.22288282
238	0x3d0cd01d	0.03437816
239	0x3e7c0753	0.24612169
240	0x3e96cf02	0.2945481
241	0x3e2ea762	0.17056039
242	0xbe9e3b7e	-0.30904764
243	0x3e3ffcea	0.18748823
244	0xbcc54edd	-0.024085457
245	0x3e645420	0.22297716
246	0xbef0b748	-0.47014832
247	0xbe7f7e9b	-0.2495064
248	0xbef1bc8c	-0.47214162
249	0x3eaa9e8a	0.3332408
250	0x3ef73317	0.48281166
251	0xbe61e744	-0.22060877
252	0xbe3026f5	-0.17202361
253	0xbeac93ab	-0.33706412
254	0xbf24f444	-0.6443522
255	0x3d8bff2d	0.0683578

fc1.bias f4 [230]
0	0xbe152470	-0.14564681
1	0xbe6b52bd	-0.22980781
2	0xbeedcd28	-0.46445584
3	0xbe7367ed	-0.23770113
4	0xbed07247	-0.40712187
5	0x3ca6e061	0.020370664
6	0x3c748e14	0.014926452
7	0xbe94d79d	-0.2907075
8	0xbcce98c3	-0.025219327
9	0xbe32786a	-0.17428747
10	0xbe6ffb55	-0.2343572
11	0xbe8bf7e0	-0.2733755
12	0xbef39dd3	-0.47581348
13	0xbca569e1	-0.020192089
14	0xbeed89f4	-0.46394312
15	0xbed3df19	-0.41381148
16	0xbe9f18c3	-0.3107358
17	0xbe282284	-0.16419417
18	0xbe09322a	-0.13398042
19	0x3d74a057	0.059723224
20	0xbeac79c8	-0.33686662
21	0xbe888588	-0.26664376
22	0xbed4ddd9	-0.41575506
23	0xbf4a5fdd	-0.79052526
24	0x3d1818d9	0.03713307
25	0xbece0383	-0.40237054
26	0x3e8570ec	0.26062715
27	0x3d3cf388	0.046130687
28	0xbe42e2c0	-0.19031811
29	0xbe384969	-0.17996754
30	0x3cd7fc78	0.026365504
31	0xbede83ff	-0.4346008
32	0x3d3acb2b	0.045603912
33	0xbf0174ab	-0.50568646
34	0xbeb495b1	-0.35270455
35	0xbdc6c53e	-0.0970559
36	0xbc81f9a5	-0.01586611
37	0x3c88b342	0.01668704
38	0x3ce70815	0.028202096
39	0xbed60092	-0.4179731
40	0xbe91b89e	-0.28461164
41	0xbf00b42d	-0.50274926
42	0xbefe71a9	-0.4969609
43	0xbe8e72f6	-0.27822083
44	0xbe9c8c18	-0.30575633
45	0xbd924124	-0.07141331
46	0xbedfabfb	-0.43685898
47	0xbe2f61ba	-0.17127123
48	0xbd2820cf	-0.041046914
49	0xbeadf38e	-0.3397488
50	0xbe1b5a14	-0.15171081
51	0xbc65fcf5	-0.01403736
52	0xbee1f788	-0.44134164
53	0xbe6092cc	-0.21930999
54	0x3df38dfd	0.118923165
55	0x3d6a4019	0.057190035
56	0xbea98148	-0.33106446
57	0xbe9d8556	-0.3076579
58	0xbdaed19d	-0.08536074
59	0xbef4f11d	-0.47840205
60	0xbd4a1f2e	-0.04934614
61	0xbe45a0fb	-0.1929969
62	0xbecce148	-0.40015626
63	0xbdd190b9	-0.10232682
64	0xbdcd18ea	-0.100145176
65	0xbd5e0233	-0.054201316
66	0xbe90158b	-0.28141436
67	0xbdf219f3	-0.11821356
68	0xbf093539	-0.53596836
69	0xbed139ab	-0.4086431
70	0xbe61c8c2	-0.2204924
71	0xbe32bc9f	-0.17454766
72	0xbedfedc5	-0.4373609
73	0xbe0d9fb2	-0.1383045
74	0xbdf1a38f	-0.117987745
75	0xbeb8dfe6	-0.3610832
76	0xbeaa2caa	-0.332372
77	0xbdaff102	-0.085908905
78	0xbdc01657	-0.09379261
79	0xbdf88071	-0.12133873
80	0xbe20116b	-0.15631644
81	0xbe36380e	-0.1779482
82	0xbde31cb9	-0.11089463
83	0xbf037d25	-0.5136283
84	0xbe6f6d86	-0.23381624
85	0xbefe9050	-0.49719477
86	0xbf051468	-0.5198426
87	0xbb4b35e8	-0.0031007472
88	0xbed6fccc	-0.41989744
89	0xbe18fc4e	-0.14939997
90	0x3d9e0886	0.077164695
91	0xbd46f3dc	-0.048572406
92	0xbdb0d08c	-0.08633527
93	0xbe00a29a	-0.12562028
94	0x3ae7cff7	0.001768588
95	0xbcd245ea	-0.025668103
96	0xbf072b77	-0.528007
97	0xbeb38766	-0.35064238
98	0xbf047176	-0.5173563
99	0xbbdaa065	-0.0066719525
100	0xbe96ee1d	-0.2947854
101	0xbe3840f3	-0.17993526
102	0xbda28c93	-0.07936969
103	0xbeb699f8	-0.35664344
104	0xbe961ec3	-0.29320344
105	0xbec348bf	-0.38141438
106	0xbdf44288	-0.11926752
107	0xbeb57e11	-0.35447744
108	0xbf0e035c	-0.55473876
109	0xbf02d09a	-0.5109955
110	0xbe0b4c08	-0.13603222
111	0xbea806d1	-0.328177
112	0xbe63588c	-0.22201747
113	0xbe24a3a1	-0.16078044
114	0xbeb83189	-0.35975292
115	0xbe450c7e	-0.19243047
116	0xbe7a110e	-0.24420568
117	0xbea0a686	-0.31377047
118	0xbeb6174f	-0.35564658
119	0xbea051ed	-0.31312504
120	0xbda143cb	-0.078742586
121	0xbe526794	-0.20547324
122	0xbea46dce	-0.32115024
123	0xbdf555b2	-0.11979236
124	0xbe9995b5	-0.2999703
125	0xbe32488a	-0.17410484
126	0xbe967c98	-0.29391932
127	0xbed401b3	-0.41407546
128	0xbebb4293	-0.3657423
129	0xbc9f3057	-0.01943223
130	0xbefabe0c	-0.4897312
131	0xbecca478	-0.3996923
132	0xbe9f39cf	-0.31098792
133	0xbea7e054	-0.32788336
134	0xbda28846	-0.07936148
135	0xbd8a872c	-0.06764063
136	0xbe03f30d	-0.12885685
137	0xbed6b4f8	-0.41934943
138	0xbe03b485	-0.12861831
139	0xbe265c8f	-0.16246246
140	0xbeb909b3	-0.36140212
141	0xbf0819b0	-0.53164196
142	0xbe402002	-0.1876221
143	0x3de7e45b	0.11322852
144	0x3bbdabeb	0.0057883165
145	0xbe868609	-0.26274136
146	0xbefd1014	-0.4942633
147	0x3d0ba134	0.034089282
148	0xbe015e62	-0.1263366
149	0xbf0748ed	-0.5284565
150	0xbe424a9b	-0.18973772
151	0x3e36bae7	0.17844735
152	0xbdc4bfc2	-0.096068874
153	0xbe90d473	-0.28287086
154	0xbebd8132	-0.3701263
155	0xbe069e3d	-0.131463
156	0xbe23f5e8	-0.16011775
157	0xbeab6a29	-0.3347943
158	0xbed6e4b5	-0.41971365
159	0xbece8fd0	-0.40344095
160	0xbe4dc2e2	-0.20093873
161	0x3b1f6ef4	0.0024327608
162	0xbdb7c26f	-0.08972632
163	0x390ee68c	0.0001362806
164	0xbeb65854	-0.35614264
165	0x3d078d56	0.033093773
166	0x3d8b7a4b	0.06810435
167	0xbebdc1f4	-0.37062037
168	0x3e1fb4e8	0.15596354
169	0xbd6b490f	-0.05744272
170	0x3e14c6eb	0.14529006
171	0xbeb63bd9	-0.35592535
172	0xbe865db3	-0.26243362
173	0x3cce0205	0.025147447
174	0x3d976fc0	0.073943615
175	0x3d8e36f2	0.06944074
176	0xbe6bd33d	-0.230298
177	0xbec564d0	-0.38553476
178	0xbe64e5b0	-0.22353244
179	0xbdb4be55	-0.088253655
180	0xbeb939a0	-0.36176777
181	0x3d8e068a	0.06934841
182	0xbe074dc2	-0.13213256
183	0xbf07e801	-0.53088385
184	0xbc428762	-0.011873098
185	0x3d4cc92f	0.04999655
186	0xbefac46c	-0.48977983
187	0xbee352f0	-0.44399214
188	0xbebea52c	-0.3723539
189	0x3d0ff6c4	0.035147443
190	0xbeaa70e9	-0.3328927
191	0xbdcb30cb	-0.09921416
192	0xbec525b7	-0.38505337
193	0xbea04b63	-0.31307516
194	0xbe601c8b	-0.21885888
195	0xbe6d977d	-0.2320232
196	0xbefdeec4	-0.49596226
197	0xbde33076	-0.110932276
198	0xbe717c3b	-0.23582546
199	0xbdb7a147	-0.08966308
200	0xbf1f489e	-0.6222018
201	0xbe1f480b	-0.15554826
202	0xbdc60dbd	-0.09670589
203	0xbea1bbe5	-0.31588665
204	0xbd2c8678	-0.042120427
205	0xbe9e34a9	-0.30899552
206	0xbe73de4c	-0.23815268
207	0xbe9685f1	-0.29399064
208	0xbdf37c0d	-0.11888895
209	0xbe21fffb	-0.15820305
210	0xbed92122	-0.4240809
211	0xbd73f672	-0.0595612
212	0xbee04a8d	-0.43806878
213	0x3d8e5c86	0.06951241
214	0xbf022d12	-0.5085002
215	0xbeac6194	-0.33668196
216	0xbdab23f7	-0.08356469
217	0xbe9831f3	-0.29725608
218	0xbe4d8919	-0.2007183
219	0xbee3acc3	-0.44467744
220	0x3d3121c1	0.04324508
221	0x3bf51b34	0.0074800495
222	0x3d8b1bdd	0.06792424
223	0xbbd405bd	-0.0064704106
224	0xbe7eefb8	-0.24896133
225	0x3c2867c8	0.01027865
226	0xbee3a617	-0.44462654
227	0xbe8eb422	-0.27871805
228	0xbf0cd297	-0.55008835
229	0xbeac1cb9	-0.33615664

fc2.weight f4 [230, 230]
0	0xbb29d8ff	-0.0025916693
1	0x3eef90c7	0.46790144
2	0xbbdf4351	-0.0068134447
3	0xbd99b11e	-0.075044855
4	0xbee7b04b	-0.45251688
5	0xbd6ffd49	-0.05859116
6	0xbd542ad2	-0.05179865
7	0xbde98ade	-0.1140344
8	0xbca3baf6	-0.01998661
9	0x3d57c161	0.052674655
10	0x3e35b418	0.17744482
11	0xbbc51c6c	-0.006015351
12	0xbe921039	-0.28528002
13	0xbc1bf58a	-0.00951899
14	0xbe9e5948	-0.3092749
15	0x3e6833ac	0.22675961
16	0xbe4b1db5	-0.19835551
17	0x3cd4b130	0.025963396
18	0x3e39fc66	0.18162689
19	0x3d77dfec	0.060516283
20	0xbea2416f	-0.31690547
21	0xbdced6bc	-0.10099551
22	0x3e0f94ee	0.14021656
23	0xbe2b9cda	-0.16759053
24	0xbd6012b0	-0.05470532
25	0xbf00a41c	-0.5025041
26	0x3c10eb51	0.008845166
27	0xbe9ea5b7	-0.30985805
28	0xbd7cab73	-0.061686944
29	0xbe1337c5	-0.14376743
30	0xbc9c46fa	-0.019076813
31	0xbeb0efd9	-0.3455799
32	0x3dce0937	0.10060351
33	0xbf12040d	-0.5703743
34	0x3e357e4c	0.1772396
35	0xbf27a0fc	-0.6548002
36	0xbf6f9666	-0.93588865
37	0xbe42d5ab	-0.1902682
38	0xbe600f9b	-0.21880953
39	0xbdba6dce	-0.09102975
40	0x3d21ee1a	0.039533712
41	0xbca424e2	-0.020037118
42	0xbbcc9927	-0.006243843
43	0xbdc6e693	-0.09711947
44	0xbcf47521	-0.029841008
45	0x3bdbbd08	0.006705884
46	0xbeacd7a4	-0.3375827
47	0xbdb93b0d	-0.09044466
48	0xbd898b28	-0.06715995
49	0x3d8f7d4e	0.07006322
50	0xbe97ddb4	-0.29661334
51	0x3bc876bd	0.0061176703
52	0x3e3ccddd	0.18437906
53	0xbdfcf9b9	-0.12352318
54	0x3c88aae8	0.016683057
55	0xbf25e986	-0.64809453
56	0x3e9d6831	0.30743554
57	0x3d513e20	0.051084638
58	0xbd4d6498	-0.05014476
59	0x3d2b5dd8	0.041837543
60	0xbda69951	-0.081347115
61	0x3c5a0518	0.0133068785
62	0x3e381a1d	0.17978711
63	0xbd4e9f09	-0.050444636
64	0x3bb33cee	0.00546991
65	0x3ea9a776	0.33135575
66	0xbe1a4b7e	-0.1506786
67	0x3d4aa017	0.04946908
68	0x3d85c16c	0.06531033
69	0xbe1041cd	-0.14087601
70	0x3cde3db5	0.027129034
71	0x3c093d19	0.008376383
72	0xbba4028d	-0.005005187
73	0x3c6fdd20	0.014640123
74	0xbd0c64ac	-0.034275696
75	0x3d2773da	0.04088197
76	0xbef8d381	-0.48598865
77	0xbdee07ce	-0.116225824
78	0x3d9249b2	0.071429625
79	0xbe4a149a	-0.19734421
80	0x3dbeb800	0.09312439
81	0xbd859db6	-0.065242216
82	0x390f6a1b	0.0001367707
83	0xbdbd3ecd	-0.09240494
84	0xbdda526e	-0.106602535
85	0x3d9848da	0.0743577
86	0xbdd6c798	-0.10487288
87	0x3c0bdd8c	0.008536708
88	0xbd6fcd5d	-0.05854546
89	0xbeaceba1	-0.3377352
90	0xbe844f4b	-0.25841746
91	0xbe885d79	-0.26633814
92	0x3d1fff54	0.03906186
93	0xbf21ba62	-0.6317502
94	0xbc89d00c	-0.016822837
95	0x3bd77894	0.0065756533
96	0xbe07a2be	-0.13245675
97	0xbece6ba6	-0.40316504
98	0xbe38e44e	-0.18055841
99	0xbf35cc89	-0.7101522
100	0x3e06917e	0.13141438
101	0xbd27e2f4	-0.040987924
102	0x3cf0fff9	0.029418932
103	0xbed19304	-0.40932477
104	0xbc0d6396	-0.0086297
105	0xbed7263a	-0.42021352
106	0xbd19f284	-0.037584797
107	0x3e872eab	0.26402792
108	0xbe5bb817	-0.21456943
109	0xbec951be	-0.39320177
110	0xbe14333d	-0.14472671
111	0xbccbcda6	-0.024878334
112	0xbd39438c	-0.045230433
113	0xbd2cd561	-0.04219568
114	0xbe492e80	-0.19646645
115	0xbe871d77	-0.26389667
116	0x3e0e455b	0.13893645
117	0x3e525cf2	0.20543268
118	0xbd85ec0a	-0.065391615
119	0xbb4c001f	-0.0031128002
120	0xbd5a9020	-0.053360105
121	0x3dc6fa14	0.09715667
122	0xbee1b1ac	-0.44080865
123	0xbdf70d31	-0.12063063
124	0xbdc91553	-0.098185204
125	0x3db2a3ec	0.08722672
126	0x3de3f57a	0.11130805
127	0xbe9628fe	-0.2932815
128	0xbd4ae212	-0.049532004
129	0xbe02a422	-0.12757924
130	0x3dcb4e06	0.09926991
131	0xbe5caa5e	-0.21549365
132	0xbcb63ae4	-0.022244878
133	0x3e746d59	0.23869838
134	0xbd1941ef	-0.037416395
135	0xbd6ae1cc	-0.057344243
136	0xbe47f3d9	-0.19526614
137	0x3d475932	0.048669048
138	0xbcf1fb84	-0.029538877
139	0xbdf9721e	-0.12179969
140	0xbf195840	-0.59900284
141	0x3ea9a35a	0.3313244
142	0x3daa518d	0.08316336
143	0xbd379571	-0.044820253
144	0xbd1115cb	-0.035421174
145	0xbc3d91d1	-0.01157041
146	0x3dd9f315	0.10642067
147	0xbcdbc700	-0.026828289
148	0xbea6bd63	-0.32566366
149	0xbee6a3a9	-0.45046738
150	0xbe081129	-0.13287796
151	0xbc127c6a	-0.008940795
152	0xbea3c8f0	-0.3198924
153	0xbd9b6493	-0.075875424
154	0xbe30e02b	-0.17273013
155	0xbe906e3b	-0.282091
156	0xbef0cae9	-0.47029808
157	0xbe9b2ecb	-0.30309138
158	0xbe0a4d46	-0.1350604
159	0x3c70c753	0.01469596
160	0x3da9fa4f	0.08299696
161	0x3d3b2e1e	0.045698278
162	0xbd995f92	-0.07488932
163	0x3da1b4f9	0.07895846
164	0x3e421ada	0.18955556
165	0x3e6c244f	0.23060726
166	0xbe08baeb	-0.13352554
167	0x3e0b723d	0.13617797
168	0x3e00b2bf	0.12568186
169	0xbd48f53c	-0.049062
170	0x3da17571	0.07883728
171	0xbdbadada	-0.09123774
172	0xbf4bd37e	-0.79619586
173	0xbf7044fa	-0.9385525
174	0x3d514777	0.051093545
175	0xbce6fc21	-0.028196396
176	0xbe4dc125	-0.2009321
177	0xbeb758af	-0.35809848
178	0xbda27b86	-0.079337165
179	0xbe4ad650	-0.19808316
180	0x3c22b877	0.009931675
181	0xbc892516	-0.016741317
182	0x3d4bc16e	0.049745016
183	0x3d213617	0.039358225
184	0x3e097b79	0.13426007
185	0x3ccff54b	0.02538552
186	0xbd3b18a8	-0.04567781
187	0xbe2bc61c	-0.16774791
188	0x3d6c1aae	0.05764263
189	0xbdb4d8e8	-0.08830434
190	0x3e1bc431	0.1521156
191	0x3d49d61f	0.049276467
192	0xbe1a1514	-0.15047103
193	0xbf20e428	-0.6284814
194	0xbe12920a	-0.14313522
195	0xbdae558f	-0.08512413
196	0xbe81226f	-0.25221583
197	0xbd7a0c1d	-0.06104671
198	0xbeb66cff	-0.35630032
199	0xbd9dedf6	-0.07711403
200	0xbc8bb285	-0.017052898
201	0x3c278789	0.010225185
202	0xbcb86ea3	-0.022513693
203	0x3e81aa07	0.25325033
204	0xbcb09a91	-0.021558078
205	0xbec566e4	-0.38555062
206	0x3e593b60	0.21214056
207	0xbd1b59d7	-0.037927475
208	0xbeb2cd16	-0.34922093
209	0xbd802f00	-0.062589645
210	0x3dfbc8b6	0.12294142
211	0xbac484f3	-0.0014993235
212	0x3e08a12b	0.1334273
213	0xbde3ab2a	-0.11116631
214	0xbec7452e	-0.38919967
215	0x3d20c53f	0.03925061
216	0x3c7d0d60	0.015445083
217	0xbe3b1f98	-0.18273771
218	0xbdabd608	-0.083904326
219	0xbee134bc	-0.43985546
220	0x3c880d14	0.016607799
221	0x3e44d354	0.1922124
222	0xbb7b0899	-0.0038304685
223	0xbd9dff41	-0.077147014
224	0xbe00d1e7	-0.12580071
225	0xbc2ba56c	-0.010476451
226	0xbe035607	-0.12825786
227	0x3e3e2806	0.18569955
228	0xbd7d87d5	-0.061897118
229	0x3e1e2242	0.15442756
230	0x3c735aff	0.014853238
231	0xbd99e7fb	-0.0751495
232	0xbcf29e6a	-0.029616553
233	0xbcb87f26	-0.022521567
234	0xbd7debe6	-0.06199255
235	0xbd18e89b	-0.037331205
236	0xbd2ef6ad	-0.042715717
237	0x3c06ecde	0.0082351845
238	0x3b018f61	0.0019769298
239	0x3c8fbd5b	0.017546346
240	0xbcf7913c	-0.03022062
241	0xbdcc8dbe	-0.09987973
242	0x3d2af10a	0.04173378
243	0xbd0636d8	-0.032767147
244	0xbd834443	-0.06409504
245	0x3d30f00d	0.04319768
246	0x3c1a6ed9	0.009425842
247	0xbd862bca	-0.06551321
248	0xbd3ae472	-0.04562802
249	0x3c84a89f	0.016193686
250	0xbd83a8f4	-0.064287096
251	0x3d26b50c	0.040700004
252	0x3cd31ac4	0.025769599
253	0xbce0dd3f	-0.027449248
254	0x3b97d9f6	0.0046341373
255	0xbd95ea60	-0.07320094

fc2.bias f4 [230]
0	0x3f85da5f	1.0457267
1	0xbd8f69b4	-0.07002583
2	0xbe0b8bae	-0.13627502
3	0xbdbf77df	-0.093490355
4	0xbd94cb7f	-0.07265376
5	0xbdd6ef24	-0.10494831
6	0xbd95076d	-0.07276807
7	0xbd03f4e7	-0.03221598
8	0xbe872aa8	-0.26399732
9	0x3f17b8d7	0.5926642
10	0xbdf83f6e	-0.12121473
11	0x3ef7d8f6	0.48407716
12	0xbd4d2d3e	-0.050091974
13	0xbec3f09a	-0.38269502
14	0x3f331f69	0.69969803
15	0xbda1deff	-0.07903861
16	0xbd8e06a2	-0.06934859
17	0xbde81856	-0.11332767
18	0xbdafa18a	-0.08575733
19	0xbdb52d52	-0.08846535
20	0xbdb0ff17	-0.086424045
21	0x3ec91896	0.3927657
22	0xbd92e87e	-0.071732506
23	0x3f137eb1	0.5761519
24	0xbe6136c7	-0.21993552
25	0xbb504a5e	-0.0031782608
26	0xbce6c949	-0.028172152
27	0xbf0bcaa6	-0.5460609
28	0xbcb8fc77	-0.022581322
29	0xbe00a8f4	-0.1256445
30	0x3fdf8bbd	1.746452
31	0x3d9b2cbb	0.07576891
32	0xbf106db8	-0.5641742
33	0x3f7b4c2c	0.98163104
34	0x3f8c1851	1.0944921
35	0x3f6fc3e5	0.93658286
36	0x3d2a9437	0.041645255
37	0xbd2f173b	-0.042746764
38	0x3ee8fc3d	0.45504943
39	0xbdf6c3f9	-0.120490976
40	0xbd7dd96d	-0.06197493
41	0xbf599715	-0.8499616
42	0xbc830d61	-0.01599759
43	0xbbc0bd5a	-0.0058819475
44	0xbd99e309	-0.07514007
45	0xbd8ab2f4	-0.06772414
46	0xbe3f45c9	-0.18678965
47	0xbd87d761	-0.06632877
48	0xbe3e0800	-0.1855774
49	0x3ebdd542	0.37076765
50	0xbd8be676	-0.06831066
51	0xbd7d2eec	-0.061812326
52	0xbe394bc4	-0.18095309
53	0x3f460cae	0.773631
54	0x3e171fee	0.14758274
55	0xbfe5bb39	-1.7947761
56	0xbcef897a	-0.029240359
57	0xbcde8289	-0.027161853
58	0xbf11c52d	-0.5694149
59	0xbeedfba2	-0.46481043
60	0x3f41482a	0.7550074
61	0xbda83608	-0.08213431
62	0xbdcc9fbc	-0.099914044
63	0xbd64bfd0	-0.05584699
64	0xbd148959	-0.036263797
65	0xbe2addb5	-0.16686137
66	0xbde8389f	-0.113389246
67	0x3d914c8d	0.07094679
68	0xbd378b1e	-0.044810407
69	0xbe9c00b4	-0.30469286
70	0x3d7c46fb	0.06159113
71	0xbcb8931d	-0.022531087
72	0x3dd88b11	0.105734
73	0xbd355a8c	-0.044275805
74	0x3eb989e9	0.3623803
75	0xbf078bf2	-0.52947915
76	0xbd8ca04d	-0.068665124
77	0x3dab3a61	0.08360744
78	0x3f63377e	0.8875655
79	0xbd927136	-0.071504995
80	0xbde5e949	-0.11226136
81	0xbe5b57be	-0.2142019
82	0xbce623ef	-0.028093306
83	0xbe54a5bd	-0.20766349
84	0x3f1d84ee	0.6153096
85	0xbd651673	-0.055929612
86	0x3fbfb267	1.4976319
87	0xbd80501a	-0.06265278
88	0x3e4aa07b	0.19787781
89	0xbe88f69c	-0.26750648
90	0x3e3008b7	0.17190824
91	0xbe6bf14e	-0.23041269
92	0x3e7672e0	0.24067259
93	0xbded421d	-0.11584876
94	0xbd15d249	-0.036577497
95	0xbd05e84e	-0.032692246
96	0x3eacd393	0.33755168
97	0xbd2b5ae0	-0.041834712
98	0x3f487728	0.7830682
99	0xbceefc5f	-0.029173074
100	0x3f0950a3	0.53638667
101	0xbc18f8eb	-0.00933669
102	0xbd8ff01b	-0.07028218
103	0x3d99947a	0.07499023
104	0x3e02a676	0.12758812
105	0x390a901c	0.0001321439
106	0xbf0f7692	-0.560403
107	0xbc7ad23e	-0.015308915
108	0xbdd36f12	-0.10323919
109	0xbdaa4aee	-0.08315073
110	0xbe0c92be	-0.13727853
111	0xbd8a25b7	-0.06745475
112	0x3c743caf	0.014907046
113	0xbc9b449c	-0.018953614
114	0xbd8e85d7	-0.06959122
115	0xbd2d338b	-0.042285483
116	0xbc1a8417	-0.009430907
117	0xbd0f2faa	-0.034957565
118	0x3f137df8	0.5761409
119	0xbd39fcba	-0.045407034
120	0x3d4e692a	0.05039326
121	0xbdd7f489	-0.10544688
122	0xbe457210	-0.19281793
123	0xbeccabef	-0.39974925
124	0xbcb73556	-0.0223643
125	0xbc0848a3	-0.008318099
126	0x3e851541	0.25992778
127	0x3f5e9cec	0.86958194
128	0xbdc94e7f	-0.09829425
129	0x3df9b9da	0.121936515
130	0xbf38e086	-0.72217596
131	0x3f6e19bb	0.9300801
132	0xbe09c5d6	-0.13454375
133	0xbca5a66d	-0.02022096
134	0x3eae6d45	0.3406774
135	0x3c37cbd7	0.011218033
136	0x400d4275	2.2071812
137	0x3e962600	0.29325867
138	0xbbdc2796	-0.006718586
139	0xbe493350	-0.1964848
140	0xbd7d6fdc	-0.061874256
141	0x3f069d8a	0.52584136
142	0xbdeb618a	-0.114932135
143	0xbde8bac6	-0.11363749
144	0x3f458337	0.7715334
145	0x3ddcc1e0	0.10779166
146	0xbd63612e	-0.0555126
147	0xbdcb2fe6	-0.09921245
148	0x3efd196b	0.49433455
149	0x3f104f13	0.5637066
150	0x3eec9a78	0.462116
151	0x3ecfd610	0.40593004
152	0x3f72c01d	0.9482439
153	0x3f887b42	1.0662615
154	0x3fb380f9	1.4023734
155	0x3e6b3bf1	0.22972085
156	0x3e991931	0.29902032
157	0x3f234107	0.637711
158	0xbdd2168a	-0.10258205
159	0x3ed395e8	0.41325307
160	0x3eef5a04	0.46748364
161	0xbd315488	-0.043293506
162	0xbc162207	-0.009163386
163	0xbda51919	-0.080614276
164	0xbddd0f0b	-0.10793885
165	0xbd015e08	-0.031583816
166	0xbdde848f	-0.10865127
167	0xbd1bd890	-0.038048327
168	0xbdeb26a5	-0.1148198
169	0xbe7a1011	-0.24420191
170	0xbda95d65	-0.08269767
171	0xbd0f489a	-0.034981348
172	0xbc9f3c89	-0.019438045
173	0xbdccef27	-0.10006552
174	0xbf45f8e9	-0.7733293
175	0xbf006b33	-0.50163573
176	0x3ee40ac2	0.44539458
177	0xbdffe6c3	-0.12495186
178	0x3f8c5311	1.096285
179	0xbcb0fbaf	-0.021604387
180	0xbc1b48c1	-0.009477795
181	0xbe2038cf	-0.15646671
182	0x3eec6fc4	0.4617902
183	0x3e44dd1e	0.19224975
184	0xbea5fd31	-0.32419732
185	0xbdd1ffa2	-0.10253836
186	0x3f7a9179	0.97878224
187	0xbd00a238	-0.031404704
188	0x3fea2b37	1.8294438
189	0xbd305221	-0.043047074
190	0x3ac64c69	0.0015128973
191	0x3eb46d1e	0.352395
192	0xbd5fb5ab	-0.05461661
193	0x3ea59360	0.32339
194	0xbf80d1b4	-1.0063996
195	0x3e614db6	0.220023
196	0x3f198e78	0.59983015
197	0xbdcd9b53	-0.10039391
198	0xbd529d95	-0.051419813
199	0xbf80624c	-1.0029998
200	0xbdfadd36	-0.12249224
201	0xbd44c857	-0.04804262
202	0xbdd5ea21	-0.10445047
203	0x3e621a4e	0.22080347
204	0xbd5d54bc	-0.054035887
205	0xbe2b524e	-0.16730615
206	0xbd15fb43	-0.036616575
207	0xbdf983f5	-0.12183372
208	0xbe140a35	-0.14457019
209	0x3ffa1ad6	1.953944
210	0xbded89f2	-0.115985766
211	0xbbeb43c5	-0.0071797096
212	0x3f8e8609	1.1134654
213	0xbd3f5969	-0.046716128
214	0xbf82164a	-1.0163052
215	0xbd537270	-0.051622808
216	0xbd2cfa1e	-0.042230718
217	0xbd5ce437	-0.05392858
218	0xbd7f1b1a	-0.062281705
219	0xbd52b9b8	-0.051446646
220	0x3f45ded9	0.77293164
221	0xbe28c7e9	-0.1648251
222	0xbc3669f5	-0.011133661
223	0xbc917eea	-0.017760713
224	0xbd7a5259	-0.06111369
225	0x3ddefc6b	0.10887989
226	0xbe384f24	-0.1799894
227	0x3fb2a9b7	1.3958043
228	0xbc949b89	-0.018140571
229	0xbf04a501	-0.51814276

fc_mean.weight f4 [17, 230]
0	0x3d832c8f	0.06404983
1	0x3c591d7a	0.013251657
2	0x3e415cbc	0.18883032
3	0x3d89d4dc	0.06730053
4	0x3d327ee1	0.043578032
5	0xbd1a265b	-0.037634235
6	0x3d420b6f	0.047374185
7	0x3d9c4929	0.07631142
8	0xbdb6de1d	-0.089290835
9	0xbd69b78d	-0.057059813
10	0x3c2dcbaa	0.010607639
11	0x3c1f0de6	0.0097079035
12	0x3d12f02a	0.03587357
13	0x3d8eaa90	0.06966126
14	0x3da28101	0.07934762
15	0xbc971222	-0.018441264
16	0x3ceacd13	0.02866224
17	0xbd6405f6	-0.055669747
18	0xbbb6ad5c	-0.0055748653
19	0xbdf8f9e2	-0.12157036
20	0xbd2153ee	-0.039386682
21	0xbc6906c6	-0.014222806
22	0x3d033be7	0.03203955
23	0xbcfe2c91	-0.03102711
24	0xbc2a5930	-0.0103972405
25	0xbd3d65da	-0.04623971
26	0x3c097980	0.008390784
27	0xbd497f81	-0.049193863
28	0xbe03e7c9	-0.12881388
29	0xbb9e518c	-0.0048314985
30	0x3d32cafd	0.043650616
31	0xbc78efb1	-0.015193866
32	0xbcc30395	-0.023805419
33	0xbe054af1	-0.13016869
34	0xbe0b2f19	-0.13592185
35	0x3d682825	0.05667891
36	0xba960089	-0.0011444251
37	0xba568044	-0.0008182565
38	0xbd728932	-0.05921287
39	0xbc3a9329	-0.011387625
40	0xbcb2aec1	-0.021811845
41	0xbce2b7cd	-0.027675534
42	0x3d76ed47	0.06028488
43	0xbc4f17c2	-0.012639942
44	0xbba050c5	-0.004892441
45	0xbccea593	-0.025225436
46	0xbe1d12e4	-0.15339237
47	0xbdf96a70	-0.121785045
48	0xbd67b672	-0.056570478
49	0x3d85603f	0.06512498
50	0x3cbb6f18	0.022880122
51	0xbce703e2	-0.028200094
52	0x3d577173	0.052598428
53	0x3d5bda2c	0.05367486
54	0x3de99a37	0.11406367
55	0xbd055d0d	-0.032559443
56	0x3b3ad7bd	0.0028509938
57	0x3c23dc80	0.010001302
58	0xbc11bb0a	-0.008894691
59	0xbe51f913	-0.2050517
60	0x3d8d870e	0.06910525
61	0xbd94d314	-0.072668225
62	0x3d1ca523	0.038243424
63	0x3d290478	0.041264027
64	0xbd90f095	-0.070771374
65	0xbe3205d7	-0.1738504
66	0xbb8fce6a	-0.00438862
67	0xbdd5ace9	-0.104333706
68	0xbdb6bb59	-0.089224525
69	0xbdb07681	-0.08616353
70	0xbe08e1a6	-0.13367328
71	0xbb83d03e	-0.004022627
72	0xb959b350	-0.00020761532
73	0x3d4f0558	0.050542206
74	0xbe8af429	-0.27139404
75	0x3d9b2f81	0.0757742
76	0xbd2c751d	-0.042103875
77	0xbbca974f	-0.006182588
78	0xba823f7b	-0.0009937132
79	0xbda82e5b	-0.082119666
80	0x3cc672f1	0.02422473
81	0xbe106c1e	-0.14103743
82	0x3d8a4bef	0.067527644
83	0x3e1d8cfa	0.1538581
84	0xbb5e8b65	-0.0033957597
85	0x3d74d3e7	0.0597724
86	0x3c9104fa	0.017702568
87	0xba3682b0	-0.0006962223
88	0xbcd88f6c	-0.026435576
89	0x3dac1963	0.0840328
90	0x3d3a1e02	0.045438774
91	0xbda95c08	-0.08269507
92	0x3d911f19	0.070860095
93	0xbd2cb19c	-0.04216157
94	0xbdba8139	-0.091066785
95	0x3ba7076f	0.0050973217
96	0xbcad82d4	-0.021180548
97	0x3c8a0cb1	0.016851755
98	0x3ca09726	0.019603323
99	0x3c5710de	0.01312658
100	0xbd1c4cfa	-0.038159348
101	0x3ce8d20a	0.028420467
102	0x3c2911e2	0.010319205
103	0x3e30ac56	0.17253241
104	0x3dfd98c8	0.12382656
105	0x3c175216	0.009235879
106	0x3ba543a3	0.0050434633
107	0xbcee1675	-0.029063443
108	0xbd895853	-0.067063
109	0x3c8be28c	0.0170758
110	0x3d3ff408	0.046863586
111	0xbd1534c5	-0.036427278
112	0xbe024f84	-0.12725645
113	0xbd59a128	-0.053132206
114	0x3d1f659f	0.038915273
115	0x3d7cac35	0.061687667
116	0x3d3643f0	0.044498384
117	0x3d55d19c	0.052201852
118	0xbd96c499	-0.07361717
119	0xbc8f9f6e	-0.017532077
120	0xbd80e960	-0.06294513
121	0x3d848bc7	0.06471973
122	0xbd835b0e	-0.06413852
123	0xbe2436d0	-0.16036534
124	0xbd1af60e	-0.037832312
125	0x3d9b9459	0.075966544
126	0x3bb20786	0.005433026
127	0x3bb6af57	0.0055751014
128	0x3d9296d9	0.07157678
129	0x3de9ef0b	0.11422547
130	0x3dcf7bec	0.10131058
131	0x3c8fc7ec	0.017551385
132	0x3cb48ce5	0.02203984
133	0xbd959831	-0.07304419
134	0xbe2fed35	-0.17180331
135	0xbc3158cf	-0.010824396
136	0x3da68e1d	0.08132575
137	0x3d430a0f	0.047617014
138	0xbcd5fe1b	-0.026122143
139	0xbe3e52a2	-0.1858621
140	0xbd7ac5db	-0.061223846
141	0x3d6db2ab	0.05803172
142	0x3d0ea0a4	0.034821168
143	0xbe36e138	-0.17859352
144	0x3a2f26fa	0.0006681528
145	0xbde6467a	-0.11243911
146	0x3bf5b531	0.0074984063
147	0xbd81cb8c	-0.063376516
148	0x3d6a6556	0.057225548
149	0x3cf1a31b	0.02949672
150	0xbccc68fa	-0.0249524
151	0x3d6aeb71	0.05735344
152	0x3b93b4a9	0.0045076204
153	0x3b5d9469	0.0033810383
154	0x3d87067a	0.06593032
155	0x3d81e129	0.06341774
156	0xbc4a4143	-0.012344661
157	0x3afdef3d	0.0019373667
158	0x3d1e4cc8	0.038647443
159	0xbe68d3fe	-0.22737119
160	0x3cd7bc7b	0.026334992
161	0xbc87dc9c	-0.016584687
162	0xbd1b09cb	-0.037851136
163	0xbe154843	-0.14578347
164	0x3d6bcca7	0.05756822
165	0xbb2260fb	-0.0024777043
166	0x3d23cab3	0.03998823
167	0xbd4f83e1	-0.05066288
168	0x3b27a047	0.002557771
169	0x3bd63ea6	0.00653823
170	0x3ba0f34b	0.0049118153
171	0xbccd89cb	-0.025090119
172	0x3c352d4c	0.011058163
173	0x3ceea972	0.029133532
174	0xbdabb377	-0.083838396
175	0x3cf24375	0.029573182
176	0xbd370237	-0.044679847
177	0x3d0f89fd	0.035043705
178	0x3cd20b75	0.025640229
179	0x3d88cd43	0.066797756
180	0x3d4f9aea	0.050684847
181	0x3de0366f	0.109478824
182	0x3b133674	0.0022462877
183	0x3ce7ed41	0.028311374
184	0x3c382a7c	0.011240598
185	0x3ca46add	0.020070488
186	0xbcbbb9b8	-0.022915706
187	0xbb10de58	-0.0022105183
188	0x3c46c590	0.0121320635
189	0x3d8ff668	0.0702942
190	0xbdb94988	-0.09047228
191	0x3e0463cc	0.12928694
192	0xbc9865f0	-0.018603295
193	0xbe1b293c	-0.15152448
194	0xbd91aaf2	-0.07112683
195	0xbc5221a0	-0.0128254
196	0x3d7ae3ed	0.061252523
197	0xbd0c3bfa	-0.034236886
198	0x3ca87c83	0.020567184
199	0x3b44286f	0.0029931327
200	0x3c347e24	0.011016402
201	0xbdaa6236	-0.083195135
202	0x3b92357f	0.0044619436
203	0xbdc40d47	-0.09572845
204	0xbd471251	-0.048601452
205	0xbd86314f	-0.065523736
206	0xbcb94e01	-0.022620203
207	0xbc710857	-0.014711461
208	0x3dd64bfe	0.10463713
209	0x3c9f10ad	0.019417131
210	0xbdd3d6c5	-0.103436984
211	0x3c20fb7d	0.0098255845
212	0x3d933793	0.07188334
213	0x3b9032e4	0.004400598
214	0x3d0b87fb	0.034065228
215	0xbd301a2b	-0.042993706
216	0xbd4a5204	-0.049394622
217	0xbdc6cbde	-0.09706853
218	0xbc8d735c	-0.017266922
219	0xbd7faf10	-0.062422812
220	0x3c0cd19a	0.008594895
221	0x3e3335e5	0.17501028
222	0xbb346457	-0.0027525628
223	0xbc8b2102	-0.016983513
224	0x3b0efb30	0.00218172
225	0x3d394247	0.045229223
226	0xbe1b1e3c	-0.15148252
227	0xbbeb0e79	-0.007173356
228	0xbd14a5a1	-0.03629077
229	0x3d451555	0.048116047
230	0x3de0dcb2	0.10979594
231	0xbd6c79fb	-0.057733517
232	0x3d282fff	0.041061398
233	0xbd236ff1	-0.039901678
234	0xbc737b23	-0.014860901
235	0xbd284545	-0.041081686
236	0xbd036857	-0.032081928
237	0x3bf6c9b0	0.0075313672
238	0x3c5ed949	0.0136016095
239	0x3d02be65	0.031919856
240	0x3d747751	0.0596841
241	0x3cc40829	0.023929672
242	0xbd506dbd	-0.050885905
243	0xbe7f7fdb	-0.24951117
244	0x3d09423a	0.033510424
245	0xbdd361fd	-0.10321424
246	0xbc1576ab	-0.009122531
247	0x3be45478	0.0069680773
248	0x3dad312e	0.08456646
249	0x3c9949a6	0.018711876
250	0xbc778691	-0.015107767
251	0xbbb9b8cf	-0.005667783
252	0xbb5eae8c	-0.003397855
253	0xbc894ccc	-0.016760252
254	0xbcbd909b	-0.023140242
255	0x3d092264	0.033480063

fc_mean.bias f4 [17]
0	0x3ebd32cc	0.36952817
1	0x3f2de671	0.6792975
2	0xbce8e4fa	-0.028429497
3	0x3f426265	0.7593139
4	0x3f12fb00	0.57414246
5	0x3fcaec11	1.5853292
6	0x3fdd40f8	1.7285452
7	0x3e72c709	0.23708738
8	0x3f943024	1.1577191
9	0x3fa339ae	1.2751977
10	0x3fc20ed7	1.5160779
11	0x3ea789ff	0.3272247
12	0x3cd1c9ab	0.025608858
13	0x3f054d4b	0.52071065
14	0x3f85e991	1.0461904
15	0x3f6ee55a	0.9331871
16	0xbf730be7	-0.94940037

fc_logstd.weight f4 [17, 230]
0	0x3a9e5d5a	0.0012082264
1	0xbc360316	-0.011109134
2	0xb99673ed	-0.000286966
3	0x3d3942ec	0.045229837
4	0x3cabb798	0.020961568
5	0x3cadd49b	0.021219542
6	0x3d13cdde	0.036085002
7	0x3d94398b	0.07237538
8	0xbc68c8c2	-0.014208021
9	0xb9d96cd9	-0.00041470563
10	0x3c7cc162	0.015426965
11	0xbafabdc0	-0.0019130036
12	0xbc0581a6	-0.008148586
13	0x3bf981b3	0.0076143383
14	0xbb59b5b8	-0.0033219885
15	0xbc193222	-0.0093503315
16	0x3b399012	0.0028314632
17	0x3d0d918b	0.03456263
18	0x3cfaeac3	0.030629521
19	0x3d73c7ab	0.05951659
20	0x3d39efbf	0.045394655
21	0xbb4e2ca9	-0.0031459725
22	0x3a7a75fa	0.0009554323
23	0x3b86ae8a	0.004110162
24	0x3b9518d8	0.0045500807
25	0x3d1bfc05	0.03808214
26	0x3c3d8622	0.011567624
27	0x3addde26	0.0016927167
28	0x3d3deda6	0.046369217
29	0x3d860554	0.06543985
30	0xbb029a3d	-0.001992836
31	0x3af8f34d	0.0018993408
32	0x3aeadab3	0.0017917961
33	0x3b541f2c	0.0032367213
34	0xbbb9d641	-0.005671293
35	0xbb322b9c	-0.0027186638
36	0x3c16505f	0.009174435
37	0x3d27c589	0.04095987
38	0xbbd1710d	-0.0063916505
39	0x398d7e29	0.00026987612
40	0xbc420d3e	-0.0118439775
41	0xbad1070a	-0.0015947532
42	0xbb4bad03	-0.0031078465
43	0x3da3849c	0.079842776
44	0xbc132afa	-0.008982414
45	0x3cd2978a	0.025707025
46	0x3a1f69a1	0.00060811086
47	0x3af4de3a	0.0018681951
48	0xbb622ef6	-0.0034512854
49	0x38956baa	7.124928e-05
50	0xbb66f690	-0.0035242178
51	0x3cb5c01b	0.02218633
52	0x3d45c991	0.04828793
53	0x39956e01	0.00028501454
54	0x3c4d20ea	0.012520054
55	0x3bbd3ba9	0.0057749343
56	0xbae5a7b1	-0.0017521289
57	0xbc9fa05b	-0.019485643
58	0x3af82ede	0.0018934866
59	0x3c099aa6	0.0083986875
60	0x3be6c5ef	0.0070426385
61	0x3dc738f6	0.09727661
62	0xbbeed70a	-0.0072888182
63	0xbc82b453	-0.015955126
64	0x3c91a55f	0.01777905
65	0x3d898e9a	0.06716652
66	0x3cb20e33	0.021735286
67	0xbb6e742b	-0.003638516
68	0x3d6ff7da	0.05858598
69	0x3c04ec0d	0.0081129195
70	0x3d2281e4	0.039674655
71	0x3d14ebec	0.036357805
72	0xba1f75a4	-0.00060828985
73	0x3c8fe23a	0.017563928
74	0x3b35bbe7	0.0027730407
75	0xbc16d213	-0.009205359
76	0xbc75df49	-0.015006849
77	0x3a27377c	0.0006378812
78	0x3b73920c	0.0037165908
79	0x3d6f112f	0.058365997
80	0xbba9ff2c	-0.0051878896
81	0xba9086d8	-0.0011026515
82	0x3c84405a	0.016143966
83	0xbc12c925	-0.008959089
84	0x3b2e3bb9	0.002658589
85	0x3a4bbefc	0.00077722943
86	0x3bc236f3	0.0059269606
87	0x3d41bffa	0.047302224
88	0xbc0231e4	-0.007946465
89	0xbc44ac8f	-0.012004032
90	0x3ccc7894	0.02495984
91	0x3bb5f5bf	0.005552977
92	0x3c5bb7e1	0.013410539
93	0x3d8a8f39	0.06765599
94	0x3d2308cf	0.039803322
95	0xba08a770	-0.00052129384
96	0xbbd91610	-0.0066249445
97	0x3d3d8e55	0.046278317
98	0x3a68a9cb	0.0008875399
99	0x3cfe438b	0.031038066
100	0xbbe37593	-0.006941506
101	0x3cabceee	0.020972695
102	0x3ca81908	0.020519748
103	0x3c312b5f	0.010813563
104	0xbc1d51a5	-0.009601985
105	0x3d5f6719	0.05454168
106	0xb8b19c33	-8.469112e-05
107	0x3cc42444	0.023943074
108	0x3d97db64	0.07414892
109	0xbb474627	-0.0030406804
110	0x3abd3409	0.0014435063
111	0xbbed3449	-0.007238899
112	0xbb06126c	-0.0020457758
113	0x3bd8f120	0.006620541
114	0x3ddf064d	0.10889874
115	0x3c9e2429	0.019304352
116	0x3c537bed	0.012907964
117	0xbb83eca4	-0.0040260125
118	0xbb3814cf	-0.0028088575
119	0xbbb1cf8e	-0.005426354
120	0x3c5fa387	0.013649828
121	0x3d138627	0.03601661
122	0xbb23cb6b	-0.0024993073
123	0x39743de5	0.00023292711
124	0x3d503dc4	0.050840154
125	0x3d110a34	0.03541012
126	0x3c614378	0.013748996
127	0xbb1bb389	-0.0023758134
128	0x3ca80858	0.020511791
129	0xba530c83	-0.00080508756
130	0xbc016465	-0.007897471
131	0xbb4e8bd6	-0.0031516454
132	0xbc280d1c	-0.010257032
133	0xbc85c137	-0.016327484
134	0xbb769dab	-0.0037630599
135	0x3cb11369	0.0216157
136	0xbb78ded9	-0.0037974624
137	0xbb24be35	-0.0025137786
138	0x3d058b93	0.03260381
139	0x3c7d0371	0.015442715
140	0x3c1e45fc	0.00966024
141	0x3b356653	0.0027679398
142	0xbc64508c	-0.0139352195
143	0x3d255c07	0.040370967
144	0xbb21be64	-0.0024680132
145	0x3be8635b	0.007091922
146	0xbbc6fc0c	-0.006072527
147	0xbbc6d8f6	-0.006068344
148	0xbba8096e	-0.005128077
149	0xbbf461ff	-0.007457971
150	0xbb990532	-0.004669809
151	0xbb5f18a5	-0.003404179
152	0x3ac8b463	0.0015312548
153	0xbb81c92f	-0.0039607505
154	0xbb9bc4d4	-0.0047536884
155	0x3bcad587	0.006190005
156	0x3934e0f1	0.00017249935
157	0xbb8207aa	-0.003968199
158	0x3d9630a0	0.07333493
159	0x3a60a31e	0.0008569228
160	0xb860cc41	-5.3595988e-05
161	0xbc7b2470	-0.015328512
162	0xbc1a505a	-0.009418571
163	0x3d16c37d	0.036807526
164	0x3c786ba1	0.0151623795
165	0xba915043	-0.0011086542
166	0xbcaa0579	-0.020754563
167	0x3bd91de4	0.0066258777
168	0x3baa2c9e	0.005193307
169	0x3c264d94	0.010150332
170	0x3d1b6dd1	0.037946526
171	0x3c6dac2c	0.014506381
172	0x3c257790	0.010099307
173	0x3d4ca8cb	0.04996566
174	0xbb220ddc	-0.00247275
175	0xb9a7e5b0	-0.00032023853
176	0xbbe4255f	-0.006962463
177	0xbb863f64	-0.004096912
178	0x3b7aa9c2	0.0038248156
179	0xbcbb3b4e	-0.022855427
180	0x3d26cc5a	0.04072223
181	0x3a02a076	0.0004983017
182	0x3b2a0ebf	0.002594873
183	0x3b859a70	0.0040772483
184	0xbbac54dc	-0.0052591395
185	0x3b025ea6	0.001989284
186	0xbbbb346e	-0.005713037
187	0x3c9a8fd3	0.018867409
188	0xbb2c42cf	-0.0026284938
189	0x3bcb4c85	0.00620419
190	0x3bcfa796	0.0063371165
191	0xbac5482d	-0.0015051417
192	0xbb1369c8	-0.002249347
193	0x3c5c8a6d	0.013460738
194	0x3c12d983	0.008962992
195	0xbb14911a	-0.0022669495
196	0xbba0d290	-0.0049079135
197	0x3d684007	0.056701686
198	0x3ca58639	0.020205604
199	0xbb83fabf	-0.004027694
200	0xb980518c	-0.0002447482
201	0x3ceb5cee	0.028730836
202	0x3c155e53	0.009116727
203	0x3b0617b2	0.00204609
204	0xbd42966e	-0.047506742
205	0x3bdc9245	0.006731304
206	0x3d193c8f	0.03741127
207	0x3c1dcb43	0.009630981
208	0x3d4272bf	0.04747271
209	0x3a974b63	0.0011542853
210	0x3d859e2e	0.06524311
211	0x3b524bf7	0.0032088736
212	0x3bd8721d	0.0066054002
213	0x3d781c0d	0.060573626
214	0xbb85ea5d	-0.004086776
215	0x3a4ed0ec	0.0007889408
216	0x3d44b37f	0.048022743
217	0x3cf7dbad	0.030256117
218	0x3cbba2d9	0.0229048
219	0x3ab3c9da	0.0013716773
220	0xba709f74	-0.0009179034
221	0xbb3cfd09	-0.0028837344
222	0x3cdd3a8a	0.027005453
223	0xbabc0aa1	-0.0014346429
224	0x3d01f0a1	0.031723622
225	0xbad8f431	-0.0016552267
226	0x3c9beafd	0.01903295
227	0xbb83d95a	-0.004023713
228	0xbb863144	-0.0040952284
229	0xbad18439	-0.001598484
230	0xbbddcd8a	-0.006768887
231	0x3cef910f	0.029243974
232	0x3c45d798	0.012075327
233	0x3d303584	0.043019786
234	0xbcf95ed7	-0.030440731
235	0x3db0c124	0.08630589
236	0x3c74620a	0.014915952
237	0xbc207801	-0.009794236
238	0x3c5852b9	0.013203316
239	0xbb5dda61	-0.0033852088
240	0xbc2f66d3	-0.010705668
241	0xbab4b12d	-0.0013785713
242	0x3bd5b51b	0.0065218336
243	0xba5c5a51	-0.0008405792
244	0xbba38db2	-0.0049912566
245	0x3b0ed740	0.002179578
246	0x3caa60c5	0.020798096
247	0x3c9d84ad	0.019228304
248	0x3db6d4f4	0.08927336
249	0x3cdab707	0.026698602
250	0x3a2f78ad	0.00066937023
251	0x38c98078	9.608356e-05
252	0x3b2ef0a4	0.0026693726
253	0x3980af13	0.00024544503
254	0x3b833be9	0.0040049446
255	0xbd74ba13	-0.059747767

fc_logstd.bias f4 [17]
0	0x3ea1021b	0.3144692
1	0x3e95db6d	0.2926897
2	0x3e9b9ed3	0.3039461
3	0x3e9df1c6	0.3084852
4	0x3e90cd77	0.28281757
5	0x3e92113d	0.28528777
6	0x3e65a4ef	0.22426198
7	0x3e958c8d	0.29208794
8	0x3e98e56f	0.29862544
9	0x3e77d2ff	0.24201582
10	0x3e651024	0.22369438
11	0x3ebac175	0.3647572
12	0x3eba3fbd	0.36376753
13	0x3eb25215	0.3482825
14	0x3eb0d587	0.34537908
15	0x3ea79182	0.327282
16	0x3eaaa0f1	0.33325914
