SAC-cleanrl/models/pruning/SAC-Ant-v4-0.55-l1.pth (torch, 78674 bytes, 10 tensors)

action_scale f4 [1, 8]
00000000: 0000 803f 0000 803f 0000 803f 0000 803f
00000010: 0000 803f 0000 803f 0000 803f 0000 803f
1.0 1.0 1.0 1.0 1.0 1.0 1.0 1.0

action_bias f4 [1, 8]
00000000: 0000 0000 0000 0000 0000 0000 0000 0000
00000010: 0000 0000 0000 0000 0000 0000 0000 0000
0.0 0.0 0.0 0.0 0.0 0.0 0.0 0.0

weight f4 [115, 27]
00000000: 7bad 4040 6d6a b0be 0116 66c0 cab7 01c0
00000010: 7aa7 eebd ff12 e73b 2459 ce3b 7507 d7be
00000020: 10ec 923e 73e8 b13d bcd7 2cbb 6f5d 753e
00000030: 05ac 1bbf 62cb b73c 6f47 1c3c a70b 773e
00000040: 4205 f2bc 213f d5bd c45c 56bd 54d6 d1bb
00000050: dfd8 d2bb 5563 71bd ed3e 5e3c b8d6 ab3b
00000060: ef8d aebc 36da 08bc 735c f8bc f6c7 cabf
00000070: 56a0 8cbe ce72 3d40 6b55 6e3f 57de 44bf
00000080: 7bec 7c3e 0ec8 c4bd 3249 a3bc 8369 b7be
00000090: 51c3 5bbe be0e b43e eaf1 e13e 6615 813e
000000a0: 462b e9bd 8e37 8d3b 8e0a e2be 877f a33e
000000b0: 1ef9 af3e 89db febd d135 4bbd 4da0 1f3c
000000c0: d2a0 5d3c c301 a5bc 18bd d53b 482f 88bd
000000d0: 0af6 cebd 1be3 013e b5e3 bfbf c970 12bf
000000e0: 2f8d 23c0 41e0 563d 4708 a9bf 8b2a 0cbe
000000f0: ad75 5abe 4bed 6b3e d92d 07be 90e9 e7bd
00000100: b854 193e d761 7d3e 74b3 bfbe df27 12bd
00000110: e567 793c 7d19 b3be 9fe5 6bbe 2f55 7ebe
00000120: e077 46be e8e6 b8bd 81a1 0bbc 10ef 093e
00000130: 20a4 a6bd 9222 f2bc cebe 2fbc 9ec6 38bd
00000140: 5da1 723d 52e0 d5bd 6697 83c0 3544 b03e
00000150: 1a8b 3bc0 22a0 343f e9cd c8be 9552 15bc
00000160: 0427 01be 5a6c a33e 14f6 15be ce93 bdbe
00000170: 8e0f 58be 88a7 be3e 7fdf 39be 1547 b13d
00000180: 9981 2f3d 303d 86be 9585 04be 42b2 9abe
00000190: 2d0c 67bd c96f 5ebb 70fd b3bd 48a8 8fbc
000001a0: e729 4dbd 78b2 3cbd 57b8 74bd 836c f3bc
000001b0: 55b4 1ebf f563 36c0 86db f73e dc79 1940
000001c0: 1c32 823f e724 bc3e 92b1 db3e 20c0 e63e
000001d0: c13e 953e 6715 403e b896 8f3e 8d47 73bd
000001e0: 991b b83e 5cf0 a33c 9834 84bd 57ff dc3d
000001f0: fede 04bd 5d6e ce3e 7a46 42bd 2889 03bb
00000200: 206c 03bd c5b9 163d 6282 9a3d fa39 7dbc
00000210: ae51 db3c 6665 f6bc 1866 e13b 99ed b5bd
00000220: b809 f93e e78a 8c40 5074 a8bf 7d18 b93f
00000230: 6166 203f 8056 7dbe 51f6 3ebf 14c0 123f
00000240: fa28 5dbe c6b6 933d 8f91 6e3f 1f91 53be
00000250: 3d15 cdbd e699 ff3d 1794 5d3e bbe4 bf3e
00000260: e233 9a3d 9e45 b33e 9ae6 823d c5b0 17bd
00000270: f353 cb3d 587a ab3d 09a8 1cbc 31ca 303c
00000280: b0d3 493d 1d36 c93d d405 fe3d ad88 043f
00000290: cfb2 3640 21d3 c8bf b877 a63c da45 023f
000002a0: 6860 01bf 53fe a6bf ea8f 063f d37b 013e
000002b0: 099a a63e d340 163f 5277 77bf e045 333d
000002c0: f478 2e3d 2a33 9cbd a5a0 55bd 38a1 acba
000002d0: 2785 1ebe 0223 fe3c e45d 5c3c d33c ecbd
000002e0: 548a 253d 8c01 86bc c3fc babc 030a 0a3e
000002f0: cc62 6dbd 93e7 17bf b29b 223f f3ac 19c0
00000300: 469c b23f b931 80bf 31df 8a3e 26ed a0be
00000310: 99dd 863d 9a32 273e f738 b9be 597f 8f3e
00000320: e782 80be d0b4 b23d 58ac 26be a1fb 3d3e
00000330: 425d f0be dd41 93bc 7616 ae3e 45a6 ca3d
00000340: ae5c 4dbd ee2f 543d 49b5 943d 15b9 9c3c
00000350: 35e6 b03c d259 34bd b9b5 bebb 7aac 813c
00000360: 03de 3d3f 4362 4fbf baae 11c0 45ac 14c0
00000370: 912b 04bf 2729 1d3f c881 abbe 1407 2ebf
00000380: 79db 48be acba 723e 3f53 cfbd e0e6 5a3c
00000390: 8290 b5be 128e ebbd 18a9 b93c 5d2b aa3e
000003a0: c40d a83e 2cf2 cebe 6104 99be 8ebe 96bc
000003b0: 2dd7 a0bd ca34 86bd b713 7a3b f85b 643c
000003c0: 5c26 96bc 7e2d bebc ce77 da3c 179e 8fbf
000003d0: 1f20 623f 3dd8 563f d2d7 41c0 d2ca 963f
000003e0: 6384 213f da2f eb3c bb53 2b3e 37a2 1f3f
000003f0: 3c05 5ebe a119 5fbe b2e2 c0bd 8e35 00be
3.0105884 -0.34456196 -3.595093 -2.0268426 -0.11653037 0.007051825 0.0062972475 -0.41997877
0.28695726 0.08686914 -0.0026373705 0.23961423 -0.60809356 0.022435848 0.0095385155 0.24125539
-0.029543523 -0.104124315 -0.052334562 -0.0064037237 -0.0064345445 -0.05893262 0.013564807 0.0052441023
-0.021307914 -0.008352807 -0.03031752 -1.5842273 -0.27466077 2.9601321 0.9309909 -0.76901764
0.24699585 -0.0960847 -0.019932363 -0.35822687 -0.21461226 0.35167497 0.44129878 0.25211638
-0.11385207 0.004309601 -0.44148678 0.31933233 0.3436975 -0.12444217 -0.04961187 0.0097428085
0.013527112 -0.020142442 0.006522786 -0.06649643 -0.10105522 0.1268429 -1.4991366 -0.57203346
-2.5554922 0.05245996 -1.3205651 -0.13688104 -0.21333952 0.23039739 -0.13201083 -0.113238454
0.14973724 0.24744354 -0.374416 -0.035682555 0.015222524 -0.34980384 -0.23036812 -0.24837182
-0.19381666 -0.09028417 -0.008522392 0.13470101 -0.08136773 -0.0295575 -0.010726644 -0.04511129
0.05923592 -0.10443176 -4.1122313 0.34427038 -2.930365 0.70556843 -0.39219597 -0.009113927
-0.1261254 0.31918603 -0.14644653 -0.3702683 -0.21099684 0.3723719 -0.18151663 0.08656136
0.042848203 -0.26218557 -0.12941583 -0.30214125 -0.056408096 -0.003394114 -0.08788574 -0.017536297
-0.05008879 -0.04606864 -0.059746113 -0.029714828 -0.61993915 -2.849851 0.4840967 2.3980627
1.0171542 0.36746904 0.42908913 0.45068455 0.2914944 0.18758164 0.28044677 -0.059394408
0.35958555 0.020012073 -0.06455344 0.1079089 -0.032439224 0.40318576 -0.047430493 -0.0020070765
-0.032085538 0.036798257 0.075444 -0.015455717 0.026772346 -0.030077647 0.0068786256 -0.08883209
0.48640227 4.391956 -1.3160496 1.4460598 0.6265622 -0.24740028 -0.745946 0.5732434
-0.21597663 0.07212596 0.93190855 -0.20660828 -0.100138165 0.12480526 0.21638523 0.37479195
0.07529427 0.3501405 0.0639164 -0.037033815 0.099281214 0.083729446 -0.009561547 0.010790394
0.049274147 0.098247744 0.124034554 0.5177105 2.8546636 -1.5689431 0.020320758 0.50887835
-0.5053773 -1.3046364 0.52563345 0.12644891 0.32539394 0.58692664 -0.96666443 0.04376781
0.04259582 -0.07626946 -0.052155156 -0.0013170606 -0.15480481 0.031022552 0.01345012 -0.11535039
0.040415123 -0.01635816 -0.022825604 0.13480382 -0.05795555 -0.5933773 0.6351882 -2.401181
1.3953941 -1.0015174 0.27123407 -0.3143093 0.06585235 0.16327897 -0.36176273 0.28026846
-0.2509987 0.087258935 -0.16276681 0.1855302 -0.4694615 -0.017975742 0.3400151 0.09894995
-0.050137214 0.05180352 0.0726114 0.019131223 0.021594146 -0.04403097 -0.005820003 0.015829314
0.7416689 -0.8100931 -2.2762895 -2.3230145 -0.5162898 0.6139092 -0.33497453 -0.6797955
-0.19614972 0.23704022 -0.101233 0.013360709 -0.35461813 -0.11501707 0.022663638 0.3323621
0.32823002 -0.40419137 -0.29886153 -0.01840141 -0.078535415 -0.065530375 0.0038158724 0.013937943
-0.018328838 -0.023215052 0.026668455 -1.122012 0.8833026 0.83923703 -3.0287976 1.1780646
0.6309263 0.02870934 0.1673116 0.62356895 -0.21681684 -0.2178712 -0.09418239 -0.1252043

bias f4 [115]
00000000: bbb3 81bf f9b9 ab3d a683 713e 4143 423f
00000010: b1be 733f 0801 853c daa0 743c 435e b6bd
00000020: 608f 94bd 6feb 35be 0610 83be abac 2dbe
00000030: 54b3 193f 7ad3 adbe 840a ea3c 326e 103e
00000040: bcb5 9abe 9b3c 20bf 775c 8ebf 0aa3 39bf
00000050: cc6e ee3c 9a73 3fbf 6428 13bf 93cd 2bbf
00000060: 5c04 06be 4ad5 2d3e 7064 b2bd 8e8b 89bd
00000070: 5efa d73d 764a 3ebe 43d3 9e3e 31b8 14bf
00000080: 9bba 043d 79d4 fcbe 3410 87be 981a 8f3e
00000090: 0e42 e63d 6057 88be 1ac6 573e 765b 6abe
000000a0: 4b38 50bf c9a7 93be 2906 bfbe b675 15bf
000000b0: d30b 283e 04f5 883e caf9 50bf c4cf 63be
000000c0: 9d37 833c 2e37 1dbf ceef 133e b336 b8bd
000000d0: a566 513e 57c1 7fbf 34cd af3e 6bd6 aebe
000000e0: 28f2 733f 6af7 c83e 6900 7d3e f048 4b3d
000000f0: 2bf4 4abf f5e2 a73e a242 03be cf0b 82be
00000100: 4317 b9bd 69c4 043e 4cac 5cbf c3b5 cc3d
00000110: fa43 8abf 98d3 a73e aa48 97be f851 20bf
00000120: 81db 13be 7936 773e 82e5 3ebe bc9f 44be
00000130: 561a 923d 60d5 1abf 087c 86bf 3765 f73e
00000140: a8be 0a3e 96c8 51bf 8993 53bf 513e e3be
00000150: f010 33bf ad5c 7bbe 0304 05bf 7f6e 4ebe
00000160: ab64 d93d efc5 e2be e3cc 263e f832 dbbd
00000170: a165 3dbf e8ed c2bd b360 1d3f 446e 25be
00000180: adce e3bd 2a46 37bf b7b5 bcbe 1810 f5be
00000190: a014 72bf 0cf5 73bf 0b89 023d 304b 493d
000001a0: 636f 72bf e193 26be 7bf5 81bf 9e55 a7be
000001b0: 5844 a0be aac0 4f3f ebb5 dabe b63e 163d
000001c0: 8475 c03d 46e4 6dbd 97ac 843c
-1.0132974 0.08385081 0.23585376 0.7588387 0.95212847 0.016235843 0.014930928 -0.08904698
-0.07253909 -0.17765592 -0.25598162 -0.16960399 0.6003926 -0.33950406 0.028569467 0.14104536
-0.30216777 -0.62592477 -1.1121968 -0.725144 0.029105566 -0.7478577 -0.57483506 -0.67110556
-0.130876 0.16975895 -0.08710563 -0.06716071 0.105458006 -0.18583092 0.31020555 -0.58093554
0.032404523 -0.49380854 -0.2637955 0.27949977 0.11243068 -0.26629162 0.21071663 -0.22886452
-0.81335896 -0.28838947 -0.37309387 -0.5838274 0.1641076 0.26749432 -0.8163115 -0.22247225
0.01601773 -0.6141232 0.14446947 -0.08994808 0.20449312 -0.9990439 0.34336245 -0.34147963
0.95291376 0.39251262 0.24707188 0.049630105 -0.7927882 0.32790342 -0.12818387 -0.25399634
-0.0903764 0.1296555 -0.86200404 0.09995606 -1.0801995 0.3277862 -0.29547626 -0.62625074
-0.14439203 0.24141873 -0.18642238 -0.19201559 0.071339294 -0.60481834 -1.0506601 0.48319408
0.13549292 -0.81946695 -0.82646996 -0.4438348 -0.6994772 -0.24547072 -0.51959246 -0.20159338
0.10614904 -0.44291636 0.16289096 -0.10703081 -0.739832 -0.09518033 0.61475676 -0.16155344
-0.11123405 -0.71591437 -0.36857387 -0.4786384 -0.9456272 -0.95295787 0.031868976 0.04914397
-0.9470121 -0.16267349 -1.015304 -0.32682508 -0.31302142 0.8115336 -0.42716917 0.0366809
0.09397414 -0.058079027 0.016195579

weight f4 [115, 115]
00000000: bda3 a8be e2e6 a13d 9f40 1fbf ecae 5bbe
00000010: bab5 24bf b96e c33c 1732 ebbc 4584 b5be
00000020: fa8a 283e 7664 97be 06f0 9f3e 9619 b13e
00000030: 907b 81bf 701a 38be ba5a 0ebf 43c4 e1be
00000040: 80a9 24bf 78db 53bf f400 123e 90c7 e6be
00000050: 0b0f 9abe 45af 6fbf 35b8 aabe 07ed 78bc
00000060: cfc0 ebbe 9d46 88be e36b aabd c611 56be
00000070: a2a6 0d3f 5cce 7b3e 0276 20bf 0b37 613d
00000080: b871 58bf d9ad 95be 92ce 43be d614 5bbf
00000090: 8b6e abbe 035c ffbe 41bf e0be 0532 ecbc
000000a0: 36c9 65be 789c 96bd 7e14 f2bd c16f 1ebd
000000b0: 9f08 36bd cf3d 8fbe 1a70 0dbe e736 8fbe
000000c0: 9111 2a3f 9904 723d fdbc 0dbf 899b 85bd
000000d0: 6e4b 30bf a1d1 e3be 20df 1e3d 7597 23be
000000e0: 62d4 3fbf bc83 44be 58ce ecbe 75ab 11be
000000f0: 1522 6c3e 7f17 fdbe 729d 06be dadf 65bf
00000100: 3855 1b3e e785 12be f39f ecbe 4a03 e1be
00000110: 2f8c 853e d27e ee3b ff56 8fbe cea8 00bf
00000120: 19ad eebe 793e 56be 2256 2e3f a33a fdbe
00000130: b8f1 18be cf79 a63e 465f 1bbf 54f3 c9be
00000140: ca80 1abf 6b94 81ba b20b 213e 88f3 10be
00000150: b967 69be a47d 88be 85b0 b23a 2f28 6abe
00000160: ec0a f9be 73d2 fdbe 964c 10be 7da5 b0be
00000170: 2b22 4cbd 87fd 11be 3485 cdbd 1685 883e
00000180: eaac 383e d83e 80bd abf1 313d f5e0 043f
00000190: a1b2 97bd 2b8d 43bd 3b92 8bbe e190 4bbe
000001a0: 01d5 8bbe e7d0 8fbd 8a50 debe 83eb fe3d
000001b0: ac05 c0be 6cfb 54bf 82de 60bf 65a1 63be
000001c0: 4371 42bf 4826 8dbe 6f05 7cbe 09e3 213f
000001d0: 7ee9 3dbd f237 f0be 8a8f 073c 325e 4fbe
000001e0: c200 8cbe cf73 f8be bc4e a8be 0116 92bd
000001f0: b32c 9dbe 6258 a0bf 5cc3 fabe e324 ac3d
00000200: 3253 8e3c b4de e2be 81e2 a0bf 7fb6 293d
00000210: 16ab 86be 5077 8bbe 6d74 983e e93f 64be
00000220: d519 983d c8e3 ba3d 2932 023f cf47 1ebf
00000230: 3ca3 d9bf a441 4abf 5c0f a2be aa30 a23b
00000240: 13b6 863d 1d2f 12bf ca1a 4abf 6c06 a7be
00000250: cea8 933e 9f99 63be c6a4 24be cbd9 363e
00000260: 3548 6ebe e3b9 bbbd 226f 30bf 005d 0bbd
00000270: fa05 cfbe 4d33 50bf 8891 07bf 310a 293e
00000280: 87ed cdbf 4591 b63d f9d2 e8be 25eb 0abd
00000290: 8928 153f 3d35 b3be c8e0 c2be c784 323d
000002a0: dfe5 f43d 1a08 2abd c1fa 22bf aceb eabe
000002b0: 64c3 703e ffc3 17bf c9b3 47be 7bea a6bd
000002c0: 92a5 b8be ba4c e73d 6c52 94bf ffca ad3e
000002d0: db03 26bf aa74 333e 6ddd 8a3d 3417 84be
000002e0: 6d99 b5be a073 963e 0153 16bf d811 073e
000002f0: 5641 1fbf 43cf cdbc 1967 463e c053 1fbf
00000300: c4b0 47bf ec80 ecbd fa2e 30bf 266d a9be
00000310: c0f8 2c3e 5cfd c93e 83e1 e9be ad41 b43d
00000320: 64ff 86be 32d0 40be 1bf5 02bf ecaf a8be
00000330: 1a4f b1be 1eaf 5a3e 0944 76be f88b af3d
00000340: 6e3e 91bf 267c b4be 251a 2fbf 900a 41bf
00000350: c811 9b3e 4c75 f13c ca85 60bf 85a6 acbe
00000360: ffbb ed3e 094a 1dbf 32aa 8abe ab00 cc3e
00000370: d8f2 a0be 47bf 833e 2d87 b9be 6ae1 2ebf
00000380: 7043 2abf 9c80 00bf 74c3 be3c e268 febd
00000390: 35cc 2bbf d559 c1be acd3 a63d 34ab 12be
000003a0: 4cd3 30bf 5aa9 353e e649 94bf 6ebe ad3e
000003b0: bba5 adbe 098b a9be c93f 4b3d 4781 08be
000003c0: 6c36 263f 6703 f3bc 6347 c53e be37 713e
000003d0: 1580 eabe 185b 96be c41e b13e 32f4 823d
000003e0: e0dc f93d 7aec eebe 2b44 843e 9ae4 00bd
000003f0: c674 1a3f 91eb 86be d0cf 843d 2dd4 55bf
-0.32937422 0.079053655 -0.6220798 -0.21453446 -0.6433979 0.023856508 -0.028710408 -0.35452476
0.16459265 -0.29568833 0.3123781 0.34589833 -1.0115833 -0.17978835 -0.5560719 -0.44095048
-0.64321136 -0.8275676 0.14258176 -0.4507413 -0.30089602 -0.93626815 -0.33343664 -0.0151932305
-0.4604554 -0.26616374 -0.08321359 -0.20905218 0.55332386 0.24590439 -0.62680066 0.054984134
-0.8454852 -0.29234198 -0.19121769 -0.8557867 -0.33482775 -0.49874887 -0.43895915 -0.028832445
-0.22440037 -0.07354063 -0.11820315 -0.038680796 -0.044441815 -0.27976844 -0.13812295 -0.27971575
0.66433054 0.059086416 -0.553665 -0.065238066 -0.68865097 -0.44495872 0.038787007 -0.15975745
-0.74933445 -0.19190878 -0.46251178 -0.14225562 0.23059876 -0.4943199 -0.13145998 -0.89794695
0.15169227 -0.14308892 -0.46215782 -0.43947822 0.26083514 0.0072783018 -0.2799606 -0.50257576
-0.46616438 -0.20922269 0.6810018 -0.494588 -0.14935958 0.32514808 -0.6069225 -0.39443457
-0.60352767 -0.0009886151 0.15727118 -0.141554 -0.22793473 -0.26658356 0.0013632929 -0.22866891
-0.48641145 -0.49574623 -0.14091715 -0.34501258 -0.049837273 -0.1425687 -0.10035172 0.26664037
0.18034711 -0.062619865 0.043443363 0.5190576 -0.07407118 -0.04774205 -0.27260002 -0.19879486
-0.27310947 -0.07022267 -0.4342082 0.12447264 -0.37504327 -0.8319614 -0.8783952 -0.22229536
-0.75954074 -0.2756827 -0.24611448 0.63237053 -0.046365254 -0.46917683 0.0082739685 -0.20250776
-0.27344328 -0.48525855 -0.3287257 -0.07133103 -0.30698165 -1.2526972 -0.48977172 0.08405473
0.017373655 -0.44310534 -1.2569124 0.041433807 -0.26302403 -0.27239466 0.29776326 -0.22290005
0.07426802 0.09125477 0.5085779 -0.6182832 -1.700294 -0.7900641 -0.31652343 0.004949649
0.06577697 -0.5710314 -0.78947127 -0.32622087 0.28839725 -0.2222657 -0.16078481 0.17856519
-0.23269732 -0.091663145 -0.68919575 -0.03402424 -0.40434247 -0.8132828 -0.5295644 0.16507794
-1.6088113 0.08914427 -0.4547346 -0.033915658 0.58264977 -0.35001555 -0.3806212 0.043583658
0.11957907 -0.041511633 -0.6366387 -0.45882928 0.23512036 -0.5928344 -0.19502176 -0.08150192
-0.3606382 0.11293931 -1.1587653 0.33943936 -0.6484963 0.17524973 0.06780515 -0.25798953
-0.35468617 0.2938509 -0.58720404 0.131904 -0.6220907 -0.025123244 0.19375266 -0.6223717
-0.780041 -0.115480274 -0.6882168 -0.33091086 0.16891766 0.3945111 -0.45679864 0.08801589
-0.26366723 -0.1882942 -0.5115525 -0.32946718 -0.34630662 0.21355864 -0.24049391 0.08571619
-1.1347177 -0.35250968 -0.6839927 -0.7540674 0.30287004 0.029474877 -0.87704146 -0.33720794
0.46432492 -0.61441094 -0.27082974 0.3984426 -0.31435275 0.2573187 -0.36235943 -0.68312705
-0.6650915 -0.5019624 0.023286559 -0.124223486 -0.6710847 -0.3776385 0.08145842 -0.14323121
-0.69072413 0.17740384 -1.1585052 0.3393435 -0.33915505 -0.33113888 0.049621377 -0.13330565
0.6492679 -0.029664708 0.38531026 0.2355642 -0.45800844 -0.29366374 0.34593785 0.06394233
0.12200332 -0.46664792 0.25833258 -0.03146801 0.6033443 -0.26351598 0.064849496 -0.8352688

bias f4 [115]
00000000: ff06 7ebd 754e 88be 3e72 15be b7be 91bd
00000010: 058d 96be ff07 83be 24ee 2cbe f6cf ba3c
00000020: 5dcd f5bc 9e03 83be edc0 2fbe 2c0b acbe
00000030: 2e6c a2be 3bc3 07bf 4714 dfbd 48af aabe
00000040: 3c1e 843e cf01 e1be ec3c 22be 8370 c03e
00000050: 7293 2bbe db26 5fbf b050 eebe 4a75 47bf
00000060: e668 8dbe ee1d 633e 449b 1a3f 1f96 0bbf
00000070: 3526 6e3d e214 0a3e 556d 56be 45b3 563d
00000080: 5e3a 3e3e 8bb2 02be dbfc 6fbe 1805 f2be
00000090: fc15 fa3c 3170 91be 7326 d6be c893 93bd
000000a0: f135 91bb 61f7 12bf 7eb3 48be fd8d 703e
000000b0: 629c edbd 3628 f9be 4d09 fb3e f93e 63be
000000c0: ea96 45be 3a0a 28bf d1e2 84be 4fbc 49bc
000000d0: d80c e93e 30cb 6bbe 1c36 563e ce3d bebd
000000e0: 79ee 5fbe f5ec fcbe 9aa7 b9be 973b eb3d
000000f0: 03c6 8fbe 2779 0cbf 785f 813e 6c68 313e
00000100: 4f95 1ebf cf1d 003f c05e d43a 30be a23e
00000110: 1fe9 c8be d2d3 07be ac74 53be 5cc8 2bbd
00000120: 9c49 f4bd 3db8 18be bd62 2ebd aa40 8f3c
00000130: 0cb8 83bd 1b10 a13e d005 2fbf bc61 933d
00000140: 1be9 a2be 488f 87bd 4a6a d2be 1917 973d
00000150: 220b b4bd 30e1 8a3d ddd9 a6bd 085f f3be
00000160: 5852 a8bd c091 d03c d71c efbd c3f8 183e
00000170: 13df 973e 51f4 aabe 7b4b 2dbd 55c4 80be
00000180: 47f3 afbc 2cf1 de3d 789b 36be 040e e9be
00000190: 3cf4 f9be 4bbd 8ebe 9561 f6bc e9c8 0dbd
000001a0: 93e0 bebe 71d1 8dbc 83d1 a6be 157d 36bf
000001b0: d4d8 9e3e 9c15 ad3e 19a5 cdbe 974c f5be
000001c0: 32c6 e3bd 9768 c5be 2c0e 75be
-0.06201839 -0.26622358 -0.14594361 -0.07116454 -0.29404464 -0.25592038 -0.16887718 0.022804242
-0.030005151 -0.25588697 -0.17163439 -0.33602273 -0.3172316 -0.53032273 -0.108925395 -0.33336854
0.25804317 -0.43946692 -0.15843552 0.3758584 -0.16755465 -0.87168664 -0.46545935 -0.77913344
-0.27619094 0.22179386 0.60393167 -0.5452594 0.058141906 0.13484529 -0.20940144 0.05241706
0.18576953 -0.12763421 -0.234363 -0.4726951 0.030528061 -0.28405908 -0.4182621 -0.072059214
-0.004431479 -0.5740872 -0.19599721 0.23491664 -0.11602093 -0.4866349 0.49030533 -0.22191991
-0.1929585 -0.65640604 -0.25954297 -0.012312963 0.45517612 -0.23026729 0.20919079 -0.09289132
-0.21868314 -0.49399534 -0.36260682 0.11485975 -0.28080758 -0.54872364 0.2526815 0.1732499
-0.61946577 0.50045484 0.0016202554 0.31785727 -0.39240357 -0.13264397 -0.20649976 -0.041939124
-0.119281024 -0.14914031 -0.042574633 0.017486889 -0.064315885 0.314576 -0.68368244 0.07196376
-0.3181847 -0.066191256 -0.41096717 0.073774524 -0.08791186 0.06781232 -0.08147023 -0.4753344
-0.08218831 0.025460124 -0.11675423 0.14938645 0.2966238 -0.33389524 -0.042308312 -0.2514979
-0.021478308 0.10885844 -0.17832744 -0.45518506 -0.4881915 -0.27878794 -0.030075828 -0.03461543
-0.37280712 -0.017311784 -0.3258172 -0.7128461 0.31024802 0.3380555 -0.40165022 -0.47909996
-0.11121787 -0.38556358 -0.23931187

weight f4 [8, 115]
00000000: 54ff 7f3e 9fce 403f cb71 34be 078e 7fbf
00000010: b863 51bf da49 8dbe f9da db3c 46e3 3b3e
00000020: 2ead 51bf 4935 d0be 21bd 9dbe 370d d43e
00000030: 20bd f9bc 002a 33bf 54aa 85be 3a5f 893f
00000040: d312 5cbe 4004 1ebe f27a 1a3e 21ce e1be
00000050: 8e33 eb3b b59e f3be 035a 4e3e 50e6 cb3e
00000060: 3036 8ebd fc6d dd3e 1e75 673d dd3e 08be
00000070: ee6f 1abf 02ff ee3e 3218 d43d 4f1a a53e
00000080: 79b1 09be 3146 023f 9d62 0b3f 4687 893d
00000090: f1ff 36bd 0636 43be 1d26 8ebe 7ca2 18be
000000a0: 66e8 b53d 8d12 01bf 08b3 2e3e af0e 9abe
000000b0: 061e 95bd 1be6 7e3e a288 bc3e e05b ac3d
000000c0: 30c8 95be a081 483e 3bc2 0cbf 0ba3 e73d
000000d0: fa42 153e 3d51 d8bd 8832 56be e533 94be
000000e0: 1144 7c3e 2c68 1dbf 49b1 11bf 0665 043e
000000f0: 6d2a 8cbd a340 183d 18d9 ebbe 7aa6 a6be
00000100: 1e67 03bd 30dc 66be 07c6 8fbe 66fc 893d
00000110: 6399 db3e 2cfe 4cbe 2877 18bf 722c bf3e
00000120: 0917 eb3e 5634 cd3d aff8 823f 0cf7 1f3d
00000130: f085 a73e 05d3 0bbd f1b8 f0bc 9bf2 a4be
00000140: c08e 6c3e 20ff 33be 0ad3 2d3e f444 e6bd
00000150: 172c 7a3d 949e 04be d055 84be 7140 dabd
00000160: e803 2cbe 72e8 cdbb 4f43 c53e b70f 0bbe
00000170: 9399 0bbe b5a3 6a3e 235d 8b3e a960 3cbe
00000180: 776b 793e 3d5b b13d 9985 f5be 34aa abbe
00000190: 5706 d7be 61a3 cb3e 3178 243e e538 d5be
000001a0: 4bf9 433f a989 23be e34a c4bc e52c 12bf
000001b0: 2223 62bd eaf1 95bd 42e8 1e3f c8c0 eebe
000001c0: 01f7 3d3d d68b b93e 85e8 8dbd 9c50 25bf
000001d0: 7a11 95bf cf46 5b3d 7deb 463f 0ddc 8b3e
000001e0: d082 fa3d 542f be3e 7524 a0bd ce97 483e
000001f0: 1c7c 983e 6bee 433e a685 c7bc a8f8 81be
00000200: e357 2abe b7a6 adbd 8bba 82bf 694e b2be
00000210: 9b36 6cbe e153 b53d 1c6c ae3e 7b81 0c3d
00000220: a5e6 043f faf5 fa3e 70ef b9be 494e 4bbe
00000230: 68bf 133d aeb8 23bc 253e f0bd 0297 ddbc
00000240: 7cff 753e 28ca aabd c090 2e3d 1e84 31bf
00000250: ff66 aebc fcab 20be 8633 253e cf2b 073d
00000260: b106 993e b3dd 67bd 8cd5 0b3c 3ca4 dc3c
00000270: ac30 b83c 60eb fabe 598f 87bc cffe 273d
00000280: 4510 0c3e c0f8 8ebe cc4a 113f 1dec 143d
00000290: 5b80 033e 8532 1bbf ab84 ffbc 7537 f83d
000002a0: 53eb 523f 75fd 10bc a99d b73d a9cb 01be
000002b0: e9d0 4cbf b377 243e e222 39be f9ec 41bf
000002c0: 2afb 9abd 552b bd3e a507 9bbd 1e26 4ebe
000002d0: 6c0d f53d d081 00be b2f6 a93c 04e9 1ebe
000002e0: 4429 00bf b70a 8dbe 4e5a 083d e54d 05bf
000002f0: 650d 393e 5a34 bf3d 2ded e73e 4f25 45bb
00000300: 1c41 343e 7603 293e 6f7f e3bd 47f0 f1bc
00000310: 8009 1cbe 1647 9fbe a51b 143e a1c9 9ebd
00000320: 6c01 123e 208c 743e aa00 33bd 673f cbbe
00000330: d3bf bb3a 0f71 79be 2e6f 883d 4954 24be
00000340: 0978 bd3e 8c6e 6cbc e33b 87bf 7609 ccbe
00000350: d6d3 4b3e 99d1 b8bc 21b2 fb3e 5275 dc3d
00000360: cbf3 2bbd 7633 fd3d 7acf 2fbe 2179 483f
00000370: 8fb8 bfbe fc7f c7bd e2d4 113d 3ae2 a1bd
00000380: b7d8 133e 9d08 a6be ad6c d73c 0531 afbd
00000390: 4354 aebe daa4 893e e58f c0be 538c 483f
000003a0: f926 7c3d 8008 0fbf f606 583f 7cf2 a53e
000003b0: 607c 0a3e ed7c cdbe 02b7 afbd 3646 82be
000003c0: ee56 ec3c fd53 79bf b7f5 623e 1b85 923d
000003d0: 519c d63d b423 683e c7fb 2bbe 0b64 51be
000003e0: 8ebe 923c 6093 b6be 1881 6e39 524e 9b3e
000003f0: 121e 35bf 7f03 08bc 3b89 82bc e5bc 33be
0.24999744 0.7531528 -0.17621534 -0.9982609 -0.81792784 -0.27595407 0.026837813 0.18348417
-0.81904876 -0.40665653 -0.30808356 0.41416332 -0.03048569 -0.6998596 -0.26106513 1.0732186
-0.21491556 -0.15431309 0.15085962 -0.44102576 0.0071777767 -0.4758202 0.20151524 0.39824152
-0.06943929 0.43247974 0.056508176 -0.1330523 -0.6032704 0.4667893 0.103561774 0.32246634
-0.13446607 0.50888354 0.54447347 0.067152545 -0.04467768 -0.19063577 -0.27763453 -0.14905733
0.08882217 -0.5041893 0.17060483 -0.30089328 -0.07281117 0.24892466 0.36822993 0.08415961
-0.29254293 0.19580698 -0.5498387 0.11310395 0.14576331 -0.1056237 -0.20917714 -0.28945842
0.2463534 -0.6148708 -0.5691114 0.12929162 -0.068440296 0.037171017 -0.46064067 -0.32548887
-0.032080762 -0.22544932 -0.2808077 0.06737594 0.42890462 -0.20018834 -0.5955682 0.37338597
0.45916012 0.10019748 1.0232142 0.03905396 0.32719374 -0.03413679 -0.029385062 -0.32216343
0.2310133 -0.17577791 0.16975036 -0.112436205 0.061077204 -0.12951118 -0.2584672 -0.106568225
-0.16798365 -0.006283813 0.38527915 -0.13580213 -0.13632803 0.22914012 0.27219495 -0.18396248
0.24357401 0.086599804 -0.4795349 -0.33528292 -0.41997024 0.39773086 0.16061474 -0.4164497
0.76552266 -0.15970482 -0.02396149 -0.57099754 -0.055209287 -0.07321532 0.6207315 -0.46631455
0.04637814 0.362395 -0.06929115 -0.64576125 -1.1645958 0.053534325 0.77703077 0.27316323
0.12231982 0.37145483 -0.078194536 0.19589159 0.29782188 0.19133918 -0.02435572 -0.25385022
-0.16635089 -0.08479064 -1.0213178 -0.34825447 -0.23067705 0.08853889 0.34066856 0.03430317
0.51914436 0.4901579 -0.3631549 -0.19854082 0.03607121 -0.009992762 -0.11730603 -0.027049545
0.24023241 -0.083393395 0.042618513 -0.6934222 -0.021289347 -0.15690607 0.16132936 0.033000764
0.29887918 -0.056607913 0.0085348 0.026933782 0.022484146 -0.49007702 -0.016547846 0.04101449
0.13678081 -0.27924156 0.56754756 0.036357988 0.12841932 -0.6062396 -0.03119119 0.121199526
0.82390326 -0.008849491 0.08965618 -0.12675346 -0.8000627 0.16061287 -0.18079713 -0.75752217
-0.07567437 0.36947122 -0.075698175 -0.20131728 0.11965451 -0.1254952 0.020747516 -0.15518576
-0.50062966 -0.27547237 0.033289246 -0.5207198 0.18071516 0.09336157 0.45298138 -0.0030082052
0.17602962 0.16505226 -0.111082904 -0.029533518 -0.15237999 -0.31108922 0.1446367 -0.077533014
0.14258355 0.23881578 -0.043701805 -0.3969681 0.0014324136 -0.24359535 0.06661831 -0.16047777
0.37005642 -0.014430653 -1.0565151 -0.39850968 0.19905028 -0.022560881 0.4915934 0.107645646
-0.041980546 0.12363331 -0.1716899 0.7830983 -0.37445495 -0.09741208 0.03560341 -0.079044774
0.14438139 -0.32428446 0.026296938 -0.085542716 -0.34048662 0.26883584 -0.37609783 0.7833912
0.061560605 -0.55872345 0.8438562 0.32411563 0.13524008 -0.40134373 -0.08579828 -0.25444192
0.028850045 -0.9739378 0.22164045 0.07154294 0.10479034 0.2266987 -0.16795264 -0.2044832
0.01791313 -0.35659313 0.0002274554 0.3033319 -0.7074901 -0.008301615 -0.015934577 -0.17552526

bias f4 [8]
00000000: 0b3c a03d 6c40 94bd da4c e53d 710e eabb
00000010: 20ae 01be 1d5e 6d3e d2ff 39be c792 b73e
0.07823952 -0.0723885 0.11196299 -0.007142835 -0.1266408 0.23180433 -0.18163994 0.3585417

weight f4 [8, 115]
00000000: f2b5 d8bd c5c4 953e 0e24 98bd a5a1 173e
00000010: b585 4a3e 8432 0fbd b933 723b 1f70 1fbc
00000020: 3ea9 babc e809 ed3c ed2d 443d b989 ffbd
00000030: 5222 8abd 9bf0 9a3e 54e9 123d 94b7 693e
00000040: b159 283e 610b b73d 13cb 073c a9d3 9dbd
00000050: ea1c b33d dcb8 883e 595b 913b b23d 0fbd
00000060: 5ab5 58bc d377 c93d 8d47 efbb 64a1 093d
00000070: 0682 ba3d c44e e33c 6dab 673c f0d8 763d
00000080: 1209 88bc 1f5c ff3d 340a b23c 5685 713b
00000090: d5cf ad3d 9f49 e93c e025 9a3d 6552 193e
000000a0: eeb0 09bd bd29 b1bc 94b5 e6bc 37ee 85bb
000000b0: 00a1 8dbc 96cb 023c e232 453d 50cc 703c
000000c0: 2bb4 153d 209c 183d 8a5d 463e 4587 36b9
000000d0: 3350 823c 04d9 023d 1154 00bd 4ef0 9d3d
000000e0: 1461 d63d 9631 323c 10bf dd3d c629 b4bc
000000f0: b64d d53d 9cae 153d 06bd fa3c 4616 2bbd
00000100: 8561 7b3b 0dc7 35bd cd92 3fbd a17a 53bc
00000110: 0309 a93d 5bda 163e c744 453e 42d4 4b3e
00000120: b2e3 7b3d 6e8d dbbb 07c5 1b3e 702e 7d3b
00000130: 10a4 ca3d 4e55 343e 8ef0 6b3c 8689 aa3c
00000140: a73c 893d a87b 81bd f385 573d ec6b 38bd
00000150: 94ab 06bd e3db b2bc fca8 9ebd 8ba3 183d
00000160: 1c6e 1f3d 6901 403c 2672 413d 7bca 36bd
00000170: 45b6 353c a167 073e ea41 603d 95c3 ba3d
00000180: 69ab 213d 9f42 9cbc 4134 383d c6e9 81bc
00000190: 1d52 1d3e e04e 85bd 35bf 10be 8130 db3d
000001a0: 7414 5c3e ef7d 68bd fde7 dd3c 6364 d93d
000001b0: b04d a6bd 0b01 52bc d2f9 953c 67e4 843d
000001c0: bcea c23d a79b 933e 3e04 45ba 0e6b 8f3c
000001d0: 8d34 913e 71d9 90bd 97fa 183e a32e 113e
000001e0: 5165 553d 3368 643c 9587 e53c e7b0 dbbc
000001f0: 3cc5 2f3b e639 15bd 3cb8 043d eb27 78bd
00000200: 4ada 9d3e feb9 85bc 9544 973e c7d1 ef3d
00000210: b6a4 1e3d ca47 0bbd 1728 113e 1de9 d63d
00000220: 32bc 6c3e fbeb d93d f695 a53d 6ac4 393d
00000230: bafc fe3d b928 26bb 505b 033c 39d2 abbc
00000240: 2d2d d93d aab5 e83c 16eb 9fbc a62f a53d
00000250: 22dd 953e 3e13 4d3c 8c41 37bd b900 613d
00000260: 2ce1 9c3b 34a1 6abc ec9e ac3d ff60 6b3b
00000270: 7116 683c 223c 20bd e53c 55bd 5b84 003d
00000280: dfd8 8fbc 266e 3d3d 9c48 713d e3a7 35bc
00000290: 3af5 573d a136 2a3e 6b14 ea3c 232c 10bc
000002a0: b63e 7b3e f309 3a3d da39 8d3d 2375 9d3d
000002b0: 2872 1b3e f5ca 173c c7b8 b43c 38cc 163e
000002c0: 2233 173d d5c6 e2bd 87fa 0dbd 2c77 e63c
000002d0: 8f6e bcbc aadd 21bc c65f 38bc b1b9 573d
000002e0: eeef 023e 1733 d03d 20c4 cabc 1123 a53d
000002f0: 9f39 06bd 6786 783d 797d 20bd 0479 4a3d
00000300: d85d 513d cc66 8e3c 458a 7c3c bcb8 1b3e
00000310: bcd4 9fbc 5f3b d73d 006a 7dbc e75a 91ba
00000320: 02f8 33bd 9fde 6d3c 8399 973c 4519 573b
00000330: 7230 9c3b bd2f 8e3d 8583 78bd 5bdb 233d
00000340: 6281 e93d e500 ff3b 378f 9a3e 8942 393a
00000350: c9da 53bd 3977 a0bc b1ec cd3c 3dd6 753e
00000360: f9aa a5bd 0836 aebd 5cc6 503d 25ec 933e
00000370: 8c57 64bc 9e90 883c e4ee df3b c5a9 3abd
00000380: 561f 1fbc 441d 383d c018 81ba 5571 30bd
00000390: 7b34 5e3e aba0 1c3e ee1b 1fbb bb53 463e
000003a0: 92fd 8cbd 7948 1d3d c3a4 be3e 1868 4abb
000003b0: 4333 dc3d ff11 de3d 8135 ecbb 36aa 59bc
000003c0: 6a5c b53c a08e 9b3e 92c4 c7bc 48be 683e
000003d0: ce9f a8bc 9e59 693d 4857 d23d cfcf 83bc
000003e0: 4114 f23c 9a8a c83d da7c 033d 3721 653e
000003f0: 18eb c13d 99e5 cd3a e072 a9bb f15f 483c
-0.10581578 0.29251686 -0.07428752 0.14807756 0.19777568 -0.034960285 0.0036957099 -0.009731322
-0.02278578 0.028935388 0.04789536 -0.124774404 -0.06744827 0.30261692 0.03586705 0.22823936
0.16440465 0.08937717 0.008288163 -0.077063866 0.08745749 0.26703537 0.0044359383 -0.034970947
-0.013226831 0.09837308 -0.0073022307 0.03360118 0.09106831 0.02774752 0.014139992 0.06026548
-0.016605888 0.124687426 0.02173338 0.0036853156 0.084869064 0.028477488 0.07526755 0.14972837
-0.033616 -0.021626348 -0.028162755 -0.0040872353 -0.017288685 0.007983109 0.04814423 0.014697149
0.036548775 0.037258267 0.1937162 -0.00017407264 0.015907383 0.031945243 -0.031330172 0.0771185
0.10467735 0.01087608 0.10827458 -0.021992575 0.10415213 0.036543474 0.030607712 -0.04176929
0.0038357687 -0.044379283 -0.04677086 -0.012907655 0.08253672 0.14731734 0.19264518 0.19905189
0.061496444 -0.0067002093 0.15211879 0.0038632415 0.09894574 0.17610666 0.014400614 0.02081753
0.06701022 -0.06322414 0.05261798 -0.045024797 -0.032878473 -0.021833366 -0.07747075 0.03726534
0.038923368 0.011719086 0.047228 -0.044626694 0.01109082 0.13223125 0.05475036 0.091193356
0.03947011 -0.019074736 0.04497171 -0.015858542 0.15363355 -0.06509185 -0.1413544 0.10702611
0.21492177 -0.056760725 0.02708816 0.1061485 -0.081202865 -0.0128176315 0.0183076 0.06488877
0.09517428 0.2882969 -0.0007515586 0.017507102 0.28360406 -0.07072724 0.14939342 0.14177947
0.052098576 0.013940859 0.028018752 -0.026817752 0.0026820442 -0.03643217 0.032402262 -0.060584944
0.30830604 -0.01632404 0.2954451 0.11709934 0.0387313 -0.03400401 0.1417545 0.104936816
0.23118666 0.10640713 0.080852434 0.04535333 0.124505475 -0.0025353862 0.008017376 -0.020974265
0.1060432 0.028406937 -0.019521277 0.08065729 0.29270273 0.012516795 -0.044740245 0.05493233
0.0047875848 -0.01432066 0.084287494 0.0035915968 0.014165507 -0.039119847 -0.052060027 0.031376224
-0.017559467 0.046247624 0.058907136 -0.011087391 0.0527241 0.16622402 0.02857419 -0.0087995855
0.24535641 0.045419645 0.068958 0.07688358 0.15180266 0.009264697 0.022060765 0.14726341
0.036914 -0.110730805 -0.03466275 0.028132997 -0.023001937 -0.009879509 -0.011253303 0.052667323
0.12786838 0.101659946 -0.024751723 0.08063329 -0.032769796 0.06067505 -0.03918216 0.049431816
0.051114887 0.017383002 0.015413825 0.1520719 -0.01951062 0.10509371 -0.015467167 -0.0011089713
-0.04393769 0.014518409 0.018505817 0.0032821458 0.0047665173 0.06942699 -0.0606723 0.040004116
0.11401631 0.007782089 0.3018739 0.00070671045 -0.05172232 -0.0195881 0.025137277 0.24007507
-0.08089251 -0.085063994 0.05097042 0.288911 -0.013936888 0.016670521 0.006833898 -0.04557206
-0.009712061 0.044949785 -0.0009849295 -0.04307683 0.21699707 0.15295665 -0.0024278122 0.19367878
-0.06884302 0.038399193 0.37235078 -0.0030884799 0.10751965 0.10843276 -0.0072085266 -0.01328521
0.022138793 0.30382252 -0.024385724 0.22728837 -0.020584013 0.05697023 0.10270554 -0.016090302
0.029550673 0.09792061 0.03210149 0.22375952 0.09468669 0.0015708684 -0.005171165 0.012229905

bias f4 [8]
00000000: 0c34 56be 3745 85be 4cdf 55be 1986 28be
00000010: 391c 84be 7f04 6bbe 2c48 57be aa55 33be
-0.20918292 -0.2602937 -0.20885962 -0.16457404 -0.25802782 -0.22950934 -0.21023625 -0.17513147
