SAC-cleanrl/models/pruning/SAC-Ant-v4-0.15-l2.onnx (onnx, 228870 bytes, 8 tensors)

fc1.weight f4 [217, 27]
000000 fc ec 46 be 40 32 ce be 96 b9 ae be 2a f8 96 3f
       -0.1942634 -0.40272713 -0.34125966 1.1794484
000010 0f 47 30 bf 04 17 56 3f 6c 25 50 be 00 e4 81 3f
       -0.68858427 0.8362887 -0.20326775 1.0147705
000020 e0 53 2e 3e 0a 83 0e 3e 5f 48 61 3e cf 80 e3 3e
       0.17024183 0.13917175 0.22000264 0.4443421
000030 47 bd 3f 3e b1 a2 98 be eb 5a ed 3e 9e 33 09 3f
       0.18724547 -0.29811624 0.46358427 0.53594387
000040 00 79 43 be 6d 2d c1 3e 23 35 91 3e 05 f3 0f 3e
       -0.19089127 0.3772997 0.28360853 0.14057548
000050 00 9b 00 3d ff 65 8f 3d dd c9 7d 3c 53 6d 52 bc
       0.03139782 0.07001876 0.0154900225 -0.012843448
000060 ed 71 0c bc d8 38 d9 3d 83 df 9d bc 7b ad 40 40
       -0.008572084 0.10606545 -0.019271618 3.0105884
000070 6d 6a b0 be 01 16 66 c0 ca b7 01 c0 7a a7 ee bd
       -0.34456196 -3.595093 -2.0268426 -0.11653037
000080 ff 12 e7 3b 24 59 ce 3b 75 07 d7 be 10 ec 92 3e
       0.007051825 0.0062972475 -0.41997877 0.28695726
000090 73 e8 b1 3d bc d7 2c bb 6f 5d 75 3e 05 ac 1b bf
       0.08686914 -0.0026373705 0.23961423 -0.60809356
0000a0 62 cb b7 3c 6f 47 1c 3c a7 0b 77 3e 42 05 f2 bc
       0.022435848 0.0095385155 0.24125539 -0.029543523
0000b0 21 3f d5 bd c4 5c 56 bd 54 d6 d1 bb df d8 d2 bb
       -0.104124315 -0.052334562 -0.0064037237 -0.0064345445
0000c0 55 63 71 bd ed 3e 5e 3c b8 d6 ab 3b ef 8d ae bc
       -0.05893262 0.013564807 0.0052441023 -0.021307914
0000d0 36 da 08 bc 73 5c f8 bc 1f 69 10 3e 92 59 e5 3f
       -0.008352807 -0.03031752 0.141026 1.791796
0000e0 da 55 82 3f 7b e3 da bc 19 77 6e 3f 67 05 f6 bd
       1.018245 -0.0267198 0.9315048 -0.12012749
0000f0 0b 71 82 bc d4 67 21 3f 16 f3 2b 3e 85 f0 e2 bd
       -0.015923044 0.63049054 0.16791949 -0.11081032
000100 00 28 20 3d 9f 49 a2 3f e4 12 39 be cd de 95 be
       0.039100647 1.2678717 -0.18073612 -0.29271546
000110 4e cc 57 bd f0 f7 51 3d 97 ff 6d 3e 76 c2 d2 bc
       -0.052685075 0.051261842 0.23242031 -0.025727492
000120 19 c3 8e bb 35 1c 5e bd ee 95 8a bc 1f 3c be bc
       -0.0043567535 -0.05422612 -0.016917195 -0.023222027
000130 47 dd 1c 3c 2e 6d ca bc 06 71 01 3d 22 16 cb 3c
       0.009574241 -0.024710264 0.03160193 0.024790827
000140 e3 75 5d bd c6 bd 24 be 36 29 c7 3d c0 7a 97 be
       -0.054067504 -0.16088018 0.09724657 -0.29585838
000150 54 5f e2 bf 9e f7 10 bf 50 c3 48 bf dd 50 17 3f
       -1.7685342 -0.56627834 -0.78423023 0.5910776
000160 f3 14 1f bf b4 03 0b 3f 4c c2 3c bf 0a 1e 47 be
       -0.6214134 0.54302526 -0.73733974 -0.19445053
000170 6d a5 ac bd f7 38 2f 3d 91 d2 2d bf 76 b0 b6 bd
       -0.0842999 0.042778935 -0.67899424 -0.08920376
000180 00 e0 7c 3e e6 4d 24 bd fb 81 c0 bc 1d d3 35 bd
       0.24694824 -0.040113352 -0.02349948 -0.044390786
000190 f0 a7 34 3d b0 b1 a0 bd a5 d1 b8 bd cb f7 c0 bc
       0.04410547 -0.07846391 -0.090243615 -0.023555657
0001a0 35 ea db bc a7 6c 87 3b 0e f3 a3 bc c7 12 d7 3d
       -0.026845077 0.0041328254 -0.020013358 0.10501628
0001b0 4f a9 3d bf 1f 63 c2 be 3a 73 b1 3f 9d 15 86 3e
       -0.7408647 -0.37966248 1.3863289 0.26188365
0001c0 75 d5 33 c0 b2 4c f9 be ef 05 16 be 1c ce 82 bc
       -2.8099034 -0.48691326 -0.14650701 -0.015967421
0001d0 66 7f 10 3f 0b c7 06 3d fe 4e bd 3e 0e 41 aa 3d
       0.56444395 0.032904666 0.3697433 0.083131894
0001e0 f0 42 1a 3e a0 5d c2 3d fd 3e a1 3d 3b d2 9a 3e
       0.15064597 0.09490514 0.07873342 0.30238518
0001f0 57 56 3a 3d 17 ac 50 3e 40 d8 06 bf 3b e0 30 bd
       0.045492496 0.20378147 -0.5267372 -0.043182593
000200 0e a8 71 3b 1c 65 39 bd 0c 2c aa 3c 8b 7d 62 bd
       0.003687385 -0.04526244 0.020772956 -0.05529551
000210 cf 64 34 3d fc dc 9d bd 27 3a 69 3c a6 c5 67 bf
       0.04404145 -0.07708165 0.014235056 -0.9053596
000220 91 51 54 3f 28 64 72 bf 66 ec 47 40 e0 a7 79 be
       0.8293696 -0.94684076 3.1238036 -0.24380445
000230 86 c6 e0 3e 2b 50 f9 bc ad 52 2c bd 15 a8 c2 3e
       0.4390146 -0.030433735 -0.042071033 0.3801886
000240 fd 2f 83 3e 74 0a 01 3e 2e 4a 9a be 65 62 2c 3d
       0.2562255 0.12601644 -0.3013472 0.042086024
000250 64 3a 05 bc 7d d5 a5 3b f8 e2 09 bb 6b 06 d2 be
       -0.008131597 0.00506085 -0.0021039825 -0.41020522
000260 ab 7f a5 3e 2b 54 b9 bd 21 cb ab bb 82 20 44 3d
       0.32323965 -0.09049257 -0.0052427207 0.047882564
000270 6f 12 50 3c 96 0d 12 3c 69 a6 a5 3c 8c a4 3c 3d
       0.012699707 0.008914372 0.020220952 0.04605536
000280 01 20 11 bd 28 22 be bb f6 c7 ca bf 56 a0 8c be
       -0.035430912 -0.0058024116 -1.5842273 -0.27466077
000290 ce 72 3d 40 6b 55 6e 3f 57 de 44 bf 7b ec 7c 3e
       2.9601321 0.9309909 -0.76901764 0.24699585
0002a0 0e c8 c4 bd 32 49 a3 bc 83 69 b7 be 51 c3 5b be
       -0.0960847 -0.019932363 -0.35822687 -0.21461226
0002b0 be 0e b4 3e ea f1 e1 3e 66 15 81 3e 46 2b e9 bd
       0.35167497 0.44129878 0.25211638 -0.11385207
0002c0 8e 37 8d 3b 8e 0a e2 be 87 7f a3 3e 1e f9 af 3e
       0.004309601 -0.44148678 0.31933233 0.3436975
0002d0 89 db fe bd d1 35 4b bd 4d a0 1f 3c d2 a0 5d 3c
       -0.12444217 -0.04961187 0.0097428085 0.013527112
0002e0 c3 01 a5 bc 18 bd d5 3b 48 2f 88 bd 0a f6 ce bd
       -0.020142442 0.006522786 -0.06649643 -0.10105522
0002f0 1b e3 01 3e ca b0 f3 3e 66 33 92 3e da 87 e6 bf
       0.1268429 0.47595817 0.2855484 -1.8010209
000300 36 7a 13 3f c4 8e 00 bf 13 52 c4 3e 1a 32 a3 be
       0.57608354 -0.50217843 0.38343868 -0.31874162
000310 72 66 94 be 1a fc c5 3e 0c a8 20 3e 46 ea 5f 3e
       -0.2898441 0.386689 0.15689105 0.21866712
000320 aa e3 ec be 81 8e 0f bf 0c 86 ce 3c 8c 19 97 be
       -0.46267444 -0.5607682 0.025210403 -0.29511678
000330 88 32 03 be fc 35 28 3d 4e 84 52 3e 1e 4a 76 be
       -0.12812245 0.04106711 0.20558283 -0.24051711
000340 24 2f fe 3c 18 78 cc ba 22 37 b4 3d 5b ae 3a bc
       0.031028338 -0.0015599756 0.08799578 -0.011394109
000350 5b 1b bb bc 9a b1 82 3d 9d 3f 8f bd eb f8 5f bc
       -0.022840193 0.06381531 -0.06994555 -0.0136701865
000360 b5 e3 bf bf c9 70 12 bf 2f 8d 23 c0 41 e0 56 3d
       -1.4991366 -0.57203346 -2.5554922 0.05245996
000370 47 08 a9 bf 8b 2a 0c be ad 75 5a be 4b ed 6b 3e
       -1.3205651 -0.13688104 -0.21333952 0.23039739
000380 d9 2d 07 be 90 e9 e7 bd b8 54 19 3e d7 61 7d 3e
       -0.13201083 -0.113238454 0.14973724 0.24744354
000390 74 b3 bf be df 27 12 bd e5 67 79 3c 7d 19 b3 be
       -0.374416 -0.035682555 0.015222524 -0.34980384
0003a0 9f e5 6b be 2f 55 7e be e0 77 46 be e8 e6 b8 bd
       -0.23036812 -0.24837182 -0.19381666 -0.09028417
0003b0 81 a1 0b bc 10 ef 09 3e 20 a4 a6 bd 92 22 f2 bc
       -0.008522392 0.13470101 -0.08136773 -0.0295575
0003c0 ce be 2f bc 9e c6 38 bd 5d a1 72 3d 52 e0 d5 bd
       -0.010726644 -0.04511129 0.05923592 -0.10443176
0003d0 66 97 83 c0 35 44 b0 3e 1a 8b 3b c0 22 a0 34 3f
       -4.1122313 0.34427038 -2.930365 0.70556843
0003e0 e9 cd c8 be 95 52 15 bc 04 27 01 be 5a 6c a3 3e
       -0.39219597 -0.009113927 -0.1261254 0.31918603
0003f0 14 f6 15 be ce 93 bd be 8e 0f 58 be 88 a7 be 3e
       -0.14644653 -0.3702683 -0.21099684 0.3723719

fc1.bias f4 [217]
000000 05 ee 1b bd bb b3 81 bf 26 6a 48 bf e6 88 0a bd
       -0.03806879 -1.0132974 -0.7828697 -0.033821963
000010 c3 6d 09 bf 57 67 be bc f9 b9 ab 3d 7b e1 48 bf
       -0.5368311 -0.023242636 0.08385081 -0.78469056
000020 a6 83 71 3e 41 43 42 3f ba 30 9c 3d c6 20 71 3e
       0.23585376 0.7588387 0.07626481 0.23547658
000030 b1 be 73 3f 08 01 85 3c da a0 74 3c 43 5e b6 bd
       0.95212847 0.016235843 0.014930928 -0.08904698
000040 60 8f 94 bd 94 df 36 bf 6f eb 35 be 93 eb aa 3d
       -0.07253909 -0.71434903 -0.17765592 0.083457135
000050 06 10 83 be ab ac 2d be ed 2c 59 bf 54 b3 19 3f
       -0.25598162 -0.16960399 -0.84834176 0.6003926
000060 7a d3 ad be bc 53 00 bf 84 0a ea 3c 32 6e 10 3e
       -0.33950406 -0.5012777 0.028569467 0.14104536
000070 bc b5 9a be 9b 3c 20 bf 77 5c 8e bf 0a a3 39 bf
       -0.30216777 -0.62592477 -1.1121968 -0.725144
000080 eb 0c 33 be 6e c8 28 bf cc 6e ee 3c 9a 73 3f bf
       -0.17485397 -0.6593083 0.029105566 -0.7478577
000090 64 28 13 bf 2b dd 35 be a6 f0 9e bf 93 cd 2b bf
       -0.57483506 -0.1776015 -1.241719 -0.67110556
0000a0 5c 04 06 be 4a d5 2d 3e c2 a2 9f be 70 64 b2 bd
       -0.130876 0.16975895 -0.31178862 -0.08710563
0000b0 2c cd 29 be 8e 8b 89 bd b7 2f 06 bf 5e fa d7 3d
       -0.16582173 -0.06716071 -0.5241656 0.105458006
0000c0 76 4a 3e be 43 d3 9e 3e 84 f6 d7 be 10 53 1f bf
       -0.18583092 0.31020555 -0.42180264 -0.6223612
0000d0 31 b8 14 bf 3e ba b6 3d 9b ba 04 3d 79 d4 fc be
       -0.58093554 0.08922242 0.032404523 -0.49380854
0000e0 34 10 87 be aa bd c3 be 98 1a 8f 3e 1d 32 5a bf
       -0.2637955 -0.3823064 0.27949977 -0.85232717
0000f0 0e 42 e6 3d 54 94 eb be 60 57 88 be 5a 05 0c bf
       0.11243068 -0.46011603 -0.26629162 -0.54695666
000100 1a c6 57 3e cd fd 3d bf 76 5b 6a be 77 da 39 bf
       0.21071663 -0.74215394 -0.22886452 -0.72598976
000110 4b 38 50 bf 60 46 15 ba c9 a7 93 be 29 06 bf be
       -0.81335896 -0.00056943856 -0.28838947 -0.37309387
000120 2f 41 d6 be e7 b7 b9 be 92 f6 47 bf b6 75 15 bf
       -0.41846606 -0.3627312 -0.7811061 -0.5838274
000130 36 59 64 3d ee fe 06 bf d3 0b 28 3e 04 f5 88 3e
       0.05574914 -0.5273274 0.1641076 0.26749432
000140 fe a6 02 bf ca f9 50 bf 08 ab 3f bf c4 cf 63 be
       -0.5103606 -0.8163115 -0.7487035 -0.22247225
000150 7d 2b 0f bf 63 af fa be 9d 37 83 3c fd 6c eb bd
       -0.5592573 -0.48961934 0.01601773 -0.11495397
000160 b0 a0 ed 3d 4f 56 27 bf 7d cf 30 3f f2 1a 3c 3d
       0.11602914 -0.6536607 0.690666 0.045924135
000170 2e 37 1d bf 31 5b 40 bf ce ef 13 3e b3 36 b8 bd
       -0.6141232 -0.7513915 0.14446947 -0.08994808
000180 b2 49 0a bf a5 66 51 3e 57 c1 7f bf 09 bc c1 be
       -0.540187 0.20449312 -0.9990439 -0.37838772
000190 34 cd af 3e 6b d6 ae be 28 f2 73 3f 7c 1d f8 be
       0.34336245 -0.34147963 0.95291376 -0.48459995
0001a0 f1 17 e2 3c 5b 69 0b 3f 6a f7 c8 3e 69 00 7d 3e
       0.027599307 0.54457635 0.39251262 0.24707188
0001b0 f0 48 4b 3d 9f f9 19 be 2b f4 4a bf f5 e2 a7 3e
       0.049630105 -0.15036629 -0.7927882 0.32790342
0001c0 a2 42 03 be cf 0b 82 be 43 17 b9 bd 35 a6 aa 3e
       -0.12818387 -0.25399634 -0.0903764 0.3332993
0001d0 b8 89 f3 be 69 c4 04 3e 4c ac 5c bf 02 af a9 be
       -0.4756601 0.1296555 -0.86200404 -0.33141333
0001e0 c3 b5 cc 3d fa 43 8a bf 98 d3 a7 3e aa 48 97 be
       0.09995606 -1.0801995 0.3277862 -0.29547626
0001f0 e4 65 15 bf a9 3c f9 be f8 51 20 bf 81 db 13 be
       -0.583586 -0.48679093 -0.62625074 -0.14439203
000200 74 0e 17 bf f4 5a 9a bf 79 36 77 3e 36 17 3b bf
       -0.5900643 -1.2059007 0.24141873 -0.7308229
000210 a2 78 95 be 82 e5 3e be fb aa 37 be b3 ac 63 bf
       -0.29193598 -0.18642238 -0.17936318 -0.88935393
000220 bc 9f 44 be 7b 66 55 be 56 1a 92 3d 82 a9 5d 3e
       -0.19201559 -0.20839874 0.071339294 0.21646693
000230 60 d5 1a bf 08 7c 86 bf a7 30 79 be 37 65 f7 3e
       -0.60481834 -1.0506601 -0.24334966 0.48319408
000240 a8 be 0a 3e df 08 fb be c4 21 07 3e 96 c8 51 bf
       0.13549292 -0.49030206 0.13196474 -0.81946695
000250 18 74 d4 be 19 99 21 bf 51 81 51 bd 36 6d 34 be
       -0.41494823 -0.63124233 -0.051148716 -0.17619786
000260 a7 40 69 bf 89 93 53 bf ca b3 17 be 14 de 73 be
       -0.91114277 -0.82646996 -0.14814678 -0.23815185
000270 51 3e e3 be 1e 2a ba 3d a0 66 8f bf dc d6 b6 be
       -0.4438348 0.090900645 -1.1203194 -0.357108
000280 d0 85 eb 3e a9 4a 37 bf f0 10 33 bf ad 5c 7b be
       0.46000528 -0.715983 -0.6994772 -0.24547072
000290 03 04 05 bf 7f 6e 4e be ab 64 d9 3d d0 c5 8b be
       -0.51959246 -0.20159338 0.10614904 -0.27299356
0002a0 ef c5 e2 be bb 5a fa bd f6 db 11 3f 9f 47 f3 be
       -0.44291636 -0.12224337 0.5697626 -0.4751558
0002b0 e3 cc 26 3e 8e 5c 07 bf f8 32 db bd a1 65 3d bf
       0.16289096 -0.528756 -0.10703081 -0.739832
0002c0 e8 ed c2 bd b3 60 1d 3f 44 6e 25 be 9e 91 c4 be
       -0.09518033 0.61475676 -0.16155344 -0.38392347
0002d0 ad ce e3 bd 1e f2 d8 3d 44 9e 89 3e 0e f1 ec be
       -0.11123405 0.10593055 0.2687856 -0.4627766
0002e0 2a 46 37 bf c2 fb 23 bf b7 b5 bc be 3c 49 0a bf
       -0.71591437 -0.64056027 -0.36857387 -0.54017997
0002f0 82 13 52 bf 18 10 f5 be 8e c4 b4 3e 86 7a 88 bf
       -0.82061017 -0.4786384 0.3530621 -1.0662391
000300 a0 14 72 bf 0c f5 73 bf 0b 89 02 3d 30 4b 49 3d
       -0.9456272 -0.95295787 0.031868976 0.04914397
000310 63 6f 72 bf bd 07 85 be e1 93 26 be 63 ed 01 bf
       -0.9470121 -0.25982466 -0.16267349 -0.5075285
000320 7b f5 81 bf 6e d5 a5 3d 63 5f 27 bf ed e9 0a be
       -1.015304 0.08097349 -0.65379924 -0.13565798
000330 9e 55 a7 be 58 44 a0 be aa c0 4f 3f eb b5 da be
       -0.32682508 -0.31302142 0.8115336 -0.42716917
000340 b6 3e 16 3d a6 a8 73 be 2c 08 ea 3b 9b ca 01 bf
       0.0366809 -0.23794803 0.0071420874 -0.50699776
000350 dd e4 9d 3d 84 75 c0 3d ae b7 4e be 46 e4 6d bd
       0.07709668 0.09397414 -0.20187256 -0.058079027
000360 97 ac 84 3c
       0.016195579

fc2.weight f4 [217, 217]
000000 4a 7e 10 be bd a3 a8 be 90 05 0e 3f aa 6c 6a 3e
       -0.14110675 -0.32937422 0.5547724 0.22893015
000010 d2 cf 9a 3e 04 26 17 bf e2 e6 a1 3d 83 9c 9d be
       0.3023668 -0.5904238 0.079053655 -0.3078347
000020 9f 40 1f bf ec ae 5b be 30 06 5e 3e a5 7f 2c bd
       -0.6220798 -0.21453446 0.21682048 -0.04211392
000030 ba b5 24 bf b9 6e c3 3c 17 32 eb bc 45 84 b5 be
       -0.6433979 0.023856508 -0.028710408 -0.35452476
000040 fa 8a 28 3e 82 b7 d9 bd 76 64 97 be d9 88 cc bc
       0.16459265 -0.106307045 -0.29568833 -0.024967598
000050 06 f0 9f 3e 96 19 b1 3e 21 f9 fe be 90 7b 81 bf
       0.3123781 0.34589833 -0.49799445 -1.0115833
000060 70 1a 38 be eb 9c 6f be ba 5a 0e bf 43 c4 e1 be
       -0.17978835 -0.23399703 -0.5560719 -0.44095048
000070 80 a9 24 bf 78 db 53 bf f4 00 12 3e 90 c7 e6 be
       -0.64321136 -0.8275676 0.14258176 -0.4507413
000080 87 a4 f7 bd 7b 26 95 be 0b 0f 9a be 45 af 6f bf
       -0.12091928 -0.2913092 -0.30089602 -0.93626815
000090 35 b8 aa be b7 0f c9 3e f2 30 e3 bd 07 ed 78 bc
       -0.33343664 0.39269802 -0.1109332 -0.0151932305
0000a0 cf c0 eb be 9d 46 88 be 02 2b d5 be e3 6b aa bd
       -0.4604554 -0.26616374 -0.41634375 -0.08321359
0000b0 65 36 fe bd c6 11 56 be 6a ae 15 bf a2 a6 0d 3f
       -0.12412719 -0.20905218 -0.5846926 0.55332386
0000c0 5c ce 7b 3e 02 76 20 bf 90 8b 1e be 8c b9 b4 3e
       0.24590439 -0.62680066 -0.15482926 0.3529781
0000d0 0b 37 61 3d bc c5 bc be b8 71 58 bf d9 ad 95 be
       0.054984134 -0.3686961 -0.8454852 -0.29234198
0000e0 92 ce 43 be 7c f6 a5 be d6 14 5b bf 8f 15 a0 be
       -0.19121769 -0.32414615 -0.8557867 -0.31266448
0000f0 8b 6e ab be 44 8e a1 3e 03 5c ff be 24 e0 58 be
       -0.33482775 0.31553853 -0.49874887 -0.21179253
000100 41 bf e0 be 87 fc b4 bd 05 32 ec bc f6 de 9e 3e
       -0.43895915 -0.08837228 -0.028832445 0.3102948
000110 36 c9 65 be 74 30 51 be 78 9c 96 bd 7e 14 f2 bd
       -0.22440037 -0.2042864 -0.07354063 -0.11820315
000120 c3 1f 14 be 3f 86 b4 3d 2c 42 b1 3d c1 6f 1e bd
       -0.14465241 0.08814668 0.086551994 -0.038680796
000130 15 9b e8 be c5 d9 91 3d 9f 08 36 bd cf 3d 8f be
       -0.45430818 0.07121614 -0.044441815 -0.27976844
000140 6e ea 42 be 1a 70 0d be 4c d6 b9 be e7 36 8f be
       -0.1903474 -0.13812295 -0.36296308 -0.27971575
000150 1b 3f c3 be a0 b0 26 3e 91 11 2a 3f 1e ec 79 bf
       -0.38134083 0.16278315 0.66433054 -0.9762591
000160 c2 d8 36 bf f2 97 13 bf 05 67 31 be 12 59 02 3f
       -0.71424496 -0.57653725 -0.17324455 0.5091716
000170 99 04 72 3d 80 aa 76 bd fd bc 0d bf 89 9b 85 bd
       0.059086416 -0.060221195 -0.553665 -0.065238066
000180 75 2b a2 bd 6e 4b 30 bf a1 d1 e3 be 1b 79 54 bf
       -0.07918445 -0.68865097 -0.44495872 -0.8299729
000190 20 df 1e 3d 75 97 23 be 62 d4 3f bf f9 c9 42 3e
       0.038787007 -0.15975745 -0.74933445 0.19022359
0001a0 56 30 47 be ab 25 9d bf bc 83 44 be 58 ce ec be
       -0.19452032 -1.227712 -0.19190878 -0.46251178
0001b0 75 ab 11 be eb df 62 bf 15 22 6c 3e 7f 17 fd be
       -0.14225562 -0.8862292 0.23059876 -0.4943199
0001c0 72 9d 06 be da df 65 bf 38 55 1b 3e 0a 0b 0e bf
       -0.13145998 -0.89794695 0.15169227 -0.55485594
0001d0 42 26 88 be e7 85 12 be f3 9f ec be 02 c5 88 be
       -0.26591688 -0.14308892 -0.46215782 -0.26712805
0001e0 4a 03 e1 be 2f 8c 85 3e d2 7e ee 3b ff 56 8f be
       -0.43947822 0.26083514 0.0072783018 -0.2799606
0001f0 5e 57 c0 3d c0 9b cf be ce a8 00 bf 19 ad ee be
       0.09391664 -0.40548515 -0.50257576 -0.46616438
000200 d5 2f a6 bf e4 1c a9 be 79 3e 56 be 74 c3 b9 be
       -1.2983347 -0.33029854 -0.20922269 -0.3628193
000210 d3 19 4c 3d 22 56 2e 3f 60 d1 92 3e 09 26 be be
       0.049829315 0.6810018 0.28675365 -0.37138394
000220 a3 3a fd be b2 fd a8 3e b8 f1 18 be 26 06 2b bd
       -0.494588 0.33006054 -0.14935958 -0.04175391
000230 cf 79 a6 3e 46 5f 1b bf 04 60 a7 be 54 f3 c9 be
       0.32514808 -0.6069225 -0.32690442 -0.39443457
000240 ca 80 1a bf 8f 97 d7 be b5 7a 03 bf 6b 94 81 ba
       -0.60352767 -0.42107818 -0.5135911 -0.0009886151
000250 88 bf 34 bf 46 aa 2d 3f 44 f0 c8 3d 63 85 90 be
       -0.70604753 0.6783794 0.09811452 -0.28226766
000260 20 29 55 bf b2 0b 21 3e 86 20 f6 3d c7 aa cf 3e
       -0.83265877 0.15727118 0.12017922 0.4055998
000270 88 f3 10 be 6d 8c c8 be 99 56 40 be 57 b5 0c bd
       -0.141554 -0.39169636 -0.18783034 -0.034352627
000280 16 b0 44 bf 7f e1 8e 3e b9 67 69 be a4 7d 88 be
       -0.76831186 0.27906415 -0.22793473 -0.26658356
000290 85 b0 b2 3a 2f 28 6a be ec 0a f9 be 79 78 04 3e
       0.0013632929 -0.22866891 -0.48641145 0.12936582
0002a0 73 d2 fd be 02 2b c9 3c 05 a2 da 3d 3f 46 c0 3d
       -0.49574623 0.02455664 0.10675434 0.093883984
0002b0 96 4c 10 be e1 42 79 be 7d a5 b0 be 2b 22 4c bd
       -0.14091715 -0.24341919 -0.34501258 -0.049837273
0002c0 87 fd 11 be 34 85 cd bd 16 85 88 3e f0 9f b4 bd
       -0.1425687 -0.10035172 0.26664037 -0.08819568
0002d0 ea ac 38 3e 66 7d ee bd 74 ae d2 be 3f 04 77 be
       0.18034711 -0.116450116 -0.41148722 -0.24122714
0002e0 d8 3e 80 bd 40 38 85 3e ab f1 31 3d da 4b 3d be
       -0.062619865 0.26019478 0.043443363 -0.18485966
0002f0 c9 87 d7 be f5 e0 04 3f 8b 40 2e bf f8 71 fd 3d
       -0.42095783 0.5190576 -0.68067235 0.123752534
000300 a1 b2 97 bd 2b 8d 43 bd 3b 92 8b be e1 90 4b be
       -0.07407118 -0.04774205 -0.27260002 -0.19879486
000310 01 d5 8b be 8f 1c 95 be e7 d0 8f bd db 35 cf be
       -0.27310947 -0.2912335 -0.07022267 -0.40470776
000320 8a 50 de be 8f 55 02 bf 12 f2 72 3e 5b 92 ed 3d
       -0.4342082 -0.509118 0.23725155 0.11600181
000330 83 eb fe 3d ac 05 c0 be 6c fb 54 bf 82 de 60 bf
       0.12447264 -0.37504327 -0.8319614 -0.8783952
000340 65 a1 63 be 44 77 5d bd eb 94 b0 be ec 43 fd bd
       -0.22229536 -0.05406882 -0.34488615 -0.12366471
000350 49 8a 28 3d 43 71 42 bf 61 8e 37 be 48 26 8d be
       0.041147504 -0.75954074 -0.17925407 -0.2756827
000360 6f 05 7c be 56 db c5 3e 94 4a d0 be 0e ce 29 be
       -0.24611448 0.38643903 -0.406819 -0.1658251
000370 c2 55 29 3d 34 22 12 3e 0a 62 d0 bd 25 ae 3a bf
       0.04134155 0.1427086 -0.101749495 -0.72921973
000380 87 db 2f be de c3 9e bd 57 57 d2 bf fb 64 be be
       -0.17173587 -0.077522025 -1.6432904 -0.37186417
000390 94 34 0a bf 87 fd 41 bf d0 38 b2 be 87 3b b3 3e
       -0.5398648 -0.7577748 -0.3480897 0.35006353
0003a0 c1 89 93 3e 21 6d 9d bd 62 6d fb bd 51 4a 3a be
       0.28816035 -0.0768683 -0.122767225 -0.18192412
0003b0 57 f6 16 be 3e 9c ae be ae 11 82 be 3d f5 20 bf
       -0.14742409 -0.34103578 -0.25404114 -0.62874204
0003c0 f7 75 d5 3e 7a f3 b7 be a0 f2 aa be 92 98 ad 3d
       0.41691563 -0.35927945 -0.33388233 0.08476366
0003d0 78 4c e7 bd 1a 28 ec 3d 77 da ed 3d c2 e7 5c 3e
       -0.11293882 0.11531086 0.116139345 0.21572784
0003e0 f2 da 5a bd 01 0e f8 be 49 81 82 be db 37 7f bd
       -0.05343146 -0.48448184 -0.25489262 -0.062309127
0003f0 ab ac cc 3e eb 9f ee be 99 e1 91 3e cb 6b c8 be
       0.39975485 -0.46606383 0.2849243 -0.3914474

fc2.bias f4 [217]
000000 ff 06 7e bd f9 b9 f9 bd 75 4e 88 be 3e 72 15 be
       -0.06201839 -0.121936746 -0.26622358 -0.14594361
000010 b7 be 91 bd 05 8d 96 be ff 07 83 be 24 ee 2c be
       -0.07116454 -0.29404464 -0.25592038 -0.16887718
000020 f6 cf ba 3c 5d cd f5 bc e0 c0 0f bf 0f e9 9e be
       0.022804242 -0.030005151 -0.5615368 -0.31037185
000030 9e 03 83 be 61 bb c0 3e ed c0 2f be 2c 0b ac be
       -0.25588697 0.3764296 -0.17163439 -0.33602273
000040 5d 5b d6 be e6 0c ba bd 2e 6c a2 be 9a 7c 96 bd
       -0.4186658 -0.090844914 -0.3172316 -0.073479846
000050 6d 05 39 be 3b c3 07 bf c8 b2 29 be 41 34 bd be
       -0.18068476 -0.53032273 -0.16572106 -0.3695393
000060 61 e7 34 3f 47 14 df bd 1f 72 56 be 48 af aa be
       0.70665556 -0.108925395 -0.20941971 -0.33336854
000070 92 6f 36 bd 22 11 05 3f 3c 1e 84 3e cf 01 e1 be
       -0.044539995 0.5197927 0.25804317 -0.43946692
000080 f1 77 57 3d 7e 9d fb be 0a 94 29 3e 93 31 0d 3e
       0.05260462 -0.49143595 0.16560379 0.13788442
000090 cd 2c 02 bf ec 3c 22 be 7c 1a 9d be 83 70 c0 3e
       -0.5084961 -0.15843552 -0.30684268 0.3758584
0000a0 85 c5 ce 3e 72 93 2b be db 26 5f bf 32 44 42 3c
       0.4038507 -0.16755465 -0.87168664 0.011857079
0000b0 fc b3 e7 3a b0 50 ee be 0b 91 43 3f 4a 75 47 bf
       0.0017677541 -0.46545935 0.76393193 -0.77913344
0000c0 68 a3 26 be e6 68 8d be ee 1d 63 3e c9 ee 0e bd
       -0.16273272 -0.27619094 0.22179386 -0.034895692
0000d0 2b 3a 17 bf e5 60 f5 bd 44 9b 1a 3f 1f 96 0b bf
       -0.5907313 -0.11981372 0.60393167 -0.5452594
0000e0 35 26 6e 3d e2 14 0a 3e 55 6d 56 be d4 4e 50 be
       0.058141906 0.13484529 -0.20940144 -0.2034257
0000f0 a7 df 04 bf ae f6 09 3d 45 b3 56 3d 42 d5 11 bf
       -0.51903766 0.033682518 0.05241706 -0.5696603
000100 5e 3a 3e 3e c3 7b 93 be 8b b2 02 be db fc 6f be
       0.18576953 -0.2880536 -0.12763421 -0.234363
000110 18 05 f2 be fc 15 fa 3c 78 e1 6f 3d ec f0 93 be
       -0.4726951 0.030528061 0.058564633 -0.28894746
000120 31 70 91 be 73 26 d6 be c8 93 93 bd f1 35 91 bb
       -0.28405908 -0.4182621 -0.072059214 -0.004431479
000130 61 f7 12 bf c3 0a 9d 3e 31 4c 01 3f 7e b3 48 be
       -0.5740872 0.30672273 0.50506884 -0.19599721
000140 fd 8d 70 3e 62 9c ed bd 36 28 f9 be 4d 09 fb 3e
       0.23491664 -0.11602093 -0.4866349 0.49030533
000150 92 98 20 3e 87 9e 9d bd 00 84 d0 3e e0 16 2b bf
       0.15683201 -0.07696252 0.40725708 -0.6683178
000160 f9 3e 63 be ea 96 45 be 3a 0a 28 bf d1 e2 84 be
       -0.22191991 -0.1929585 -0.65640604 -0.25954297
000170 8d 69 75 3d 4f bc 49 bc 6b 5d 1a be d8 0c e9 3e
       0.059915114 -0.012312963 -0.15074699 0.45517612
000180 30 cb 6b be d5 f2 8f bd 1c 36 56 3e ce 3d be bd
       -0.23026729 -0.070287384 0.20919079 -0.09289132
000190 a8 40 f9 be 76 b2 d2 3a 79 ee 5f be f5 ec fc be
       -0.4868214 0.0016074914 -0.21868314 -0.49399534
0001a0 3e 5f 74 3e 1b a0 9b 3e 9a a7 b9 be 97 3b eb 3d
       0.23864457 0.30395588 -0.36260682 0.11485975
0001b0 28 8d 57 be 03 c6 8f be eb f8 8a be 27 79 0c bf
       -0.2104994 -0.28080758 -0.27143034 -0.54872364
0001c0 78 5f 81 3e 6c 68 31 3e 4f 95 1e bf 38 0d 20 bf
       0.2526815 0.1732499 -0.61946577 -0.6252017
0001d0 78 c4 14 3f fc 27 30 be cf 1d 00 3f c0 5e d4 3a
       0.5811229 -0.17202753 0.50045484 0.0016202554
0001e0 30 be a2 3e 1f e9 c8 be d2 d3 07 be ac 74 53 be
       0.31785727 -0.39240357 -0.13264397 -0.20649976
0001f0 5c c8 2b bd 9c 49 f4 bd 36 2e 8f be 3a 92 22 3f
       -0.041939124 -0.119281024 -0.27964944 0.63504374
000200 ee 5e 27 bf 3d b8 18 be bd 62 2e bd aa 40 8f 3c
       -0.65379226 -0.14914031 -0.042574633 0.017486889
000210 0c b8 83 bd 1b 10 a1 3e a1 d4 35 bf d0 05 2f bf
       -0.064315885 0.314576 -0.7102757 -0.68368244
000220 bc 61 93 3d b0 ba 05 be 1b e9 a2 be 48 8f 87 bd
       0.07196376 -0.13059497 -0.3181847 -0.066191256
000230 4a 6a d2 be 89 20 dc be 19 17 97 3d 61 ff fb be
       -0.41096717 -0.42993572 0.073774524 -0.49218276
000240 50 7a 1d be f4 54 1e be b9 a4 4c bf 22 0b b4 bd
       -0.1537869 -0.15462095 -0.79938847 -0.08791186
000250 bb c5 17 3d 30 e1 8a 3d dd d9 a6 bd 5f 6c b3 be
       0.037053805 0.06781232 -0.08147023 -0.35043618
000260 08 5f f3 be 58 52 a8 bd c0 91 d0 3c f3 aa dc be
       -0.4753344 -0.08218831 0.025460124 -0.43099174
000270 d7 1c ef bd d0 8e 2f bf c3 f8 18 3e e1 cd 03 3e
       -0.11675423 -0.6857729 0.14938645 0.12871505
000280 28 da ae be 0d 6a cb be 54 e0 2f 3d 13 df 97 3e
       -0.34150815 -0.39729348 0.042938545 0.2966238
000290 51 f4 aa be 6f b5 8e 3e ec 3b 5b bf 7b 4b 2d bd
       -0.33389524 0.27872798 -0.8563831 -0.042308312
0002a0 70 24 4a 3e b5 56 97 3e b4 01 11 be f3 b2 18 be
       0.19740462 0.2955834 -0.14160806 -0.14912014
0002b0 55 c4 80 be 47 f3 af bc 2c f1 de 3d 8f bc c7 be
       -0.2514979 -0.021478308 0.10885844 -0.39011046
0002c0 e3 13 cb 3d 78 9b 36 be 04 0e e9 be d2 b3 41 be
       0.099159025 -0.17832744 -0.45518506 -0.18916252
0002d0 15 33 45 bc 64 ae 28 be 3c f4 f9 be 4b bd 8e be
       -0.012036105 -0.16472775 -0.4881915 -0.27878794
0002e0 95 61 f6 bc 83 9b 95 be d4 53 2a 3f e9 c8 0d bd
       -0.030075828 -0.2922021 0.6653416 -0.03461543
0002f0 a6 d0 a3 be 93 e0 be be dd aa 6b bc 71 d1 8d bc
       -0.31995124 -0.37280712 -0.014383999 -0.017311784
000300 10 fb 18 bf 83 d1 a6 be 15 7d 36 bf ea e3 9b bd
       -0.5975809 -0.3258172 -0.7128461 -0.076118305
000310 d4 d8 9e 3e 57 72 90 3e 12 88 e2 3d 08 e1 6c 3d
       0.31024802 0.28212234 0.110611096 0.057831794
000320 7c 86 22 bf 9c 15 ad 3e 06 1e ed 3e 19 a5 cd be
       -0.63486457 0.3380555 0.4631197 -0.40165022
000330 97 4c f5 be 32 c6 e3 bd 4e df 8e 3e a2 63 0f 3e
       -0.47909996 -0.11121787 0.27904743 0.1400285
000340 8b e6 79 bd e8 3b 12 3e 73 5e f5 bd 97 68 c5 be
       -0.06101088 0.14280665 -0.119809054 -0.38556358
000350 67 3b 1b 3f 41 1f d8 bc 16 6a f1 3e 2c 0e 75 be
       0.60637516 -0.02638209 0.4715125 -0.23931187
000360 92 8c b4 be
       -0.35263497

fc_mean.weight f4 [8, 217]
000000 54 ff 7f 3e 3d 3a 19 3f 9f ce 40 3f cb 71 34 be
       0.24999744 0.5985449 0.7531528 -0.17621534
000010 07 8e 7f bf b8 63 51 bf da 49 8d be f9 da db 3c
       -0.9982609 -0.81792784 -0.27595407 0.026837813
000020 46 e3 3b 3e 2e ad 51 bf ac 01 76 bd b9 43 cc bd
       0.18348417 -0.81904876 -0.06006019 -0.099738546
000030 49 35 d0 be a6 af 97 3e 21 bd 9d be 37 0d d4 3e
       -0.40665653 0.29626197 -0.30808356 0.41416332
000040 e2 9e c5 bc 24 c4 6f bb 20 bd f9 bc 74 c1 c1 bc
       -0.024123613 -0.0036585415 -0.03048569 -0.023651816
000050 18 75 8e bd 00 2a 33 bf 5f 6e 59 bd 3c 6b 03 3f
       -0.069559276 -0.6998596 -0.053083774 0.513355
000060 f3 39 c3 3c 54 aa 85 be 0d 83 60 bf 3a 5f 89 3f
       0.023831343 -0.26106513 -0.8769997 1.0732186
000070 d0 54 1f 3e 4f 49 34 3e d3 12 5c be 40 04 1e be
       0.15559697 0.1760609 -0.21491556 -0.15431309
000080 0c ef f5 3c 93 a9 ef 3d 1c 08 d8 bd 12 49 e5 bc
       0.030021213 0.117022656 -0.10548422 -0.027988944
000090 86 28 8d be f2 7a 1a 3e 61 dc 78 3d 21 ce e1 be
       -0.2756998 0.15085962 0.060757045 -0.44102576
0000a0 65 d2 a3 3b 8e 33 eb 3b b5 9e f3 be 10 d3 6c bd
       0.004999446 0.0071777767 -0.4758202 -0.057818472
0000b0 fc 9e 1e bd 03 5a 4e 3e ce ec 4a 3d 50 e6 cb 3e
       -0.038725838 0.20151524 0.04954224 0.39824152
0000c0 9b 71 f1 be 30 36 8e bd fc 6d dd 3e de a0 68 bf
       -0.47156987 -0.06943929 0.43247974 -0.90870464
0000d0 7e 15 fe 3c 7c d2 0a be 1e 75 67 3d dd 3e 08 be
       0.031016108 -0.13556856 0.056508176 -0.1330523
0000e0 ee 6f 1a bf 02 ff ee 3e 32 18 d4 3d e8 fc ca 3e
       -0.6032704 0.4667893 0.103561774 0.39646077
0000f0 96 c3 22 be df 76 eb bd 4f 1a a5 3e 92 57 57 bf
       -0.15894923 -0.11497282 0.32246634 -0.84117997
000100 79 b1 09 be 97 ab 75 be 31 46 02 3f 9d 62 0b 3f
       -0.13446607 -0.23991238 0.50888354 0.54447347
000110 46 87 89 3d f1 ff 36 bd 64 74 c8 3d ad fa b5 bd
       0.067152545 -0.04467768 0.09787825 -0.08885703
000120 06 36 43 be 1d 26 8e be 7c a2 18 be 66 e8 b5 3d
       -0.19063577 -0.27763453 -0.14905733 0.08882217
000130 8d 12 01 bf b0 9d 3f 3e be 67 e8 bd 08 b3 2e 3e
       -0.5041893 0.18712497 -0.11347912 0.17060483
000140 af 0e 9a be 06 1e 95 bd 1b e6 7e 3e a2 88 bc 3e
       -0.30089328 -0.07281117 0.24892466 0.36822993
000150 09 a4 73 be ae 7d c4 3c d4 5f 8d 3c 6d 74 13 be
       -0.23793043 0.02398571 0.017257608 -0.14399882
000160 e0 5b ac 3d 30 c8 95 be a0 81 48 3e 3b c2 0c bf
       0.08415961 -0.29254293 0.19580698 -0.5498387
000170 c5 26 76 bd 0b a3 e7 3d 2f d2 14 be fa 42 15 3e
       -0.060095567 0.11310395 -0.14533304 0.14576331
000180 3d 51 d8 bd 19 3f 81 bb 88 32 56 be e5 33 94 be
       -0.1056237 -0.0039442894 -0.20917714 -0.28945842
000190 3c 60 5c 3e 51 5f c1 bb 11 44 7c 3e 2c 68 1d bf
       0.21521086 -0.005901255 0.2463534 -0.6148708
0001a0 54 f1 7d 3e 34 91 81 3e 49 b1 11 bf 06 65 04 3e
       0.2479909 0.25306094 -0.5691114 0.12929162
0001b0 f4 29 81 3d 6d 2a 8c bd b5 01 bc 3e a3 40 18 3d
       0.0630683 -0.068440296 0.36720052 0.037171017
0001c0 18 d9 eb be 7a a6 a6 be 1e 67 03 bd 11 aa e0 3e
       -0.46064067 -0.32548887 -0.032080762 0.4387975
0001d0 95 53 94 b9 d7 34 e4 be 30 dc 66 be 07 c6 8f be
       -0.00028291033 -0.44571564 -0.22544932 -0.2808077
0001e0 66 fc 89 3d 63 99 db 3e 2c fe 4c be 28 77 18 bf
       0.06737594 0.42890462 -0.20018834 -0.5955682
0001f0 72 2c bf 3e 09 17 eb 3e dc 29 9f 3b 7a 2a ac 3d
       0.37338597 0.45916012 0.004857285 0.08406539
000200 e3 ca 01 be 56 34 cd 3d af f8 82 3f 0c f7 1f 3d
       -0.12675051 0.10019748 1.0232142 0.03905396
000210 f0 85 a7 3e 05 d3 0b bd b9 6f 5c 3d f1 b8 f0 bc
       0.32719374 -0.03413679 0.053817485 -0.029385062
000220 9b f2 a4 be d8 53 fa 3d c0 8e 6c 3e 20 ff 33 be
       -0.32216343 0.12223023 0.2310133 -0.17577791
000230 0a d3 2d 3e 3d fa 71 3f f4 44 e6 bd 08 2c 88 be
       0.16975036 0.9452246 -0.112436205 -0.26596093
000240 a3 1f 6c be f5 46 f8 3b 36 82 1d 3d 17 2c 7a 3d
       -0.23058943 0.007576818 0.038454257 0.061077204
000250 b7 10 01 3d 94 9e 04 be d0 55 84 be 73 e2 08 bd
       0.03151008 -0.12951118 -0.2584672 -0.033419084
000260 71 40 da bd e8 03 2c be 72 e8 cd bb 8c f4 7d be
       -0.106568225 -0.16798365 -0.006283813 -0.24800318
000270 4f 43 c5 3e 5b 48 88 3e b7 0f 0b be b5 e8 45 bd
       0.38527915 0.26617703 -0.13580213 -0.04831763
000280 0c b0 96 3c fa bc 97 be c1 78 0a be 93 99 0b be
       0.018394493 -0.29636365 -0.13522626 -0.13632803
000290 b5 a3 6a 3e 41 f0 60 3d db da 89 3d 23 5d 8b 3e
       0.22914012 0.054916624 0.067311965 0.27219495
0002a0 8d 7f 58 3d b9 17 f8 bd 0f 29 c5 3e e8 d2 4b bc
       0.052856017 -0.121139 0.38507888 -0.012440421
0002b0 a9 60 3c be 77 6b 79 3e 3d 5b b1 3d 6f 9e 2c 3e
       -0.18396248 0.24357401 0.086599804 0.16857313
0002c0 1d 49 8e bd 99 85 f5 be 34 aa ab be f1 b3 21 bf
       -0.06947539 -0.4795349 -0.33528292 -0.63165194
0002d0 21 6b 3a bd cf f4 16 be 57 06 d7 be 61 a3 cb 3e
       -0.045512322 -0.14741825 -0.41997024 0.39773086
0002e0 31 78 24 3e a6 13 2a 3d 7a 23 39 3d e5 38 d5 be
       0.16061474 0.041522644 0.04519985 -0.4164497
0002f0 78 69 46 be 4b f9 43 3f 4a 47 56 be a9 89 23 be
       -0.1937617 0.76552266 -0.20925632 -0.15970482
000300 0a fb ce bd e3 4a c4 bc e5 2c 12 bf 8b aa 82 3d
       -0.10106476 -0.02396149 -0.57099754 0.06380185
000310 22 23 62 bd f8 c5 22 3e 20 5b 18 3d e8 9c be bc
       -0.055209287 0.15895832 0.03719628 -0.023268178
000320 6a 14 5f 3c ea f1 95 bd cc 49 0c bd 42 e8 1e 3f
       0.013615707 -0.07321532 -0.034250066 0.6207315
000330 c8 c0 ee be 01 f7 3d 3d 05 8c 8f 3e c3 bf 86 3e
       -0.46631455 0.04637814 0.28036514 0.26318178
000340 02 85 91 be 79 4f 47 be 95 27 56 3c d6 8b b9 3e
       -0.2842179 -0.1946391 0.0130709605 0.362395
000350 bc 08 48 3e 00 4c 80 3d cd 5c ee 3c 85 e8 8d bd
       0.19534582 0.06264496 0.029096985 -0.06929115
000360 58 d9 0c be 9c 50 25 bf 53 b9 56 be 7a 11 95 bf
       -0.13754785 -0.64576125 -0.20969133 -1.1645958
000370 cf 46 5b 3d 7d eb 46 3f 0d dc 8b 3e d0 82 fa 3d
       0.053534325 0.77703077 0.27316323 0.12231982
000380 54 2f be 3e 75 24 a0 bd ce 97 48 3e 58 82 f5 3e
       0.37145483 -0.078194536 0.19589159 0.47951007
000390 16 3d a1 3d 1c 7c 98 3e f1 d9 dd 3c 6b ee 43 3e
       0.07872979 0.29782188 0.027081462 0.19133918
0003a0 a6 85 c7 bc 89 55 83 3e a9 dd 6b 3c a8 f8 81 be
       -0.02435572 0.25651196 0.01439611 -0.25385022
0003b0 6b 01 6a be ee 73 b8 3d e3 57 2a be f2 54 d0 bd
       -0.22852103 0.09006487 -0.16635089 -0.10172452
0003c0 d8 b8 e5 3c c0 99 f3 bb b7 a6 ad bd 32 57 fb bd
       0.028042242 -0.0074341 -0.08479064 -0.122724906
0003d0 8b ba 82 bf 88 80 ce bd 81 68 e6 bd 69 4e b2 be
       -1.0213178 -0.10083109 -0.11250401 -0.34825447
0003e0 9b 36 6c be 65 59 ba 3d 65 3b 0e bc 45 4d 6b 3d
       -0.23067705 0.09099082 -0.008681153 0.057446737
0003f0 9e 37 20 bd 12 14 43 bd e1 53 b5 3d c0 53 e8 3d
       -0.03911554 -0.047626562 0.08853889 0.11344099

fc_mean.bias f4 [8]
000000 0b 3c a0 3d 6c 40 94 bd da 4c e5 3d 71 0e ea bb
       0.07823952 -0.0723885 0.11196299 -0.007142835
000010 20 ae 01 be 1d 5e 6d 3e d2 ff 39 be c7 92 b7 3e
       -0.1266408 0.23180433 -0.18163994 0.3585417

fc_logstd.weight f4 [8, 217]
000000 f2 b5 d8 bd 62 e8 e3 3c c5 c4 95 3e 0e 24 98 bd
       -0.10581578 0.02782077 0.29251686 -0.07428752
000010 a5 a1 17 3e b5 85 4a 3e 84 32 0f bd b9 33 72 3b
       0.14807756 0.19777568 -0.034960285 0.0036957099
000020 1f 70 1f bc 3e a9 ba bc db b1 7d 3c 9e 35 77 bb
       -0.009731322 -0.02278578 0.015484299 -0.0037721167
000030 e8 09 ed 3c bd b8 bb 3d ed 2d 44 3d b9 89 ff bd
       0.028935388 0.091660954 0.04789536 -0.124774404
000040 54 e6 1a 3a 0c aa 42 3a 52 22 8a bd 65 be 1c 3c
       0.00059089554 0.00074258517 -0.06744827 0.009566878
000050 95 0b 82 3c 9b f0 9a 3e e5 26 3e b9 d4 9e 64 3e
       0.015874663 0.30261692 -0.00018134301 0.22326213
000060 95 60 40 bc 54 e9 12 3d 29 8a 83 3e 94 b7 69 3e
       -0.011741777 0.03586705 0.25691345 0.22823936
000070 cb df 04 bb 77 a1 32 3c b1 59 28 3e 61 0b b7 3d
       -0.0020274993 0.010902754 0.16440465 0.08937717
000080 82 92 26 3d a4 f6 f6 3b 01 bf 10 bc 1a b7 59 ba
       0.040667064 0.007536726 -0.008834601 -0.00083051773
000090 57 82 01 3d 13 cb 07 3c 23 65 c7 3a a9 d3 9d bd
       0.031618442 0.008288163 0.0015212636 -0.077063866
0000a0 10 1b 2e 3c ea 1c b3 3d dc b8 88 3e 34 26 c2 bc
       0.010626569 0.08745749 0.26703537 -0.023699857
0000b0 e4 a7 1e 3d 59 5b 91 3b cc 08 e9 3b b2 3d 0f bd
       0.03873433 0.0044359383 0.0071116444 -0.034970947
0000c0 72 f8 a1 3d 5a b5 58 bc d3 77 c9 3d 83 81 65 3e
       0.07908715 -0.013226831 0.09837308 0.22412686
0000d0 13 63 b6 3b c9 5a a7 3c 8d 47 ef bb 64 a1 09 3d
       0.00556601 0.020429032 -0.0073022307 0.03360118
0000e0 06 82 ba 3d c4 4e e3 3c 6d ab 67 3c 0b 13 28 3d
       0.09106831 0.02774752 0.014139992 0.041033786
0000f0 09 6d 10 bc 71 eb c3 3c f0 d8 76 3d 8a 01 de 3d
       -0.0088150585 0.023915978 0.06026548 0.10840137
000100 12 09 88 bc e3 43 d3 3d 1f 5c ff 3d 34 0a b2 3c
       -0.016605888 0.10315683 0.124687426 0.02173338
000110 56 85 71 3b d5 cf ad 3d 86 1d 1a bb 23 db d9 3c
       0.0036853156 0.084869064 -0.0023516132 0.02659375
000120 9f 49 e9 3c e0 25 9a 3d 65 52 19 3e ee b0 09 bd
       0.028477488 0.07526755 0.14972837 -0.033616
000130 bd 29 b1 bc cd 31 88 3c 28 ff b8 bc 94 b5 e6 bc
       -0.021626348 0.01662531 -0.022582605 -0.028162755
000140 37 ee 85 bb 00 a1 8d bc 96 cb 02 3c e2 32 45 3d
       -0.0040872353 -0.017288685 0.007983109 0.04814423
000150 2f e4 fd 3c 52 08 ff bb f0 93 c5 bb 65 0b b5 3c
       0.030992595 -0.0077829743 -0.0060295984 0.02210016
000160 50 cc 70 3c 2b b4 15 3d 20 9c 18 3d 8a 5d 46 3e
       0.014697149 0.036548775 0.037258267 0.1937162
000170 b2 8b 99 bc 45 87 36 b9 ff 69 70 3b 33 50 82 3c
       -0.01874337 -0.00017407264 0.0036684272 0.015907383
000180 04 d9 02 3d 2e ee 03 bc 11 54 00 bd 4e f0 9d 3d
       0.031945243 -0.008052392 -0.031330172 0.0771185
000190 67 e7 b5 3b d6 12 04 3b 14 61 d6 3d 96 31 32 3c
       0.005551267 0.0020152829 0.10467735 0.01087608
0001a0 11 e8 20 bd ad 66 cd 3c 10 bf dd 3d c6 29 b4 bc
       -0.039283816 0.025073374 0.10827458 -0.021992575
0001b0 5d 25 b6 3c b6 4d d5 3d 39 48 0c bd 9c ae 15 3d
       0.022234613 0.10415213 -0.034248564 0.036543474
0001c0 06 bd fa 3c 46 16 2b bd 85 61 7b 3b 6e db c0 3d
       0.030607712 -0.04176929 0.0038357687 0.09416853
0001d0 1f 68 44 3c 2e 51 cd 3d 0d c7 35 bd cd 92 3f bd
       0.011987715 0.100252494 -0.044379283 -0.04677086
0001e0 a1 7a 53 bc 03 09 a9 3d 5b da 16 3e c7 44 45 3e
       -0.012907655 0.08253672 0.14731734 0.19264518
0001f0 42 d4 4b 3e b2 e3 7b 3d 8e ac 78 bb c9 b6 1d 3d
       0.19905189 0.061496444 -0.0037944647 0.038504396
000200 56 36 49 3b 6e 8d db bb 07 c5 1b 3e 70 2e 7d 3b
       0.0030702553 -0.0067002093 0.15211879 0.0038632415
000210 10 a4 ca 3d 4e 55 34 3e 84 e4 eb bb 8e f0 6b 3c
       0.09894574 0.17610666 -0.007198872 0.014400614
000220 86 89 aa 3c 70 5a a6 3c a7 3c 89 3d a8 7b 81 bd
       0.02081753 0.020306796 0.06701022 -0.06322414
000230 f3 85 57 3d a4 2e ee 3d ec 6b 38 bd d6 c7 58 3d
       0.05261798 0.1162999 -0.045024797 0.052924953
000240 1b 4e a3 3d 0e 08 d6 bb 06 c4 c3 3b 94 ab 06 bd
       0.07973882 -0.006531722 0.0059742955 -0.032878473
000250 28 d5 44 bb e3 db b2 bc fc a8 9e bd 17 f0 88 3c
       -0.0030034278 -0.021833366 -0.07747075 0.016716046
000260 8b a3 18 3d 1c 6e 1f 3d 69 01 40 3c f8 2e 99 3d
       0.03726534 0.038923368 0.011719086 0.07479662
000270 26 72 41 3d a2 db 11 3d 7b ca 36 bd 1b 7d 90 bb
       0.047228 0.03560985 -0.044626694 -0.004409445
000280 f2 21 27 3c db 5a 57 3d 70 b1 45 bb 45 b6 35 3c
       0.010200964 0.05257688 -0.0030165575 0.01109082
000290 a1 67 07 3e bb 32 e3 3b 07 55 65 3d ea 41 60 3d
       0.13223125 0.006933538 0.05598929 0.05475036
0002a0 42 7b 8f 3c f4 82 79 3b 69 82 a3 3d eb 25 c1 39
       0.017514829 0.003807244 0.07983858 0.0003684008
0002b0 95 c3 ba 3d 69 ab 21 3d 9f 42 9c bc cc 37 40 3c
       0.091193356 0.03947011 -0.019074736 0.011732053
0002c0 77 b6 ce bc 41 34 38 3d c6 e9 81 bc e7 8d 99 3e
       -0.02523349 0.04497171 -0.015858542 0.29991075
0002d0 da 1a 52 3c 21 af 60 bc 1d 52 1d 3e e0 4e 85 bd
       0.012823785 -0.013713629 0.15363355 -0.06509185
0002e0 35 bf 10 be fc 70 34 3c 1d ce 87 3c 81 30 db 3d
       -0.1413544 0.011013266 0.016577775 0.10702611
0002f0 64 9f 21 ba 74 14 5c 3e ff e5 1f 3d ef 7d 68 bd
       -0.00061654137 0.21492177 0.0390377 -0.056760725
000300 36 14 2d 3d fd e7 dd 3c 63 64 d9 3d 25 67 d1 bc
       0.042255603 0.02708816 0.1061485 -0.025561878
000310 b0 4d a6 bd b5 31 e4 bb 29 97 2b 3b 22 ce 15 3b
       -0.081202865 -0.0069639334 0.0026182628 0.002285846
000320 5f 23 17 bd 0b 01 52 bc 3c 89 e9 b9 d2 f9 95 3c
       -0.036898967 -0.0128176315 -0.0004454347 0.0183076
000330 67 e4 84 3d bc ea c2 3d 1c 5b 17 3d d3 44 f5 bc
       0.06488877 0.09517428 0.036952123 -0.029940045
000340 fc ae 18 3d 7f 6c b7 3c f3 28 86 3c a7 9b 93 3e
       0.037276253 0.022390602 0.016376948 0.2882969
000350 e0 4f 47 3d 4b 2f 43 bb 42 03 2c 3c 3e 04 45 ba
       0.04866016 -0.0029782827 0.010498824 -0.0007515586
000360 86 01 6a bc 0e 6b 8f 3c 70 7a 0f 3d 8d 34 91 3e
       -0.01428259 0.017507102 0.035028875 0.28360406
000370 71 d9 90 bd 97 fa 18 3e a3 2e 11 3e 51 65 55 3d
       -0.07072724 0.14939342 0.14177947 0.052098576
000380 33 68 64 3c 95 87 e5 3c e7 b0 db bc 61 e1 26 3e
       0.013940859 0.028018752 -0.026817752 0.16296913
000390 53 30 0e bb 3c c5 2f 3b 72 29 23 b9 e6 39 15 bd
       -0.0021696284 0.0026820442 -0.00015560331 -0.03643217
0003a0 3c b8 04 3d 5e f2 a9 3b 86 e9 7b bc eb 27 78 bd
       0.032402262 0.005186363 -0.015375501 -0.060584944
0003b0 11 ce 73 3d a6 c5 3d bb 4a da 9d 3e 06 66 ac 3c
       0.059522692 -0.002895692 0.30830604 0.021044742
0003c0 f9 5d 96 3d 34 77 77 3a fe b9 85 bc 9c 6f 61 3d
       0.073421426 0.0009440065 -0.01632404 0.05503808
0003d0 95 44 97 3e 82 08 3c 3c 3d f9 84 3c c7 d1 ef 3d
       0.2954451 0.011476638 0.016232127 0.11709934
0003e0 b6 a4 1e 3d b5 24 8d bd 74 3d 4e 3b 2a 5b e1 bc
       0.0387313 -0.06891767 0.0031469734 -0.02750929
0003f0 24 19 48 3b 21 21 4e 3d ca 47 0b bd 32 3a 46 bc
       0.0030532563 0.050324563 -0.03400401 -0.012098836

fc_logstd.bias f4 [8]
000000 0c 34 56 be 37 45 85 be 4c df 55 be 19 86 28 be
       -0.20918292 -0.2602937 -0.20885962 -0.16457404
000010 39 1c 84 be 7f 04 6b be 2c 48 57 be aa 55 33 be
       -0.25802782 -0.22950934 -0.21023625 -0.17513147
