SAC-cleanrl/models/pruning/SAC-HumanoidStandup-v4-0.1-l2.pth (torch, 596204 bytes, 10 tensors)

action_scale f4 [1, 17]
000000 cd cc cc 3e cd cc cc 3e cd cc cc 3e cd cc cc 3e
       0.4 0.4 0.4 0.4
000010 cd cc cc 3e cd cc cc 3e cd cc cc 3e cd cc cc 3e
       0.4 0.4 0.4 0.4
000020 cd cc cc 3e cd cc cc 3e cd cc cc 3e cd cc cc 3e
       0.4 0.4 0.4 0.4
000030 cd cc cc 3e cd cc cc 3e cd cc cc 3e cd cc cc 3e
       0.4 0.4 0.4 0.4
000040 cd cc cc 3e
       0.4

action_bias f4 [1, 17]
000000 00 00 00 00 00 00 00 00 00 00 00 00 00 00 00 00
       0.0 0.0 0.0 0.0
000010 00 00 00 00 00 00 00 00 00 00 00 00 00 00 00 00
       0.0 0.0 0.0 0.0
000020 00 00 00 00 00 00 00 00 00 00 00 00 00 00 00 00
       0.0 0.0 0.0 0.0
000030 00 00 00 00 00 00 00 00 00 00 00 00 00 00 00 00
       0.0 0.0 0.0 0.0
000040 00 00 00 00
       0.0

weight f4 [230, 376]
000000 9f d2 51 3e f2 02 ee bf 39 eb e1 be 39 58 46 3f
       0.20490502 -1.8594649 -0.44124773 0.7747837
000010 b6 79 91 3f a4 13 5e bf 54 e5 6e 3e 2d aa b5 be
       1.1365268 -0.8674872 0.23329669 -0.35481396
000020 a2 f5 2a 3d fa 74 8e bf 2c 97 83 be b5 ac fa bf
       0.04173816 -1.1129448 -0.25701272 -1.9583956
000030 04 fc 9c 3f 06 8e 97 be a4 ec 72 be ee a9 9f 3f
       1.2264409 -0.29600543 -0.23723084 1.2473733
000040 c1 97 a6 bf 2a a2 ce be 6d 92 95 be 22 00 a1 be
       -1.3015062 -0.40358096 -0.29213277 -0.31445414
000050 a4 b7 5c c0 9b da c1 3f 5c 47 4b 3f 52 aa 4c 40
       -3.4487085 1.5144838 0.7940576 3.1978955
000060 74 6f aa 3e 02 d1 e8 bd f9 31 8e 3f e1 12 56 3e
       0.33288157 -0.1136799 1.1109 0.20905639
000070 89 be 99 3e 6e 51 e5 be 3c e1 0f be 10 b2 01 3f
       0.3002818 -0.44788688 -0.14050764 0.50662327
000080 9a ce c2 3e f1 43 7c 3c e3 31 11 bf 68 cb c5 3e
       0.3804825 0.015397058 -0.56716746 0.3863175
000090 ed 3b 60 bf c0 25 a1 3e cd f1 3c bd f0 29 79 3d
       -0.8759144 0.31474113 -0.046129037 0.06083101
0000a0 b3 05 5c bf 36 2e d5 3d 08 5a 32 be 71 bd 11 3e
       -0.85946196 0.10409205 -0.17417157 0.14232422
0000b0 3a 74 23 be 70 10 41 3d 36 e4 20 3c 07 de 31 3d
       -0.15962306 0.047134817 0.009820035 0.043424632
0000c0 81 b3 5c 3b 88 a1 e5 3c 7b e3 86 bc a8 84 28 bd
       0.0033676329 0.028031126 -0.016465893 -0.041142136
0000d0 e0 a2 07 3c 7d b3 96 bb 2d a0 aa bb 64 7b 5c be
       0.0082785785 -0.0045990334 -0.0052070827 -0.21531445
0000e0 5b 63 a4 bf 2f 84 43 c0 34 67 f7 bf f6 ce 9c c0
       -1.2842821 -3.0549428 -1.932837 -4.900264
0000f0 af 32 97 3f 93 ae 5d 40 9f 0d ae bf f3 03 97 3e
       1.1812342 3.4637802 -1.3597907 0.294952
000100 d7 21 8a be 8c 93 da 3f a4 8c 4b be c0 d0 20 bf
       -0.26978943 1.7076278 -0.19877869 -0.6281853
000110 1f d8 5e c0 53 8a da 40 07 a8 0a c0 9e fe ef 3e
       -3.481941 6.8293853 -2.1665056 0.46873945
000120 77 fa b7 bf 75 5c e9 40 65 fb 58 be 8a d6 e2 be
       -1.4373311 7.2925363 -0.2118965 -0.44304305
000130 d1 f1 80 3e 42 b8 ca 3f 68 88 e7 bf c5 83 e9 3f
       0.2518449 1.5837481 -1.8088503 1.8243338
000140 05 b4 22 c0 06 a7 26 bf 07 9d 06 c0 b0 28 06 40
       -2.5422375 -0.6509861 -2.1033342 2.0962334
000150 84 72 52 be 38 5d 88 bf 54 85 98 be 98 fd 60 3e
       -0.20551497 -1.0653448 -0.2978922 0.21971738
000160 f9 0d 31 c0 ae d7 0b 40 d6 4d d6 3f 23 8b d4 3d
       -2.7664778 2.185039 1.6742504 0.10378101
000170 d9 d2 b1 3f b3 7f c6 3e 33 2b 78 be aa 7b 87 bf
       1.3892471 0.38769302 -0.24235229 -1.0584614
000180 91 5f 3b c0 f5 f5 55 c0 95 92 39 c0 d9 62 11 c0
       -2.927708 -3.343137 -2.8995717 -2.2716582
000190 a9 74 82 3f ac 7e 0f c0 a3 84 19 40 b0 7e 11 c0
       1.0191852 -2.2421064 2.3987205 -2.2733574
0001a0 7d 43 55 be bf 2c 23 be 4f 08 6f c0 75 dc 4a c0
       -0.20826526 -0.15935038 -3.734882 -3.1697056
0001b0 e4 5c 02 c0 24 e8 8a c0 b2 03 54 40 74 24 8f c0
       -2.0369196 -4.3408375 3.3127255 -4.4732
0001c0 0a b9 0e 40 7c 4f 89 bf a6 a9 57 be 81 c2 55 bf
       2.230044 -1.0727382 -0.2106081 -0.83499914
0001d0 8e 64 13 3e c2 0a f2 be b5 93 66 bf a4 88 80 bf
       0.14393827 -0.47273833 -0.90069133 -1.00417
0001e0 1e 13 77 c0 4b 51 4b c0 f0 de 98 bf cf a0 41 be
       -3.8605418 -3.1768367 -1.1943035 -0.18909
0001f0 e5 4e 8a be 06 53 c1 3d 2d 26 13 bf 9c a2 81 bf
       -0.27013317 0.094396636 -0.57480127 -1.012775
000200 98 7d 14 c0 38 71 6a 40 40 98 ae c0 90 9e ae be
       -2.3201656 3.6631603 -5.456085 -0.3410535
000210 79 53 d7 3f 40 cb 86 c0 96 fe 85 be 57 fc 4a 3e
       1.6822349 -4.212311 -0.26170796 0.19822823
000220 d3 10 c1 be ec 19 02 bf 47 d7 1a c0 95 ca 6f 40
       -0.37708148 -0.50820804 -2.4193895 3.7467396
000230 d7 39 d7 c0 f5 95 ed bb cd f4 ee 3f 0f 84 84 c0
       -6.7258105 -0.0072505423 1.8668457 -4.1411204
000240 51 72 8f be 57 b7 0d bf 59 d9 8a bf 70 0f c1 bf
       -0.28016904 -0.5535788 -1.0847579 -1.5082836
000250 25 f5 b0 40 33 53 d7 c0 5e ff 9e c0 70 a2 85 40
       5.529925 -6.728906 -4.9686728 4.176079
000260 bf ec 82 3f c4 6d 0d bf d9 6f 5f be f6 e9 ee 3e
       1.0228499 -0.55245614 -0.2182001 0.46662873
000270 b2 20 25 3f d3 a6 bc be ff 73 3a 40 70 c4 ce bf
       0.64503014 -0.36846027 2.9133298 -1.6153698
000280 0e 3f 2d c0 b4 f1 05 40 6c 20 83 3f 8f da 82 3f
       -2.7069736 2.0928774 1.0244269 1.0222949
000290 99 39 4d be 80 ed f0 bf ec 4b 86 bf 8a da 07 c0
       -0.20041503 -1.8822479 -1.049192 -2.1227136
0002a0 22 85 69 bf 79 78 1c c0 b5 cd 7c 40 c0 f0 b4 3e
       -0.9121877 -2.444853 3.9500554 0.35339928
0002b0 2c ff f7 bf 79 42 78 bf 45 de 68 be 6a 13 d2 bf
       -1.9374747 -0.9697643 -0.22741039 -1.6412175
0002c0 1f fb 2c bf 72 a3 bd bf a8 dc 03 3e 6e 00 8b c0
       -0.6757068 -1.4815505 0.12877142 -4.3438025
0002d0 7e 36 ab bf 70 3a 05 c0 ed 21 18 c0 40 ec 0f 40
       -1.3376005 -2.0816917 -2.3770707 2.2487946
0002e0 b7 f9 80 be 96 ef 91 bc f7 cd 44 bc 5b 56 f0 bc
       -0.25190517 -0.017814439 -0.0120119965 -0.029338052
0002f0 80 0a 84 3c ef 96 db 39 a8 03 0a bd 66 57 9e be
       0.016118288 0.0004188339 -0.033694893 -0.30926055
000300 36 f1 2b 3f 3e 80 0e 3e 24 cf 5a 3f 2c c9 8d 3f
       0.67164934 0.13916108 0.8547232 1.1077018
000310 f7 34 5f bf 94 55 21 be 94 a2 8a bf d3 08 ab bc
       -0.8719019 -0.15755302 -1.0830865 -0.020878231
000320 ef 13 32 3f 0e d8 1d 3f cb ab 80 3f 9e 6f 03 bf
       0.69561666 0.616578 1.0052427 -0.5134219
000330 71 68 00 bd 4e e2 0a 3f 13 3f 8a 3f 67 04 ec 3f
       -0.031349603 0.54251564 1.0800499 1.8438843
000340 94 29 b7 3e 24 56 ab be f5 0a 64 bf ad 7f 74 be
       0.3577391 -0.33464158 -0.8907922 -0.2387683
000350 02 9f 43 bf b7 3c c4 3e 93 d3 91 3f 86 a3 6a 3e
       -0.764145 0.38327572 1.1392692 0.22913942
000360 7b 49 6d be 5a ba bb bc 99 f4 80 3f 2b db 3c 3f
       -0.23172562 -0.022916008 1.0074645 0.73771924
000370 1a 66 6b 3f ed 12 38 3e 29 26 84 be bf db 41 3c
       0.9195267 0.1797597 -0.25810364 0.011832177
000380 11 eb 86 3f ee 25 2f 3f a6 ab 75 3f 54 80 05 bf
       1.0540487 0.6841725 0.9596504 -0.5214894
000390 fa 25 bf be 1a 6e 8f 3e 52 57 87 be 07 a0 dd 3f
       -0.3733366 0.28013688 -0.26433808 1.7314461
0003a0 3e 90 ff 3d 7c e2 cc be ca 4d 99 be 13 8f a0 3e
       0.12478684 -0.40016544 -0.2994216 0.31359157
0003b0 4d 71 8c be 7e 63 00 3f a2 b6 8e 3d 68 e5 c5 be
       -0.27430192 0.50151813 0.06968428 -0.38651586
0003c0 e8 c2 90 be 54 38 b2 3e 4c ef 5b be af d3 00 3f
       -0.28273702 0.348086 -0.21478003 0.50323004
0003d0 b9 1b 87 3d dd ed 15 bf 7f a2 bd be cd f5 9e 3f
       0.065970846 -0.58566076 -0.37038037 1.2418762
0003e0 75 04 b0 3f fe 3d fc 3e e7 38 22 bf a9 66 79 be
       1.375136 0.49266046 -0.63368076 -0.24355568
0003f0 c1 87 21 bf 11 bd 23 3e 86 de a4 3f e2 9a d2 3e
       -0.6309777 0.15990092 1.2880409 0.4113379

bias f4 [230]
000000 ac 5c 3d be 70 78 6a be de 4f b0 bf 9f cf 5c bf
       -0.18492383 -0.22897506 -1.3774374 -0.86254305
000010 ca 51 02 3e 50 11 3a bf df 67 65 be 0c 91 7e bf
       0.12726513 -0.72682667 -0.22402905 -0.99440074
000020 fd 7d 26 bf 7d f6 9a 3e 68 aa 11 bf bb e9 34 bf
       -0.6503599 0.3026618 -0.56900644 -0.70669144
000030 55 69 85 bf c6 0c 5e bf 2d cc 89 be fe bb 00 bf
       -1.042277 -0.8673824 -0.26913586 -0.50286853
000040 db 53 d2 be 09 45 1c bf 19 2f c0 be c7 bb 94 be
       -0.41079602 -0.6104284 -0.37535933 -0.29049513
000050 dd 45 89 be 37 ff a6 bf cb 87 a1 be 47 14 58 be
       -0.26811114 -1.3046635 -0.31548914 -0.21101485
000060 87 c2 5c bf a9 9d 80 be e6 a8 b5 be 90 46 3c bf
       -0.86234325 -0.25120285 -0.35480422 -0.7354517
000070 37 23 18 bf 62 67 09 bf f9 41 e0 be 81 aa 81 bf
       -0.59428734 -0.53673375 -0.43800333 -1.0130159
000080 6d 7c fd be b1 8d 29 be 12 e4 f3 be a1 fd 97 be
       -0.49508992 -0.16557957 -0.4763494 -0.2968569
000090 8e f9 a3 3e db e9 0a bf d4 ce 2d bf 60 d7 83 3d
       0.32026333 -0.54263085 -0.6789372 0.06437564
0000a0 7f 1e 23 bf ca b3 4d bf dc 1e 6d 3c 8c 5b b9 be
       -0.6371841 -0.8035246 0.0144726895 -0.36202657
0000b0 cf 33 10 bf 34 36 c3 3e 08 91 d4 be f6 3c f8 3e
       -0.56329054 0.3812729 -0.415169 0.4848401
0000c0 3c c6 17 bf 52 0b 17 bf fd fe 50 bf 56 85 0c bf
       -0.59286857 -0.5900165 -0.8163908 -0.54890954
0000d0 f0 cb 15 bf 32 0b fe bd 26 ec dc bd 71 c1 93 be
       -0.5851431 -0.12404479 -0.10787229 -0.28858522
0000e0 4d 4f db be c8 e9 fa 3d 57 bd a8 3e 3a 40 bc 3e
       -0.4283394 0.122516215 0.32956955 0.3676775
0000f0 61 8d e7 be 49 51 22 bf c3 fd ee be 13 c3 18 bf
       -0.4522505 -0.6340528 -0.4667798 -0.5967266
000100 58 df 06 bf e2 f1 d1 3d cf 45 3c bf 8e af 1c bf
       -0.52684546 0.102512136 -0.7354402 -0.61205375
000110 72 00 52 bf 71 fb 6e be f8 56 3f be 3b c4 ab bd
       -0.8203193 -0.23338105 -0.1868552 -0.08387037
000120 8b 2b 1c 3e 0e 3f a5 3d 16 7a 2e bf 6a c3 f5 be
       0.15250985 0.08068667 -0.6815504 -0.48000652
000130 1f 1c a5 be fb 28 c1 be 18 25 42 be 3c 86 1e bf
       -0.32248017 -0.37726578 -0.18959463 -0.61923575
000140 10 79 0f bf c4 06 75 be be 03 00 bf 13 c1 d2 bb
       -0.560441 -0.23928362 -0.5000571 -0.0064317076
000150 2b 2c 85 be f2 e8 1f 3e 00 7a 3d bf 63 8a 07 3e
       -0.2601026 0.15616205 -0.7401428 0.13236384
000160 05 87 91 be fc 72 49 bf ae 85 1a bf 9f 3f d2 be
       -0.28423324 -0.7869108 -0.6036023 -0.41064164
000170 85 15 57 be f9 06 30 be 1c d7 2f bf 7b db 6e bf
       -0.21004303 -0.1719016 -0.68687606 -0.9330365
000180 cf aa 9b be 78 a6 51 bf a4 f9 2c bf c3 5d ab bf
       -0.30403754 -0.81894636 -0.6756842 -1.3387989
000190 b9 71 3a bf 13 ce d2 be 30 3a 35 bd d8 eb 72 be
       -0.72829777 -0.41172847 -0.044244945 -0.2372278
0001a0 fd ed 8d bf 97 56 92 be cf e4 83 be 65 02 80 bf
       -1.1088253 -0.28581688 -0.25760505 -1.0000731
0001b0 3b 43 c2 be b6 1b ab be f8 5b f7 be 60 ad 18 bf
       -0.37941918 -0.3341958 -0.48312354 -0.5963955
0001c0 b4 e0 29 bf fb 44 8c be 65 9e ec bd 50 6a 95 3d
       -0.66358495 -0.27396378 -0.11553649 0.07295668
0001d0 1c 1d 02 bf 60 c4 e4 be 39 ae 13 bf 31 7b 0f bf
       -0.5082567 -0.44681072 -0.5768772 -0.5604735
0001e0 b0 54 22 bb 60 cf 90 be 7b 2d 9d be 77 74 47 3e
       -0.0024769716 -0.28283215 -0.3069876 0.19478022
0001f0 b4 3f 59 be dc 75 9b bd bd 80 0e bf 7f e8 21 be
       -0.21215707 -0.07590839 -0.5566519 -0.15811346
000200 9d c0 98 bc 39 41 c3 be e8 57 23 bd 5a 91 d2 bd
       -0.018646533 -0.38135698 -0.039878756 -0.1028163
000210 43 4b 0d 3e 09 f6 fd be cf e8 e5 3d a5 43 ef bd
       0.13798241 -0.49601772 0.11226045 -0.11682824
000220 df ce 75 bf fb ec ae bf e9 ac f1 be d8 dd c3 be
       -0.96018785 -1.3666071 -0.47202232 -0.3825519
000230 6d f2 e8 be 56 e1 79 be 98 de 2c bf 05 0f 50 bf
       -0.45497456 -0.24402365 -0.6752715 -0.8127292
000240 41 47 98 3e 01 db 49 bf 49 5f de be 74 a5 a5 be
       0.29741862 -0.788498 -0.43432072 -0.32352793
000250 96 ac a2 bf 51 07 1f bf d4 f2 6d be 09 83 0e bf
       -1.2708919 -0.6212054 -0.23237163 -0.55668694
000260 88 36 bd 3e aa cc 9b be 98 e0 03 bf 65 56 9a be
       0.36955667 -0.30429584 -0.5151458 -0.3014404
000270 a7 fa b3 be 88 09 80 3d e8 26 46 bf 9c 8d be be
       -0.3515217 0.06251818 -0.77403116 -0.37217414
000280 40 05 04 bf 79 40 2a be 93 cd 91 bd 7d 7e ff 3d
       -0.5157051 -0.16626157 -0.07119288 0.124752976
000290 c3 bc 28 3c 20 dc 3c bf 4c 34 b1 be 3e b1 4e bf
       0.010298911 -0.73773384 -0.34610212 -0.807392
0002a0 da 77 5f bf 37 95 db be fe 88 42 be 26 56 20 be
       -0.87292254 -0.4288728 -0.18997571 -0.15657863
0002b0 78 bb 30 be 2c 63 39 bf 1b 51 c1 be c2 54 3c 3e
       -0.17259014 -0.7241695 -0.3775719 0.18391708
0002c0 22 28 80 bf cc 09 1e be 8c f9 8d 3e 9a 47 44 bd
       -1.0012248 -0.15433425 0.27729452 -0.047919847
0002d0 c2 4a 7b 3e 8c 14 31 bf 21 c8 26 3f ea 17 2f be
       0.24540237 -0.6917198 0.6514912 -0.17098966
0002e0 08 5e 9f bf 65 b7 87 be f4 9b 3d be ca cd 55 bf
       -1.2450571 -0.26507106 -0.18516523 -0.83517134
0002f0 f7 33 82 bb a5 ea cd be a3 a8 b6 be be 04 59 bf
       -0.00397348 -0.40218082 -0.35675535 -0.8477286
000300 e1 72 89 bf 91 54 10 bf ec a0 5d bf 7d b8 0e bf
       -1.0738183 -0.5637904 -0.8657367 -0.55750257
000310 9d 76 8c bf aa 92 67 bc 7f 14 92 bd 9f e5 08 bf
       -1.0973698 -0.0141340885 -0.071328156 -0.53475374
000320 04 ad 04 bf 4d 37 5b bf 52 45 64 bf aa 66 3b be
       -0.518265 -0.8563126 -0.89168274 -0.18300882
000330 85 5e 9f be a0 01 58 be e1 13 21 bf 9a 6b 58 bf
       -0.311268 -0.2109437 -0.6292096 -0.84539187
000340 3b 1b 31 3e da 92 7f 3e f5 7c 29 bf 3b cc e0 be
       0.17295544 0.24958363 -0.66206294 -0.43905815
000350 99 b0 cb be ef a1 3d bf c1 98 a9 3e ef 25 b2 be
       -0.3978317 -0.74075216 0.33124354 -0.34794566
000360 02 76 26 bf 7c 5e 57 bf 5e cc 23 bf fe d3 b9 be
       -0.65023816 -0.84128547 -0.63983715 -0.3629455
000370 45 59 83 bf 6e 7c 18 3f c9 b1 03 bf 8e 39 bc be
       -1.0261618 0.59564865 -0.51443154 -0.3676266
000380 24 76 40 bf d6 0f 77 bf 91 62 3e bf a3 3e 1c bf
       -0.7518027 -0.9650854 -0.7436915 -0.61033076
000390 7f 75 b4 bf 0d 75 3c bf
       -1.4098357 -0.73616105

weight f4 [230, 230]
000000 4d d1 4e bd fe b7 f4 3a 17 32 20 bd 44 3d 7f bc
       -0.050492574 0.0018670557 -0.03911027 -0.015578572
000010 28 8a 19 bc a2 7b 6e bd 8d b0 38 bc 56 05 65 bd
       -0.009371318 -0.058223374 -0.011272562 -0.055913292
000020 b7 64 47 ba 23 bc 01 bd a9 eb 8a bd fd ca b1 3b
       -0.0007606255 -0.03167356 -0.0678323 0.0054258094
000030 75 21 93 3b a3 ee 46 bc 98 1a ac 3c 83 d3 2a bc
       0.0044900724 -0.012141856 0.021008775 -0.010426405
000040 7e e6 4c 3d f0 aa e4 3c ee 63 3f bd fa c4 28 bc
       0.050024502 0.02791354 -0.04672616 -0.010300869
000050 76 86 1c 3d 18 07 1b bd 72 32 1e bc 86 09 a1 bb
       0.03821417 -0.037848562 -0.009655582 -0.0049144654
000060 35 f8 32 bd 7c 59 60 3c f9 c2 90 bd 7e d1 25 3d
       -0.04369374 0.01369321 -0.07068438 0.04048299
000070 e6 9e 34 3c 1c 7d 47 3c 2a 6b a3 3b d4 7f 91 bc
       0.011024212 0.0121758245 0.00498714 -0.017761149
000080 6f fa 91 3c 91 3b c0 3c 96 71 5c bd 6e 00 bb bc
       0.017819611 0.023465903 -0.05381926 -0.022827353
000090 91 a3 d4 3b 8c 67 f2 bb 2c af 9b bb ac a4 0d bd
       0.006489225 -0.0073975977 -0.0047511067 -0.03458087
0000a0 84 b6 8b bd 71 81 5f bb b6 33 b8 ba 07 9e 86 3c
       -0.068219215 -0.0034104253 -0.0014053497 0.016432775
0000b0 77 07 cf 3b cc 7b 8d bd fb 87 69 bd f0 5a 56 bd
       0.0063180286 -0.06908378 -0.057014447 -0.05233282
0000c0 9a d6 f6 3c 1f f1 ac bd 09 b5 3c bd 7e 7e 88 bc
       0.030131627 -0.08444428 -0.046071086 -0.016661879
0000d0 3e 49 1f bd 3b 3c 12 bc 60 60 d9 bb 02 a8 c0 bc
       -0.03888821 -0.008925493 -0.0066338032 -0.023517612
0000e0 40 d1 10 bd 1c bd 80 bc 96 db 93 bc f0 ab 4e 3c
       -0.035355806 -0.015715174 -0.018049043 0.012614235
0000f0 3e bc 7a ba c5 a0 5a bd e6 40 4a bd e3 97 1f 3d
       -0.00095647934 -0.053375978 -0.0493783 0.03896321
000100 1c fc 9f bd 06 67 cb bc 0f 17 6d bd 65 a5 31 bd
       -0.07811758 -0.024829399 -0.05788332 -0.043370623
000110 bf fd aa 3c 54 33 91 bc 24 3a 03 bc d3 42 bc 3c
       0.020872949 -0.01772467 -0.008009467 0.022981083
000120 de 27 fe 3b d1 ac 05 bd 88 49 55 bd f5 3a 93 ba
       0.0077562174 -0.032635514 -0.052072078 -0.001123278
000130 cd d5 83 bd 68 c3 c4 bb 78 1a 3e bb 80 97 71 bc
       -0.06437264 -0.0060047396 -0.0029007476 -0.014745593
000140 d1 d7 83 bd 19 ff 79 bc 35 72 34 3c 47 a8 78 bc
       -0.06437648 -0.015258574 0.011013557 -0.015176839
000150 e1 af 8b bd 57 6b 1f bc 2c 8f b8 bb 24 6c ae bd
       -0.068206556 -0.009730182 -0.005632302 -0.0851672
000160 10 a1 0f bd 9d 5d 21 bc 47 50 4d bd 9c 64 ee bd
       -0.03506571 -0.009848979 -0.050125387 -0.116402835
000170 c8 b7 b2 bb 4c 87 6e bd 13 18 18 bd 81 ec 21 3c
       -0.0054540373 -0.058234498 -0.037132334 0.009883047
000180 e7 08 37 bd 1b c1 57 3c e8 67 be ba ba 73 b7 bc
       -0.044686224 0.0131685985 -0.0014526816 -0.02239405
000190 1e 1e cd 3c 6d e3 14 bc ef 70 56 bd bf 0c 07 3d
       0.025038775 -0.009087426 -0.052353796 0.03297114
0001a0 35 9f 32 bb 98 9b e1 3c fb 17 c5 bb 37 ee 03 3c
       -0.002725554 0.027540013 -0.0060148216 0.0080524
0001b0 1f 02 7e bd 3c 64 5c bd a4 ca 4f bc b6 6c 85 bd
       -0.06201374 -0.05380653 -0.012682591 -0.065148756
0001c0 7f 5e 96 bd e8 93 ad bd 94 5b 8c bd 54 a6 72 bd
       -0.073422424 -0.084754765 -0.06853405 -0.059240654
0001d0 0f e8 40 bd 43 55 7c bd b6 b1 8b bd 8c 30 a4 3c
       -0.04709631 -0.06160475 -0.06821005 0.02004268
0001e0 14 5b 30 bd 3a 57 02 3c 3f 80 9b bd 89 19 a4 bd
       -0.04305561 0.007955367 -0.075928204 -0.08012683
0001f0 78 cf 8b bc 28 23 53 bd 10 58 c7 3c b9 8d 09 bd
       -0.017066702 -0.0515472 0.024333984 -0.033582423
000200 8a 2a 6c bd fb 43 82 bd 06 d1 51 bd c3 a6 6b bc
       -0.057657756 -0.063606225 -0.05122473 -0.014383021
000210 61 b9 bb 3c ec 42 a5 bd 89 70 dd bd 5b 31 02 bb
       0.022915544 -0.08069405 -0.1081248 -0.0019865844
000220 9a ab 79 bc 84 fd 0e 3d 09 92 6f 3b 8f 71 4f bc
       -0.015238667 0.03490974 0.003655555 -0.012661352
000230 16 dc 9b bd 77 7a 9c bd 84 11 fd 3b b5 a7 d7 bc
       -0.076103374 -0.07640546 0.0077230353 -0.026325086
000240 d8 15 e8 bc 4b 73 38 b9 19 7e 85 38 b6 cd 84 bd
       -0.028330728 -0.00017590557 6.365422e-05 -0.06484549
000250 6b a7 2b 3c 40 da 48 3c 92 ac 9c bc fa e6 ec bc
       0.010476927 0.012259066 -0.019125257 -0.028918732
000260 af b9 c6 bc 63 51 98 bc 95 f5 1a bd f9 35 9d 3c
       -0.024258463 -0.018593496 -0.03783186 0.019190775
000270 ad d2 9b 3b 31 9e a9 bd 5d 94 98 3c 92 66 dc bc
       0.004755339 -0.08282126 0.018625433 -0.026904378
000280 70 0d 4a 3b 2b 7f fd bc 11 4b dc 3b d2 a4 74 bd
       0.0030830763 -0.030944427 0.006722816 -0.059727497
000290 14 ad cb bd d1 f1 cc bc 40 de 7d bc 3d ce 86 bd
       -0.099451214 -0.02501765 -0.015494883 -0.065823056
0002a0 3e 88 1b bc 72 88 a7 bd 22 53 e0 bc 5b a4 77 bd
       -0.009492932 -0.08180322 -0.02738339 -0.060459476
0002b0 4c 3e 3a 3c 11 e6 da bc e3 bc cd bc 46 29 ab bc
       0.011367392 -0.026721032 -0.025114482 -0.020893704
0002c0 33 52 46 bd a6 54 27 3d c0 90 35 3c 3c 82 6b bd
       -0.048418235 0.04085221 0.011081874 -0.057497248
0002d0 b4 be 37 bd ca cf 4c bd 01 41 a3 bd d5 dd e3 bc
       -0.044859603 -0.05000285 -0.07971383 -0.027815739
0002e0 42 45 93 3c 34 bf 51 bd 93 89 21 3d da cf 38 bd
       0.01797736 -0.051207736 0.03943784 -0.045120098
0002f0 f8 85 96 bd b0 1f 07 bd 8f 21 08 bd 5e 4f 68 bd
       -0.07349771 -0.032989204 -0.03323513 -0.056716315
000300 66 0c 64 bc 10 3b b7 3c bc ed 01 bd b7 66 3b bc
       -0.013918972 0.02236703 -0.03172086 -0.011438063
000310 66 96 91 bd a8 27 57 bd 09 42 b3 3c 1b de df bc
       -0.07108764 -0.052528054 0.021882074 -0.027327588
000320 19 00 9a bc 7f 82 70 bc 6f 79 b8 bc 29 a6 c8 bd
       -0.018798875 -0.01467955 -0.022518842 -0.097973175
000330 d0 9c 09 3c 36 a3 ae bd 01 c8 bf 3c 90 55 ee 3c
       0.008399203 -0.08527224 0.023410799 0.029093534
000340 30 2c e6 bc 10 26 0c bd db f2 6e 3c 02 47 6a 3c
       -0.028097242 -0.034215987 0.014584268 0.014299156
000350 43 c2 22 3d b2 5c a4 3b 4f 14 e4 bd 13 24 35 bd
       0.039736044 0.005015933 -0.11136686 -0.044223856
000360 9e 18 21 bc 6a b9 89 b9 22 fd 2a 3d 35 e2 33 bd
       -0.009832529 -0.0002626882 0.041745313 -0.0439169
000370 61 76 36 bd 11 71 bc bd ab 3c d9 3c ae b7 6d 3c
       -0.04454649 -0.09201253 0.026518187 0.014509125
000380 c2 2f 4a bb 31 57 0a bd 0b aa f3 bc 83 7f ee bc
       -0.003085122 -0.03377456 -0.029744169 -0.029113537
000390 4d 4a b6 3c 13 93 02 bd ad 9a 8e bd a9 51 77 bc
       0.022252226 -0.031878542 -0.06963096 -0.015095153
0003a0 d4 5f 95 bd 09 7c b6 ba cb 78 8c bd 55 5e 2e 3d
       -0.072936684 -0.0013922463 -0.06858977 0.04257043
0003b0 99 51 ea 3b cb 46 9a bd 68 e6 94 bd fe 3f be bc
       0.0071508405 -0.07533034 -0.07270509 -0.023223873
0003c0 2f 9a 93 bd 13 83 9c 3c 52 83 8d 3c 68 d9 e3 bc
       -0.072071426 0.01910547 0.017274532 -0.027813628
0003d0 0d 85 7e bd b9 51 99 3c c0 11 e7 bc 05 a7 d4 b7
       -0.062138606 0.018715726 -0.028206706 -2.5350144e-05
0003e0 b0 63 fa 3c 79 30 0f bc c0 d7 0d bd ae 09 2d 3b
       0.030565113 -0.008739584 -0.034629583 0.0026403475
0003f0 08 53 3b bd d0 35 1c 3c 0e 49 3e bd 3e 90 cb 3c
       -0.04573348 0.009534314 -0.04645639 0.024849053

bias f4 [230]
000000 a1 5d 0d be 6b 66 1e be 9d 2d 7d bd 33 08 10 be
       -0.13805248 -0.15468757 -0.06181108 -0.14065628
000010 f3 f5 f7 bd 4d e5 b9 bd 9a 6d d1 bd 9a aa 0a be
       -0.12107458 -0.09076939 -0.10225983 -0.13541642
000020 b6 70 0c be a2 c5 9c 3e 53 0d 0c be 29 61 c0 bd
       -0.13714871 0.30619532 -0.13676958 -0.09393532
000030 db cd a5 bd 2d 93 24 be 54 d1 c5 bd dc 3d 28 be
       -0.080959044 -0.16071768 -0.09659067 -0.16429847
000040 fe a2 20 be 9e 1e 10 be 5b 98 22 be 6f a2 1f be
       -0.15687177 -0.1407418 -0.15878431 -0.15589307
000050 87 24 86 bd 60 63 a1 bd 1d 09 2d bf 70 4a 9b be
       -0.06549936 -0.078802824 -0.6759203 -0.3033023
000060 5f 84 54 bd 1c f5 9a bd a2 52 bd bd df e5 3b 3e
       -0.05188405 -0.07566282 -0.092442766 0.18349408
000070 49 ec 85 bd 7f 92 73 be d2 34 86 3f 41 1e 11 be
       -0.065392084 -0.23786353 1.048487 -0.14171697
000080 6b e3 0e be b1 d1 6a bd 7e 16 9e bd 55 07 e2 bd
       -0.1395394 -0.057328884 -0.07719134 -0.11036555
000090 1c a3 0d be 77 74 48 be e5 b1 93 bd cc bb bd bd
       -0.13831753 -0.19575678 -0.07211665 -0.09264335
0000a0 60 b1 89 bd 6b 1d 00 be b4 ac a2 bd 6e d6 37 bd
       -0.06723285 -0.12511222 -0.07943097 -0.04488223
0000b0 df 65 c2 bd b5 4c 49 3e d9 c0 d5 bd 75 88 f5 bd
       -0.094920866 0.19658168 -0.104371734 -0.11988918
0000c0 b3 57 fb bd d6 11 14 be db c7 a0 bd 96 c2 58 bd
       -0.12272587 -0.14459929 -0.078506194 -0.052919947
0000d0 7f 22 a8 3e 16 c1 74 bd 62 da 65 bd 62 2a 34 bd
       0.32838818 -0.059754454 -0.05611647 -0.043985732
0000e0 db bf 62 be 19 23 21 be 1b 20 19 be ad 85 8e 3f
       -0.221435 -0.15736045 -0.14953654 1.1134545
0000f0 aa 56 da bd 41 20 1a be f1 fd 19 be 97 ea bc bd
       -0.10661061 -0.15051366 -0.15038277 -0.09224432
000100 7a a0 bf bd 3e 88 d4 bd 1c 4f 2e be 3c f5 00 be
       -0.0935678 -0.10377549 -0.17022365 -0.1259355
000110 8f fd d1 bd 52 d5 2a 3e 92 87 b5 bd 38 7a 11 be
       -0.102534406 0.16682938 -0.088637486 -0.14206779
000120 2a 4d 12 be df e3 c6 bd 26 e3 eb bd 63 35 ba bd
       -0.14287248 -0.09711432 -0.115179345 -0.09092214
000130 0e 4c d9 bd 7d 75 1f be 65 c8 9c bd 1a fa 03 be
       -0.106102094 -0.15572162 -0.0765541 -0.12888375
000140 d3 7e b6 bd ed 87 21 be 09 61 00 be 9e 5d 6e 3e
       -0.089109086 -0.15774508 -0.12537016 0.232779
000150 4b 78 3f be 74 5a 34 be 5d b4 db bd 56 80 39 be
       -0.18698232 -0.1761263 -0.10727761 -0.18115363
000160 d2 41 0d be 38 72 36 be 16 dc 8b bd 46 2a eb bd
       -0.1379464 -0.17817008 -0.068290874 -0.114826724
000170 38 d5 03 be 79 40 a8 bd 82 78 70 bd 1a 60 ba bd
       -0.12874305 -0.08215422 -0.058708675 -0.09100361
000180 39 3f de bd ed 82 31 bd 4e a1 1d be 37 5f 9d bd
       -0.108519025 -0.04333775 -0.15393564 -0.076841764
000190 13 dd 12 be 8d ef bb bd ae 4e 55 bd 05 ee 13 be
       -0.14342146 -0.0917655 -0.052076988 -0.14446266
0001a0 0a d8 e1 bd 87 94 e4 bd c5 58 96 bd e6 1a f7 bd
       -0.11027534 -0.11161142 -0.0734115 -0.12065677
0001b0 09 83 d3 bd ed 83 fa bd 38 85 94 bd 48 54 35 3e
       -0.10327727 -0.12232194 -0.07251972 0.17707932
0001c0 b4 ff a5 bd 26 a5 b4 bd 74 26 bc bd a4 16 cc bd
       -0.08105412 -0.08820562 -0.09187022 -0.09965256
0001d0 dd 72 2f be 2f 4c 37 be 7d e6 fd bd 60 77 b2 bd
       -0.1713366 -0.17900155 -0.12397478 -0.08714175
0001e0 d5 e8 97 bd b1 d7 d0 3e b6 a8 15 be d3 24 f3 bd
       -0.07417456 0.4078956 -0.1461514 -0.11872258
0001f0 5f 08 c8 bd c8 1a 8e 3f 8b ab cd bd 0f 18 07 be
       -0.09767222 1.1101923 -0.10042485 -0.13192771
000200 47 34 6f bd 2f a7 95 bd 91 e7 37 be b5 da 98 bd
       -0.058399465 -0.07307278 -0.1795943 -0.0746359
000210 97 e4 90 3e 0e e3 5c bd 89 a1 44 bd 66 e2 db bd
       0.282994 -0.053927474 -0.048005614 -0.107365415
000220 45 7e d9 bd 99 10 09 3f 88 83 f9 bd ec 5f 18 be
       -0.10619787 0.5354095 -0.12183291 -0.14880341
000230 d6 8b a2 bd b5 ee bd bd 3b 9b 01 be ed 09 01 be
       -0.07936828 -0.092740454 -0.12656872 -0.12601443
000240 97 cc 04 be e5 87 86 bd 10 0c 1d be d4 20 24 be
       -0.1296867 -0.065688886 -0.15336633 -0.16028148
000250 1b fa 3f bd 92 79 11 be b9 d4 6f be 90 35 7e bd
       -0.04686938 -0.14206532 -0.23420991 -0.0620628
000260 1d 40 38 be 95 62 f3 bd 53 73 c0 bd 20 af 98 3f
       -0.17993207 -0.118840374 -0.09396996 1.1928444
000270 84 d6 66 3d f1 c8 02 be 0b 7e 10 be 4e 66 d4 bd
       0.05635692 -0.12771966 -0.14110582 -0.103710756
000280 0d 10 a4 bd ca 64 df bd e2 15 e3 bd 9b 87 c5 bd
       -0.08010874 -0.10907896 -0.11088158 -0.09645005
000290 6d 59 ed bd b2 ab d9 bd f2 33 66 bd 74 51 28 be
       -0.11589322 -0.106284514 -0.056201883 -0.16437322
0002a0 a3 55 90 bd 4b 4f 16 be 2e 4d ef bd 1f f2 87 bd
       -0.07047584 -0.14678685 -0.11684643 -0.06637978
0002b0 90 94 18 be 31 da 71 bd 23 41 84 bd a5 f5 30 3e
       -0.14900422 -0.059045974 -0.06457736 0.17281206
0002c0 31 42 ec bd 13 8f 4d bd e4 56 fd bd 5c 4a fb bd
       -0.115360625 -0.050185274 -0.12370089 -0.12270042
0002d0 48 6b fb bd 8f 5b 4f bd 7b 53 bd bd 55 74 11 be
       -0.12276322 -0.050624426 -0.09244438 -0.14204533
0002e0 0c c0 11 be f2 1e 82 bd 26 54 2d be df dd 7d bd
       -0.14233416 -0.063535586 -0.16926631 -0.06197917
0002f0 dc e8 e3 bd 2c f8 96 bd d7 56 a8 bd db 08 ff bd
       -0.11128399 -0.07371554 -0.082196884 -0.12452861
000300 ea 66 02 be f1 18 16 be b7 9f eb bd 61 cd ae bd
       -0.12734571 -0.14657952 -0.115050726 -0.08535267
000310 c0 21 65 be 59 bb c9 bd 28 71 e2 bd c5 0d eb bd
       -0.22376156 -0.09850187 -0.11056739 -0.11477236
000320 04 56 c3 bd 36 cb 29 3d de cb 36 be e1 79 a9 bd
       -0.095378906 0.041453563 -0.17851207 -0.082752
000330 c1 fb b9 bd e7 f7 2c be 30 f7 17 be e8 05 c8 bd
       -0.09081221 -0.16891442 -0.14840388 -0.097667515
000340 42 83 ff bd 84 1c c1 bd 25 47 f6 3f b6 ae 98 bd
       -0.12476207 -0.09429267 1.9240462 -0.074551985
000350 ad 1d c7 bd 5a 0b 5b bf 0a 2b b5 bd 0f 54 a2 bd
       -0.09722457 -0.85564196 -0.088461 -0.07926189
000360 d7 b5 d5 be 82 bb c3 bd 17 e0 fc bd 73 5a bb bd
       -0.41740295 -0.09557249 -0.12347429 -0.09148111
000370 72 b6 ed bd 3a 6f e8 bd 54 34 45 bd d6 dc 95 bd
       -0.11607064 -0.1134934 -0.048145607 -0.07317512
000380 85 1f 96 bd 8f a4 2b be 7d 6f cb bd c5 75 b5 3f
       -0.073302306 -0.16761993 -0.09933374 1.4176565
000390 07 c8 5b bd 4c 6c c6 bd
       -0.053657558 -0.09688625

weight f4 [17, 230]
000000 6b b4 53 bd 5e c2 37 3d e2 f5 11 3d 84 cb 13 bd
       -0.05168573 0.044863097 0.035634883 -0.03608276
000010 11 83 80 bc 62 e8 7e 3d da 4e de 3c d7 7a 5a bd
       -0.015687497 0.062233336 0.027137209 -0.053339805
000020 ce 25 4f bd f6 24 14 3d 52 56 88 3d 9a 22 be bd
       -0.050573163 0.03616806 0.06657089 -0.092839435
000030 1d 4a 8d bc 7a dc 27 3c 1a 58 73 3e 83 c1 9f bc
       -0.017247254 0.010245437 0.23764077 -0.019501453
000040 dc ce 83 bc 16 8a 90 bd 5a 9b b6 bd 1b a3 21 3d
       -0.01608985 -0.07057588 -0.0891635 0.03946219
000050 d0 d4 95 b9 8d 0c b9 3c 46 a2 2b bd 7e 20 0d be
       -0.00028578052 0.022588992 -0.041902803 -0.13781926
000060 83 9f 67 3c 0a f9 4a bd 5d 04 a5 3d 68 29 2c be
       0.014137152 -0.04955391 0.08057473 -0.1681267
000070 81 d8 77 bd e6 ab 94 be 13 ed 73 3e a6 92 d9 bd
       -0.06050921 -0.29037398 0.23820905 -0.10623674
000080 77 2c 43 be ea 36 1f bd 95 0c e5 bb af 54 2c 3d
       -0.1905993 -0.03887073 -0.0069900253 0.042072948
000090 cc ff c2 3c 47 44 20 bd 38 b7 c7 3c 65 fe 69 3d
       0.023803614 -0.039127614 0.024379358 0.057127375
0000a0 8b 1d 3d 3d ac 88 ca bc c0 a8 9c bb b1 10 55 39
       0.046170752 -0.024723373 -0.0047808588 0.00020319481
0000b0 2e ed 0d bc 37 c6 e9 bc a4 9c 00 3d 29 94 4b bd
       -0.008662505 -0.028536899 0.031399384 -0.049701843
0000c0 fb e8 23 bd 4f 86 be 3c 5c e9 97 bc 95 d8 d0 3c
       -0.04001711 0.023257403 -0.018543892 0.0254939
0000d0 a2 55 b7 3c 6d 06 d1 bc ad 20 a1 bc b9 1f df bd
       0.0223797 -0.02551576 -0.019668901 -0.108947225
0000e0 c7 ed 3b bc 66 ae 22 bd 3d 10 bf bc d5 ce 06 3d
       -0.011470265 -0.0397171 -0.023323173 0.032912094
0000f0 07 e5 f7 bd 5c 05 32 bd 1f a5 86 bc 3e 54 41 3c
       -0.121042304 -0.043462142 -0.016436158 0.01179987
000100 ed c1 fd 3a 90 99 47 bd 8e 89 3d bc 43 a8 db bd
       0.0019360163 -0.048730433 -0.01156844 -0.10725453
000110 50 a1 0e 3c df db 4e bd ed d0 22 3d 28 44 38 3b
       0.008705452 -0.050502654 0.03975003 0.0028116796
000120 bd 8a 3b bd 4c 65 74 3c 64 1b 5c bc dd 05 c0 3b
       -0.045786608 0.014916729 -0.013434265 0.005860074
000130 eb 96 63 3a c2 90 c7 bc b2 f9 47 bd 89 fc 2b 3c
       0.00086818513 -0.024361018 -0.048822112 0.010497221
000140 62 3c c8 3d 49 5d 84 3c 2f 15 75 bd 36 0a c6 3d
       0.09777142 0.016157763 -0.059834655 0.09669916
000150 f1 07 08 bc 8c 93 58 3e 7b 0d 86 3d b0 9a 41 bc
       -0.008302675 0.21150035 0.0654554 -0.0118166655
000160 56 61 13 be b0 56 8c bc b6 b0 20 3c 5f 6b 64 3d
       -0.143926 -0.01713118 0.009807756 0.05576646
000170 58 f9 15 3d 1d c5 ef bc 4a 72 a5 bd f0 81 0a 3d
       0.036614746 -0.029268796 -0.080784395 0.033815324
000180 02 1b 9a 3b ed a6 f3 bc 27 9e 90 bc 5b 15 da bc
       0.0047029266 -0.029742682 -0.017653538 -0.026621511
000190 11 02 cc 3b 88 f7 07 3c f0 40 a7 bd 02 7e df bd
       0.0062258323 0.008298762 -0.08166683 -0.10912706
0001a0 28 67 40 3d ef 8a 2d 3d 65 80 0b be 78 2f 3a bd
       0.046973377 0.042368826 -0.13623197 -0.045455426
0001b0 98 34 78 bd cd 3b ba bc 04 7a da b9 30 17 d1 bd
       -0.060597032 -0.022733593 -0.0004167111 -0.10209501
0001c0 47 7f 88 bc a7 af a3 3c 2b 5e 8c 3d dc 41 e4 3a
       -0.016662253 0.019981219 0.068538986 0.0017414647
0001d0 95 ff 40 bb 04 78 40 bd 49 f5 5d 3d a7 4e 03 be
       -0.0029449214 -0.046989456 0.054189 -0.12822972
0001e0 b7 18 c2 bc 5f 9b 5c bb 36 75 c6 3d 04 93 63 bd
       -0.023693426 -0.0033661944 0.09690325 -0.055560127
0001f0 18 1b 32 3e 6a 69 7e 3d 93 ba c8 bc 45 d6 c3 bd
       0.17393148 0.06211225 -0.024503028 -0.09562353
000200 92 cd 1c 3d 10 d0 5a bd 9b 89 c4 bd 4b 53 c9 3c
       0.038281985 -0.05342108 -0.09596559 0.02457585
000210 40 c5 65 bd 94 22 a8 3d 7a bd df bc 52 e6 94 bd
       -0.056096315 0.0820972 -0.02731203 -0.072704926
000220 97 7c c5 3b d0 38 0a bd df 64 e5 bc d3 cc 0b 3d
       0.006026815 -0.033745587 -0.0280022 0.034130882
000230 ad 9e 88 3d 12 88 d8 bd ae 26 83 bc 21 88 6c bd
       0.0667089 -0.10572828 -0.016009655 -0.05774701
000240 b5 01 62 3c e1 6e 99 3c 2e 98 66 bd 40 56 14 bd
       0.013794352 0.018729629 -0.056297474 -0.036215067
000250 0c 04 42 3d f5 6a a3 3c 9b 15 15 bd a2 c8 c7 bd
       0.04736714 0.019948462 -0.036397558 -0.097550645
000260 64 01 05 be 8c 52 eb bd 9c 0f 87 bd f4 02 86 3d
       -0.12988812 -0.11490354 -0.06594774 0.06543532
000270 d6 c8 af 3b bd 46 41 bd 06 a6 2e 3d 5a 5d 9b 3d
       0.0053645177 -0.047186602 0.0426388 0.07586165
000280 03 7c 85 bc 46 79 90 3c 15 ce 27 3d 29 10 a8 bc
       -0.016294485 0.017635953 0.04096802 -0.020515518
000290 5b fa f9 3c 59 42 e1 bb 8c 9a 29 bb 7b ef c1 3c
       0.030514887 -0.0068743643 -0.002587947 0.023673763
0002a0 c9 5d 9e bc 95 6a 26 bd 29 2a 92 3d f5 cd 57 bd
       -0.01933183 -0.04062899 0.07136948 -0.05268665
0002b0 9a 23 98 bc bc c7 93 3d d9 bd 39 3d 76 0b 5b ba
       -0.018571664 0.07215831 0.04534707 -0.0008355895
0002c0 50 0c 20 3c 3e f4 aa 3d 14 55 b2 bc ec 1f 0b 3c
       0.0097685605 0.08347367 -0.021769084 0.0084914975
0002d0 ea 60 8e bc cb 36 bb bd 09 4a 72 3c dd 58 9f 3c
       -0.017380197 -0.0914131 0.014788159 0.019451553
0002e0 d6 65 09 3c 62 47 94 bd fb 8d c9 bc e2 39 da 3c
       0.008386096 -0.07240178 -0.024603834 0.026638929
0002f0 a1 8e 85 bd a2 60 ee 3d ce ef a8 bc 6d 3e 4d 3d
       -0.06521345 0.11639525 -0.02062216 0.050108362
000300 b7 c7 61 bd 81 f9 0e bd 11 d8 1b bc 67 be eb bb
       -0.055122104 -0.034905914 -0.009511963 -0.0071943286
000310 6d 39 3d bd b5 4d 99 bd 6a b6 4c bd e1 a2 30 bd
       -0.046197344 -0.074855246 -0.04997865 -0.043124083
000320 33 a3 81 bb 0d dc 35 be 75 38 15 bc 3d 83 87 bd
       -0.0039562224 -0.17759724 -0.009107699 -0.066168286
000330 2b f3 22 bd 14 01 36 3b d1 7a 93 bb 3f e0 80 3b
       -0.039782684 0.0027771639 -0.004500725 0.003932982
000340 06 65 f4 bd ac 3c 4c bd 5b e4 3a 3a bb 81 c6 bd
       -0.11933331 -0.04986255 0.00071293645 -0.09692713
000350 13 4a d1 3b c7 9b b9 bd 20 1c 2b bd 53 3e ec bb
       0.006387004 -0.09062915 -0.04177487 -0.007209578
000360 82 88 b8 3d 18 c9 a8 bb 39 b4 f3 bd 4d 7a 15 3c
       0.09010412 -0.0051509254 -0.11899609 0.009123397
000370 81 ee db bc 07 58 57 bb 6a 1b 94 3d 1a 27 01 3d
       -0.026847126 -0.0032858865 0.07231791 0.03153143
000380 22 36 d1 3d b9 66 7f bc e5 39 61 bd 46 cb 34 bd
       0.10215403 -0.015588456 -0.054986853 -0.04413917
000390 ef 44 21 3c 2b b1 cd 3a e7 f3 7f bd d1 b2 46 bd
       0.009843095 0.0015693059 -0.062488463 -0.048510376
0003a0 46 a9 cc 3c 2a 77 0e bb 35 72 39 3d 66 72 f9 bc
       0.02498306 -0.0021738508 0.045274932 -0.030450057
0003b0 11 0e 90 3b e0 6b a0 3d 9a 46 ed 3c 72 37 81 bd
       0.004396208 0.078330755 0.02896433 -0.063094035
0003c0 84 86 1a 3d 03 6f ab bd a8 0c 84 bb bb a9 ce bc
       0.03772594 -0.08370783 -0.004029829 -0.025227418
0003d0 2b ae b5 3d a4 2d 98 3d 30 f6 42 bd a1 77 c2 3d
       0.088711105 0.0743058 -0.047598064 0.09495474
0003e0 08 04 22 3c 90 98 b7 bd 80 df e4 3c c2 f2 a9 3b
       0.009888656 -0.08964646 0.027938604 0.0051864097
0003f0 b5 87 d4 bb 5d 99 fd bc cc c2 2f 3d f4 d4 78 3d
       -0.006485904 -0.030956918 0.042910382 0.060749963

bias f4 [17]
000000 f3 45 37 3f e2 23 2f 3f 6a 94 d4 3e 67 e3 24 3f
       0.7159111 0.6841413 0.4151948 0.6440949
000010 f3 6d a8 3f 91 c4 03 c0 53 e2 b2 3f 89 b6 8b 3f
       1.3158554 -2.0588725 1.3975319 1.091508
000020 48 0d d6 bf c2 34 f1 bf 17 cf c4 3f 4c 32 c0 be
       -1.6722803 -1.8844225 1.5375699 -0.37538373
000030 48 68 7a 3f df 42 92 bf 8f 5c f7 3e 24 cd 1f bf
       0.9781537 -1.1426657 0.48312804 -0.62422395
000040 76 69 d7 3d
       0.10518162

weight f4 [17, 230]
000000 68 eb 83 3c 6e 41 46 3d 0b 30 82 3d 2c 11 58 3c
       0.016103461 0.048402242 0.0635682 0.013187688
000010 72 9c 5a 3d d1 0a 90 3d cf fe a8 3d 89 ef d0 3d
       0.053371854 0.07033313 0.08251726 0.10201938
000020 02 64 da 3c 7f 39 bb 3b a8 b6 01 3d 21 9c 3b 3c
       0.026659016 0.005713641 0.031668335 0.011450798
000030 d3 31 2c 3d a7 32 8f 3c 1f 0a f5 3d d6 33 55 3d
       0.042039704 0.017480208 0.11964821 0.052051388
000040 be 4e 1d 3c 34 d7 31 3d b8 6f 97 3d c3 20 2e 3d
       0.009601293 0.043418124 0.073943555 0.042511713
000050 2d 18 6f 3d fe 85 8e 3d be 9b 85 b7 e6 8f 8c 3b
       0.058372665 0.06959151 -1.5927359e-05 0.004289615
000060 53 4c 8f 3d 1e 9a cc 3c c6 14 55 3d 75 da 3a 3b
       0.069969796 0.024975833 0.052021764 0.0028511558
000070 82 4d 9e 3d d9 58 8e 3c 55 da 42 3c ab cb dd 3c
       0.07729627 0.01737635 0.011892875 0.027074656
000080 52 fb 0c 3e 8e 58 7b 3d 0d 1f 40 3c 70 ef 11 3d
       0.13767746 0.06136375 0.011726153 0.035628736
000090 93 c4 d1 3d f3 fc 58 3b 9b 5d 9b 3d 22 28 4d 3d
       0.10242572 0.0033109754 0.07586213 0.0500871
0000a0 91 57 89 3d 68 98 bd bc d5 25 e2 3c 77 64 af 3d
       0.06706155 -0.023143962 0.02760593 0.08564084
0000b0 a8 98 60 bb 05 fc 40 ba 46 41 f3 3d e4 96 b8 3d
       -0.0034270678 -0.00073617726 0.11877684 0.09013155
0000c0 2c 17 06 3d 79 dc 98 bc 15 4c e1 3b 32 51 67 3d
       0.032736942 -0.018659817 0.0068755248 0.05647392
0000d0 1a f9 b0 ba 3b 3a 16 3d 05 e1 51 3c df 51 38 3d
       -0.0013501972 0.036676627 0.0128099965 0.044999953
0000e0 2c 0e bc bb af b7 c7 3c 0c 89 bd bb de 35 72 bb
       -0.005738994 0.02437958 -0.0057841595 -0.0036958377
0000f0 97 db e6 3c 20 cd 58 3c 91 61 3f 3d 34 1c cd 3c
       0.02818088 0.013232499 0.046723906 0.025037862
000100 0f 1e 1a 3c 63 80 6f ba 57 a4 11 3d a2 00 e6 3c
       0.009406581 -0.00091362576 0.035557117 0.028076474
000110 ff 43 c6 3b e8 27 59 ba 85 90 e6 3d 01 fd c9 3d
       0.0060505862 -0.00082838396 0.11258034 0.0986271
000120 c5 e5 8c 3d ba 10 d3 3d 2d b0 c6 3c d2 dd f2 3c
       0.068797626 0.10305925 0.024253929 0.029646788
000130 dd 74 1b 3d a4 91 8b 3d 32 2f c1 3c 2b 1c 8b 3d
       0.037953246 0.06814888 0.023582075 0.06792482
000140 cb 53 73 3d 0b 98 0e 3c 56 b8 d3 3d 8d 68 ac 3b
       0.059406083 0.008703242 0.10337894 0.005261487
000150 0b 66 32 3d 4b 01 1c 3d 98 21 9a 3d 7e d6 6a 3d
       0.043554347 0.03808717 0.07525939 0.057333462
000160 87 4f d1 3d 68 ce 47 3d b1 6d f5 3c aa c3 52 3d
       0.10220247 0.04878083 0.029959532 0.05145613
000170 8a 45 81 ba 4a 89 99 3c ab f0 17 3d e4 a6 c6 3d
       -0.0009862643 0.018742222 0.037094753 0.096998006
000180 e8 03 eb 3d d7 4c 1f 3c a6 9e 86 3d a2 06 81 3c
       0.114753544 0.00972291 0.065732285 0.015750233
000190 f8 ac 8c 3b b7 1d 3d 3d ea 15 06 3d 72 1f d6 3d
       0.0042930804 0.046170916 0.032735743 0.104552165
0001a0 ab 77 33 3d 2f 0a e6 3c 46 40 13 3d 28 a5 e1 3d
       0.043815296 0.028081028 0.035949968 0.11017829
0001b0 22 75 94 3d 64 42 86 3c 54 98 30 3d 99 d5 f0 3b
       0.07248904 0.01638908 0.04311402 0.0073496816
0001c0 d7 57 3d 3d 8c 7c b0 3c 94 53 6f bc 58 26 0d 3d
       0.04622635 0.021543764 -0.014607329 0.034460396
0001d0 a5 96 70 3d f8 4e b2 3d e3 24 70 bc 95 f9 34 3d
       0.058737416 0.08706468 -0.014657232 0.044183332
0001e0 86 09 fc 3c 64 60 4a bb bb 58 b4 3c e5 7a 5a 3d
       0.03076626 -0.0030880207 0.022014966 0.053339858
0001f0 c7 05 4f 3b a1 0c f5 bb a4 e6 f2 3c 49 7c 56 3d
       0.0031589137 -0.007478312 0.029650994 0.05236462
000200 8b 94 86 bc 0e 91 29 3d 4e ba a6 3c 58 71 4e 3d
       -0.016428253 0.0413981 0.020352509 0.05040106
000210 e9 38 10 bc 3e a8 1b 3d 7f f9 00 3e 98 d9 1d 3c
       -0.008802631 0.038002245 0.12595175 0.009634398
000220 41 4a 86 3d 91 7b 08 3b 0b 42 ad 3c 63 1c f3 3c
       0.065571316 0.0020825604 0.021149656 0.029676622
000230 58 3c 29 bc 11 34 69 3d a5 bc 60 3d 1b 5d 42 3d
       -0.0103293285 0.05693442 0.054867405 0.047452074
000240 81 3f a9 3c 6d d1 b7 3d 49 a0 8a 3d fe da 00 3d
       0.020660164 0.08975492 0.06768853 0.031458847
000250 63 18 b3 3c ba 78 29 3d 50 79 59 bb 03 25 5c 3d
       0.021862214 0.0413749 -0.003318388 0.053746235
000260 07 25 41 3d 86 e2 d5 3d 01 26 74 3d 8f 01 5d bc
       0.047154453 0.104435965 0.059606556 -0.013489141
000270 9d 1b 14 bc cc 06 86 3d 32 16 49 3c 47 72 50 3d
       -0.009039787 0.06544265 0.012273358 0.050890233
000280 1c 1f 5b 3c 73 f9 31 3d fe b9 0c 3d a0 5b bd 3d
       0.013374116 0.043450784 0.034357063 0.09245992
000290 98 3e 2d 3d 8e 2b 07 3d c8 c5 b6 3c fa 8e bf 3c
       0.042296022 0.03300052 0.022311106 0.023383606
0002a0 12 57 77 3d b8 7d 92 3d de a0 de 3c 02 b5 5d 3d
       0.06038577 0.07152885 0.027176317 0.0541277
0002b0 cc c7 22 3d cd 73 99 bc 04 7a 14 bc 73 c6 56 b9
       0.039741322 -0.018731976 -0.009062294 -0.00020482558
0002c0 81 b2 d7 3c 6c 45 1d 3d 2a be 1d 3d 95 e0 d5 3c
       0.026330234 0.038396284 0.038511433 0.026108066
0002d0 ff cc 52 3d 19 e9 5e 3c 13 01 5f 3d a3 49 24 3d
       0.05146503 0.0136053795 0.054444384 0.040109288
0002e0 f9 32 1d 3b d7 70 8f 3d f7 db a3 3d e1 2e d6 3c
       0.002398668 0.07003944 0.08000939 0.0261454
0002f0 7e fb 98 3d d2 c8 a2 3c ae c1 8d 3d e5 bd f3 3c
       0.07469843 0.01987115 0.06921707 0.029753635
000300 cf a1 8e 3d f8 6a b8 bc 01 92 88 3c 15 ed 6a bc
       0.06964456 -0.022511944 0.016671183 -0.014338751
000310 4f 48 aa 3c 1b f9 17 3c b7 53 60 3d e0 f3 87 3c
       0.020786433 0.0092757 0.054767337 0.01659578
000320 00 fb 70 3d 42 32 f1 b9 52 ad 6d 3d be 22 30 3d
       0.058833122 -0.00046004547 0.05802662 0.043001883
000330 c0 2e 08 bb 3a 8c 58 3d 6a 14 17 3d 5c af bc 3c
       -0.0020779818 0.052868105 0.036884703 0.023032837
000340 3a f9 cc 3d b2 8e 94 3c 4b 39 b0 3b 17 9a ff 3c
       0.10008474 0.018134449 0.0053779236 0.031201405
000350 e4 2d ed 3c e4 8c d1 3a 2c 84 8a 3d 85 3a 33 3e
       0.028952546 0.0015987423 0.06763491 0.17502792
000360 d0 47 d2 39 30 b5 b5 3c c4 61 03 3d 1f 23 6d 3d
       0.00040107826 0.022181123 0.03207566 0.057894822
000370 3c 11 3b 3d 27 48 7b 3d 92 6d 29 3d 16 dd 19 bc
       0.045670733 0.061348107 0.04136426 -0.00939109
000380 05 85 a5 3d b3 c7 9d 3d 4d 1b 27 3d 59 75 00 39
       0.08082012 0.07704105 0.04079752 0.00012250747
000390 d2 b7 50 bc c9 ec ad 3c 79 3e 01 3d 44 7e a5 3d
       -0.012739139 0.021231072 0.03155372 0.08080724
0003a0 43 c5 51 bc 61 76 8c bc 03 14 e7 3c 3f ec c6 3b
       -0.0128033785 -0.017146291 0.028207785 0.006070643
0003b0 bf af 13 3d 4f d0 99 3d 4d 24 d6 ba a3 73 2d 3b
       0.036056276 0.07510435 -0.0016337723 0.002646663
0003c0 05 bf 44 3d 16 e9 9a 3c b6 e3 7c 3d 98 68 1d 3d
       0.048033733 0.018909972 0.0617406 0.038429826
0003d0 70 d4 6d 3d 61 41 bb 3c 5f 6d a5 bc 5b c1 91 3d
       0.058063924 0.022858324 -0.020193754 0.07116958
0003e0 59 d1 3d 3d d8 13 92 3c be e6 46 3c 99 33 a5 3d
       0.046342228 0.017831728 0.012139974 0.08066482
0003f0 db 40 09 3c 53 ec cf 3b bc 56 71 3d 18 9b 2e 3d
       0.008377279 0.0063453107 0.058920607 0.042628378

bias f4 [17]
000000 4a f4 46 3e 75 70 8c 3e 36 94 b0 3e d6 19 b4 3e
       0.19429126 0.27429548 0.34488076 0.3517596
000010 66 2d 98 3e 78 c3 88 3e a0 99 94 3e 7a 24 b7 3e
       0.29722136 0.2671163 0.29023457 0.35770017
000020 7a d2 94 3e 00 d7 84 3e c2 eb 95 3e e7 59 a7 3e
       0.2906683 0.25945282 0.2928143 0.32685778
000030 a3 d2 9e 3e 54 51 a0 3e b9 d2 ae 3e 81 ff b2 3e
       0.31020078 0.31312048 0.34145144 0.3496056
000040 71 2a b0 3e
       0.3440738
