SAC-cleanrl/models/pruning/SAC-HalfCheetah-v4-0.7-l1.onnx (onnx, 33957 bytes, 8 tensors)

fc1.weight f4 [76, 17]
-3.7040207 -7.35717 -1.7900938 -1.675274 -0.03605251 -0.51727873 -0.33382228 -0.32809648
0.019484531 -0.18518148 0.13441288 0.081731446 0.03222702 0.014505442 -0.0208373 -0.026476914
-0.019086063 1.2597653 -6.204133 -1.1615391 -1.1576499 -0.067810655 1.8722912 1.5318145
0.45236608 -0.084720194 0.4767319 -0.8910817 -0.010117194 -0.09615198 0.012640458 0.038577855
-0.020355443 -0.01780376 -7.74864 -3.332346 -1.195271 -0.5841051 -0.07261239 -0.20387249
0.030518161 -0.05270414 0.0144215105 -0.68686247 -0.49107885 -0.103955925 -0.0884556 -0.010877861
-0.034039773 -0.025734365 -0.0119691 8.328437 1.4284883 2.0380473 0.12455184 0.05006256
0.6239236 0.07304666 0.085453704 -0.007442123 1.090338 0.6960748 0.14405464 0.12975416
0.013950598 0.05020061 0.020698411 0.0058869417 6.178532 -1.1084008 -0.32407185 -0.34691116
-0.45129612 4.1157627 0.39003545 -0.16829167 -0.08304755 -0.02205579 0.38314116 0.027130872
0.018429898 0.03618521 0.09578924 0.024754355 0.007564563 -15.744274 3.47853 0.58679897
-0.16751833 -0.19304204 -3.085078 -1.7358291 -1.1816652 -0.038733423 -0.89528537 0.33118352
-0.014842107 0.004520655 -0.0045175836 -0.037884947 0.038715925 -0.0015369686 8.054979 -1.956238
-1.0944291 0.36734137 -0.34759843 -1.2697486 -0.1869448 0.30406144 0.08409373 0.8740233
-0.1600781 0.0019318942 0.026046375 0.017416734 -0.064830765 -0.030326331 -0.008906921 -6.3002634
-3.4158006 0.19575068 0.042283744 -1.605442 -0.2202796 -0.055666424 -0.2991835 -0.10307974
-0.8546126 -0.30684873 -0.061991166 -0.017291902 -0.048118025 -0.12521006 -0.0621304 -0.049102135
13.256804 -0.28458104 0.4157811 -0.20441464 -0.107464455 0.96469057 -0.31304303 -0.27074823
0.070018776 1.0987896 0.050760157 0.034187924 0.057448603 0.019416906 0.084069125 -0.00015280458
0.0034149596 10.046373 -3.6873605 -0.7120114 -0.09219358 0.1663717 -0.92115766 -0.17644489
0.066791415 0.030897183 1.5405818 -0.41312718 0.09271719 0.05004618 0.010084672 -0.1775183
-0.0875723 -0.04801484 8.592448 4.935747 1.4793034 1.6127524 0.22532646 0.43159938
0.16311672 -0.020193672 -0.039893907 0.43607068 0.11140764 0.009826539 0.04718844 -0.006658332
0.02074371 0.0037187533 -0.0037967237 -6.9623504 -2.1421292 -1.1267277 -0.8639867 0.62533134
0.9514908 0.35364062 0.2660076 -0.027074892 -0.6024587 0.1728027 0.08784848 -0.0078685945
0.01057086 -0.053200725 -0.0056631505 -0.008143769 3.7628357 -4.934641 0.44734842 -0.57893914
0.019750617 -1.1937034 -0.5887974 0.028804846 0.11679323 0.2998416 -0.22172628 -0.054586455
-0.004114448 -0.020676445 -0.022660624 0.027803227 0.029890135 4.8493295 -0.6113538 0.19315897
0.5737189 -0.4750247 -0.8748175 1.3685079 1.1425465 -0.90382284 0.124260664 -0.5682462
0.0021371292 -0.0255391 -0.028963337 -0.10693758 0.00014801706 -0.050244655 8.760027 -3.1990566
-0.16339709 0.16175614 0.0017904241 1.515654 1.5035436 0.67911226 -0.4086238 2.0744774
-0.8013827 -0.039807826 -0.020757463 0.014929044 0.15730867 0.021520583 0.0035204743 8.68383
00000000: ad0e 6dc0 f06d ebc0 cb21 e5bf 616f d6bf
00000010: ccab 13bd 616c 04bf c1ea aabe 43fc a7be
00000020: 069e 9f3c 37a0 3dbe 88a3 093e d162 a73d
00000030: 7b00 043d 3ca8 6d3c fcb2 aabc 1de6 d8bc
00000040: 605a 9cbc fd3f a13f 4288 c6c0 50ad 94bf
00000050: df2d 94bf 50e0 8abd 3da7 ef3f 7f12 c43f
00000060: 879c e73e c881 adbd 3416 f43e ee1d 64bf
00000070: 96c2 25bc 54eb c4bd ec19 4f3c d003 1e3d
00000080: 75c0 a6bc 31d9 91bc dcf4 f7c0 2845 55c0
00000090: a4fe 98bf e987 15bf ceb5 94bd f3c3 50be
000000a0: 3901 fa3c 4ce0 57bd 3348 6c3c 38d6 2fbf
000000b0: b06e fbbe d8e6 d4bd 3628 b5bd 0e39 32bc
000000c0: 4a6d 0bbd e0d0 d2bc 0b1a 44bc 4741 0541
000000d0: b4d8 b63f 5e6f 0240 0915 ff3d 660e 4d3d
000000e0: 75b9 1f3f 7d99 953d 5a02 af3d 0ddd f3bb
000000f0: 3290 8b3f f531 323f 0f83 133e 46de 043e
00000100: 0d91 643c 289f 4d3d b78f a93c 3fe7 c03b
00000110: 89b6 c540 14e0 8dbf bfec a5be 579e b1be
00000120: 4910 e7be 54b4 8340 bab2 c73e a754 2cbe
00000130: d514 aabd 58ae b4bc 142b c43e 9041 de3c
00000140: 4cfa 963c f136 143d 262d c43d a5c9 ca3c
00000150: 27e0 f73b 8ce8 7bc1 3ca0 5e40 7538 163f
00000160: ed89 2bbe d0ac 45be eb71 45c0 a62f debf
00000170: ce40 97bf f0a6 1ebd 6c31 65bf e390 a93e
00000180: 4f2c 73bc 0122 943b 3d08 94bb 3f2d 1bbd
00000190: 9794 1e3d 1c74 c9ba 32e1 0041 0266 fabf
000001a0: 4116 8cbf 2b14 bc3e 6cf8 b1be 1f87 a2bf
000001b0: 756e 3fbe f1ad 9b3e 5539 ac3d febf 5f3f
000001c0: 83eb 23be 9d37 fd3a 355f d53c 8aad 8e3c
000001d0: fec5 84bd ed6e f8bc 56ee 11bc c29b c9c0
000001e0: 7a9c 5ac0 de72 483e b831 2d3d 207f cdbf
000001f0: fa90 61be 7a02 64bd 942e 99be 791b d3bd
00000200: e4c7 5abf 471b 9dbe 73ea 7dbd bfa7 8dbc
00000210: 6817 45bd 1137 00be 727c 7ebd 521f 49bd
00000220: df1b 5441 9bb4 91be 43e1 d43e 1252 51be
00000230: 5316 dcbd f6f5 763f 2d47 a0be 839f 8abe
00000240: 0166 8f3d 23a5 8c3f e2e9 4f3d a308 0c3d
00000250: 3a4f 6b3d 3410 9f3c 6f2c ac3d 2b3a 20b9
00000260: 84cd 5f3b f2bd 2041 b7fd 6bc0 6146 36bf
00000270: fdcf bcbd 585d 2a3e fdd0 6bbf f8ad 34be
00000280: f0c9 883d 171c fd3c c931 c53f 6885 d3be
00000290: 83e2 bd3d 39fd 4c3d 2e3a 253c 5bc7 35be
000002a0: 1b59 b3bd 35ab 44bd ab7a 0941 a4f1 9d40
000002b0: d059 bd3f ac6e ce3f fbbb 663e 98fa dc3e
000002c0: 1208 273e 336d a5bc cb67 23bd a844 df3e
000002d0: b029 e43d 7eff 203c aa48 413d 232e dabb
000002e0: b7ee a93c 54b6 733b 74d2 78bb 93cb dec0
000002f0: a518 09c0 9d38 90bf 3b2e 5dbf b715 203f
00000300: e794 733f 6210 b53e 2632 883e 2acc ddbc
00000310: bc3a 1abf 31f3 303e e7e9 b33d 47eb 00bc
00000320: 6631 2d3c 01e9 59bd f391 b9bb 716d 05bc
00000330: 4dd2 7040 94e8 9dc0 da0a e53e 5b35 14bf
00000340: 0ccc a13c 46cb 98bf 6dbb 16bf 24f8 eb3c
00000350: 4a31 ef3d d784 993e 370c 63be 0c96 5fbd
00000360: 7ed2 86bb a661 a9bc c6a2 b9bc 98c3 e33c
00000370: 28dc f43c b52d 9b40 af81 1cbf 77cb 453e
00000380: 3edf 123f 7036 f3be 0af4 5fbf 442b af3f
00000390: f73e 923f ef60 67bf 607c fe3d 9578 11bf
000003a0: 140f 0c3b 6037 d1bc 8544 edbc 1702 dbbd
000003b0: 0735 1b39 57cd 4dbd 1229 0c41 58bd 4cc0
000003c0: 9151 27be 67a3 253e aaac ea3a f300 c23f
000003d0: 1e74 c03f 4dda 2d3f 2437 d1be 3dc4 0440
000003e0: 6b27 4dbf 880d 23bd 8e0b aabc f398 743c
000003f0: 8615 213e ef4b b03c c2b7 663b f8f0 0a41

fc1.bias f4 [76]
-0.44966695 -0.9739547 0.73451465 -1.2471454 -0.1276051 -0.83402675 -0.8717545 -2.2616913
-0.44826734 0.7553209 0.5993226 -0.9233431 -0.6354035 0.21866834 -1.1899393 -0.8476186
0.1388737 -0.4080245 -0.7974404 -0.09934481 -0.033656564 0.5949954 -0.34540257 -1.3184094
-0.83825505 0.25622573 -0.51835686 0.24365331 -1.2085166 -1.6710913 -0.4842309 0.19501714
0.3992829 0.4264769 -1.4571395 -0.4794513 -0.17650197 -1.0727322 -0.6254474 -1.3922477
-1.4468361 -1.0452352 -0.43526495 -0.72737134 -1.6630768 0.29769525 -0.9725695 -0.8037408
-1.5551273 1.0137252 -2.3589916 -0.5541392 -0.4664584 -0.26751348 -0.9769275 0.30770308
-0.27990165 -0.8720152 -0.3371392 -1.3584282 0.99553144 0.15775852 -1.4203856 -1.2218496
0.36460564 -0.098214746 0.9046835 -0.5494988 -1.0237694 -0.89735174 -0.4301509 -0.5300896
-0.7374921 -0.25172135 0.5884023 0.8031946
00000000: bf3a e6be 1855 79bf 2709 3c3f 76a2 9fbf
00000010: e9aa 02be c782 55bf 4e2b 5fbf 8dbf 10c0
00000020: 4c83 e5be b65c 413f 356d 193f 3760 6cbf
00000030: cea9 22bf 98ea 5f3e ee4f 98bf 88fd 58bf
00000040: e834 0e3e 96e8 d0be 0e25 4cbf 4b75 cbbd
00000050: 77db 09bd 9e51 183f 9bd8 b0be a4c1 a8bf
00000060: e297 56bf 0530 833e 09b3 04bf 4180 793e
00000070: acb0 9abf 52e6 d5bf 1ded f7be 93b2 473e
00000080: cf6e cc3e 2e5b da3e 8c83 babf a47a f5be
00000090: efbc 34be 4a4f 89bf 521d 20bf 2c35 b2bf
000000a0: ed31 b9bf 44ca 85bf 0cdb debe 0235 3abf
000000b0: b3df d4bf 836b 983e 51fa 78bf f5c1 4dbf
000000c0: 690e c7bf bfc1 813f b8f9 16c0 11dc 0dbf
000000d0: a3d3 eebe 87f7 88be ec17 7abf 428b 9d3e
000000e0: 454f 8fbe 633c 5fbf 829d acbe fae0 adbf
000000f0: 26db 7e3f 738b 213e 32cf b5bf 9165 9cbf
00000100: 97ad ba3e d024 c9bd 5699 673f f4ab 0cbf
00000110: e00a 83bf d8b8 65bf bd3c dcbe f4b3 07bf
00000120: 48cc 3cbf 9fe1 80be 88a1 163f 299e 4d3f

fc2.weight f4 [76, 76]
0.49321422 -0.122778 0.0538777 -0.3108465 -0.11147544 -0.3498162 -0.6427129 -0.36900294
0.46166927 -1.941987 0.32316905 0.14748523 -1.5725033 -0.2779532 -0.6979832 -0.40580338
0.37322772 -0.2693239 0.034485146 -0.33260092 0.43451485 -0.16578247 -0.045772847 -0.51876694
-0.1735941 -0.33720013 -0.22802126 0.29116356 0.020270998 -0.23732115 0.49704358 -0.1762
0.13577451 -0.03413658 -0.12335313 0.12901329 0.0580394 0.20632216 0.09009112 -0.30600327
-0.2847232 -0.048314054 0.66921973 -0.3188824 0.100241475 -0.5377797 -0.030361375 0.23837744
0.28254366 0.13421585 -0.97240555 -0.40164584 -0.25199103 -0.6377043 -0.0720577 -1.1726785
-0.117150955 -0.54263 0.41832575 -0.9432204 -0.26488218 0.29922938 -0.18602474 -1.7338105
-0.92494553 0.36804354 -0.8520985 0.05339486 -0.21721591 -1.0034115 -0.32608977 -0.59391457
-0.21138823 0.2986905 -0.24928461 -0.33589265 0.24555899 -0.0032494145 -0.31157643 -2.556935
0.060749337 -0.5966648 0.0045821276 -1.8075155 0.21749164 0.25970423 -1.7964462 0.32443094
-0.016307127 -0.09783154 0.91935945 -1.0077715 -0.3991637 -0.24042135 -0.29795143 0.27973157
0.60671294 -0.13310489 0.21343948 -0.16480953 0.016908074 -0.14510165 -0.5770544 0.10059006
0.086118475 -0.64056087 -0.04830379 0.313254 0.16828792 0.1515382 -0.3119383 -0.3982126
-0.09058766 -0.13900913 0.056534987 0.3230244 0.2548 -0.185763 0.3503 0.6368381
-0.41549295 -1.3437124 0.59362656 0.5225359 0.39758134 -0.6802505 -2.8393047 -0.17772174
0.3210362 0.10795997 -2.4152987 -0.02190726 -0.92946345 0.18751062 -0.002520661 -1.9746106
0.14331561 -0.69981796 -1.2261319 -0.6434649 -0.94090724 0.098282225 0.41449365 -0.0004911902
-0.50837654 -2.2168434 -2.9436758 -0.31041947 0.08884556 -0.6732919 0.083507866 0.31644484
0.1830082 -0.4362781 -0.54771936 -0.7578323 0.13291658 -0.2120718 -0.2513488 0.25940323
-0.13393725 -1.0464214 0.43115127 0.17697535 -0.1789579 -0.026628815 -1.7790803 0.20527774
-0.47295788 0.9005855 0.44288534 -0.19588605 0.093602866 -0.7282141 0.7037542 -0.15349075
-0.18581559 -0.46921992 0.20619245 -0.2636608 -0.21064721 0.110949785 -0.025506902 0.16233687
-0.33336312 -0.24373382 -0.04837842 -0.28961307 0.1270981 0.032402076 0.25368497 -0.3235346
-0.7316422 -0.06982937 -1.2390208 -0.61712074 -0.08507774 -0.24651076 -0.17458035 0.24060857
0.5663148 0.2730176 -1.545791 -0.23853184 -0.8823074 0.02445275 0.16702734 -0.6269567
-0.20140335 0.06496253 -0.27410284 -0.22340956 -0.25932047 0.02734672 0.16103965 -1.654439
-0.13914385 0.27874127 -0.0340694 -0.16567424 -0.0031679964 -0.6277114 -0.41078168 0.47646105
-0.31170273 -0.35701287 0.14305393 -0.7178847 -0.20696472 -2.0665438 -0.2635336 0.23637328
0.38148117 -1.109386 0.2007671 -0.6501579 0.5994426 -1.3305012 -0.046925634 -0.22624777
-1.0381097 0.1605028 -0.717566 -0.30894992 0.06828992 -0.60265523 -0.35401633 0.25157183
0.41746575 -0.22150142 0.17725398 -0.092872635 -0.30218533 0.154144 -0.72378725 -1.9939852
00000000: 9386 fc3e 0873 fbbd ddae 5c3d 4627 9fbe
00000010: 3c4d e4bd 1c1b b3be d588 24bf f4ed bcbe
00000020: ea5f ec3e 0893 f8bf 6a76 a53e 5e06 173e
00000030: ca47 c9bf e24f 8ebe 07af 32bf 76c5 cfbe
00000040: b417 bf3e d2e4 89be 4c40 0d3d ab4a aabe
00000050: bb78 de3e e1c2 29be 4f7c 3bbd e9cd 04bf
00000060: a7c2 31be 7fa5 acbe 687e 69be 6413 953e
00000070: 5d0f a63c 5104 73be 7f7c fe3e c66d 34be
00000080: 7908 0b3e ccd2 0bbd 91a0 fcbd 0f1c 043e
00000090: b9ba 6d3d 1e46 533e b181 b83d 76ac 9cbe
000000a0: 3dc7 91be f5e4 45bd fc51 2b3f 8e44 a3be
000000b0: 674b cd3d eeab 09bf 6bb8 f8bc 3719 743e
000000c0: 90a9 903e e16f 093e 92ef 78bf 86a4 cdbe
000000d0: f804 81be 9740 23bf fd92 93bd 541a 96bf
000000e0: d7ec efbd cde9 0abf cb2e d63e e476 71bf
000000f0: a39e 87be 9834 993e 457d 3ebe 81ed ddbf
00000100: 3bc9 6cbf 3470 bc3e 2123 5abf 92b4 5a3d
00000110: d96d 5ebe ca6f 80bf 3df5 a6be c90a 18bf
00000120: 2876 58be f6ed 983e 7744 7fbe 1ffa abbe
00000130: d173 7b3e 21f4 54bb f286 9fbe d3a4 23c0
00000140: 4cd4 783d 06bf 18bf ac25 963b ab5c e7bf
00000150: 21b6 5e3e f4f7 843e f3f1 e5bf d01b a63e
00000160: 8696 85bc e75b c8bd 245b 6b3f a8fe 80bf
00000170: 2f5f ccbe 0431 76be 178d 98be fa38 8f3e
00000180: 8a51 1b3f a64c 08be e18f 5a3e d4c3 28be
00000190: cd82 8a3c 8795 14be d6b9 13bf 2902 ce3d
000001a0: e25e b03d ccfb 23bf 32da 45bd d462 a03e
000001b0: ab53 2c3e d42c 1b3e 60b6 9fbe 86e2 cbbe
000001c0: 0686 b9bd 6958 0ebe 3b91 673d 7463 a53e
000001d0: 2575 823e a838 3ebe 865a b33e d207 233f
000001e0: 7ebb d4be c5fe abbf e9f7 173f eac4 053f
000001f0: c88f cb3e e624 2ebf 2bb7 35c0 b0fc 35be
00000200: db5e a43e 1e1a dd3d 4194 1ac0 db76 b3bc
00000210: 51f1 6dbf c902 403e ad31 25bb 0ac0 fcbf
00000220: 54c1 123e 4527 33bf e4f1 9cbf 1eba 24bf
00000230: 4cdf 70bf 3148 c93d 8338 d43e 37c3 00ba
00000240: f724 02bf c3e0 0dc0 2f65 3cc0 4def 9ebe
00000250: a9f4 b53d dc5c 2cbf 2c06 ab3d 0f05 a23e
00000260: 8066 3b3e d85f dfbe 5637 0cbf 4c01 42bf
00000270: 491b 083e 5a29 59be cab0 80be 80d0 843e
00000280: d926 09be 23f1 85bf dcbf dc3e 0739 353e
00000290: bd40 37be ac24 dabc e7b8 e3bf 5434 523e
000002a0: 8927 f2be c58c 663f dec1 e23e 5a96 48be
000002b0: dcb2 bf3d 3d6c 3abf 3c29 343f ae2c 1dbe
000002c0: 7146 3ebe 983d f0be 1d24 533e 8cfe 86be
000002d0: e7b3 57be a439 e33d daf3 d0bc a33b 263e
000002e0: 92ae aabe 5c95 79be 7328 46bd 2a48 94be
000002f0: 0126 023e 0ab8 043d ffe2 813e 54a6 a5be
00000300: e74c 3bbf b302 8fbd 3c98 9ebf a0fb 1dbf
00000310: 3d3d aebd 516d 7cbe 31c5 32be 1862 763e
00000320: 02fa 103f f6c8 8b3e 7bdc c5bf b141 74be
00000330: e6de 61bf 2251 c83c 3709 2b3e 3c80 20bf
00000340: ae3c 4ebe 130b 853d 3557 8cbe 7ac5 64be
00000350: a7c5 84be 3b06 e03c 94e7 243e a8c4 d3bf
00000360: ba7b 0ebe 2db7 8e3e 5b8c 0bbd 82a6 29be
00000370: 299e 4fbb b2b1 20bf fa51 d2be b4f2 f33e
00000380: 8097 9fbe 64ca b6be bb7c 123e 4bc7 37bf
00000390: 8fee 53be 4142 04c0 e0ed 86be d60b 723e
000003a0: 8051 c33e 5c00 8ebf e495 4d3e c070 26bf
000003b0: 1275 193f dd4d aabf 1835 40bd 7fad 67be
000003c0: c7e0 84bf d95a 243e 68b2 37bf af2e 9ebe
000003d0: 96db 8b3d 9d47 1abf a141 b5be 06ce 803e
000003e0: 12be d53e 45d1 62be 1182 353e 0234 bebd
000003f0: 09b8 9abe edd7 1d3e 1f4a 39bf e83a ffbf

fc2.bias f4 [76]
0.10768477 -0.8624007 0.42665833 -0.7919573 0.23645668 -0.20474888 0.11539807 0.3354074
-0.057086945 -0.56144375 -0.015478175 0.44693875 0.20763944 0.29403198 -0.03308555 -0.25961268
-0.26877537 -0.24547897 -0.34669548 -0.23624969 -0.574922 0.055149093 -0.01495235 -0.31373918
0.51620823 0.22147533 -0.8057735 -0.14056237 -1.068579 0.28582504 0.41959137 0.41935116
0.16258466 -0.06255048 0.17666742 0.19968602 -0.013721143 -0.041988373 -0.111777976 -0.21352632
0.3648609 0.04237889 -0.504829 -0.77486604 0.21212982 -0.0667714 0.54161435 -0.304359
-0.434091 -0.39045373 -0.47855568 0.014335388 -0.12745637 -0.41349274 -0.61310416 0.42989272
-0.15672055 -0.23913758 0.1504611 -0.1685648 0.30035958 -0.35524285 -0.23492493 0.009786055
-0.15601306 -0.33180374 -0.011564524 -0.13903436 -0.42489454 -0.5483971 -0.68943787 -0.10838623
-0.3957889 0.57705104 -0.5994707 -0.100533724
00000000: d589 dc3d 4bc6 5cbf f672 da3e b7bd 4abf
00000010: b321 723e b1a9 51be d355 ec3d 85ba ab3e
00000020: 00d4 69bd c7ba 0fbf 2c98 7dbc 28d5 e43e
00000030: 6f9f 543e 5c8b 963e b784 07bd f4eb 84be
00000040: ed9c 89be d75e 7bbe 1282 b1be 70eb 71be
00000050: 172e 13bf 04e4 613d b4fa 74bc 6ca2 a0be
00000060: 3926 043f 6eca 623e 2c47 4ebf 95ef 0fbe
00000070: 32c7 88bf a957 923e aed4 d63e 32b5 d63e
00000080: 987c 263e 771a 80bd 4ee8 343e 7e7a 4c3e
00000090: a5ce 60bc 00fc 2bbd daeb e4bd a5a6 5abe
000000a0: 0ccf ba3e 7d95 2d3d 793c 01bf 9f5d 46bf
000000b0: 8f38 593e 72bf 88bd 3da7 0a3f f1d4 9bbe
000000c0: 2d41 debe 8de9 c7be 4005 f5be fade 6a3c
000000d0: ec83 02be 52b5 d3be 65f4 1cbf e61a dc3e
000000e0: 5a7b 20be 7be0 74be 7912 1a3e 409c 2cbe
000000f0: bbc8 993e 64e2 b5be 2990 70be b155 203c
00000100: e3c1 1fbe 2ee2 a9be 2179 3dbc 065f 0ebe
00000110: c78b d9be c163 0cbf 007f 30bf 9af9 ddbd
00000120: d8a4 cabe 9eb9 133f e976 19bf a0e4 cdbd

fc_mean.weight f4 [6, 76]
0.00644741 0.97069293 0.48327002 0.13977179 -0.6366981 0.24793454 0.3718146 0.187202
0.19174531 0.06376378 0.073178805 -0.28660935 0.08832213 -0.19019814 -0.1822581 0.34176522
-0.021651335 -0.06609132 0.02062502 -0.06149912 -0.37141904 -0.43400896 -0.4919638 0.077119686
-0.043216657 -0.5802117 -0.23631077 -0.24085675 1.2386457 0.40552777 -0.027680138 -0.7722522
0.062196724 0.20668733 -0.7695298 -0.001433011 -0.26311105 -0.15054299 -0.39490023 0.1147534
-1.1478921 -0.3428737 0.16854766 -0.45514053 -0.30828902 -0.023254048 0.16861469 0.9417888
0.13250774 -0.1889961 -0.05444196 -1.1053907 -0.27561536 0.48630807 -0.12985982 -1.1806808
-0.052046325 -0.29354468 0.07935445 0.50832 -0.3057575 -0.014775823 0.3789305 -0.3355197
0.1310777 1.1204602 -0.59730583 0.3320493 -0.1095376 -0.005659491 -0.14109543 0.07142188
-0.16909613 -0.097995274 -0.016439179 -0.06510022 0.2850987 -0.8234262 -0.25858206 0.037771076
1.2626622 -0.4643658 -1.4063064 -0.56107634 -0.08843124 0.010477372 0.1502418 0.21546495
0.0666366 0.33348456 -0.066885136 -0.21978094 0.041867323 -0.09443753 -0.013755863 0.049487956
-0.7266503 -0.2950613 0.2338407 -0.012040014 -0.044916097 -0.06208761 0.1749015 0.18604071
-0.2702447 0.054750554 0.048182633 0.022351569 -0.2647989 0.111086965 0.62283117 -0.10875676
0.09646869 1.1054639 0.39398146 0.0569832 -0.03919813 0.28580734 -0.50478756 -0.38567606
0.13188176 0.1325598 -0.084065355 0.21113874 -0.30754945 0.38247427 -0.023202915 1.7794312
0.018482989 0.031148912 0.025312437 1.1183141 -0.4693498 0.056495942 0.23934008 -0.029611068
0.25768852 0.08248234 -0.40976357 -0.0075952914 0.071977176 -0.7619981 0.28075397 0.6801508
0.39378673 -0.2723134 -0.41198877 0.027872127 0.46347505 0.08681544 -0.040326625 0.014972917
0.073045895 1.1598184 0.28507861 1.0956281 -0.93959045 0.53445065 0.55641156 0.13013947
0.07575347 0.0558713 0.107160956 -0.4109321 0.106444746 -0.09281012 -0.2515269 -0.2682975
-0.3683106 -0.0038756307 -0.25190085 -0.05078548 -0.25683704 0.0619033 -0.060639493 0.001535223
0.078181885 -0.09514463 -0.24782695 -0.11274872 0.19439624 0.23119259 -0.14038508 -0.30869287
0.06406939 0.088493526 -0.9407608 -0.16556159 -0.07496263 -0.22389834 -0.28731593 0.982684
-0.7233457 0.22407416 0.41887414 -0.07659603 -0.30956605 0.0028200783 -0.20117348 -0.083920725
-0.21420735 0.0072084507 -0.022985967 -1.5643418 -0.20437403 0.12223356 -0.022768386 -1.1635541
0.17548817 0.04705182 -0.026246285 0.14413434 -0.25461373 0.17977233 0.30773133 -0.22471565
0.08870917 0.8602018 0.50928396 0.15965341 0.75800943 0.19640307 -0.24133083 0.5742875
-0.1704289 -0.029651484 0.14745122 -0.026127582 -0.40512025 1.1654987 0.5424061 0.1486126
-0.43146914 0.57363105 1.849701 -0.8791436 -0.60800475 -0.18634003 0.76106066 -0.13872024
0.4645806 -0.11267076 -0.18320222 0.19674551 -0.07247092 -0.09677123 0.25149024 -0.20288594
0.59019554 -0.76183224 0.49610907 0.0007186146 0.1852097 -0.70416313 0.0044641797 0.14446175
00000000: cc44 d33b 557f 783f 2b6f f73e 5620 0f3e
00000010: a6fe 22bf 8de2 7d3e 7c5e be3e e2b1 3f3e
00000020: e258 443e 9696 823d c5de 953d 76be 92be
00000030: 3ce2 b43d 4dc3 42be dea1 3abe dafb ae3e
00000040: 245e b1bc e35a 87bd cdf5 a83c 80e6 7bbd
00000050: a32a bebe 6c36 debe aee2 fbbe edf0 9d3d
00000060: f303 31bd c188 14bf 73fb 71be 27a3 76be
00000070: f18b 9e3f 56a1 cf3e 75c1 e2bc 52b2 45bf
00000080: fec1 7e3d d8a5 533e e8ff 44bf dfd3 bbba
00000090: 7eb6 86be f127 1abe 5d30 cabe d503 eb3d
000000a0: 21ee 92bf 248d afbe c297 2c3e 2e08 e9be
000000b0: 0fd8 9dbe 467f bebc 54a9 2c3e 1219 713f
000000c0: 1cb0 073e 3288 41be 88fe 5ebd 717d 8dbf
000000d0: 751d 8dbe 5ffd f83e f9f9 04be 8c20 97bf
000000e0: 872e 55bd 7d4b 96be 9684 a23d 4221 023f
000000f0: 3f8c 9cbe 4b16 72bc 2e03 c23e 3dc9 abbe
00000100: 3c39 063e 3d6b 8f3f 09e9 18bf 5e02 aa3e
00000110: 4055 e0bd 4073 b9bb 527b 10be a245 923d
00000120: 8927 2dbe bfb1 c8bd 75ab 86bc 4453 85bd
00000130: 75f8 913e 0fcc 52bf de64 84be d8b5 1a3d
00000140: ea9e a13f 5bc1 edbe d901 b4bf b3a2 0fbf
00000150: 701b b5bd 49a9 2b3c fdd8 193e d8a2 5c3e
00000160: c578 883d 7dbe aa3e 13fb 88bd 410e 61be
00000170: 127d 2b3d 7768 c1bd 4560 61bc e2b3 4a3d
00000180: c105 3abf 4612 97be f073 6f3e 7b43 45bc
00000190: f1f9 37bd 944f 7ebd 6119 333e 7581 3e3e
000001a0: 835d 8abe 1e42 603d 275b 453d a31a b73c
000001b0: b993 87be 9081 e33d dd71 1f3f ddbb debd
000001c0: 6091 c53d d77f 8d3f f0b7 c93e 3767 693d
000001d0: 388e 20bd 5755 923e c239 01bf 5577 c5be
000001e0: 030c 073e c2bd 073e 752a acbd c134 583e
000001f0: 1f77 9dbe abd3 c33e 0a14 bebc 67c4 e33f
00000200: a369 973c 012c ff3c 075c cf3c eb24 8f3f
00000210: 9e4e f0be 4a68 673d 9115 753e e992 f2bc
00000220: c0ef 833e 80ec a83d 88cc d1be ece1 f8bb
00000230: c568 933d 4f12 43bf fcbe 8f3e 5d1e 2e3f
00000240: 6a9e c93e a96c 8bbe 31f0 d2be 1654 e43c
00000250: 9a4c ed3e 4bcc b13d 882d 25bd f750 753c
00000260: 1699 953d ee74 943f d3f5 913e 8b3d 8c3f
00000270: 0089 70bf c2d1 083f fd70 0e3f 4843 053e
00000280: a324 9b3d 4ed9 643d 3477 db3d b165 d2be
00000290: b4ff d93d 3b13 bebd 22c8 80be 4a5e 89be
000002a0: 3593 bcbe 4bfe 7dbb 26f9 80be 6f04 50bd
000002b0: 2580 83be 518e 7d3d 1e61 78bd 8939 c93a
000002c0: d31d a03d 30db c2bd 59c6 7dbe cde8 e6bd
000002d0: cf0f 473e c0bd 6c3e 1bc1 0fbe fe0c 9ebe
000002e0: d036 833d 183c b53d b3d5 70bf fa88 29be
000002f0: 0286 99bd 9b45 65be 131b 93be 2e91 7b3f
00000300: 2f2d 39bf b273 653e ac76 d63e 61de 9cbd
00000310: 717f 9ebe 10d1 383b 6c00 4ebe a1de abbd
00000320: 2c59 5bbe de34 ec3b 114d bcbc 5a3c c8bf
00000330: 6d47 51be 9755 fa3d c484 babc 57ef 94bf
00000340: 2cb3 333e 69b9 403d 7302 d7bc f497 133e
00000350: bb5c 82be 3d16 383e f68e 9d3e dc1b 66be
00000360: 27ad b53d 2f36 5c3f 6f60 023f 2f7c 233e
00000370: e80c 423f e31d 493e 6e1f 77be 8104 133f
00000380: ea84 2ebe abe7 f2bc 74fd 163e 8309 d6bc
00000390: ec6b cfbe 102f 953f 20db 0a3f e72d 183e
000003a0: 86e9 dcbe 7cd9 123f 01c3 ec3f 8e0f 61bf
000003b0: 33a6 1bbf eccf 3ebe dfd4 423f ae0c 0ebe
000003c0: 82dd ed3e edbf e6bd 5d99 3bbe a877 493e
000003d0: a26b 94bd ff2f c6bd 54c3 803e 55c1 4fbe
000003e0: 0e17 173f 7007 43bf 0202 fe3e 6961 3c3a
000003f0: 9da7 3d3e 0944 34bf 4148 923b c8ed 133e

fc_mean.bias f4 [6]
0.37847543 -0.425219 -0.15428582 0.18224496 -0.36972305 -0.009177963
00000000: 88c7 c13e 4eb6 d9be 1afd 1dbe 6c9e 3a3e
00000010: 574c bdbe 2b5f 16bc

fc_logstd.weight f4 [6, 76]
-0.0055957176 -0.046302307 0.04563987 0.00077393284 -0.022962593 0.043108042 0.021517515 0.013384984
0.0120621305 -0.007201149 0.014956446 -0.027349336 0.0069788727 -0.014007632 0.0061296658 0.025541855
-0.003667573 -0.0067109 -0.02382786 0.0029829314 0.0008404025 0.050137267 0.028710388 0.0081751635
-0.004126471 0.038673755 -0.019036902 0.009555443 0.056729175 0.028912589 -0.017280595 0.044221293
0.02748641 0.00084866857 0.043920882 0.010128895 0.029754365 -0.018228414 0.03484704 -0.002068407
0.05937887 0.047277544 -0.008634226 0.02862437 -0.023100412 -0.0033186288 0.009391438 0.025179027
-0.0049828757 0.067835785 -0.014342794 -0.021642525 -0.01404298 -0.019134514 0.014386467 0.055379078
-0.0012214681 -0.0058861095 0.003595545 0.029693652 0.011598176 0.014046721 0.00935859 -0.014455214
-0.0022349758 -0.06465817 0.060533028 -0.056322526 0.007739776 -0.009522418 -0.019479183 -0.039474797
-0.016957916 -0.0042780964 0.007363268 0.00041950768 0.0015494392 -0.03603452 0.0360451 -0.009571397
-0.0515132 0.05419987 -0.065916985 0.02425023 -0.012996231 -0.01256602 -0.023845954 0.06869257
-0.016940828 -0.025922487 -0.0067343237 0.022124114 0.02170345 -0.008634199 -0.027126241 0.004307914
-0.056958694 0.02029129 0.02332373 0.0008712792 0.013605004 -0.0004504373 0.018791672 0.008139632
-0.05765975 -0.0088565005 -0.034311693 0.041603275 0.00056846754 0.00029367948 0.030847488 -0.00057269784
0.0012480346 -0.09054275 0.045195777 0.0069398046 0.003082596 -0.035566922 -0.0239133 0.07572826
-0.016561352 -0.019584317 -0.057057265 0.023617772 -0.023984665 0.03900772 0.00044877507 -0.20549043
0.0048934044 0.012554096 -0.019167691 0.055140585 -0.022553183 0.006891382 0.0345865 0.007777021
-0.06800567 0.015936317 0.042777807 -0.023152826 -0.004769095 -0.056218993 0.02068658 -0.030795299
0.058786698 -0.0015480964 0.029490493 -0.05222297 -0.036113586 -0.023726404 -0.009266027 -0.0071563064
-0.01513349 -0.045620292 0.019253753 0.0796513 0.038453575 0.013393787 0.010405134 -0.011396477
-0.0067973207 0.020257194 -4.4878907e-06 0.031551167 -0.0017500208 -0.011410377 0.00950304 0.026600096
0.008061457 -0.0063156513 -0.0021906262 0.0037383083 -0.021443719 -0.0031886282 0.045738593 -0.007625121
0.016676696 -0.0008014981 -0.018349925 0.013314977 -0.018933823 0.005836326 -0.027833842 -0.007011356
0.0032128158 0.0010393643 0.03818707 0.01146428 0.014285956 -0.018303396 0.01796283 0.012924347
0.056803443 -0.026982918 0.002443463 0.04235898 0.011279334 0.0041380953 0.018293874 0.08681655
0.02429494 0.035695735 -0.005542468 0.022060953 -0.02961407 -0.009046838 -0.00038961496 0.04011054
-0.037891395 0.0026676736 0.01415511 0.029727053 0.0086637195 -0.020252153 0.013486591 0.0020685892
-0.0137042515 0.019506846 -0.054274388 -0.0037449675 -0.11015882 -0.00714878 0.010420224 -0.046334244
-0.0040048584 -0.009373722 0.0016465404 -0.0013570667 0.035047196 -0.09068059 0.06607652 0.006254642
0.015854962 0.07947184 -0.12619837 0.0113854995 0.05623587 -0.000622484 -0.0049413173 0.022569846
-0.09329049 -0.017764285 0.004643418 0.07738757 0.007116935 0.08928143 -0.0626561 0.0601483
-0.016550262 0.120276704 0.017293885 -0.001149269 -0.028261596 0.06669895 0.0034729869 0.012366205
00000000: 485c b7bb 7da7 3dbd dff0 3a3d c1e1 4a3a
00000010: 0c1c bcbc 0f92 303d 8045 b03c b14c 5b3c
00000020: 3ea0 453c 9ef7 ebbb e20b 753c b70b e0bc
00000030: 07af e43b 4480 65bc 5ddb c83b 273d d13c
00000040: aa5b 70bb 1ce7 dbbb a532 c3bc 497d 433b
00000050: 754e 5c3a bc5c 4d3d 0c32 eb3c 1ff1 053c
00000060: 5937 87bb 5f68 1e3d 47f3 9bbc 6f8e 1c3c
00000070: da5c 683d 18da ec3c 0990 8dbc 6321 353d
00000080: 2e2b e13c 2f79 5e3a 62e6 333d aaf3 253c
00000090: 6dbf f33c c153 95bc c5bb 0e3d 1c8e 07bb
000000a0: 4237 733d 19a6 413d 9276 0dbc a87d ea3c
000000b0: 133d bdbc 5a7d 59bb 8cde 193c 3f44 ce3c
000000c0: 6447 a3bb 7ded 8a3d 0afe 6abc aa4b b1bc
000000d0: 8714 66bc fcbf 9cbc 37b5 6b3c 2cd5 623d
000000e0: ab19 a0ba 44e0 c0bb 3ca3 6b3b 1a40 f33c
000000f0: 4706 3e3c 3824 663c c554 193c 90d5 6cbc
00000100: ac78 12bb 816b 84bd 7bf1 773d 73b2 66bd
00000110: f29d fd3b ea03 1cbc cf92 9fbc 53b0 21bd
00000120: 54eb 8abc 462f 8cbb 9247 f13b 5ef1 db39
00000130: 8d16 cb3a ef98 13bd 07a4 133d 59d1 1cbc
00000140: 81ff 52bd af00 5e3d 7cff 86bd 6ba8 c63c
00000150: 25ee 54bc b5e1 4dbc 9758 c3bc b1ae 8c3d
00000160: 7ec7 8abc 655b d4bc 9aab dcbb a13d b53c
00000170: 6fcb b13c 7576 0dbc da37 debc 6729 8d3b
00000180: 854d 69bd eb39 a63c 6811 bf3c 8f66 643a
00000190: 86e7 5e3c ac28 ecb9 fef0 993c 175c 053c
000001a0: a12c 6cbd db1a 11bc 6b8a 0cbd 3268 2a3d
000001b0: 3605 153a fef8 9939 dfb3 fc3c 1a21 16ba
000001c0: 1895 a33a 7a6e b9bd 351f 393d 4d67 e33b
000001d0: 6105 4a3b 9fae 11bd d3e5 c3bc 6b17 9b3d
000001e0: acab 87bc 4a6f a0bc e1b4 69bd 0f7a c13c
000001f0: 7d7b c4bc 8fc6 1f3d 9249 eb39 156c 52be
00000200: da58 a03b b2af 4d3c 9005 9dbc 18db 613d
00000210: 74c1 b8bc 1ad1 e13b 93aa 0d3d 61d6 fe3b
00000220: 8f46 8bbd e18c 823c c837 2f3d ffaa bdbc
00000230: 1246 9cbb e345 66bd e776 a93c 6c46 fcbc
00000240: 52ca 703d 7fe9 caba 0c96 f13c c1e7 55bd
00000250: d7eb 13bd e05d c2bc 89d0 17bc 737f eabb
00000260: 75f2 77bc 58dc 3abd 0cba 9d3c 3920 a33d
00000270: 7f81 1d3d 9d71 5b3c 4c7a 2a3c 4ab8 3abc
00000280: 0fbc debb 6af2 a53c b096 96b6 cc3b 013d
00000290: f460 e5ba 97f2 3abc a4b2 1b3c 72e8 d93c
000002a0: 3414 043c 86f3 cebb 9c90 0fbb 68fe 743b
000002b0: bdaa afbc 4ef8 50bb 6458 3b3d 27dc f9bb
000002c0: 919d 883c a11b 52ba 9552 96bc 1027 5a3c
000002d0: 1b1b 9bbc a73e bf3b cc03 e4bc 84bf e5bb
000002e0: 1b8e 523b 473b 883a 0c6a 1c3d add4 3b3c
000002f0: a40f 6a3c 01f1 95bc c926 933c a4c0 533c
00000300: baaa 683d 480b ddbc 8222 203b 9c80 2d3d
00000310: f5cc 383c dc98 873b 09dd 953c e0cc b13d
00000320: 2f06 c73c b135 123d 979d b5bb 2cb9 b43c
00000330: 3599 f2bc 3039 14bc 3c45 ccb9 f34a 243d
00000340: 0234 1bbd 23d4 2e3b d6ea 673c 2686 f33c
00000350: 46f2 0d3c d8e7 a5bc ddf6 5c3c 2b91 073b
00000360: cc87 60bc d2cc 9f3c d24e 5ebd 216e 75bb
00000370: f39a e1bd 5040 eabb 96b9 2a3c fac8 3dbd
00000380: 303b 83bb 3d94 19bc bad0 d73a 9adf b1ba
00000390: a68d 0f3d bfb6 b9bd 2053 873d bdf3 cc3b
000003a0: 44e2 813c 22c2 a23d 253a 01be 3f8a 3a3c
000003b0: 9557 663d 322e 23ba c6ea a1bb 66e4 b83c
000003c0: 160f bfbd 6886 91bc d027 983b 607d 9e3d
000003d0: 2e35 e93b 2fd9 b63d d751 80bd 105e 763d
000003e0: 6a94 87bc a253 f63d e8ab 8d3c 12a3 96ba
000003f0: dd84 e7bc 7699 883d 0d9b 633b a09b 4a3c

fc_logstd.bias f4 [6]
0.064317785 -0.045824 0.118313976 -0.19779041 0.06731291 0.19807589
00000000: 0bb9 833d f2b1 3bbd 994e f23d 9289 4abe
00000010: 5adb 893d 68d4 4a3e
