DDPG/models/onnxQuant/DDPG-HumanoidStandup-v4-prep.onnx (onnx, 668335 bytes, 6 tensors)

actor.l1.weight f4 [256, 376]
0	0xbc1c8aba	-0.009554559
1	0x3e12af50	0.14324689
2	0xbd2e798d	-0.04259639
3	0xbd5fa984	-0.054605022
4	0xbb661b1a	-0.0035111369
5	0x3ddbbd93	0.10729518
6	0xbd1a7ec9	-0.037718568
7	0xbdd8061a	-0.10548039
8	0xbd4d8584	-0.05017616
9	0xbb96764a	-0.004591738
10	0xbc6c88c2	-0.0144369025
11	0xbd82c25a	-0.06384726
12	0x3d0dc31e	0.034609906
13	0x3dc8ffb6	0.09814398
14	0xbd96d172	-0.07364167
15	0x3cf6abb4	0.030111171
16	0x3d9482bb	0.07251497
17	0x3cefb689	0.029261844
18	0x3ae9bf2d	0.0017833464
19	0xbdb3b319	-0.087743945
20	0x3defa596	0.11701505
21	0xbd79a206	-0.060945533
22	0xbd4a585e	-0.04940068
23	0xbcb49c81	-0.022047283
24	0x3d0cef79	0.034408066
25	0xbb1e1eee	-0.0024127322
26	0xbd80477d	-0.06263635
27	0x3c8a7581	0.016901733
28	0x3cf15c47	0.029462947
29	0xbc76f7cc	-0.015073728
30	0xbd624bbc	-0.055248007
31	0xbcbac161	-0.022797288
32	0xbcd5aef9	-0.02608441
33	0xbc88e905	-0.016712675
34	0x3ddfa813	0.109207295
35	0x3d0e21e7	0.0347003
36	0xbd849665	-0.06473998
37	0x3cfd076d	0.03088733
38	0x3e0bcfdf	0.13653515
39	0xbde916d5	-0.11381308
40	0xbcdcfb4f	-0.026975302
41	0xbc280e21	-0.010257275
42	0xbda14c3c	-0.07875869
43	0x3e1cf5af	0.15328096
44	0x3cf286bf	0.029605268
45	0x3d2fb881	0.042900566
46	0xbd52631d	-0.051364053
47	0x3ce5631e	0.028001364
48	0xbc9f121f	-0.01941782
49	0x3d4472ef	0.04796117
50	0xba949849	-0.0011336888
51	0x3d0aa1ac	0.03384559
52	0xbd81a2c2	-0.06329872
53	0x3c826258	0.015916035
54	0xbc4876c9	-0.012235352
55	0x3db46ac1	0.08809424
56	0x3dac15bb	0.08402582
57	0xbcfe5704	-0.031047352
58	0x3da5e7d8	0.08100861
59	0xbc805c36	-0.01566897
60	0xbc9268f1	-0.017872306
61	0x3c56c1dd	0.013107744
62	0xbd211ae6	-0.039332293
63	0xbcb82982	-0.02248073
64	0xbcb176d9	-0.021663116
65	0xbda07b5c	-0.07836029
66	0x3db55a30	0.088550925
67	0x3b6af89c	0.003585375
68	0xbba24bb3	-0.0049528717
69	0xbd8b4e2f	-0.06802022
70	0x3c63c289	0.013901361
71	0xbd8e80c1	-0.069581516
72	0x3d3a7dc9	0.045530114
73	0xbd19149e	-0.037373178
74	0xbabec137	-0.0014553432
75	0x3dd9c3df	0.106330626
76	0x3df59259	0.11990804
77	0x3d13128e	0.035906367
78	0x3c42f728	0.011899747
79	0xbadde137	-0.0016928081
80	0xbd8bd508	-0.06827742
81	0xbcce3b7b	-0.025174847
82	0x3c176135	0.009239485
83	0xbda86708	-0.08222777
84	0xbdd1b8e3	-0.102403425
85	0x3da94c02	0.082664505
86	0x3c171143	0.009220424
87	0x3d1aa31a	0.037753202
88	0x3b6b0d4b	0.0035866078
89	0xbdcd0719	-0.100111194
90	0xbc831285	-0.016000042
91	0x3d90ff1f	0.070799105
92	0x3bbd3cc6	0.005775067
93	0x3db927a6	0.090407655
94	0x3d253546	0.04033401
95	0x3d1da575	0.03848787
96	0x3d62ed9b	0.05540238
97	0x3db8682b	0.090042435
98	0x3d23db1f	0.040003892
99	0x3c218207	0.009857661
100	0x3c481b9f	0.012213617
101	0x3d0fcb98	0.03510627
102	0xbcc9d9e3	-0.02464003
103	0x3d83660c	0.06415948
104	0x3ca0dac5	0.019635567
105	0x3dbe0419	0.09278125
106	0xbc618c56	-0.013766369
107	0xbd13cebd	-0.036085833
108	0xbe053004	-0.13006598
109	0xbcc098e6	-0.023510408
110	0xbc18bfe8	-0.009323098
111	0x3d5f0bdf	0.05445468
112	0x3dcd094c	0.10011539
113	0xbbf5d562	-0.007502244
114	0x3d7d0b4e	0.06177836
115	0x3c4eca99	0.012621545
116	0x3c66bdd0	0.014083341
117	0xbd3838d0	-0.044976056
118	0xbc9b93bf	-0.01899135
119	0x3ca83266	0.020531844
120	0xbd554578	-0.052068204
121	0x3e011a1b	0.12607615
122	0xbbdaf9cb	-0.0066826097
123	0x3d0366e0	0.03208053
124	0x3ba90349	0.0051578623
125	0x3c66f4d0	0.014096454
126	0x3d192157	0.03738531
127	0xbcd4933b	-0.025949111
128	0xbd4aa955	-0.049477894
129	0xbcda5c3d	-0.02665531
130	0xbd1a05fc	-0.037603363
131	0x3c59a4ab	0.013283889
132	0xbd8baaa8	-0.068196595
133	0x3c3d1ab6	0.011542013
134	0x3c8bb759	0.0170552
135	0xbdba68d5	-0.091020264
136	0xbbca2107	-0.006168488
137	0x3d943f16	0.07238595
138	0xbc9b9de5	-0.018996188
139	0xbc847c83	-0.016172653
140	0x3d98e43f	0.074654095
141	0x3dba5cf3	0.0909976
142	0x3de9398e	0.11387931
143	0xbd9706d8	-0.07374352
144	0x3d80dafa	0.062917665
145	0x3cb53b54	0.022123016
146	0xbcd4e1d4	-0.02598659
147	0x3d919a33	0.07109489
148	0xbdcd105d	-0.10012887
149	0xbe0cab3e	-0.13737199
150	0x3d91b8a2	0.07115294
151	0xbd6dbc88	-0.058041126
152	0x3e1ec20e	0.15503713
153	0xbc10eafb	-0.008845086
154	0x39a3956e	0.00031201117
155	0x3dbee247	0.09320503
156	0x3c9f9fcb	0.019485375
157	0x3cab8039	0.020935165
158	0x3c293522	0.010327609
159	0x3d20d491	0.03926522
160	0xbdafd708	-0.08585936
161	0x3b6624fd	0.0035117262
162	0xbd848a07	-0.06471639
163	0x3d6dadb1	0.058026973
164	0x3dd7f080	0.105439186
165	0x3da07080	0.07833958
166	0x3dbdafee	0.092620715
167	0x3def7ada	0.11693354
168	0x3d3f5eb5	0.04672118
169	0xbd8c2e00	-0.06844711
170	0x3d911a92	0.07085146
171	0x3cd23834	0.025661565
172	0x3ce75f08	0.028243557
173	0xbd6f35ca	-0.058400907
174	0xbd82c27b	-0.063847505
175	0x3de8d987	0.11369615
176	0xbc50a0ec	-0.012733679
177	0xbd811989	-0.063036986
178	0x3d82a3ef	0.06378924
179	0xbab63f44	-0.0013904353
180	0xbd01b4cd	-0.031666566
181	0x3d9b5e5e	0.075863585
182	0xbceb339f	-0.028711138
183	0x3c1e39bd	0.009657321
184	0xbc02d205	-0.007984643
185	0x3d6c49ea	0.057687677
186	0x3c803d21	0.015654149
187	0xbbce14dd	-0.006289108
188	0xbc1e29dc	-0.009653535
189	0x3dc5aee1	0.09652496
190	0x3b5dd425	0.0033848372
191	0x3b48d884	0.0030646631
192	0xbcb7e5c1	-0.022448422
193	0x3da02151	0.078188546
194	0x3c9f6e59	0.019461798
195	0x3c91dd81	0.017805817
196	0xbcd9443e	-0.026521798
197	0x3c053467	0.0081301695
198	0xbd1ffff4	-0.039062455
199	0x3d45ac40	0.048259974
200	0x3d94a73d	0.07258461
201	0xbc28d453	-0.010304528
202	0x3d72f20c	0.059312865
203	0xbdc32ffa	-0.09530635
204	0xbd9365f9	-0.07197184
205	0x3cb701ae	0.022339668
206	0xbc7dcfd1	-0.015491442
207	0xbd6670c5	-0.05625989
208	0xbd558477	-0.05212828
209	0x3c277e18	0.010222934
210	0x3dce8f59	0.10085935
211	0xbd01c752	-0.031684227
212	0x3cff2ffe	0.031150814
213	0xbc9ed603	-0.019389158
214	0xbd4460d3	-0.0479439
215	0x3e198fb6	0.14996228
216	0xbd07efaf	-0.033187564
217	0xbc9b3b30	-0.018949121
218	0x3d20fd9f	0.039304372
219	0x3ca2fc77	0.019895775
220	0x3b158191	0.0022812823
221	0x3dfd9310	0.123815656
222	0x3d29fe43	0.04150225
223	0xbc92b164	-0.017906852
224	0x3c8df880	0.017330408
225	0x3c12e2e4	0.008965228
226	0x3b4651ac	0.0030261083
227	0xbd0ff063	-0.03514136
228	0xbcbd1fac	-0.023086391
229	0xbce5e4ef	-0.028063266
230	0xbd04ddb8	-0.03243801
231	0xbb50e407	-0.0031874196
232	0x3d650aea	0.05591861
233	0x3d1176e9	0.035513792
234	0xbcb17bcb	-0.021665474
235	0x3d9c79ef	0.076404445
236	0xbc729219	-0.01480534
237	0x3d859c79	0.065239854
238	0xbd6c1b02	-0.057642944
239	0xbcbadeed	-0.022811377
240	0x3dc2e0ee	0.09515558
241	0x3dc70c71	0.0971917
242	0x3c94b181	0.018151047
243	0xbda5dd3b	-0.08098837
244	0xbcc2badf	-0.023770748
245	0xbd70fb83	-0.05883361
246	0x3d3003f6	0.042972527
247	0xbb1591dd	-0.0022822537
248	0x3cb814e1	0.022470893
249	0xbd0fb7e9	-0.0350875
250	0x3d3acc28	0.045604855
251	0xbcc6b591	-0.0242565
252	0xbbf73094	-0.0075436328
253	0xbd5a4b2e	-0.053294353
254	0x3c955dbd	0.018233174
255	0xbd4fbb09	-0.05071548

actor.l1.bias f4 [256]
0	0x3bee6580	0.0072752833
1	0x3d43d4b3	0.047810268
2	0x3d940e01	0.072292335
3	0x3b9d368a	0.0047977613
4	0x3b92db8e	0.0044817394
5	0x3d23dce4	0.04000558
6	0xbc58cf4f	-0.01323302
7	0x3cb1be6d	0.021697247
8	0x3d78dbe1	0.060756568
9	0xbb00dcb9	-0.001966281
10	0xbd3fe86b	-0.04685251
11	0xbba08e5e	-0.004899784
12	0xbd5f314a	-0.054490365
13	0x3d17f0f3	0.03709502
14	0xbcd83286	-0.026391279
15	0xbbeb0199	-0.0071718213
16	0xbbd83cbc	-0.006599037
17	0x3cb4ccd6	0.02207033
18	0xbd05fda8	-0.03271261
19	0x3bf18c07	0.007371429
20	0xbc186d2b	-0.009303371
21	0x3d4e47b2	0.050361343
22	0x3d2c61be	0.0420854
23	0xbc9a63cd	-0.018846417
24	0xbc55b324	-0.013043199
25	0xbcc3a9f3	-0.023884749
26	0xbcb9c80c	-0.022678398
27	0x3b5ef6eb	0.0034021686
28	0x3d8e11b4	0.0693697
29	0x3d3c871c	0.046027288
30	0xbcc71427	-0.024301602
31	0xbd860413	-0.06543746
32	0xb9e4125d	-0.0004350123
33	0xbd090b7e	-0.033458225
34	0x3cc06872	0.023487303
35	0x3d2d6f4b	0.042342465
36	0x3a9c15f5	0.0011908399
37	0x3c5165a0	0.012780577
38	0xbb2bc9ea	-0.002621288
39	0xbd64185d	-0.055687297
40	0x3d47c8f6	0.048775636
41	0x3cc67340	0.024224877
42	0x3d04b0ca	0.03239516
43	0xbccbadbd	-0.024863118
44	0xbc816711	-0.015796216
45	0xbd5517a5	-0.052024502
46	0x3c527a51	0.012846545
47	0x3c8b7f23	0.017028397
48	0xbab61c71	-0.0013893974
49	0x3cb784e8	0.022402242
50	0x3c67a139	0.01413756
51	0x3d0494bd	0.03236841
52	0x3b5fc2e3	0.003414326
53	0xbcc363df	-0.023851333
54	0x3d8955da	0.06705828
55	0x3c4bbb24	0.0124347545
56	0xbb8bbbeb	-0.004264345
57	0x3d964b23	0.0733855
58	0x3b5722e1	0.0032827186
59	0xbd52f368	-0.05150166
60	0x3d143007	0.036178615
61	0xbd09bbd2	-0.033626385
62	0xbd2a85ca	-0.041631497
63	0xbd4c9142	-0.049943216
64	0x3c260a81	0.01013434
65	0x3d3fe6d4	0.046850994
66	0x3c3ea3f8	0.011635773
67	0x3ced06b7	0.028933866
68	0x3d1fb2d4	0.038988903
69	0x3d2375d1	0.03990728
70	0x3b5c8adc	0.0033652103
71	0xbc84aaa3	-0.016194647
72	0x3c02cb4a	0.007983038
73	0x3bd3679d	0.0064515607
74	0x3d1604d7	0.03662571
75	0x3d55f2aa	0.052233376
76	0xbb8157d5	-0.003947238
77	0x3d29d47e	0.041462414
78	0xbd13ce97	-0.03608569
79	0x3cb05766	0.02152605
80	0x3bada38f	0.0052990387
81	0x3d2a7e11	0.041624133
82	0x3ce1ca0f	0.02756217
83	0x3cab0817	0.020877881
84	0x3ce781a5	0.028260062
85	0xbd2efa41	-0.04271913
86	0xbd31455d	-0.04327904
87	0x3d198368	0.037478834
88	0x3ce71d9f	0.028212367
89	0x3b93cb91	0.004510351
90	0x3c09a727	0.008401669
91	0xbb3ae9aa	-0.0028520622
92	0x3bd7e083	0.006588043
93	0xbd11068e	-0.03540664
94	0x3c066662	0.008203121
95	0xbbf04fa7	-0.007333714
96	0x3d5c678a	0.05380968
97	0x3c490da4	0.012271319
98	0xbc6daa84	-0.014505986
99	0x3d3734e3	0.04472817
100	0x3b2b6044	0.0026149908
101	0x3c90309b	0.017601302
102	0x3d1cc1e9	0.038270865
103	0x3d480736	0.048835002
104	0x3c36bdd3	0.011153656
105	0x3d1a122a	0.03761498
106	0xbd7f8f15	-0.062392313
107	0x3d06ae97	0.032881346
108	0xbc1f7265	-0.009731864
109	0xbccf4a05	-0.02530385
110	0xbd334bd7	-0.0437735
111	0x3d8270e7	0.06369191
112	0x3cec77bd	0.02886569
113	0xbc747870	-0.014921293
114	0x3d7fe413	0.062473368
115	0x3d7e255d	0.06204735
116	0xbb862c2d	-0.0040946216
117	0xbd57a007	-0.05264285
118	0xbb4b644d	-0.0031035126
119	0x3bb10756	0.005402486
120	0xbc40bd7f	-0.011763929
121	0x3d54ce6a	0.051954664
122	0xbc6d6126	-0.014488494
123	0xbcbd8ce4	-0.023138471
124	0xbc562b3c	-0.013071831
125	0x3cc198e1	0.023632469
126	0x3d249d3a	0.040189005
127	0xbc06f7c4	-0.008237783
128	0xbb9e792e	-0.004836223
129	0x3cbd6db5	0.023123601
130	0x3d3daec8	0.046309263
131	0xbd183e3b	-0.037168723
132	0xbc07ef23	-0.008296761
133	0xbc6e55ae	-0.014546795
134	0xbd1f0144	-0.038819566
135	0x3d1cf5b5	0.038320262
136	0x398dd724	0.00027053908
137	0x3c091273	0.008366215
138	0x3d8346e9	0.064100094
139	0x3d20307e	0.039108746
140	0xbc967457	-0.018366022
141	0x3ce33e3f	0.027739642
142	0xbd454c36	-0.048168384
143	0xbd8c8e55	-0.06863085
144	0x3c5a21d5	0.01331373
145	0xbd102200	-0.035188675
146	0x3d1ad78a	0.03780321
147	0x3cb58bba	0.022161353
148	0xbd0f7867	-0.035026934
149	0x3b94f68b	0.004545992
150	0x3bd79e75	0.006580169
151	0xbd328a4e	-0.04358893
152	0xbc5f4bf5	-0.013628949
153	0xbd294f75	-0.04133554
154	0x3cf6062b	0.030032238
155	0xbc1d26b9	-0.009591752
156	0x3d4094b5	0.047016818
157	0xbc81fcef	-0.015867678
158	0xbc91eb45	-0.01781238
159	0x3c3cae3e	0.011516152
160	0x3d973572	0.07383241
161	0xbcfb1481	-0.030649425
162	0xbc8d414a	-0.017243046
163	0x3d35ac6c	0.044353887
164	0xbb28fcf2	-0.0025785533
165	0x3d913e4a	0.07091959
166	0xbd044b8b	-0.032298606
167	0x3d15540e	0.036457114
168	0x3a69aab1	0.00089136796
169	0x3c5d057d	0.013490078
170	0x3d39919d	0.045304883
171	0x3d14efb5	0.036361415
172	0x3d292108	0.041291267
173	0x3d8947a8	0.067031205
174	0x3d9020ca	0.07037504
175	0x3cc1229e	0.023576077
176	0xbc8d2dda	-0.017233778
177	0x3d649e50	0.05581504
178	0xbb72d73b	-0.0037054557
179	0x3d2886d0	0.041144192
180	0x3d820994	0.06349483
181	0x3d2d711d	0.0423442
182	0x3d2d9c19	0.042385194
183	0xbd5d5bdc	-0.054042682
184	0xbce887b6	-0.028385025
185	0xbd515e10	-0.051115096
186	0xbb5a02d4	-0.0033265846
187	0x3b874999	0.0041286466
188	0xbd688dea	-0.056775965
189	0x3dafed44	0.08590177
190	0xbb32c59a	-0.0027278424
191	0x3c18a424	0.009316478
192	0x3c9d9c13	0.019239461
193	0x3cdfe238	0.02732955
194	0x3c34ed47	0.011042899
195	0x3c9d7542	0.019220952
196	0x3c73eb52	0.014887648
197	0xbced8f2a	-0.02899893
198	0xbd480761	-0.048835162
199	0x3da5d92d	0.080980636
200	0xbd8cb889	-0.06871135
201	0x3cc2840e	0.02374461
202	0x3cfa70a0	0.030571282
203	0x3cac0d5a	0.02100246
204	0x3cc9913f	0.024605392
205	0xbc281cae	-0.010260744
206	0x3cc73c2b	0.024320683
207	0xbd43e153	-0.047822308
208	0xbc96ab61	-0.018392267
209	0x3b45af32	0.003016424
210	0x3d25d1c8	0.040483266
211	0x3d1dc836	0.038521014
212	0xbd29c8b9	-0.04145119
213	0xbd3fe2a4	-0.046847
214	0xbd3c4eb4	-0.045973495
215	0xbd8145f4	-0.063121706
216	0x3c997757	0.018733663
217	0x3d786096	0.060638987
218	0x3ae9d289	0.0017839234
219	0x3aeb5bd3	0.0017956443
220	0x3c45fe51	0.01208456
221	0xbc36b580	-0.011151671
222	0xbd3e6177	-0.04647967
223	0xbd925f16	-0.071470425
224	0x3c14bb92	0.009077923
225	0x3d4c168c	0.04982619
226	0xbd6dd440	-0.058063745
227	0x3cc28201	0.023743631
228	0xbd07141d	-0.032978166
229	0xbd376534	-0.04477425
230	0x3ceec224	0.029145308
231	0xbd2fdf20	-0.042937398
232	0x3b7e4ea7	0.0038804205
233	0x3d5b00ff	0.053467747
234	0x3c9bbe9f	0.019011794
235	0xbc5d79ae	-0.01351778
236	0xbbcde462	-0.006283329
237	0x3d53b354	0.051684693
238	0xbcef19ec	-0.029187165
239	0xbc6f5083	-0.014606598
240	0xbcdac028	-0.026702955
241	0x3b9cc18e	0.0047838157
242	0xbd708125	-0.05871691
243	0xbd2e8ba7	-0.04261365
244	0xbd69672c	-0.056983158
245	0x3b9f3f0b	0.00485981
246	0xbcb3b02c	-0.021934591
247	0x3c8be7a2	0.017078225
248	0x3ca16dc8	0.019705668
249	0x393210ac	0.00016981614
250	0xbd2ae8e5	-0.04172601
251	0xbd356b8a	-0.04429201
252	0xbce34154	-0.027741112
253	0xbd9208ae	-0.07130562
254	0xbc958841	-0.018253447
255	0x3d04b974	0.032403424

actor.l2.weight f4 [256, 256]
0	0x3c7bb2de	0.0153624695
1	0x3c09a60e	0.008401407
2	0xbd857d7b	-0.06518074
3	0xbce378b5	-0.027767519
4	0x3d9fe111	0.078066
5	0xbd22d9ab	-0.039758366
6	0xbd285bdd	-0.041103233
7	0x3de01660	0.10941768
8	0x3cb822a1	0.02247745
9	0x3badf5b9	0.0053088334
10	0xbd7f665b	-0.062353473
11	0xbc9c863a	-0.019106973
12	0xbd89ee67	-0.06734925
13	0x3d7d6a4d	0.061868954
14	0x3c9c2b3e	0.019063588
15	0xbd1ff066	-0.03904762
16	0x3d16c7a2	0.03681148
17	0xbcada745	-0.021197924
18	0x3d8fbaf4	0.0701808
19	0x3da222d7	0.079168014
20	0xbd90c76c	-0.07069287
21	0x3d928527	0.07154303
22	0x3dcf1fb5	0.101134695
23	0x3b3a7bc4	0.0028455118
24	0xbd3bbe80	-0.04583597
25	0x3d6e0104	0.058106437
26	0xb9714092	-0.00023007605
27	0xbd26da01	-0.04073525
28	0x3d4ac0fb	0.049500447
29	0x3d9824b7	0.07428878
30	0x3d07786a	0.03307382
31	0x3c9bf0dc	0.01903575
32	0x3c895b59	0.01676719
33	0x3d05f10a	0.032700576
34	0x3e1b59f8	0.15171039
35	0x3d4dfbfb	0.050289135
36	0x3df53b31	0.119741805
37	0xbc5ce077	-0.013481251
38	0xbdafdf97	-0.08587568
39	0xbdf1b4e9	-0.11802084
40	0xbd57c226	-0.05267539
41	0x3d06550e	0.03279596
42	0x3db973da	0.090553
43	0xbdd821ba	-0.10553308
44	0x3d636db8	0.055524558
45	0x3cd674c8	0.026178733
46	0xbcec6278	-0.028855547
47	0x3db9b243	0.09067204
48	0xbc640a17	-0.013918421
49	0x3d8cb8f4	0.068712145
50	0xbcd7105b	-0.026252916
51	0xbd7eff41	-0.062255148
52	0xbdad76a9	-0.08469898
53	0x3d12df4a	0.035857476
54	0x3cafb8db	0.02145045
55	0xbd57ff84	-0.052733913
56	0xbd2b527b	-0.041826706
57	0x3d262a63	0.040567767
58	0x3c84fcb7	0.016233785
59	0xbbbb176a	-0.0057095783
60	0x3dbf6377	0.09345143
61	0x3d8160ff	0.06317329
62	0x3a7647e6	0.0009394869
63	0x3bcb3d6e	0.0062023913
64	0x3d23a22b	0.039949577
65	0x3d2ad142	0.04170347
66	0x3dab7ae5	0.0837305
67	0xbc780636	-0.0151382
68	0x3c7826b5	0.015145947
69	0xbc9354f9	-0.017984854
70	0xbcea57a8	-0.02860625
71	0xbd217fb9	-0.039428446
72	0x3e0793f0	0.13240027
73	0x3d2827fc	0.041053757
74	0x3cf12392	0.029435907
75	0x3d1853f8	0.037189454
76	0xbbdadcef	-0.0066791694
77	0xbd225575	-0.03963228
78	0xbc674848	-0.014116354
79	0x3dd8ee20	0.10592294
80	0x3d3ea28d	0.04654174
81	0xbd2df4af	-0.042469677
82	0x3d3ca4d3	0.046055626
83	0xbd15314f	-0.036423977
84	0x3cd2490c	0.025669597
85	0x3d9328d4	0.07185522
86	0x3d22ff0b	0.03979401
87	0x3dbd4c85	0.092431106
88	0xbcc91302	-0.024545196
89	0x3de1cfbd	0.11025951
90	0xbd2fe84d	-0.04294615
91	0x3d31fbae	0.04345291
92	0x3d30fac0	0.043207884
93	0xbd7a3f77	-0.06109568
94	0xbcf2184e	-0.029552605
95	0x3c8528b8	0.016254768
96	0x3ce0579b	0.027385524
97	0x3d26f668	0.040762335
98	0xbda8e66c	-0.082470745
99	0x3da2e04c	0.079529375
100	0x3d44d90a	0.048058547
101	0xbb874de3	-0.004129158
102	0x3d09e0ac	0.03366153
103	0xbd27d4ec	-0.040974542
104	0xbdd6f388	-0.10495669
105	0xbd9b502e	-0.075836524
106	0xbd82bbb2	-0.06383456
107	0x3d9a639b	0.075385295
108	0x3e2293b0	0.15876651
109	0xbd2e8b97	-0.042613592
110	0xbc099d49	-0.008399316
111	0xbcece2d3	-0.028916752
112	0x3d9d4c95	0.076806225
113	0x3d944a91	0.07240785
114	0x3d87618f	0.06610405
115	0x3db0dfff	0.08636474
116	0x3dd65d4f	0.10467016
117	0xbbc9812a	-0.0061494308
118	0xb5dfa204	-1.6661947e-06
119	0xbb822b61	-0.0039724563
120	0x3d9b3e9c	0.07580301
121	0x3dd7a1c3	0.105289005
122	0x3cfa1113	0.03052572
123	0x3c5caea4	0.013469372
124	0xbb64ff52	-0.0034942222
125	0x3d43feb3	0.047850322
126	0x3c2fca67	0.010729409
127	0x3b3c4d3e	0.0028732563
128	0xbd36736d	-0.044543672
129	0x3c41846d	0.011811358
130	0xbc8b8331	-0.01703033
131	0x3c81811d	0.015808636
132	0xbd5df790	-0.054191172
133	0x3d43fce6	0.047848605
134	0xbd3fa006	-0.04678347
135	0x3d7f7f58	0.062377304
136	0xbd377a44	-0.044794336
137	0xbbab3bda	-0.0052256407
138	0x3ddae395	0.10687939
139	0xbda81c04	-0.082084686
140	0xbdcf6fb6	-0.10128729
141	0xbdc82d5f	-0.09774279
142	0x3d0df606	0.034658454
143	0xbcc7ad44	-0.024374612
144	0x3d59cff6	0.053176843
145	0x3e571834	0.21005327
146	0xbd73ae48	-0.05949238
147	0xbd8f2b7f	-0.06990718
148	0xbcd6cba2	-0.026220147
149	0x3d851b86	0.0649939
150	0xbd207818	-0.03917703
151	0x3df8c0cd	0.12146149
152	0x3de2df02	0.110776916
153	0x3dd92ddf	0.10604452
154	0x3d150922	0.036385663
155	0x3dc61104	0.09671214
156	0x3dc50cc7	0.09621578
157	0x3d3ddc6e	0.046352796
158	0x3d07a0a5	0.033112187
159	0x3d6cc83b	0.057808142
160	0xbc7e3413	-0.015515345
161	0x3d6e0d47	0.05811813
162	0x3da16846	0.07881217
163	0x3ccb7ddc	0.024840288
164	0x3cd137a1	0.025539221
165	0xbcb71444	-0.02234853
166	0x3d5de2bc	0.05417131
167	0xbdc1c5fe	-0.09461592
168	0x3be5ad7a	0.0070092054
169	0x3bba4547	0.005684528
170	0x3d4029e1	0.04691494
171	0x3d832332	0.06403197
172	0xbcabf1f3	-0.020989394
173	0xbe0e60f7	-0.13904177
174	0x3e0b5083	0.13604932
175	0xbc58d83b	-0.013235147
176	0x3ccbabfa	0.024862278
177	0xbc1f4221	-0.009720356
178	0xbdeca99a	-0.115557864
179	0xbd6c49cb	-0.057687562
180	0x3d0b602c	0.034027264
181	0xbd966676	-0.073437616
182	0xbd0ce530	-0.034398258
183	0xbd0a7ac9	-0.033808503
184	0xbd57f465	-0.052723307
185	0x3c9a1c74	0.018812396
186	0xbd2b2f95	-0.041793425
187	0xbdc0c726	-0.094129845
188	0xbc85fa5b	-0.01635473
189	0xbc7a0ccd	-0.015261841
190	0x3cc5cd0d	0.024145627
191	0x3d4be676	0.04978033
192	0x3cd7c4cb	0.026338955
193	0x3c92e081	0.017929317
194	0x3d89e267	0.06732636
195	0xbb3a682c	-0.002844344
196	0x3de3b88e	0.111191854
197	0x3d2e1920	0.04250443
198	0xbd19b952	-0.03753025
199	0x3d5ff100	0.054673195
200	0x3dd3879a	0.10328598
201	0x3a9e1305	0.0012060112
202	0xbcb8676b	-0.022510251
203	0x3c845224	0.016152449
204	0xbcc8f95c	-0.024532966
205	0x3d1c0211	0.03808791
206	0x3d34fe72	0.04418797
207	0x3db8296d	0.08992276
208	0xbc8a40f2	-0.016876671
209	0x3d0063dd	0.031345237
210	0xbd7128e0	-0.058876872
211	0x3d8b3903	0.067979835
212	0xbacba0a3	-0.0015535544
213	0x3c612289	0.013741144
214	0x3b9c0b51	0.004762091
215	0xbd2c387f	-0.042046066
216	0xbccf4ef6	-0.025306206
217	0x3e43387e	0.19064519
218	0xbccf7f17	-0.025329156
219	0xbd963844	-0.073349506
220	0x3dc6b3b5	0.09702245
221	0x3cb96659	0.022631811
222	0xbc9e10f1	-0.019295188
223	0xbd7fccc9	-0.062451158
224	0x3da249ca	0.079242304
225	0xbb48f3e4	-0.0030662948
226	0x3cd72847	0.026264323
227	0x3b68856e	0.003547992
228	0x3ce1ff0f	0.027587442
229	0x3cafca41	0.021458747
230	0xbd16d267	-0.03682175
231	0xbbb65d7c	-0.0055653434
232	0x3d791d0f	0.060818728
233	0x3d2255a5	0.03963246
234	0x3d9b9f02	0.07598688
235	0x3d87d97c	0.06633279
236	0xbc930753	-0.017947828
237	0x3d77b4a7	0.060475018
238	0xbbedea8a	-0.0072606253
239	0xbdd16ab7	-0.10225432
240	0x3c36fdf7	0.011168948
241	0x3d81d7a6	0.0633996
242	0xbdac3b73	-0.084097765
243	0xbd6f09e1	-0.05835903
244	0x3bd82ca3	0.006597118
245	0x3cccc606	0.024996769
246	0x3e01741a	0.12641945
247	0x3db1783f	0.08665513
248	0x3cb1f45c	0.021722965
249	0x3d80830d	0.06274996
250	0xbb56cfbc	-0.0032777628
251	0x3d88b822	0.066757455
252	0x3d4509b3	0.048104953
253	0x3d7d95dd	0.0619105
254	0x3c9362ca	0.017991442
255	0xbd36834a	-0.0445588

actor.l2.bias f4 [256]
0	0x3d0ae648	0.03391102
1	0x3cdc11b7	0.026863916
2	0xbd1be03b	-0.03805564
3	0x3cb64d6a	0.02225371
4	0xbd2ebd25	-0.04266085
5	0xbc8762f0	-0.01652667
6	0xbccdbe03	-0.025115019
7	0x3d8d80a1	0.069093
8	0x3be4c568	0.0069815405
9	0xbd2bf4d7	-0.041981544
10	0x3cd647ad	0.026157225
11	0xbc5bffac	-0.013427656
12	0xbcf03863	-0.029323762
13	0x3ceaf719	0.028682278
14	0x3cb749a0	0.022373974
15	0xbd34d6ab	-0.044150036
16	0x3ca8629d	0.020554835
17	0xbc533928	-0.012892045
18	0xbd8010ab	-0.06253179
19	0xbccd13e5	-0.0250339
20	0xbc7adefd	-0.015311954
21	0xbcd20ade	-0.025639948
22	0x3d1e81cb	0.038698
23	0x3c55a6e5	0.013040279
24	0x3cf3939f	0.029733477
25	0xbd0d0e67	-0.034437563
26	0x3cb1d17c	0.021706335
27	0x3dcdd223	0.10049846
28	0x3d2dbc86	0.042416118
29	0xbd1feaa8	-0.039042145
30	0x3d0cc790	0.034370005
31	0xbd418a63	-0.047251116
32	0xba554dc1	-0.00081368914
33	0x3d18a442	0.037266023
34	0xbd9ebcd1	-0.077508576
35	0xbb1be9a3	-0.0023790381
36	0xbd6c7e92	-0.057737894
37	0x3d468630	0.048467815
38	0x3d976396	0.073920414
39	0x3d69453d	0.056950796
40	0x3d40707f	0.046982285
41	0xbce2d08c	-0.027687334
42	0x3bf8b153	0.007589498
43	0xbd0374f9	-0.032093976
44	0xbd08695d	-0.033303607
45	0x3ccf97cf	0.025340943
46	0x3c69d077	0.014270893
47	0x3d342cde	0.0439881
48	0x3c5ec02e	0.013595624
49	0x3c4ba6d5	0.012429913
50	0x3d6d44ff	0.057927128
51	0xbb2485a2	-0.0025104065
52	0xbd0a4f76	-0.033767186
53	0x3c713a3a	0.014723355
54	0x3b48f49e	0.0030663381
55	0x3bb94640	0.0056541264
56	0xbcf54e4b	-0.02994456
57	0x3d1b8969	0.03797284
58	0x3c1a1708	0.009404905
59	0x3d5e1fc4	0.054229513
60	0x3d6cfb9e	0.05785715
61	0x3d9d7d8b	0.07689961
62	0x3d202126	0.039094113
63	0x3d773b3a	0.060359217
64	0x3b70548f	0.0036671495
65	0xbc89fae1	-0.016843261
66	0xbd29945e	-0.04140126
67	0x3d2a6dfc	0.041608796
68	0x3cd045d0	0.025423914
69	0x3cdbfcbb	0.02685391
70	0xbd684198	-0.05670318
71	0xbd31e82a	-0.0434343
72	0x3d84907b	0.0647287
73	0x3d14067f	0.036139008
74	0x3d24a115	0.040192682
75	0x3c4430f1	0.011974559
76	0xbd99b535	-0.075052656
77	0x3c27dd6d	0.010245663
78	0x3d1393b9	0.03602955
79	0xbc841349	-0.016122477
80	0xba472bc8	-0.00075977715
81	0xbbcebad6	-0.0063088937
82	0xb9b88eb4	-0.00035201537
83	0x3bca69f9	0.0061771837
84	0x3d9aa747	0.07551437
85	0x3bd80967	0.0065929177
86	0xbd23994e	-0.039941125
87	0x3d6667fc	0.05625151
88	0xbc211bc1	-0.009833277
89	0xbd548355	-0.05188306
90	0x3c8b2227	0.016984059
91	0xbd244502	-0.040104873
92	0xbcab8f14	-0.020942248
93	0x3d20c875	0.03925367
94	0xbb38e302	-0.002821148
95	0x3ba319e5	0.004977452
96	0x3d6e8ac2	0.0582378
97	0xbd9c62e5	-0.0763605
98	0xbd661e2e	-0.056181125
99	0xbca5c058	-0.020233318
100	0xbd6acffe	-0.057327263
101	0x3cb661dd	0.022263462
102	0xbd727200	-0.05919075
103	0x3d351479	0.044208977
104	0xbc3de935	-0.011591245
105	0xbcb65e9d	-0.022261912
106	0x3c61c430	0.013779685
107	0xbcf144ec	-0.02945181
108	0x3d804109	0.062624045
109	0x3d535026	0.051590107
110	0xbac4f9f8	-0.001502811
111	0x3d2d22a3	0.04226936
112	0xbd63a4a3	-0.05557693
113	0x3c8858e0	0.016643941
114	0xbd6c7d29	-0.05773655
115	0x3d1c1496	0.03810557
116	0x3c4e9cae	0.012610598
117	0xbd057702	-0.032584198
118	0x3aecdc36	0.0018070999
119	0x3d19c173	0.037538003
120	0x3d711215	0.058855135
121	0xbb4bcb9d	-0.0031096705
122	0xbb6c2db0	-0.0036037974
123	0xbd45ab04	-0.048258796
124	0x3a5d3d50	0.0008439617
125	0x3cd2e999	0.025746154
126	0x3d32c0da	0.04364095
127	0xbc832dae	-0.016012993
128	0x3cb602ea	0.022218186
129	0x3cb9fe6b	0.022704324
130	0x3bcffc26	0.006347197
131	0xbd2db143	-0.042405378
132	0xbd6aaf5f	-0.057296153
133	0x3c3eece3	0.011653158
134	0x3c18a3cd	0.009316397
135	0x3d6c4162	0.05767954
136	0x3c6dae28	0.014506854
137	0xbc845bf0	-0.01615712
138	0x3d1a5016	0.037674032
139	0x3dadcbab	0.08486112
140	0xbc241e32	-0.010016965
141	0xbc436e1d	-0.0119281085
142	0xbd6826b0	-0.05667752
143	0x3d08f994	0.03344114
144	0xbbf305f8	-0.007416483
145	0x3dada370	0.08478439
146	0x3d330450	0.043705285
147	0xbd69a31f	-0.05704033
148	0x3d0d5a4a	0.034509934
149	0x3c33bfe8	0.010971047
150	0x3d4940b9	0.04913399
151	0x3d29854f	0.0413869
152	0x39b90362	0.0003528847
153	0x3c72cc24	0.014819179
154	0x3c908741	0.01764262
155	0x3c30ab22	0.010782989
156	0xbd43e130	-0.047822177
157	0xbd567499	-0.05235729
158	0x3d89aace	0.067220315
159	0x3d70ac37	0.058757987
160	0xbd1b8700	-0.037970543
161	0xbd45498b	-0.04816584
162	0x3d3916d8	0.0451878
163	0xbc9db2f2	-0.019250367
164	0x3c1c0a8e	0.009524001
165	0xbc429c95	-0.011878152
166	0xbd98935a	-0.0744998
167	0xbb528f21	-0.0032128769
168	0x3d1984ab	0.037480038
169	0xbccfe30f	-0.025376825
170	0x3c53a67e	0.012918113
171	0x3bcd267d	0.0062606917
172	0xbd71fbf8	-0.059078187
173	0xbbb38ea3	-0.00547965
174	0x3d39d50c	0.045369193
175	0xbcde6364	-0.027147003
176	0xbba9195a	-0.005160493
177	0xbd44bfe4	-0.048034564
178	0x3ce4a33a	0.027909864
179	0xbd0993bb	-0.033588152
180	0xbd630a48	-0.055429727
181	0x3bb6810f	0.005569584
182	0xbd49f4d5	-0.049305756
183	0x3bc616b3	0.0060451864
184	0x3c313de8	0.010817982
185	0x3d3f1169	0.046647463
186	0xbb796b90	-0.0038058497
187	0xbc36ef49	-0.011165448
188	0x3b8f97cd	0.0043821097
189	0x3d9e7529	0.0773719
190	0xbd694826	-0.05695357
191	0x3ce543a8	0.027986363
192	0x3bcff86a	0.006346752
193	0xbd5c82ae	-0.053835563
194	0xbcbcc067	-0.023040963
195	0x3d3ecf44	0.046584383
196	0xbcc03c57	-0.023466272
197	0x3d1ad74e	0.037802987
198	0x3c82d029	0.0159684
199	0x3d3208d6	0.043465458
200	0xbc878f85	-0.016547928
201	0x3d5ac2e0	0.053408504
202	0xbbbf5239	-0.005838659
203	0x3bae5f5f	0.0053214277
204	0xbd31a272	-0.04336781
205	0x3d0f533d	0.03499149
206	0x3c50712e	0.012722297
207	0x3b992e5a	0.004674715
208	0xbcaaff08	-0.020873562
209	0xbc7ba836	-0.015359929
210	0x3cc6999a	0.024243165
211	0xbd8436c0	-0.06455755
212	0x3a9064c4	0.0011016359
213	0x3cb90b0a	0.022588272
214	0x3d5c42e7	0.05377474
215	0x3ba8d70a	0.005152588
216	0x3a7e6c7b	0.0009705496
217	0xbd0469bb	-0.032327395
218	0xbca85568	-0.020548537
219	0xbc2f6633	-0.010705519
220	0x3c53c4d2	0.012925344
221	0xbd7d85dd	-0.06189524
222	0x3d4625cf	0.0483759
223	0x3ca4c467	0.020113183
224	0xbd5f34cd	-0.054493714
225	0xbc9227a0	-0.01784116
226	0xbc2978c5	-0.010343735
227	0xbd7b4460	-0.061344504
228	0xbc3f667b	-0.011682148
229	0x3d68eec5	0.056868333
230	0xbd947c04	-0.072502166
231	0xbcadf948	-0.02123703
232	0x3d692929	0.05692402
233	0x3d5afbc0	0.053462744
234	0xbd6d13d1	-0.057880227
235	0x3be7b6d1	0.007071354
236	0xbd728b31	-0.059214775
237	0x3d746cb8	0.059673995
238	0x3b6e9757	0.0036406124
239	0x3cf37f81	0.029723885
240	0x3d58029c	0.052736863
241	0x3d1025d2	0.03519232
242	0xbd27cef0	-0.040968835
243	0x3d0d6112	0.0345164
244	0xbca51fb7	-0.020156724
245	0x3dea6f70	0.11447036
246	0xbca5f9f8	-0.020260796
247	0xba14556f	-0.00056584826
248	0x3d5570b6	0.052109443
249	0x3d449262	0.047991164
250	0x3c8c87c0	0.017154574
251	0xbca52f07	-0.020164026
252	0x3d4e87c8	0.05042246
253	0xbcc9390e	-0.024563339
254	0x3d51c624	0.051214352
255	0x3c22a233	0.009926367

actor.l3.weight f4 [17, 256]
0	0xbc733601	-0.0148444185
1	0xbcd9a63d	-0.026568526
2	0xbcdebfd3	-0.027191078
3	0xbd29eb92	-0.041484423
4	0xbd5583aa	-0.052127518
5	0x3dc34904	0.09535411
6	0x3e4937da	0.19650212
7	0x3d2c0ff0	0.042007387
8	0xbc9559b6	-0.018231254
9	0x3d43ee2b	0.047834557
10	0x3de6d2b4	0.11270657
11	0xbd4e4b4f	-0.05036479
12	0x3bf4f9ec	0.007476082
13	0x3df2a5f7	0.118480615
14	0xbc9e73ef	-0.01934239
15	0x3dd2d856	0.10295169
16	0x3da06880	0.07832432
17	0x3c6a0e1f	0.014285593
18	0x3d08c10a	0.03338722
19	0x3cd3a75a	0.025836635
20	0x3d31e7ca	0.043433942
21	0x3ce1450e	0.027498748
22	0xbde4327f	-0.11142444
23	0xbb6f4df7	-0.0036514977
24	0xbb110738	-0.0022129547
25	0xbd74da96	-0.059778772
26	0x3defaead	0.11703239
27	0x3c7972f7	0.015225164
28	0xbb21f6b4	-0.0024713697
29	0xbe193eaf	-0.14965318
30	0xbde00c07	-0.10939794
31	0x3d3d1af8	0.046168298
32	0xbddf2192	-0.10895075
33	0xbd9adf0e	-0.075620756
34	0x3c8185ee	0.015810933
35	0x3d7a2912	0.061074324
36	0xbc2114bd	-0.009831605
37	0x3d9e2dfd	0.07723615
38	0x3d83313c	0.06405875
39	0x3d5994b6	0.053120337
40	0x3db89bb3	0.09014072
41	0xbe1315a3	-0.14363723
42	0xbde1b784	-0.11021331
43	0x3daede1c	0.08538458
44	0x3cdf270c	0.027240299
45	0x3ca74716	0.020419639
46	0xbd708a8d	-0.058725882
47	0x3d4687b2	0.048469253
48	0xbdbbf5e1	-0.09177757
49	0x3d5e6014	0.054290846
50	0x3d2ed61e	0.042684667
51	0x3e786ba7	0.24259816
52	0xbcde3ac8	-0.027127638
53	0xbda4e8a3	-0.080521844
54	0xbc1a1d33	-0.009406376
55	0xbcd64904	-0.026157863
56	0x3c63b0f4	0.013897169
57	0x3c2e8c6d	0.010653597
58	0x3d8677cc	0.06565818
59	0xbd15ce3b	-0.03657363
60	0xbd349a22	-0.044092305
61	0xbd355acb	-0.04427604
62	0x3dcf6e0b	0.10128411
63	0xbddf0281	-0.108891495
64	0xbdba4613	-0.09095397
65	0xbda567f6	-0.080764696
66	0xbe223060	-0.15838766
67	0x3cfe5cbd	0.03105008
68	0x3c7178ea	0.014738301
69	0x3cbaa80f	0.022785215
70	0x3e525445	0.20539959
71	0xbe33bae9	-0.1755177
72	0x3cf1afd5	0.029502789
73	0x3dbcfcc9	0.092279024
74	0x3dc3b902	0.09556772
75	0xbd68041e	-0.05664455
76	0xbd1ffe5f	-0.039060947
77	0x3a9f2d1f	0.0012144184
78	0xbcbcb111	-0.02303365
79	0xbbabd598	-0.005243968
80	0x3e1b161d	0.15145154
81	0x3d89d61c	0.06730291
82	0x3cdd38d5	0.027004639
83	0xbd6a5c59	-0.057216976
84	0x3c4a6d2d	0.012355131
85	0x3d977115	0.073946156
86	0xbdd79310	-0.10526097
87	0xbcc96ae0	-0.024587095
88	0x3e2b7ffb	0.1674804
89	0x3c8a8ad3	0.0169119
90	0xbd9bddd5	-0.076106705
91	0x3d11c6c5	0.035589952
92	0x3d5c3003	0.053756725
93	0xbce70cbb	-0.028204313
94	0xbdf847e1	-0.12123085
95	0xbda35362	-0.079748884
96	0x3d69bd3e	0.05706524
97	0x3d15d797	0.036582556
98	0xbe0b5d38	-0.13609779
99	0xbcdef0c4	-0.027214415
100	0xbdbbfd6d	-0.091791965
101	0xbb4b0967	-0.0030980946
102	0xbcb5d917	-0.022198243
103	0xbcfd96f9	-0.030955778
104	0xbd6b91ef	-0.05751222
105	0xbcf77a13	-0.030209577
106	0xbd5c3efd	-0.053771008
107	0xbcc0dcf0	-0.023542851
108	0x3d6a0ff5	0.057144124
109	0x3c8810ed	0.016609633
110	0x3dbbbb33	0.09166565
111	0xba9c870b	-0.0011942101
112	0x3d63e53d	0.05563854
113	0xbdc2dc32	-0.09514655
114	0x3dbed006	0.09317021
115	0xbb6fbea9	-0.0036582148
116	0x3de190b8	0.11013931
117	0x3d0652b3	0.032793712
118	0xbd2a15f1	-0.04152483
119	0x3d81cb8c	0.063376516
120	0x3cdeb842	0.02718747
121	0x3e32730c	0.174267
122	0xbe10793e	-0.1410875
123	0x3db2f156	0.087374374
124	0xbd5f532f	-0.05452269
125	0xbc2ff29a	-0.010738993
126	0xbd1be321	-0.038058404
127	0x3e386825	0.18008478
128	0x3e1a279f	0.15054177
129	0xbd55b533	-0.05217476
130	0x3db3f4f3	0.08786955
131	0xbe23716e	-0.15961239
132	0x3dc70b97	0.097190075
133	0xbd764b50	-0.060130417
134	0xbd1af4ac	-0.037830994
135	0xbc67d49c	-0.014149811
136	0x3db98199	0.09057922
137	0x3cd1c077	0.02560447
138	0x3b2a478e	0.0025982591
139	0x3d894cad	0.06704078
140	0x3e2f244d	0.17103691
141	0xbd8fcb11	-0.07021154
142	0xbbb47ab2	-0.0055077905
143	0xbc185804	-0.009298328
144	0x3c00856e	0.007844312
145	0xbd5b1125	-0.053483147
146	0xbcb81915	-0.022472898
147	0x3da6b687	0.08140283
148	0xbd3aa0d5	-0.045563538
149	0xbe2dfec9	-0.16991724
150	0x3d8d8e0d	0.0691186
151	0x3dc93aab	0.09825643
152	0xbd8ad546	-0.0677896
153	0x3c0e1a36	0.008673241
154	0x3c15d499	0.0091449255
155	0x3ceeac07	0.029134763
156	0xbdef687b	-0.1168985
157	0x3de38053	0.1110846
158	0x3d7b5f35	0.061370093
159	0xbc9e214c	-0.019302987
160	0x3d894a4f	0.06703626
161	0xbd9f657c	-0.077830285
162	0xbc40c188	-0.011764891
163	0xbdc2b9e5	-0.09508113
164	0x3e12324a	0.14276996
165	0xbcf8962b	-0.030345043
166	0x3da0699c	0.078326434
167	0xbd63aa03	-0.055582058
168	0x3b0c0d17	0.0021370107
169	0x3e13b615	0.14424928
170	0xbc1ee308	-0.009697683
171	0x3d1776c5	0.0369785
172	0xbdae6d26	-0.08516912
173	0x3daba6f6	0.08381455
174	0xba87da77	-0.001036479
175	0x3dd28b67	0.10280495
176	0x3e30b8ad	0.17257948
177	0xbd93013a	-0.07177968
178	0xbc805542	-0.015665654
179	0xbdb003fc	-0.0859451
180	0x3c75c4d6	0.015000543
181	0x3cc7633c	0.02433931
182	0x3af93b28	0.0019014822
183	0x3d3b2115	0.045685846
184	0x3e0a268a	0.13491264
185	0xbd419243	-0.047258627
186	0xbd9b5ed0	-0.075864434
187	0x3d92e71e	0.07172988
188	0xbcd22c76	-0.025655966
189	0x3c0111e0	0.007877797
190	0x3d7f269d	0.062292684
191	0xbdae109b	-0.08499261
192	0xbd993b3d	-0.07482002
193	0xbdc493ec	-0.09598526
194	0xbd8aaed5	-0.06771628
195	0x3db54f7e	0.088530526
196	0xbd578510	-0.052617133
197	0x3cf143a4	0.029451199
198	0xbe37bb98	-0.17942655
199	0x3c6a52ec	0.014301997
200	0x3db25f32	0.08709563
201	0x3e3954c1	0.18098737
202	0x3e3c281b	0.18374674
203	0xbd32a2ed	-0.04361241
204	0x3db90992	0.090350285
205	0xbc402156	-0.011726698
206	0x3dcdc9ba	0.10048242
207	0xbd83e404	-0.06439975
208	0x3ca1d148	0.019753113
209	0x3e0139e5	0.12619741
210	0xbdf47d9f	-0.11938023
211	0xbe18245f	-0.14857624
212	0xbd5ce25c	-0.05392681
213	0x3d3898dd	0.045067657
214	0xbde1db33	-0.11028137
215	0xbd476d19	-0.048688028
216	0xbd57a5cc	-0.05264835
217	0x3b940945	0.0045177066
218	0x3e1969bc	0.1498174
219	0xbd2f1afa	-0.042750336
220	0xbce3277a	-0.027728785
221	0xbb9daff9	-0.0048122373
222	0x3ca6381d	0.020290429
223	0xbdbb4c69	-0.091454335
224	0x3e01d6da	0.12679616
225	0x3e7ea56a	0.24867788
226	0xbd06eacc	-0.032938763
227	0xbe604eab	-0.2190501
228	0xbd3dff26	-0.046385907
229	0x3d0312a6	0.032000206
230	0xbdeeda28	-0.11662704
231	0x3dca04b2	0.09864177
232	0x3e3a3c2d	0.18187018
233	0x3ce4c327	0.027925087
234	0xbd4b5243	-0.049638998
235	0xbe37a816	-0.17935213
236	0x3e101688	0.14071095
237	0xbd024297	-0.031801786
238	0x3dacbdb0	0.084346175
239	0xbcda519e	-0.026650246
240	0x3d103bb7	0.0352132
241	0x3e3d03b4	0.18458444
242	0xbc29350d	-0.01032759
243	0x3d8ccc03	0.0687485
244	0xbd00fcc2	-0.03149105
245	0x3ca069d9	0.019581722
246	0xbd88c218	-0.066776454
247	0xbcea4e3c	-0.028601758
248	0xbda125e2	-0.07868554
249	0x3b3d6c11	0.0028903524
250	0xbd5153f1	-0.051105443
251	0x3d0195a0	0.031636834
252	0x3d337a10	0.04381758
253	0x3db802bb	0.08984896
254	0xbd9ce945	-0.0766168
255	0xbd5fa1ff	-0.05459785

actor.l3.bias f4 [17]
0	0x3b3e2fde	0.002902023
1	0xbdc45482	-0.09586431
2	0xbd069b05	-0.032862682
3	0x3d508596	0.050908647
4	0x3d3908c5	0.04517438
5	0x3b1421cf	0.002260316
6	0x3d0da194	0.03457792
7	0xbd3ad3d9	-0.04561219
8	0x3ba2c0ca	0.00496683
9	0xbbb22e8a	-0.005437677
10	0x3d7b1a75	0.06130453
11	0xbad65693	-0.0016352705
12	0xbd6d6427	-0.05795684
13	0xbcebda0c	-0.028790496
14	0xbc5e0dc7	-0.013553089
15	0x3bad85a3	0.0052954718
16	0xbd84881c	-0.06471273
