PPO-cleanrl/models/PPO-HumanoidStandup-v4.onnx (onnx, 118944 bytes, 7 tensors)

actor_logstd f4 [1, 17]
-1.212344 -1.1488751 -0.77873844 -0.9820932 -1.0095588 -1.3244524 -1.0957267 -1.2938501
-0.8235989 -1.9212109 -1.6054496 -0.6769129 -0.8468176 -1.2404176 -1.4515505 -1.2515398
-0.68702555
00000000: 172e 9bbf 570e 93bf 675b 47bf 766a 7bbf
00000010: 3939 81bf a887 a9bf c640 8cbf e19c a5bf
00000020: 61d7 52bf 3dea f5bf 5f7f cdbf 2a4a 2dbf
00000030: 0ac9 58bf 01c6 9ebf 68cc b9bf 7532 a0bf
00000040: e8e0 2fbf

actor_mean.0.weight f4 [64, 376]
-0.15680526 -0.019417807 0.042762842 0.038157128 0.20525013 -0.03491667 0.10265287 0.16467547
-0.02479871 -0.17282708 -0.1326366 0.14903331 -0.061336268 0.00085213437 -0.113210686 0.039038338
-0.09641859 -0.109907314 0.14536001 0.136159 0.005956761 0.026796183 0.017469766 0.007957584
0.030480359 0.061519 0.08804504 0.0035569475 -0.061881356 -0.062711254 0.12557639 -0.08266263
-0.120750085 0.07596663 -0.032825205 -0.0042899996 -0.02149722 -0.008791102 -0.08768549 -0.028390208
-0.07250102 -0.02703723 0.2921371 -0.1936131 0.079200916 -0.054944005 0.008544888 -0.025298009
0.13051079 0.048141126 -0.13041127 -0.079620756 0.028894253 0.044169635 -0.11533273 -0.06037752
0.05250284 0.013938954 -0.05542033 -0.095219165 0.06413878 -0.08761638 -0.14472273 -0.026231507
0.07107984 -0.08077494 0.098882414 0.019756917 -0.05595472 -0.11330997 0.002825754 -0.058156054
-0.11220276 -0.015473961 0.068705894 -0.028267404 0.069883876 0.12252163 0.035127725 -0.12864746
-0.050335202 0.015954422 -0.12794344 0.03346633 0.07389339 -0.10568235 0.068490185 -0.11319475
0.003915104 -0.12029839 -0.056580827 -0.05506902 0.12075618 0.0032260097 0.05289807 0.101624094
-0.03806105 -0.035758816 -0.026354626 0.057564646 0.079263054 -0.009966162 0.19323483 0.0958954
0.03865521 -0.0028766242 0.075536266 0.16431709 -0.044579547 0.003421063 0.17367442 -0.06990528
0.1063947 0.07878032 0.0063773356 0.029266562 -0.0076728067 -0.029754946 -0.11481394 -0.037092622
0.060575377 0.009618221 0.12198871 0.022727553 0.0074113654 0.011106025 0.12453256 0.091629624
-0.011132694 0.0014087934 0.015522065 -0.14950158 -0.0024893892 -0.12877055 0.086629845 -0.10642269
0.04097778 0.015073665 0.02301913 -0.12968528 0.046799768 0.0011007808 0.12227314 -0.006187724
0.0029100776 0.043040674 0.07229283 0.3391918 -0.055741683 -0.12362511 0.039016318 0.03139585
-0.101619646 -0.085433364 -0.01068874 0.015555681 0.040855657 0.07001595 0.036265712 0.042243768
-0.06204064 0.0052746334 -0.10422934 -0.015207231 0.084200926 0.0407025 0.17961982 -0.001558888
-0.0504807 0.070870146 0.090702824 0.1066194 0.12667626 -0.004524962 0.030119607 0.034055483
0.09973538 -0.2308924 -0.0030598023 0.06370178 0.12591068 0.013343025 -0.030553853 0.10112344
0.11096788 -0.07218452 -0.023477849 -0.011635538 0.03842648 -0.001074348 0.09179188 -0.1297573
0.15991369 0.2332208 -0.12572756 0.11401192 -0.0058091446 -0.034770887 -0.16270173 -0.02446459
-0.049212247 0.16362111 0.12591931 -0.05648179 -0.17882004 0.11886529 -0.19784142 -0.008889177
0.07417337 0.15329652 -0.06439289 -0.043042876 -0.22277859 0.03269354 -0.044922076 -0.038420655
-0.072858706 0.1261496 0.16787952 0.033251937 0.02914681 0.07682028 -0.068891466 0.05983669
0.16343455 0.07719994 0.034929812 0.09350235 -0.25976905 0.059840508 -0.15185331 -0.12932408
-0.056173343 -0.010103431 0.0532938 -0.083903305 -0.08319171 -0.22116569 0.27190232 -0.02826071
-0.018480286 0.140974 -0.10120355 -0.105395585 0.17077003 -0.13545392 0.1415245 -0.07271121
0.03750424 -0.0017779814 -0.06908394 -0.045928873 -0.08791593 0.102162935 0.2384127 0.09495129
00000000: 8f91 20be 1812 9fbc 1728 2f3d a64a 1c3d
00000010: 172d 523e c804 0fbd ab3b d23d b0a0 283e
00000020: aa26 cbbc 95f9 30be e4d1 07be 309c 183e
00000030: bd3b 7bbd c561 5f3a 01db e7bd aae6 1f3d
00000040: 1c77 c5bd 1617 e1bd 41d9 143e 446d 0b3e
00000050: ef30 c33b ab83 db3c c11c 8f3c 8760 023c
00000060: f2b1 f93c 59fb 7b3d f550 b43d ad1b 693b
00000070: 4e77 7dbd c26e 80bd 1997 003e 064b a9bd
00000080: d24b f7bd 6494 9b3d b973 06bd 2093 8cbb
00000090: f01a b0bc 8e08 10bc 7394 b3bd 9592 e8bc
000000a0: 6a7b 94bd 2e7d ddbc fe92 953e 8342 46be
000000b0: 1734 a23d f70c 61bd dcff 0b3c c53d cfbc
000000c0: 9fa4 053e a12f 453d 888a 05be 3510 a3bd
000000d0: a4b3 ec3c 38eb 343d 9133 ecbd 6b4e 77bd
000000e0: 380d 573d 3660 643c 6e00 63bd 4402 c3bd
000000f0: 315b 833d 3770 b3bd 3232 14be 75e3 d6bc
00000100: 4f92 913d 556d a5bd dd82 ca3d 42d9 a13c
00000110: c730 65bd 0f0f e8bd 4930 393b 0b35 6ebd
00000120: 90ca e5bd 7f86 7dbc adb5 8c3d 0b91 e7bc
00000130: 471f 8f3d 9fec fa3d 17e2 0f3d 29bc 03be
00000140: 492c 4ebd d9b2 823c 9b03 03be fe13 093d
00000150: 6b55 973d fd6f d8bd 9544 8c3d a6d2 e7bd
00000160: 464a 803b 015f f6bd 4cc1 67bd 0d90 61bd
00000170: 044f f73d 766b 533b a6ab 583d 4b20 d03d
00000180: e7e5 1bbd d677 12bd a8e5 d7bc e8c8 6b3d
00000190: ab54 a23d 1d49 23bc 5adf 453e cf64 c43d
000001a0: ed54 1e3d bf85 3cbb c2b2 9a3d bd42 283e
000001b0: 0b99 36bd ea33 603b b5d7 313e 802a 8fbd
000001c0: 77e5 d93d 9457 a13d f8f8 d03b 6ec0 ef3c
000001d0: 2b6c fbbb a5c0 f3bc 9223 ebbd 6fee 17bd
000001e0: e31d 783d be95 1d3c 37d5 f93d 222f ba3c
000001f0: 0adb f23b 0cf6 353c ed0a ff3d 50a8 bb3d
00000200: e765 36bc 43a7 b83a 4250 7e3c f116 19be
00000210: 0525 23bb 6ddc 03be fd6a b13d 24f4 d9bd
00000220: 51d8 273d 89f7 763c 9d92 bc3c 38cc 04be
00000230: 1db1 3f3d 1348 903a 576a fa3d 64c2 cabb
00000240: 00b7 3e3b 6b4b 303d 430e 943d 8caa ad3e
00000250: 6451 64bd 292f fdbd 93cf 1f3d ef98 003d
00000260: f61d d0bd b0f7 aebd d31f 2fbc 41dd 7e3c
00000270: 4358 273d 8664 8f3d 5b8b 143d cd07 2d3d
00000280: 531e 7ebd d5d6 ac3b 3176 d5bd c027 79bc
00000290: 8971 ac3d aab7 263d 42ee 373e 9a53 ccba
000002a0: dac4 4ebd 5e24 913d 67c2 b93d 465b da3d
000002b0: 6cb7 013e 2246 94bb 65bd f63c c37d 0b3d
000002c0: 1042 cc3d 0f6f 6cbe f786 48bb 1476 823d
000002d0: bbee 003e b49c 5a3c 134c fabc ce19 cf3d
000002e0: 2143 e33d 7ad5 93bd 9e54 c0bc fca2 3ebc
000002f0: 1665 1d3d 23d1 8cba 62fd bb3d 19df 04be
00000300: 6ac0 233e 6fd1 6e3e babe 00be 157f e93d
00000310: a35a bebb eb6b 0ebd 489b 26be f769 c8bc
00000320: c892 49bd 4b8c 273e fef0 003e 7359 67bd
00000330: 9a1c 37be a56f f33d f196 4abe e9a3 11bc
00000340: 35e8 973d c3f9 1c3e 6be0 83bd ba4d 30bd
00000350: 1220 64be a9e9 053d 3600 38bd fa5e 1dbd
00000360: f236 95bd 5c2d 013e 9ce8 2b3e 2f33 083d
00000370: 4ac5 ee3c f353 9d3d f816 8dbd 5117 753d
00000380: 635b 273e 011b 9e3d 9012 0f3d 297e bf3d
00000390: 7300 85be 521b 753d 6f7f 1bbe 886d 04be
000003a0: 0516 66bd dc88 25bc 9a4a 5a3d 7fd5 abbd
000003b0: 6a60 aabd 4279 62be c836 8b3e 0183 e7bc
000003c0: f863 97bc 7d5b 103e cf43 cfbd a4d9 d7bd
000003d0: 57de 2e3e 6fb4 0abe cceb 103e 9de9 94bd
000003e0: 0c9e 193d 280b e9ba e17b 8dbd ea1f 3cbd
000003f0: 440d b4bd cd3a d13d 7522 743e d275 c23d

actor_mean.0.bias f4 [64]
0.12318432 -0.007254084 -0.018829769 0.029789092 -0.06318522 0.016652176 -0.03563243 -0.050154146
0.021347478 0.015287821 0.02403844 0.069742434 0.06669672 -0.03646755 0.064182706 0.05756329
0.0019531744 -0.03887727 0.024195826 -0.012722836 0.0136967255 -0.08927324 -0.065955184 0.012447219
0.030877678 -0.01232891 0.020048728 0.10229721 -0.01893902 0.03930421 -0.02327455 -0.03658458
-0.011475363 0.106574655 0.040219605 -0.071922846 0.03384633 -0.008727331 0.05400908 -0.065252356
0.09114839 0.09426345 0.025810443 -0.00245263 -0.032583218 0.121346176 -0.073440984 -0.069009595
-0.062172316 0.02828093 -0.024472851 -0.08310587 -0.017848663 -0.045205075 -0.058173377 0.09709106
-0.014988789 -0.028788507 0.091597244 -0.020275746 -0.0013295368 -0.023105027 0.012528785 -0.047986906
00000000: 1048 fc3d abb3 edbb e340 9abc 4108 f43c
00000010: 4167 81bd 256a 883c 50f3 11bd 6f6e 4dbd
00000020: e8e0 ae3c c579 7a3c 43ec c43c 1fd5 8e3d
00000030: 4a98 883d ff5e 15bd 3972 833d 7cc7 6b3d
00000040: d400 003b c63d 1fbd 5336 c63c 7173 50bc
00000050: 3b68 603c e3d4 b6bd 8313 87bd 6cef 4b3c
00000060: 2ff3 fc3c 32ff 49bc 3b3d a43c 3381 d13d
00000070: 0126 9bbc 74fd 203d 45aa bebc b6d9 15bd
00000080: 2903 3cbc d043 da3d 50bd 243d 494c 93bd
00000090: 73a2 0a3d 14fd 0ebc a038 5d3d 07a3 85bd
000000a0: 02ac ba3d 320d c13d 6c70 d33c 4ebc 20bb
000000b0: fb75 05bd 5884 f83d 3a68 96bd e754 8dbd
000000c0: 66a8 7ebd 69ad e73c 4a7b c8bc 6933 aabd
000000d0: 5c37 92bc f528 39bd 3547 6ebd add7 c63d
000000e0: 8a93 75bc e0d5 ebbc 5697 bb3d 5219 a6bc
000000f0: da43 aeba c146 bdbc 8845 4d3c eb8d 44bd

actor_mean.2.weight f4 [64, 64]
0.019836012 -0.17941952 -0.05552679 0.48220828 0.33409292 -0.22123483 -0.014171802 0.11482916
-0.030598138 -0.17556433 0.28528517 -0.01934301 -0.5339607 0.10272943 0.08253249 0.03967383
-0.06482223 0.134865 0.11482761 0.21846215 -0.3564096 0.009737985 -0.1361791 0.05187118
-0.11699266 0.18584268 -0.048335467 -0.28466493 0.078566074 -0.5479567 0.36649838 -0.14746417
-0.14551957 0.09740509 -0.19928218 -0.2854743 -0.14738937 0.10578558 0.06617501 -0.01813444
-0.27021134 0.012840147 0.17812839 -0.49586314 0.3951298 -0.22939017 -0.054403946 -0.07115431
0.25148255 0.011997558 0.21831968 -0.100286245 0.09505707 0.41960168 -0.031186031 -0.010086131
0.3597409 0.21031874 0.22369792 0.082700744 -0.3219074 0.046136618 -0.31767836 -0.12496114
-0.43241778 -0.2581753 -0.3963868 0.18959072 0.1969004 0.08638232 -0.0045508225 0.29541072
-0.06520355 0.09540756 0.01016457 -0.16256231 -0.09291812 0.17581119 0.09547259 0.052735157
-0.040749937 -0.06617932 0.46472034 0.11096616 0.018037146 0.062282827 -0.14944348 -0.13062763
-0.5381534 0.1376806 -0.00063165615 0.22884434 -0.124005064 0.13252242 -0.08252479 -0.28740647
-0.14553854 -0.09786531 -0.6219788 0.119963706 0.044318043 0.10012604 0.104783125 0.100980826
-0.04023016 -0.21954873 -0.21403031 0.35717407 0.10660344 -0.1428281 0.53552276 -0.095123835
-0.34652308 -0.07688186 0.11728249 0.32934824 -0.23974691 0.17652057 0.16387607 -0.32219273
0.05019546 -0.2395754 -0.28134117 -0.2842564 -0.1233948 -0.26254532 0.094387084 0.08433138
-0.2194362 0.33190775 -0.21988545 -0.00082709815 0.21077108 0.12203894 0.122551896 -0.39426956
0.06668766 -0.1383603 -0.16367854 0.0011570613 -0.099434525 0.054830953 0.3236913 -0.2594048
-0.18214811 0.13684505 0.29265594 -0.052483767 -0.13044974 0.17822754 0.11893873 0.083110854
-0.028985132 -0.45893693 -0.019012365 -0.03057069 -0.27410486 -0.54710007 -0.38342905 0.0014968271
-0.2579 0.07487523 0.25935483 0.07244991 -0.105230525 0.3578511 0.07608235 0.43524826
-0.008480724 0.07184998 0.18035057 0.18958871 0.3761704 0.08422074 0.06700619 -0.23765798
-0.026184961 0.39851588 0.07311215 0.20219442 -0.34375703 -0.36550862 -0.18625271 -0.18947133
-0.38117567 -0.011742883 -0.13911603 -0.04576672 0.023336362 -0.040578384 0.067883246 0.13802773
-0.10440445 -0.14974333 0.25005296 -0.06795615 -0.44928282 0.017822629 0.017145645 -0.41418362
-0.14372656 0.15338112 -0.24007209 -0.1662073 0.25026658 0.56799364 -0.013650674 0.15658678
-0.18182644 -0.259714 0.18073659 -0.0710285 -0.21106488 0.19588242 0.12270488 0.13731034
-0.40948012 0.13946584 -0.20519306 0.10785247 -0.0076941443 -0.12557712 0.055321734 -0.08069387
0.20967029 -0.21534826 -0.15059195 -0.1539955 -0.07141672 0.09771934 -0.17006002 0.18378355
-0.25681093 0.2260963 -0.09004491 0.039861716 -0.0664607 0.031318318 -0.5649544 0.06364298
-0.0815382 0.042581532 0.09852639 0.18091746 0.24043918 -0.2673405 -0.040712424 -0.3179454
0.046076104 0.30543852 -0.20368324 -0.2205234 -0.39681882 0.16145106 0.2563917 -0.28182852
00000000: 227f a23c c0b9 37be 0f70 63bd 01e4 f63e
00000010: 3a0e ab3e 628b 62be d930 68bc 8d2b eb3d
00000020: f2a8 fabc 23c7 33be e610 923e 3b75 9ebc
00000030: a6b1 08bf cf63 d23d cb06 a93d 0781 223d
00000040: 84c1 84bd 0d1a 0a3e bd2a eb3d 8bb4 5f3e
00000050: 527b b6be 128c 1f3c 8972 0bbe e076 543d
00000060: d999 efbd 8b4d 3e3e 69fb 45bd 9abf 91be
00000070: 40e7 a03d e446 0cbf ada5 bb3e d900 17be
00000080: 1503 15be 527c c73d a110 4cbe b029 92be
00000090: 3ded 16be 1ca6 d83d c386 873d ad8e 94bc
000000a0: 2459 8abe 7b5f 523c 4a67 363e c6e1 fdbe
000000b0: 744e ca3e 42e5 6abe acd6 5ebd 5ab9 91bd
000000c0: 52c2 803e 6891 443c 328f 5f3e e062 cdbd
000000d0: 48ad c23d 08d6 d63e d979 ffbc 4d40 25bc
000000e0: f62f b83e cc5d 573e 1111 653e 025f a93d
000000f0: 0cd1 a4be c0f9 3c3d bda6 a2be a0eb ffbd
00000100: dd65 ddbe 8e2f 84be 36f3 cabe 1224 423e
00000110: 42a0 493e 37e9 b03d 111f 95bb 1340 973e
00000120: 7089 85bd 0a65 c33d 4c89 263c bc76 26be
00000130: db4b bebd d907 343e 2287 c33d d200 583d
00000140: 68e9 26bd 0689 87bd d3ef ed3e 3a42 e33d
00000150: a3c2 933c 471c 7f3d b607 19be 40c3 05be
00000160: 6cc4 09bf 25fc 0c3e ba95 25ba 2c56 6a3e
00000170: 5ef6 fdbd f5b3 073e c202 a9bd f126 93be
00000180: 0e08 15be 9c6d c8bd 013a 1fbf 88af f53d
00000190: d686 353d e20e cd3d 8998 d63d 09cf ce3d
000001a0: 61c8 24bd 62d1 60be c32a 5bbe 85df b63e
000001b0: e852 da3d 8841 12be 0518 093f 49d0 c2bd
000001c0: 796b b1be 3d74 9dbd cd31 f03d 55a0 a83e
000001d0: 3780 75be cfc1 343e 21cf 273e 72f6 a4be
000001e0: c199 4d3d 4153 75be f30b 90be 0e8a 91be
000001f0: 6ab6 fcbd 576c 86be 044e c13d eeb5 ac3d
00000200: e2b3 60be d0ef a93e a729 61be 9ed1 58ba
00000210: 60d4 573e 8def f93d 7dfc fa3d b3dd c9be
00000220: 8a93 883d 53ae 0dbe 599b 27be 89a8 973a
00000230: 54a4 cbbd 6c96 603d deba a53e b5d0 84be
00000240: 0985 3abe 1c21 0c3e 00d7 953e 38f9 56bd
00000250: 9e94 05be 4881 363e 2696 f33d 0636 aa3d
00000260: 3a72 edbc c8f9 eabe d2bf 9bbc 626f fabc
00000270: 7957 8cbe c00e 0cbf d050 c4be 2f31 c43a
00000280: 780b 84be 2f58 993d 28ca 843e 9e60 943d
00000290: 1a83 d7bd 4238 b73e 10d1 9b3d dcd8 de3e
000002a0: bcf2 0abc 1526 933d d2ad 383e 8b23 423e
000002b0: 6899 c03e ec7b ac3d 8b3a 893d 9d5c 73be
000002c0: d881 d6bc 460a cc3e d3bb 953d 0e0c 4f3e
000002d0: ec00 b0be f223 bbbe 08b9 3ebe c604 42be
000002e0: 7529 c3be 3965 40bc 6f74 0ebe e275 3bbd
000002f0: e62b bf3c 8535 26bd 5f06 8b3d 2457 0d3e
00000300: 00d2 d5bd 5156 19be f106 803e 982c 8bbd
00000310: 6608 e6be c300 923c 0675 8c3c e00f d4be
00000320: 0e2d 13be f10f 1d3e 75d5 75be 3f32 2abe
00000330: f122 803e 0868 113f 14a7 5fbc 4958 203e
00000340: b630 3abe 3cf9 84be 0313 393e 6477 91bd
00000350: 6421 58be 6795 483e b24c fb3d 159b 0c3e
00000360: 61a7 d1be 22d0 0e3e 211e 52be c1e1 dc3d
00000370: 291f fcbb 4a97 00be 0b99 623d d442 a5bd
00000380: cfb3 563e 4184 5cbe c734 1abe ffb0 1dbe
00000390: ee42 92bd 1421 c83d 3724 2ebe c131 3c3e
000003a0: b97c 83be ca85 673e 7769 b8bd 0a46 233d
000003b0: 8c1c 88bd a347 003d daa0 10bf 4057 823d
000003c0: 80fd a6bd f969 2e3d 34c8 c93d 6d42 393e
000003d0: b035 763e dbe0 88be 12c2 26bd bdc9 a2be
000003e0: 4cba 3c3d 7062 9c3e 5792 50be e3d0 61be
000003f0: d62b cbbe 6d53 253e c645 833e d44b 90be

actor_mean.2.bias f4 [64]
-0.10870305 -0.04408815 -0.008581094 -0.005019784 0.06577765 -0.021598112 -0.14007308 -0.010686224
0.07637781 0.0027542075 0.020704383 0.01614766 -0.054232463 -0.11451926 -0.006589492 0.06612323
0.10257103 -0.013037594 -0.0069876006 -0.03326571 0.052339725 0.01681112 0.04400178 0.017037855
0.029016338 -0.05708712 -0.05021671 0.060520947 -0.0029472085 -0.031183353 -0.010379447 -0.09304768
0.0053952513 0.040313084 -0.016375529 -0.022405282 0.02520016 -0.15550564 -0.07683525 -0.055664834
-0.024443163 -0.039493404 -0.02053302 -0.0026687041 0.046266112 0.039436076 -0.14093977 0.1742572
-0.016500035 0.11934165 -0.020017397 -0.11942348 0.019127972 0.16005354 0.016047085 -0.21017535
-0.0474386 0.04558884 0.0085485075 -0.060265217 0.017556963 0.05652626 -0.13289186 0.12605947
00000000: b49f debd c795 34bd b897 0cbc 007d a4bb
00000010: 6fb6 863d 86ee b0bc 516f 0fbe 4615 2fbc
00000020: f86b 9c3d ef7f 343b 3d9c a93c 1948 843c
00000030: dc22 5ebd 1389 eabd aaec d7bb 9e6b 873d
00000040: c310 d23d a29b 55bc 3ef8 e4bb a041 08bd
00000050: 2e62 563d 79b7 893c 363b 343d f992 8b3c
00000060: acb3 ed3c 2fd4 69bd 09b0 4dbd d0e4 773d
00000070: f425 41bb 3b74 ffbc 8e0e 2abc c88f bebd
00000080: a6ca b03b 551f 253d f925 86bc 488b b7bc
00000090: 9170 ce3c df3c 1fbe cd5b 9dbd cf00 64bd
000000a0: 073d c8bc d6c3 21bd dd34 a8bc 6de5 2ebb
000000b0: 8981 3d3d b987 213d 8452 10be 7b70 323e
000000c0: 152b 87bc 6569 f43d 86fb a3bc 4c94 f4bd
000000d0: 44b2 9c3c 13e5 233e 2d75 833c 3538 57be
000000e0: fa4e 42bd 5dbb 3a3d 0a0f 0c3c a9d8 76bd
000000f0: 9fd3 8f3c 1488 673d ce14 08be bc15 013e

actor_mean.4.weight f4 [17, 64]
-0.10830046 -0.046020776 0.022221401 0.027675116 0.063494265 0.110540025 0.07973492 -0.26937848
0.07328529 -0.060147367 -0.29814684 -0.03554685 -0.0031950655 0.039391454 0.0040695965 0.17577958
0.08860829 0.004751497 -0.15900046 -0.008688346 0.12962823 0.06519604 0.15593109 -0.050526027
-0.13385868 0.04378552 -0.07234039 -0.007406901 0.04429931 0.09431422 -0.083046354 0.0014100933
-0.01274508 0.05379334 -0.22999132 -0.14896432 -0.11091204 -0.10586408 0.050772026 0.08712826
-0.06351233 0.13605694 0.04386298 -0.1685487 -0.100622736 -0.04962613 0.14692716 0.20869143
0.20173924 -0.061025947 -0.15857974 -0.2461449 -0.027490543 -0.049272757 -0.14382523 -0.014480755
0.09561742 -0.09416266 -0.14883995 -0.114310056 0.20049272 -0.05466222 0.12112631 0.21504952
0.2368506 0.02028357 0.044755813 -0.117386445 -0.12358887 -0.19270715 -0.09240047 0.0750527
0.013395057 0.031451654 -0.16377498 0.15852039 -0.031639736 0.040779766 -0.13417822 -0.07938638
0.057457756 0.0973144 0.00044924556 0.20426472 0.04963494 -0.011662057 0.16299325 -0.18053897
0.050400946 -0.07960285 -0.03900874 -0.007930962 0.1617181 -0.0066903313 0.07937928 -0.19074558
0.056720395 -0.0029007108 0.03216702 -0.027404722 -0.08657271 -0.099417396 -0.103945695 -0.18547004
-0.002914181 0.07000019 -0.0792433 0.012392546 -0.09060062 0.26135805 0.07824067 -0.014772976
-0.30157274 -0.0138734365 -0.06075652 0.024541771 -0.17910714 -0.15660405 -0.058601905 0.022790983
0.09161239 0.16055423 0.11255537 -0.1287203 -0.011630346 0.18025194 -0.08031579 -0.25920674
-0.24712983 0.008081365 0.15045147 0.015605195 -0.12468523 0.09713743 -0.15471928 0.042662233
0.05914497 0.034773786 0.12193058 0.063232906 0.11028929 -0.06639046 0.039299224 -0.007270169
-0.2620246 -0.003282587 0.04126468 -0.059921384 0.16346237 -0.0811676 0.064116314 -0.11497795
0.15714048 -0.010784171 -0.018913733 0.056867316 0.041938346 0.010926946 -0.06059567 -0.06855406
-0.19100703 0.19227651 -0.1397271 0.14276259 0.015882807 -0.003873763 -0.026182773 -0.039943643
0.120843984 0.08334305 0.005845125 -0.06257987 0.024072247 -0.033357967 -0.24226953 -0.054096818
0.23905557 -0.052935366 0.017041456 0.10692524 -0.043151297 -0.14963265 0.25440776 0.005149229
0.035469633 0.053835023 -0.0014755271 0.036222834 0.007818262 0.017351806 -0.044483088 0.054879196
0.15309162 -0.015403614 0.27240542 -0.037577577 -0.0013265995 0.14063193 -0.01407604 -0.12526539
-0.056231014 -0.13280234 0.07848145 -0.007863723 -0.040150583 -0.09380848 0.18076004 0.027700413
-0.080948964 0.1065174 -0.14991137 -0.11850371 0.060323946 0.01689992 0.114570186 0.046799265
0.12744841 0.13838148 -0.1293268 0.07640068 0.08252819 -0.0017569321 -0.09772876 0.013908442
-0.11407258 -0.297607 -0.12183423 0.012747844 0.08659246 0.15807517 -0.12445493 0.0025092377
-0.17182265 -0.00871045 -0.10862592 -0.19925758 -0.027966283 0.088728175 0.080003515 -0.03909522
-0.013641287 0.004991694 -0.04082588 -0.10551953 -0.09283635 0.15312715 -0.07973004 0.090983175
-0.04916162 0.055306163 0.13841426 0.13812785 -0.08672925 -0.06791986 -0.09166406 0.05645748
00000000: a2cc ddbd 4880 3cbd a809 b63c edb6 e23c
00000010: 4809 823d cf62 e23d 104c a33d faeb 89be
00000020: 9916 963d 165d 76bd b4a6 98be 9399 11bd
00000030: 4e64 51bb ef58 213d 405a 853b 90ff 333e
00000040: 4378 b53d 72b2 9b3b 04d1 22be 9059 0ebc
00000050: 43bd 043e 8085 853d 66ac 1f3e 61f4 4ebd
00000060: 4012 09be 7258 333d 3327 94bd 97b5 f2bb
00000070: 3173 353d d027 c13d 3514 aabd e1d2 b83a
00000080: bdd0 50bc 6856 5c3d d882 6bbe 1a8a 18be
00000090: da25 e3bd 44cf d8bd 54f6 4f3d 4d70 b23d
000000a0: c112 82bd 8352 0b3e aba9 333d 0898 2cbe
000000b0: 4b13 cebd c544 4bbd 1374 163e 35b3 553e
000000c0: bb94 4e3e 58f6 79bd ba62 22be 690d 7cbe
000000d0: d933 e1bc 3bd2 49bd ec46 13be b040 6dbc
000000e0: 11d3 c33d 5ad8 c0bd 8069 18be 641b eabd
000000f0: f74d 4d3e 7ee5 5fbd 1211 f83d f135 5c3e
00000100: f788 723e bb29 a63c df51 373d 4e68 f0bd
00000110: 291c fdbd 0655 45be 753c bdbd 3bb5 993d
00000120: f176 5b3c 73d3 003d a1b4 27be 2b53 223e
00000130: ab98 01bd af08 273d 0466 09be 5495 a2bd
00000140: d358 6b3d c64c c73d b888 eb39 c52a 513e
00000150: 024e 4b3d 3612 3fbc b4e7 263e 35df 38be
00000160: 3971 4e3d d206 a3bd a1c7 1fbd def0 01bc
00000170: 6e99 253e 913a dbbb 9b91 a23d cf52 43be
00000180: a553 683d da19 3ebb 91c1 033d de7f e0bc
00000190: 084d b1bd 599b cbbd 7be1 d4bd dceb 3dbe
000001a0: d8fb 3ebb 425c 8f3d 504a a2bd 1b0a 4b3c
000001b0: d18c b9bd b9d0 853e a53c a03d 5a0a 72bc
000001c0: be67 9abe 694d 63bc d4db 78bd d30b c93c
000001d0: dd67 37be d05c 20be 8d08 70bd 28b4 ba3c
000001e0: 479f bb3d 5468 243e 6e83 e63d 41cf 03be
000001f0: 358d 3ebc f793 383e 9b7c a4bd bfb6 84be
00000200: 9a0f 7dbe b467 043c f30f 1a3e efac 7f3c
00000210: f85a ffbd fdef c63d bb6e 1ebe 98be 2e3d
00000220: ff41 723d f56e 0e3d bdb6 f93d 4180 813d
00000230: 5adf e13d b9f7 87bd 39f8 203d 993a eebb
00000240: 1728 86be ac20 57bb 2705 293d 2070 75bd
00000250: ae62 273e 333b a6bd 6a4f 833d 8f79 ebbd
00000260: 6fe9 203e 17b0 30bc f9f0 9abc b4ed 683d
00000270: 8bc7 2b3d ef06 333c 2a33 78bd 1266 8cbd
00000280: 5997 43be 22e4 443e 9f14 0fbe 5b30 123e
00000290: a91c 823c f5de 7dbb 417d d6bc f29b 23bd
000002a0: 0d7d f73d c3af aa3d 7688 bf3b e029 80bd
000002b0: 2933 c53c 5da2 08bd 8115 78be a094 5dbd
000002c0: fcca 743e c1d2 58bd 869a 8b3c 9ffb da3d
000002d0: 6abf 30bd 4d39 19be bc41 823e ddba a83b
000002e0: 9b48 113d 1d82 5c3d 7966 c1ba 655e 143d
000002f0: 2b18 003c 6025 8e3c e633 36bd 02c9 603d
00000300: 0dc4 1c3e 715f 7cbc b978 8b3e f2ea 19bd
00000310: 4be1 adba d101 103e 319f 66bc 9245 00be
00000320: 7e52 66bd 56fd 07be e2ba a03d d8d6 00bc
00000330: f074 24bd a91e c0bd 2919 393e faeb e23c
00000340: 92c8 a5bd cb25 da3d 5e82 19be 13b2 f2bd
00000350: 3e16 773d b371 8a3c c6a3 ea3d 96b0 3f3d
00000360: d681 023e e0b3 0d3e 3f6e 04be f677 9c3d
00000370: 8a04 a93d dc48 e6ba 0426 c8bd 3ce0 633c
00000380: e39e e9bd f25f 98be 3a84 f9bd 55dc 503c
00000390: 6357 b13d 75de 213e 3ae2 febd 0672 243b
000003a0: 47f2 2fbe 46b6 0ebc 4477 debd 2e0a 4cbe
000003b0: 8c19 e5bc 1eb7 b53d e2d8 a33d 4f22 20bd
000003c0: b47f 5fbc 5d91 a33b 0a39 27bd a01a d8bd
000003d0: fc20 bebd 5dcd 1c3e 8149 a3bd 6355 ba3d
000003e0: b25d 49bd b788 623d 78bc 0d3e 6371 0d3e
000003f0: 1b9f b1bd 9119 8bbd 5eba bbbd f53f 673d

actor_mean.4.bias f4 [17]
0.08632936 -0.01645552 0.0029874407 -0.0060918224 0.039394256 -0.1313921 0.18101165 -0.010181617
-0.038915787 -0.1024671 0.11689793 0.0014584323 0.052812625 0.047833197 0.0112834945 -0.053270213
0.030603323
00000000: 73cd b03d bacd 86bc f0c8 433b e99d c7bb
00000010: df5b 213d a78b 06be 1e5b 393e ccd0 26bc
00000020: 2966 1fbd 45da d1bd 2f68 ef3d de28 bf3a
00000030: 0d52 583d beec 433d 68de 383c de31 5abd
00000040: d2b3 fa3c
