DDPG/models/pruning/DDPG-HalfCheetah-0.1-l1.onnx (onnx, 235719 bytes, 6 tensors)

actor.l1.weight f4 [230, 17]
-1.2624636 -0.54681575 -0.20655823 2.072256 -0.44269106 -1.6826551 -1.4608654 -0.5110038
0.10029425 0.025700567 0.036524232 -0.005454806 -0.028872225 0.03837845 -0.0009036864 0.017943371
-0.027890557 0.2572074 -0.86149013 -0.4471571 -0.9339255 0.3324757 0.040522005 0.74376476
-0.22164191 -0.16760448 0.35578188 -0.28013363 0.017214214 0.025523907 0.0637593 -0.15294756
0.073431775 0.09336411 -1.4795117 0.2676083 0.3869625 1.6457914 -0.019420588 0.35743782
-1.0940316 -0.33645582 -0.50683606 -0.24396604 -0.569365 -0.06302189 0.11132385 0.043842662
0.19357324 0.1000871 0.0030685086 -0.80344987 -0.0827011 -0.69447404 1.634684 -0.7435217
0.5940014 0.20137408 0.15246436 -0.5488077 -0.098372705 0.20990397 0.3103008 0.02465922
0.00030840965 -0.15679684 -0.17400832 -0.042332858 2.7079704 -0.18737434 1.9570469 1.0374093
0.434635 -0.74749964 -0.89672583 0.06266094 -0.08199457 0.00042070542 -0.7270825 -0.084113106
-0.17105708 -0.011678334 -0.06471548 0.020256246 -0.046980914 -3.9007654 -1.1229845 0.6295039
0.9376595 0.89046377 -0.28459972 -2.0051928 -0.90590256 -0.34185258 -0.5780892 0.27384102
-0.03096606 0.007820804 -0.0045941058 0.1419012 0.022867544 0.043695066 1.0444164 0.10206878
-0.10887778 -0.945116 -0.19481446 0.5741534 -0.28437212 -0.14588068 -0.5965611 0.7598206
-0.05532587 -0.17127797 0.115917884 0.18441632 0.18833032 -0.023702716 -0.022999529 2.8486888
-3.5592787 -0.52272594 -0.031383548 -0.11873059 -0.71502846 -0.3088875 0.3727973 -0.13840404
0.11436045 -0.21431412 0.007195103 0.010551625 0.0055996864 -0.023660073 -0.08895185 -0.01883219
1.8816985 2.5056765 1.340774 0.3927142 -0.07950702 0.08555208 0.18945937 0.08372598
0.06139015 0.03827938 0.13401194 0.07308814 0.08227793 -0.031083168 0.008721961 0.010870312
-0.027730905 -4.323404 -4.3679247 -0.31242934 -0.44011492 -0.39247447 0.31807885 -0.027104376
-0.15357447 -0.049983367 -0.28052178 -0.39255476 -0.05475829 -0.02826379 0.012307273 0.016157703
-0.004907632 0.0007545664 0.55737215 0.3595563 -0.2876357 0.017732155 -0.944444 1.3244131
-0.18368645 -0.5576052 0.19964159 0.36019132 0.3582768 -0.06784139 -0.025148697 0.0987446
-0.011798818 0.1021519 -0.052376464 -2.1784334 -0.109239526 -0.7095735 -1.0357836 -0.42223874
1.2768027 0.62602115 0.23709813 -0.13604037 0.27231103 -0.7572591 -0.030066453 0.0001526387
-0.047018312 -0.093929835 -0.11975687 -0.049532183 1.5170717 -0.7774854 -1.6604147 -0.5386907
0.26984668 0.8498241 0.7434443 0.58121353 0.051196035 1.1780967 0.1805157 -0.0767038
-0.009246808 -0.030260477 0.092818104 -0.040638927 -0.03433668 -0.37279135 0.86830294 0.63630545
-0.25106934 -0.17508969 -1.4206026 -0.61168814 -0.44153875 0.11320032 -0.43783626 -0.20070122
-0.15106678 0.019910773 0.07602707 0.046532772 0.036177084 -0.05490813 2.694106 -2.3188415
0.92349684 -0.04388988 0.09155722 -0.7106429 -2.0895247 -0.0947228 -0.503236 0.53195596
-0.35002416 -0.05792639 -0.03979743 0.04075651 -0.07686566 -0.14046903 -0.027431967 1.4243593
00000000: 6898 a1bf 1efc 0bbf 0084 53be d89f 0440
00000010: 67a8 e2be 3e61 d7bf a3fd babf 25d1 02bf
00000020: 1267 cd3d ff89 d23c 6f9a 153d 3bbe b2bb
00000030: 7285 ecbc b932 1d3d 5ee5 6cba fafd 923c
00000040: bd7a e4bc b0b0 833e 9e8a 5cbf c7f1 e4be
00000050: be15 6fbf 413a aa3e 67fa 253d 5e67 3e3f
00000060: 19f6 62be 82a0 2bbe 0b29 b63e ad6d 8fbe
00000070: d304 8d3c 8317 d13c 3c94 823d 499e 1cbe
00000080: 6663 963d af35 bf3d a460 bdbf f503 893e
00000090: f31f c63e 4ba9 d23f ed17 9fbc 1702 b73e
000000a0: 3a09 8cbf f043 acbe 02c0 01bf 3cd2 79be
000000b0: e8c1 11bf 9f11 81bd c2fd e33d 5d94 333d
000000c0: 1038 463e 77fa cc3d 0819 493b e4ae 4dbf
000000d0: 325f a9bd 0dc9 31bf 533d d13f 7057 3ebf
000000e0: 7a10 183f 0235 4e3e 9e1f 1c3e a97e 0cbf
000000f0: a177 c9bd 11f1 563e bfdf 9e3e 2202 ca3c
00000100: 0bb2 a139 5a8f 20be 3d2f 32be 3865 2dbd
00000110: 634f 2d40 0fdf 3fbe 8380 fa3f d4c9 843f
00000120: 7b88 de3e 235c 3fbf d38f 65bf 6154 803d
00000130: c5ec a7bd 2092 dc39 1422 3abf 7e43 acbd
00000140: 9629 2fbe 7c56 3fbc 8d89 84bd 6df0 a53c
00000150: 0f6f 40bd 24a6 79c0 f5bd 8fbf 2b27 213f
00000160: 740a 703f 6ff5 633f 0eb7 91be 1455 00c0
00000170: 3be9 67bf 4d07 afbe a7fd 13bf e434 8c3e
00000180: 89ac fdbc d422 003c 278a 96bb 8c4e 113e
00000190: b754 bb3c 99f9 323d 70af 853f 7009 d13d
000001a0: 50fb debd 1ff3 71bf 717d 47be b8fb 123f
000001b0: 3999 91be bf61 15be 3ab8 18bf 9a83 423f
000001c0: 619d 62bd 7e63 2fbe 5b66 ed3d a2d7 3c3e
000001d0: aad9 403e 332c c2bc 8269 bcbc eb50 3640
000001e0: 39cb 63c0 5ed1 05bf 098c 00bd 0629 f3bd
000001f0: 1b0c 37bf 8126 9ebe 4adf be3e cab9 0dbe
00000200: d035 ea3d 2975 5bbe e6c4 eb3b b9e0 2c3c
00000210: 937d b73b c5d2 c1bc 632c b6bd f745 9abc
00000220: 7fdb f03f 015d 2040 7c9e ab3f d611 c93e
00000230: 94d4 a2bd ee35 af3d a301 423e 8778 ab3d
00000240: 3d74 7b3d d7ca 1c3d 6d3a 093e 3caf 953d
00000250: 5581 a83d 21a2 febc 8ee6 0e3c 6519 323c
00000260: ec2b e3bc 5359 8ac0 0ac6 8bc0 bdf6 9fbe
00000270: be56 e1be 6af2 c8be 3bdb a23e ff09 debc
00000280: a042 1dbe 5cbb 4cbd 8da0 8fbe f0fc c8be
00000290: 3b4a 60bd 7789 e7bc 72a4 493c 295d 843c
000002a0: 33d0 a0bb 18ce 453a f1af 0e3f c317 b83e
000002b0: fd44 93be 0643 913c 15c7 71bf 5e86 a93f
000002c0: 4d18 3cbe 37bf 0ebf d86e 4c3e ff6a b83e
000002d0: 0f70 b73e 6df0 8abd a404 cebc 9c3a ca3d
000002e0: d44f 41bc 0435 d13d b488 56bd 746b 0bc0
000002f0: f9b8 dfbd 9ca6 35bf 8f94 84bf ad2f d8be
00000300: 456e a33f ec42 203f dac9 723e 2b4e 0bbe
00000310: 5a6c 8b3e bbdb 41bf ec4d f6bc a40d 2039
00000320: 4696 40bd 495e c0bd 1743 f5bd 42e2 4abd
00000330: 682f c23f 4809 47bf 7888 d4bf a2e7 09bf
00000340: 5829 8a3e 128e 593f 5e52 3e3f 69ca 143f
00000350: efb2 513d dfcb 963f 1cd9 383e e216 9dbd
00000360: ec7f 17bc d2e4 f7bc 6b17 be3d 0175 26bd
00000370: 9ea4 0cbd 82de bebe 1a49 5e3f eae4 223f
00000380: 298c 80be b64a 33be 4ed6 b5bf 9897 1cbf
00000390: 5e11 e2be 92d5 e73d 132c e0be 9f84 4dbe
000003a0: 40b1 1abe eb1b a33c 15b4 9b3d 2699 3e3d
000003b0: 6c2e 143d 59e7 60bd 3c6c 2c40 e667 14c0
000003c0: 4a6a 6c3f e0c5 33bd 5a82 bb3d b1ec 35bf
000003d0: c6ba 05c0 07fe c1bd 13d4 00bf 442e 083f
000003e0: 5e36 b3be 3944 6dbd a102 23bd 4cf0 263d
000003f0: be6b 9dbd 1dd7 0fbe 01b9 e0bc 6851 b63f

actor.l1.bias f4 [230]
-0.6867617 -0.7315318 -1.2441338 -0.49349472 -0.7511917 -0.07264258 -0.71900994 0.39049786
0.25748834 -0.44025463 -2.3135786 -0.59630716 -1.7448486 -1.8440149 -0.146431 -0.18521851
-1.8150741 -0.5805457 -1.3671064 -1.0031672 -1.0753678 0.56351596 0.75436324 -0.5936284
-0.16442686 -1.524234 -1.063034 -2.102001 -0.4037532 0.76655114 -0.6905079 0.20611757
-2.322707 -0.6306955 -1.4339067 -0.7245039 1.2429314 -1.7628385 -1.110199 -0.7163001
-1.3119019 -0.6460675 -1.7423981 0.45386207 -0.4689026 -1.395816 -1.4494417 -0.5290499
-1.1167201 1.0530379 -0.66871685 -0.699007 -1.6704574 -1.3254464 -1.976842 -1.2006745
-0.22332092 -0.6968371 -1.5918775 0.09453048 -1.4367174 -1.2522212 -1.5206794 -0.08835734
-0.5976959 0.044603616 -0.9687096 -1.3723791 -1.0926772 -1.2893544 -1.0611302 -0.8891282
-0.80813104 0.21167016 -0.25868234 0.17539988 -2.2649093 1.3733126 -1.6158274 -1.4959186
-0.7062052 -1.3905361 -0.8959805 -1.7630225 -0.13842402 -1.3973395 -1.6229957 -0.47282133
-0.41416147 -1.3792043 -0.7126903 -0.8095075 0.023550639 -1.3774368 -1.8828183 -0.7872302
-1.2045687 -1.6644075 -0.06383664 -1.0322999 -1.0122676 -0.37560633 -1.1079899 -0.25672686
0.13904408 -0.018969104 -1.501818 -0.3781665 -1.4067253 -0.8286471 -1.7573508 -1.1814452
-1.0893879 -0.081192955 -0.32828647 -1.4274292 -0.91057605 -2.2486143 -0.6518068 -1.3649744
-2.3688362 0.24752042 -1.2068682 -0.81721264 -0.67420316 -1.7726359 -0.85283464 -1.7850045
0.53667915 -1.2841909 1.2898189 -1.332948 -0.94699883 -0.26800665 -2.7181182 0.99515295
1.1972815 -0.575699 1.9336534 -0.6115661 -0.5070765 -0.21756047 -1.1216668 -0.52531624
-0.78425777 -1.0937501 0.19776484 -0.4132716 -0.7131756 -1.7012413 0.47732356 -1.9979984
-1.6154293 -1.5823414 -1.3342773 1.2220758 0.44754767 0.15875159 -0.0097138155 -0.24112356
-1.5945063 0.97530127 -0.6905765 0.17775485 0.071963966 -0.19195114 -0.50200504 1.2128725
1.1244559 -0.788537 -0.49525163 -0.04572432 -2.2618144 -0.5897972 -0.6117288 -1.1240295
-0.53777295 -1.2770262 -0.3428759 -0.57695395 -0.3376515 -1.3220916 -0.58463955 -0.84148735
-0.60890526 -1.0414298 -0.37793902 0.22020693 -1.2091184 -0.6210228 -1.5117913 -1.591907
-1.6839572 -0.4873476 1.0454164 -1.569528 -1.2568929 -1.9755638 -0.35890692 -0.80772465
-1.3191674 -0.74912816 -1.2856967 -1.3094201 -0.71060574 -1.8341473 -0.6178154 -0.13772413
-0.78465706 -1.1206982 1.4271158 -0.99819165 -0.75117713 -0.9497702 -1.1393843 0.08128251
-0.88216513 -1.0630065 -1.1561748 -0.25928065 -0.051178552 -1.2050451 0.20329237 -1.3348367
-1.4406909 -1.5836015 -1.125533 -1.6795244 -0.7580692 0.8525236
00000000: 9dcf 2fbf ab45 3bbf c73f 9fbf 57ab fcbe
00000010: 194e 40bf a2c5 94bd 0911 38bf 56ef c73e
00000020: 83d5 833e 0e69 e1be ac11 14c0 96a7 18bf
00000030: 3357 dfbf ae08 ecbf 02f2 15be eca9 3dbe
00000040: 5954 e8bf a59e 14bf 58fd aebf c867 80bf
00000050: a7a5 89bf 9542 103f f31d 413f 08f8 17bf
00000060: 845f 28be 1a1a c3bf 8011 88bf 2f87 06c0
00000070: bdb8 cebe b23c 443f 20c5 30bf 7c10 533e
00000080: 3ba7 14c0 4375 21bf 418a b7bf 1679 39bf
00000090: 6018 9f3f b1a4 e1bf 001b 8ebf 715f 37bf
000000a0: 67ec a7bf ae64 25bf e706 dfbf 9c60 e83e
000000b0: 0014 f0be 19aa b2bf 4e87 b9bf d06f 07bf
000000c0: aff0 8ebf f2c9 863f 0731 2bbf 1ff2 32bf
000000d0: 8cd1 d5bf 3aa8 a9bf 2909 fdbf b4af 99bf
000000e0: 3dae 64be eb63 32bf a4c2 cbbf 3299 c13d
000000f0: 5be6 b7bf c948 a0bf 9fa5 c2bf b1f4 b4bd
00000100: 9902 19bf 48b2 363d 5afd 77bf 1eaa afbf
00000110: d9dc 8bbf 9109 a5bf 1dd3 87bf e89d 63bf
00000120: ade1 4ebf 10c0 583e 0372 84be 079c 333e
00000130: 46f4 10c0 b5c8 af3f 6fd3 cebf 437a bfbf
00000140: ddc9 34bf 16fd b1bf fa5e 65bf b9aa e1bf
00000150: 07bf 0dbe 05dc b2bf 53be cfbf a315 f2be
00000160: f90c d4be c489 b0bf df72 36bf e23b 4fbf
00000170: 45ed c03c d94f b0bf 3100 f1bf eb87 49bf
00000180: 4f2f 9abf 4e0b d5bf c9bc 82bd 6722 84bf
00000190: fc91 81bf 794f c0be 9dd2 8dbf b471 83be
000001a0: 9261 0e3e 1865 9bbc 923b c0bf 0a9f c1be
000001b0: 930f b4bf 3722 54bf dff0 e0bf 9939 97bf
000001c0: 1071 8bbf 7e48 a6bd 2a15 a8be 00b6 b6bf
000001d0: 831b 69bf 4ce9 0fc0 cfdc 26bf 7bb7 aebf
000001e0: 039b 17c0 fe75 7d3e a87a 9abf d934 51bf
000001f0: 9498 2cbf bce5 e2bf 5f53 5abf 077b e4bf
00000200: ce63 093f 5e60 a4bf c918 a53f 0a9e aabf
00000210: 846e 72bf 2b38 89be a6f5 2dc0 58c2 7e3f
00000220: 8540 993f 0261 13bf f481 f73f 998f 1cbf
00000230: c4cf 01bf 2cc8 5ebe c792 8fbf 207b 06bf
00000240: 1ec5 48bf 0100 8cbf de82 4a3e 5698 d3be
00000250: ad92 36bf 46c2 d9bf c163 f43e 69be ffbf
00000260: 63c6 cebf 2a8a cabf 99c9 aabf fb6c 9c3f
00000270: f824 e53e c78f 223e b226 1fbc 18e9 76be
00000280: c818 ccbf 58ad 793f 9fc9 30bf 5e05 363e
00000290: d861 933d d78e 44be 6783 00bf 683f 9b3f
000002a0: 2cee 8f3f 90dd 49bf 9f91 fdbe 6d49 3bbd
000002b0: 91c1 10c0 f3fc 16bf 429a 1cbf 33e0 8fbf
000002c0: 7dab 09bf 9875 a3bf 6e8d afbe 41b3 13bf
000002d0: a8e0 acbe 4c3a a9bf f0aa 15bf b76b 57bf
000002e0: 37e1 1bbf 924d 85bf 3981 c1be ed7d 613e
000002f0: 64c4 9abf 5afb 1ebf 6182 c1bf 9cc3 cbbf
00000300: e98b d7bf a085 f9be 34d0 853f 4be6 c8bf
00000310: dee1 a0bf 46df fcbf a6c2 b7be 0bc7 4ebf
00000320: 7ada a8bf ddc6 3fbf b691 a4bf 149b a7bf
00000330: 42ea 35bf 57c5 eabf 2629 1ebf 8e07 0dbe
00000340: 49df 48bf 0a73 8fbf bbab b63f 7d89 7fbf
00000350: 254d 40bf 2424 73bf 58d7 91bf 7277 a63d
00000360: 93d5 61bf 9910 88bf 89fd 93bf 6fc0 84be
00000370: 9aa0 51bd eb3e 9abf e02b 503e eedb aabf
00000380: 8f68 b8bf 74b3 cabf 7711 90bf a8fa d6bf
00000390: d310 42bf fd3e 5a3f

actor.l2.weight f4 [230, 230]
0.039273992 -0.78227675 -0.06587045 0.17433241 -0.30545056 0.10227621 -0.3606095 0.1793677
-0.07437211 0.481578 -0.14208105 0.21454617 0.7659503 -0.11391214 -0.16785458 -0.5504144
-0.028970119 -0.4229415 0.041212328 -0.53579843 -0.076939605 -0.015106378 -0.10903857 0.025064884
-0.3060877 -0.8973537 -0.39373833 0.3288589 -0.28138593 -0.503097 0.38397473 0.05928914
-0.100736275 -0.306558 0.2623756 0.120834425 0.045072462 0.45688456 -0.0887194 0.1953121
0.35087618 -0.48022008 -0.39412785 0.010807077 -0.29666853 0.28707445 0.066215925 0.2855696
0.11127472 -0.10342928 0.4370587 -0.19401671 0.054676086 -0.6509692 0.42809346 0.6812953
-0.44989243 0.28594112 0.22421584 -0.28669077 0.000823955 -0.1583227 0.31839356 0.27627033
0.041093424 0.597929 0.288176 -0.438745 0.17396362 -1.9135638 0.21786776 0.19770873
0.3096964 -0.3543173 -0.34669095 -0.25308156 -0.030507881 0.24817343 0.09149951 0.089645065
-0.016592078 0.1533598 -0.19538893 -0.017303843 -0.65162826 -0.4709234 -0.3515678 -0.44561425
-0.7311004 -0.06906998 -0.40867966 -0.8454021 -0.52437925 -0.4339828 -0.17580561 -0.0646909
-0.7168564 -0.07137888 0.1815197 -0.08418811 0.08233758 -0.028158939 0.12047142 -0.17118694
0.016934289 0.10650973 0.0087843705 0.3666386 -0.26810414 0.40082732 -0.027904768 0.55819935
-0.47092152 0.28261906 -0.36426762 -0.043236393 0.27457845 -0.06978039 -0.013171563 -0.12887992
-0.275964 0.0060095643 0.12564611 -0.67063504 -0.24308163 0.43423504 0.2864712 0.29173067
0.30220255 0.40382695 -0.6353212 0.47059023 0.015445293 0.023739476 -0.079814695 0.28253907
-0.1105751 0.12635072 -0.4968654 -0.25550163 0.2565687 -0.83794546 -0.13228057 -0.28955346
-0.18382418 -0.11594528 -1.5096292 0.183692 -0.10551992 -0.04571519 0.38306394 -0.22151753
0.4557923 -0.12461365 -0.18965271 0.39311284 0.23362225 0.06505252 -0.27815685 -0.7720355
0.23907219 0.008162579 -0.3905542 0.1939968 0.60398066 -0.30611688 -0.07643747 -0.10457597
-1.0790372 -0.16263604 -0.2898959 -0.14689942 -0.13798511 0.139623 -0.34788305 -0.112936966
-0.11745853 -0.26830214 -0.39747322 0.098173894 -0.75983405 -0.16495353 -0.14690289 0.116206326
-0.6061704 0.10823193 0.36830842 -0.5605902 0.094786644 0.023765601 0.18462093 0.16216904
0.21041667 -0.32971808 -0.8126197 0.34088808 0.348903 0.11767946 -0.026332354 0.25342447
0.5605245 0.2312824 0.07946955 0.41311648 -0.5003602 -0.15872581 -0.14927164 -0.062368426
0.021554558 -0.8007496 -0.1666167 -0.8257348 0.21597189 -0.11182483 -0.1537706 0.045093022
-0.004680154 -0.009086279 0.14476585 0.19207789 -0.1596412 0.37600872 -0.4028654 0.2244415
0.2459196 0.25276646 0.066724166 0.32758725 -0.4555543 -0.5523647 0.09743857 0.08074416
-0.6471046 -0.36987984 -0.72885084 -0.13824016 -0.21648979 -0.18455991 -0.27579045 -0.7050726
-0.015654074 -0.11105591 0.99918735 0.018580861 -0.56463516 0.45991886 0.6868684 0.443139
0.26292184 0.20263387 -0.4598968 0.09518356 0.21659309 0.35147443 0.42777193 0.18541326
00000000: c4dd 203d 4a43 48bf 16e7 86bd 3284 323e
00000010: 0464 9cbe 3176 d13d cfa1 b8be 2bac 373e
00000020: 6850 98bd 6491 f63e b27d 11be feb1 5b3e
00000030: 5215 443f c54a e9bd 12e2 2bbe f5e7 0cbf
00000040: be52 edbc ca8b d8be 42ce 283d 162a 09bf
00000050: 8392 9dbd be80 77bc 9d4f dfbd df54 cd3c
00000060: 87b7 9cbe f9b8 65bf 1298 c9be 3260 a83e
00000070: d111 90be f7ca 00bf 5698 c43e 2bd9 723d
00000080: d24e cebd 2cf5 9cbe 1856 863e 0a78 f73d
00000090: e79d 383d c6ec e93e 84b2 b5bd e5ff 473e
000000a0: 0ba6 b33e 68df f5be 20cb c9be 2b10 313c
000000b0: f0e4 97be 6cfb 923e 379c 873d 2e36 923e
000000c0: 00e4 e33d bbd2 d3bd 28c6 df3e 51ac 46be
000000d0: 08f4 5f3d eba5 26bf 112f db3e 5e69 2e3f
000000e0: 4d58 e6be e066 923e d698 653e 22c9 92be
000000f0: affe 573a 591f 22be 7b04 a33e 4e73 8d3e
00000100: 9451 283d e011 193f ce8b 933e 2fa3 e0be
00000110: 8523 323e a9ef f4bf ba18 5f3e 2874 4a3e
00000120: 8790 9e3e 1469 b5be 7a81 b1be e893 81be
00000130: aaeb f9bc 2d21 7e3e 1864 bb3d d597 b73d
00000140: 1cec 87bc 5a0a 1d3e 0914 48be cac0 8dbc
00000150: 1cd1 26bf df1c f1be b200 b4be 8d27 e4be
00000160: 6529 3bbf 9074 8dbd 763e d1be 466c 58bf
00000170: b83d 06bf fe32 debe 6306 34be aa7c 84bd
00000180: e783 37bf 172f 92bd 4de0 393e d16a acbd
00000190: 9ba0 a83d 93ad e6bc b8b9 f63d a14b 2fbe
000001a0: c7b9 8a3c c621 da3d 52ec 0f3c 0eb8 bb3e
000001b0: f244 89be 3d39 cd3e 8a98 e4bc 27e6 0e3f
000001c0: a01c f1be 72b3 903e 4981 babe a518 31bd
000001d0: 8c95 8c3e 05e9 8ebd 8acd 57bc 19f9 03be
000001e0: 274b 8dbe e1eb c43b 60a9 003e bdae 2bbf
000001f0: 64ea 78be 0e54 de3e 5aac 923e b95d 953e
00000200: 4bba 9a3e 68c2 ce3e 69a4 22bf 34f1 f03e
00000210: 410e 7d3c 4a79 c23c e375 a3bd f6a8 903e
00000220: 3375 e2bd 1562 013e 2465 febe 1cd1 82be
00000230: f95c 833e 9883 56bf 8f74 07be 5a40 94be
00000240: 683c 3cbe b874 edbd 883b c1bf c119 3c3e
00000250: d41a d8bd da3f 3bbd f520 c43e 7ed5 62be
00000260: 9c5d e93e 7135 ffbd 5234 42be 1646 c93e
00000270: ac3a 6f3e 413a 853d 936a 8ebe 1ea4 45bf
00000280: 57cf 743e 56bc 053c b8f6 c7be 19a7 463e
00000290: 7a9e 1a3f 5abb 9cbe 408b 9cbd ed2b d6bd
000002a0: e41d 8abf 108a 26be 3c6d 94be cd6c 16be
000002b0: f84b 0dbe 55f9 0e3e ba1d b2be 7f4b e7bd
000002c0: 198e f0bd e65e 89be 9c81 cbbe 650f c93d
000002d0: 7c84 42bf 94e9 28be b66d 16be 95fd ed3d
000002e0: fc2d 1bbf b4a8 dd3d ec92 bc3e d782 0fbf
000002f0: 801f c23d 14b0 c23c 450d 3d3e a40f 263e
00000300: 7877 573e cfd0 a8be d807 50bf e288 ae3e
00000310: 6aa3 b23e ee01 f13d f3b6 d7bc dac0 813e
00000320: 897e 0f3f 4bd5 6c3e eec0 a23d 0184 d33e
00000330: 9b17 00bf 0589 22be aada 18be 0976 7fbd
00000340: 2f93 b03c edfd 4cbf 919d 2abe 5b63 53bf
00000350: bc27 5d3e 6b04 e5bd 0a76 1dbe 76b3 383d
00000360: fa5b 99bb 9ede 14bc 803d 143e 11b0 443e
00000370: fc78 23be 3784 c03e 6044 cebe fed3 653e
00000380: 59d2 7b3e 9b6a 813e aea6 883d 84b9 a73e
00000390: 6a3e e9be c667 0dbf df8d c73d 325d a53d
000003a0: a6a8 25bf e460 bdbe f895 3abf d48e 0dbe
000003b0: 80af 5dbe 46fd 3cbe 6834 8dbe a37f 34bf
000003c0: f93c 80bc 4871 e3bd beca 7f3f e436 983c
000003d0: ee8b 10bf 7c7a eb3e 9cd6 2f3f 1de3 e23e
000003e0: b19d 863e 417f 4f3e 9877 ebbe 99ef c23d
000003f0: 94ca 5d3e 75f4 b33e ec04 db3e f9dc 3d3e

actor.l2.bias f4 [230]
-0.9908412 -0.54317224 -0.111490026 -0.21789527 -0.19511038 0.105184555 -0.097804174 0.08139424
-0.15276499 -0.3538674 -0.23727466 0.3455412 -0.14788103 0.57278985 -0.047002785 -0.12946019
-0.09871545 0.116183035 -0.13898347 -0.17797826 -0.058183342 -0.057735067 0.15204154 0.23804088
0.2871554 -0.65179974 -0.12180612 -1.0179888 0.19655828 -1.4620011 -0.65940243 -0.16910431
-0.2889587 -0.6098699 0.1620416 -0.08470903 -0.9550175 -0.748545 -0.41328216 -0.50105035
-0.34410653 -0.22877307 -0.26059648 -0.41607776 0.20182794 -0.62555414 -0.21419592 0.014523846
0.0821989 -0.22437172 0.50761193 0.04278352 -1.1515245 -0.19786014 -0.30229107 0.4315871
0.25863445 -0.66325694 -0.12536556 -0.8380647 0.19010417 -0.039364845 -0.2590248 -0.6877675
-0.3568664 -0.16564693 -0.07021416 -0.018219514 -0.8416997 0.13247806 -0.51502985 -0.1829807
0.5418125 -0.26171827 -0.63174254 0.19698767 -0.011113185 -0.4547276 -0.17993337 0.16083384
0.1278452 -0.09468314 -0.28183946 -0.3904982 0.114201635 -1.2251294 -0.58894926 -1.0523665
-0.6530037 -0.20534368 -0.42552453 -0.6006347 -2.022379 -0.036875512 -0.17692271 -0.10931197
0.35098073 -0.91210866 0.01649519 0.41574892 0.1174998 -0.12595694 -0.8038125 -0.6432214
-0.048783664 -0.33212948 -0.072223894 0.25925222 -0.6222279 -0.05015368 -0.339957 -0.5907415
0.3409743 0.06044852 -0.037402485 -0.31514278 -0.13514419 -0.19769855 0.021131616 0.26760283
-0.6222859 -0.36075065 -0.13559383 -0.87379164 0.015549476 -0.9211567 -0.38499156 -0.1258146
0.39342895 -1.0507015 -0.5467242 -0.25375277 -0.63321644 0.2253254 -0.83445424 -0.33451733
-0.44362223 -0.3640104 -0.81970894 0.13115217 0.24136129 -0.17803207 -0.4847693 -0.5000337
-0.60076624 0.2019546 0.14734703 -1.2291287 0.45407033 0.38989285 -0.6123973 -0.7097891
0.020634398 -0.47555634 -0.34220394 0.49273193 -0.012144489 -0.9368765 -0.03575083 -0.102828264
-0.29761901 -0.0065005887 -0.06296889 -0.22148986 0.45686486 0.21597758 -0.3677046 0.09875773
-0.32835525 0.036476456 -0.05410893 0.048703246 -0.331457 -0.1386787 -0.7150469 -0.18332033
-0.21603382 -0.59714466 -0.2376341 -0.4306634 -0.14877917 0.029197149 -0.0712632 -0.29713592
-0.2828639 -1.0207242 -0.2816199 0.520991 0.12654597 -0.39501214 -0.22949232 -0.48938766
-0.37593746 0.044413913 -0.19244668 0.079937294 -0.36788815 -0.19010471 0.19733712 -0.236784
0.14389934 -0.42684266 -0.3332996 0.050612945 0.22239622 0.031576056 0.079865575 0.06685836
-1.3882376 -0.5289313 0.09179468 0.07883369 -0.5062096 0.10691555 0.31666046 -0.22863066
0.026835075 -0.3681696 -0.7892394 0.15942413 -0.37756333 0.16172513 -0.11469217 0.057351936
-0.5358736 -0.4604914 -0.35978714 -0.34574258 0.10486848 -0.61985016
00000000: c5a7 7dbf 560d 0bbf e254 e4bd f01f 5fbe
00000010: 04cb 47be 006b d73d 8e4d c8bd 06b2 a63d
00000020: 6d6e 1cbe 1c2e b5be 21f8 72be c7ea b03e
00000030: 206e 17be 5ba2 123f fe85 40bd 3691 04be
00000040: 532b cabd 5ff1 ed3d af51 0ebe ef3f 36be
00000050: a851 6ebd 9b7b 6cbd c7b0 1b3e fdc0 733e
00000060: 0806 933e 59dc 26bf 7d75 f9bd 754d 82bf
00000070: 9346 493e da22 bbbf 99ce 28bf ae29 2dbe
00000080: 65f2 93be 6f20 1cbf 3cee 253e ee7b adbd
00000090: 077c 74bf a5a0 3fbf b899 d3be d644 00bf
000000a0: bb2e b0be 7d43 6abe e76c 85be 2508 d5be
000000b0: fcab 4e3e 5124 20bf 2d56 5bbe 6df5 6d3c
000000c0: e657 a83d b3c1 65be dbf2 013f c63d 2f3d
000000d0: 2865 93bf d99b 4abe e5c5 9abe fcf8 dc3e
000000e0: bc6b 843e 35cb 29bf d45f 00be 688b 56bf
000000f0: abaa 423e 083d 21bd e69e 84be 8811 30bf
00000100: 31b7 b6be 599f 29be 71cc 8fbd 1741 95bc
00000110: a279 57bf 54a8 073e ffd8 03bf 4b5f 3bbe
00000120: 39b4 0a3f f0ff 85be e1b9 21bf 23b7 493e
00000130: 1414 36bc 0ed2 e8be 7440 38be a0b1 243e
00000140: dae9 023e 3ce9 c1bd 434d 90be 61ef c7be
00000150: 8ce2 e93d 0ad1 9cbf 61c5 16bf f2b3 86bf
00000160: 402b 27bf 9d45 52be 5ade d9be 32c3 19bf
00000170: a86e 01c0 c70a 17bd 3a2b 35be f4de dfbd
00000180: bfb3 b33e f47f 69bf ec20 873c 0bdd d43e
00000190: bca3 f03d dbfa 00be a8c6 4dbf 28aa 24bf
000001a0: 61d1 47bd e00c aabe 1fea 93bd b5bc 843e
000001b0: 544a 1fbf f26d 4dbd d80e aebe d63a 17bf
000001c0: 2f94 ae3e de98 773d 5933 19bd 655a a1be
000001d0: 3d63 0abe 7d71 4abe 361c ad3c 3d03 893e
000001e0: 214e 1fbf 4fb4 b8be 1cd9 0abe cfb0 5fbf
000001f0: 3bc3 7e3c edd0 6bbf 9d1d c5be 8bd5 00be
00000200: 856f c93e 637d 86bf 1ef6 0bbf e2eb 81be
00000210: 791a 22bf b4bb 663e cb9e 55bf db45 abbe
00000220: 7422 e3be 925f babe 72d8 51bf c14c 063e
00000230: 6a27 773e 0a4e 36be af33 f8be 3502 00bf
00000240: d1cb 19bf 30cd 4e3e 24e2 163e 1754 9dbf
00000250: e87b e83e 09a0 c73e 12c6 1cbf bdb4 35bf
00000260: 7809 a93c 1f7c f3be 5b35 afbe 5c47 fc3e
00000270: aef9 46bc 23d7 6fbf 766f 12bd a097 d2bd
00000280: 8561 98be e402 d5bb d5f5 80bd 3dce 62be
00000290: 31ea e93e 3a29 5d3e c743 bcbe 7e41 ca3d
000002a0: 2e1e a8be 5668 153d 53a1 5dbd 0e7d 473d
000002b0: bbb4 a9be ca01 0ebe 500d 37bf 53b8 3bbe
000002c0: f837 5dbe 79de 18bf 5a56 73be ea7f dcbe
000002d0: 9159 18be dc2e ef3c 71f2 91bd 3322 98be
000002e0: 89d3 90be 17a7 82bf 7c30 90be ab5f 053f
000002f0: 4495 013e 083f cabe 0900 6bbe 0591 fabe
00000300: e07a c0be 5deb 353d be10 45be 2ab6 a33d
00000310: d65b bcbe cfaa 42be be12 4a3e 8177 72be
00000320: 595a 133e 1f8b dabe 3fa6 aabe 854f 4f3d
00000330: d6bb 633e e555 013d 9090 a33d 09ed 883d
00000340: c5b1 b1bf 0b68 07bf d9fe bb3d 8f73 a13d
00000350: f496 01bf 8af6 da3d 5221 a23e 281e 6abe
00000360: 3bd5 db3c ba80 bcbe 980b 4abf 1440 233e
00000370: fb4f c1be 469b 253e bae3 eabd dde9 6a3d
00000380: 032f 09bf 87c5 ebbe 0536 b8be 2c05 b1be
00000390: 49c5 d63d 80ae 1ebf

actor.l3.weight f4 [6, 230]
0.21448839 -0.31617153 -0.17520413 -0.1773751 0.75891393 0.62341976 -0.5562784 -0.14886354
-0.18705256 0.7930542 0.3194116 0.42726383 -0.30693144 -0.17267501 0.022662275 0.028481396
0.45505726 -0.20493962 0.16389373 -0.18591574 1.5709229 -0.9173452 0.0007199962 0.02333865
-0.013097095 0.18697526 -0.5384096 -1.1182806 0.087317064 1.6821463 0.9633438 0.28414643
0.5041069 -1.8284962 0.078253746 0.005743013 0.1372856 -0.35502335 0.69437104 0.5210293
-0.12251017 -0.15898679 0.35938978 -0.09608171 0.011151397 -0.30081242 -0.08564222 0.18387128
-0.16983569 0.4334165 0.059404045 0.26435983 0.101920255 0.24536216 0.3579674 -0.08576379
0.43043 -0.42716232 -0.35826606 -0.008620805 0.07682658 0.24821329 0.3836705 0.45631146
-0.22493002 0.2648525 0.23591572 0.36873838 -0.7626354 -0.36195794 -0.14975207 -0.89732105
0.6423414 0.3634444 -0.14303404 -0.034171302 -0.19124322 0.28270283 -0.12564431 0.4852792
0.24290626 -0.48595488 0.008411003 0.1745849 -0.28144994 -1.5382973 -0.5643556 0.84316254
-0.34419695 0.29903835 -0.3131744 0.12289197 1.063583 -0.22454016 -0.3374035 0.40232807
-0.8070678 -0.035390023 -0.28505898 -0.33057392 -0.07945267 -0.69559586 -0.29600713 -0.17295204
0.047114726 0.06259248 0.09128375 -0.7954965 0.43461317 0.23840506 0.31090868 0.27347848
-0.36397803 0.3912186 0.09862841 0.56025326 0.27256295 0.49686193 0.2503688 -0.3140389
-1.0040513 0.24097268 0.14377484 -0.16628999 0.48014832 0.15878586 0.023108983 0.028229646
-0.46444055 0.015799152 -0.2351628 -0.37048745 0.17801946 0.44509348 -0.085786216 0.4070024
0.04160447 -0.0634717 0.18002102 0.046830844 0.047789298 0.37631485 -0.42599654 0.22501726
-0.42016983 -0.045855664 -1.4895755 -0.33246282 0.56563395 -0.20480116 -0.15206248 0.12622264
-0.07154827 0.4592626 -0.53386635 -0.30551323 -0.9013952 -0.18765497 -0.28479332 -0.19921733
0.15195672 0.20740832 0.0021333129 0.1736488 -0.12137512 -0.20182522 0.046386432 -0.99346733
0.39237043 0.29670724 0.52657235 -0.04616415 0.16817388 -0.19727723 0.06889436 0.923864
-0.21392737 0.11239517 -0.032048523 0.06672541 0.1539243 -0.020611804 0.13287225 -0.02707643
-0.844632 0.28835723 -0.616667 -0.8846195 0.11454938 0.121275775 0.06861392 0.008744956
0.22236307 -0.4457624 0.3918489 -0.39208052 -0.048650187 -0.23680833 -0.6610773 -0.055910096
-0.41630414 0.29057607 -0.01901774 -0.005515188 -0.03259063 -0.30923894 -0.2013724 0.9205687
1.0278344 -0.083873756 -0.040272664 -0.07267406 -0.7227757 -0.1313945 0.17988598 -0.73262733
-0.8437638 0.35593084 0.4274423 -0.19920908 -0.08610202 -0.20993945 0.8680609 0.9167097
0.58951575 -0.083164684 0.033762086 -0.19508807 2.9317088 -0.09539965 -0.5001765 0.0025564798
-0.01882536 -0.06685293 -0.034682132 -0.023453472 0.22033249 -0.08099689 0.07722082 0.045509655
-0.09515607 -0.24541013 -0.7312782 -0.10931598 0.035564292 -0.059774008 -0.08734963 -0.25871068
-0.0026965206 0.4278745 -0.23566894 0.38721046 0.13027312 -0.22718842 0.14511104 0.033216696
00000000: d8a2 5b3e 3ce1 a1be b668 33be d1a1 35be
00000010: 2f48 423f 7098 1f3f 4368 0ebf af6f 18be
00000020: b58a 3fbe 9a05 4b3f eb89 a33e 53c2 da3e
00000030: 1e26 9dbe b8d1 30be 3ca6 b93c d151 e93c
00000040: 44fd e83e b1db 51be c2d3 273e b260 3ebe
00000050: 0014 c93f 23d7 6abf 21be 3c3a b230 bf3c
00000060: 3395 56bc 7176 3f3e 36d5 09bf d223 8fbf
00000070: 4ad3 b23d 9250 d73f b39d 763f a47b 913e
00000080: 260d 013f 2a0c eabf 8043 a03d e32f bc3b
00000090: 9994 0c3e 9fc5 b5be 4dc2 313f 2d62 053f
000000a0: 9de6 fabd 6fcd 22be f001 b83e 7dc6 c4bd
000000b0: 59b4 363c 1604 9abe 3065 afbd c148 3c3e
000000c0: 68e9 2dbe c4e8 dd3e a851 733d 2c5a 873e
000000d0: 91bb d03d 3840 7b3e 8147 b73e eda4 afbd
000000e0: 5261 dc3e 05b5 dabe a66e b7be 473e 0dbc
000000f0: 4157 9d3d a02b 7e3e 7670 c43e a8a1 e93e
00000100: 0e54 66be bf9a 873e e493 713e 47cb bc3e
00000110: 133c 43bf 8d52 b9be 9b58 19be d5b6 65bf
00000120: 7c70 243f 6215 ba3e 8477 12be 35f7 0bbd
00000130: 43d5 43be 6dbe 903e e7a8 00be 8476 f83e
00000140: 6bbc 783e 14cf f8be 4ece 093c 62c6 323e
00000150: 351a 90be ede6 c4bf 9c79 10bf 80d9 573f
00000160: 953a b0be 8e1b 993e 6558 a0be c9ae fb3d
00000170: 7d23 883f dbed 65be 27c0 acbe f2fd cd3e
00000180: ff9b 4ebf 21f5 10bd 40f3 91be fc40 a9be
00000190: 15b8 a2bd 9212 32bf 3f8e 97be 571a 31be
000001a0: 5ffb 403d 7c30 803d faf2 ba3d a9a5 4bbf
000001b0: 9e85 de3e 7520 743e 6c2f 9f3e 5f05 8c3e
000001c0: 545b babe ce4d c83e b1fd c93d c26c 0f3f
000001d0: 5f8d 8b3e b064 fe3e 5730 803e b5c9 a0be
000001e0: c184 80bf 8bc1 763e b639 133e ec47 2abe
000001f0: 00d6 f53e c398 223e 0d4f bd3c dc41 e73c
00000200: 27cb edbe 396d 813c 84ce 70be 88b0 bdbe
00000210: bc4a 363e 4be3 e33e afb0 afbd 9e62 d03e
00000220: 7369 2a3d 73fd 81bd 6e57 383e b3d1 3f3d
00000230: b6be 433d 57ac c03e 381c dabe ed6a 663e
00000240: 8020 d7be 26d3 3bbd 69aa bebf 9138 aabe
00000250: 63cd 103f 65b7 51be 44b6 1bbe 8240 013e
00000260: e687 92bd 7824 eb3e 77ab 08bf 3b6c 9cbe
00000270: d6c1 66bf a028 40be 6ed0 91be a1ff 4bbe
00000280: 8b9a 1b3e d962 543e 0dcf 0b3b fed0 313e
00000290: 8593 f8bd 45ab 4ebe b3ff 3d3d e053 7ebf
000002a0: c7e4 c83e 03ea 973e 72cd 063f 9f16 3dbd
000002b0: c635 2c3e 0b03 4abe 7c18 8d3d 5a82 6c3f
000002c0: c70f 5bbe 702f e63d 5045 03bd 55a7 883d
000002d0: 559e 1d3e 16da a8bc aa0f 083e 64cf ddbc
000002e0: ce39 58bf 8fa3 933e e3dd 1dbf 6c76 62bf
000002f0: de98 ea3d 6f5f f83d 7485 8c3d 0147 0f3c
00000300: 25b3 633e f83a e4be 6ba0 c83e c7be c8be
00000310: 6b45 47bd e27d 72be 5d3c 29bf fc01 65bd
00000320: d125 d5be 63c6 943e 17cb 9bbc c0b8 b4bb
00000330: c17d 05bd 9154 9ebe 9134 4ebe 64aa 6b3f
00000340: 1490 833f 01c6 abbd f3f4 24bd 23d6 94bd
00000350: d407 39bf 488c 06be 0834 383e 778d 3bbf
00000360: e800 58bf 913c b63e b8d9 da3e 77fd 4bbe
00000370: 4256 b0bd 5efa 56be 3d39 5e3f 7dad 6a3f
00000380: 81ea 163f 3f52 aabd 1d4a 0a3d 2bc5 47be
00000390: 1ea1 3b40 e460 c3bd 910b 00bf 9d8a 273b
000003a0: a437 9abc 30ea 88bd da0e 0ebd 7f21 c0bc
000003b0: d79e 613e b3e1 a5bd f325 9e3d 5568 3a3d
000003c0: 30e1 c2bd cb4c 7bbe 0c35 3bbf 0ee1 dfbd
000003d0: ddab 113d 97d5 74bd 5de4 b2bd ba75 84be
000003e0: 1cb8 30bb 5e12 db3e 3353 71be 7340 c63e
000003f0: 5166 053e 15a4 68be fd97 143e 3b0e 083d

actor.l3.bias f4 [6]
-0.41122106 -0.07052413 -0.30788606 0.240968 0.097511165 -0.15545215
00000000: 918b d2be f46e 90bd 3ea3 9dbe 51c0 763e
00000010: efb3 c73d d92e 1fbe
