DDPG/models/pruning/DDPG-Ant-0.6-l1.onnx (onnx, 57833 bytes, 6 tensors)

actor.l1.weight f4 [102, 27]
0	0xbf427f78	-0.7597575
1	0xbf9fe872	-1.2492812
2	0xbf6df3a7	-0.9294991
3	0xbff0deb2	-1.8817961
4	0x3be609c3	0.0070202067
5	0x3f42b58b	0.7605826
6	0xbe871c55	-0.26388803
7	0xbf532e08	-0.82492113
8	0xbebc7eed	-0.36815587
9	0xbf0bde91	-0.54636484
10	0x3e673dc2	0.22582152
11	0xbf04e29a	-0.51908267
12	0x3c41e111	0.011833445
13	0xbe700ec2	-0.2344313
14	0xbda232e1	-0.07919861
15	0x3e323025	0.17401178
16	0xbdae2933	-0.08503952
17	0xbb902dab	-0.0043999753
18	0xbd906875	-0.070511736
19	0xbcc5bb37	-0.024137123
20	0x3c4e53c7	0.012593216
21	0xbd037c53	-0.032100987
22	0xba15fa38	-0.00057211844
23	0xbb05baad	-0.0020405457
24	0x3c932d70	0.017966002
25	0xbd685f35	-0.05673142
26	0xbd7db290	-0.06193787
27	0xbf5d0794	-0.8633969
28	0xbe40491d	-0.1877789
29	0xbf8cd608	-1.1002817
30	0x3fbfc071	1.4980603
31	0xbeb7ef6d	-0.35924855
32	0xbdba3015	-0.09091202
33	0x3e6d9ab8	0.23203552
34	0xbe89ce21	-0.26915076
35	0x3e989ac8	0.2980559
36	0x3e6ae862	0.2294021
37	0x3e940c43	0.28915605
38	0xbbcdcae8	-0.006280292
39	0xbe45dd64	-0.19322735
40	0xbee87eb1	-0.45409158
41	0xbe6417f8	-0.22274768
42	0xbdb4ad1f	-0.08822083
43	0x3ecc1928	0.39862943
44	0xbe75ce78	-0.24004543
45	0xbe017fbc	-0.12646383
46	0x3dbbc411	0.09168256
47	0xbe081fde	-0.13293406
48	0x3e0b0624	0.13576561
49	0x3d874e3b	0.06606718
50	0xbe282e29	-0.16423859
51	0xbde6e7e3	-0.11274698
52	0xbda40e03	-0.08010485
53	0x3d42f31a	0.04759512
54	0xbf9aa0da	-1.2080338
55	0xbf6f12dd	-0.9338816
56	0xbf9be569	-1.2179385
57	0x3baff446	0.005369696
58	0x3f37e23f	0.718296
59	0x3eb4b1f6	0.35292023
60	0x3e999151	0.2999368
61	0xbddcdcd3	-0.107843064
62	0x3ef11e5c	0.47093475
63	0xbde0f816	-0.10984819
64	0x3da516f6	0.0806102
65	0xbe6800ae	-0.2265651
66	0xbe6029cb	-0.21890943
67	0xbe52d8e5	-0.20590551
68	0x3e3d6166	0.18494186
69	0xbe17afe4	-0.1481319
70	0xbe1e8854	-0.15481693
71	0x3deec920	0.11659455
72	0x3dc45830	0.09587133
73	0x3e15adf2	0.14617136
74	0x3bacc7be	0.0052728346
75	0x3e171553	0.14754228
76	0x3c8b275b	0.01698654
77	0x3b5a43e7	0.0033304633
78	0xbce84045	-0.028350959
79	0xbc353b23	-0.011061463
80	0x3dbb37c7	0.09141498
81	0xbf091976	-0.53554475
82	0xbfabb69a	-1.34151
83	0xbce96502	-0.028490547
84	0x3fccd336	1.6001956
85	0xbe865fc6	-0.26244944
86	0xbe9e8960	-0.30964184
87	0xbddd4ca7	-0.10805636
88	0x3e68f122	0.22748235
89	0x3d8b0fdc	0.06790134
90	0xbf2d49cc	-0.6769073
91	0x3dd5e850	0.10444701
92	0xbdd7f20e	-0.10544215
93	0x3e0f94da	0.14021626
94	0x3e97ced1	0.29649976
95	0xbe29acef	-0.16569875
96	0x3e995ab5	0.29952016
97	0xbd8308d9	-0.06398172
98	0x3e94a3d5	0.29031244
99	0xbdd0173d	-0.10160682
100	0xbbb14d5f	-0.0054108347
101	0x3ce88d40	0.028387666
102	0xbce31535	-0.027720073
103	0xbd3a2313	-0.045443606
104	0x3a41cf77	0.00073932804
105	0x3dd443a0	0.10364461
106	0x3c52392a	0.012831012
107	0x3d32342c	0.043506786
108	0xbf9bf952	-1.2185462
109	0x3ece6ac6	0.40315837
110	0x3fc22efe	1.5170591
111	0x3f9279c3	1.1443409
112	0x3f89a0c0	1.0752182
113	0xbd753e5a	-0.059873916
114	0x3d403aca	0.046931066
115	0x3a285a8c	0.0006422184
116	0xbd113277	-0.035448518
117	0x3e4b733f	0.19868182
118	0xbc857285	-0.016289959
119	0x3eb8cf87	0.3609583
120	0x3d490199	0.04907379
121	0xbe1b959f	-0.15193795
122	0xbc087b2f	-0.0083301505
123	0xbdddfcb5	-0.10839216
124	0x3d91f38e	0.071265325
125	0xbea48e82	-0.32139975
126	0x3dc366dc	0.09541103
127	0xbcbaaa93	-0.022786414
128	0xbd6f49cf	-0.05842
129	0x3d52481c	0.0513383
130	0x3cd0aba7	0.025472475
131	0x3c2fa629	0.010720768
132	0xbc2bd46d	-0.010487658
133	0xbc2100eb	-0.009826879
134	0xba47539a	-0.0007603705
135	0x3f3f44f0	0.74714565
136	0xbf2b2e97	-0.66867965
137	0xbf70861c	-0.93954635
138	0x3ee7709b	0.452031
139	0x3f8df07e	1.1089017
140	0x3ecf55e1	0.40495208
141	0x3b30fd38	0.00270064
142	0xbd3efce5	-0.046627898
143	0x3d28a324	0.041171208
144	0x3e83bbb1	0.25729135
145	0x3e9d5bd0	0.3073411
146	0xbefdb50e	-0.49552196
147	0x3e41e4e2	0.18934968
148	0xbe886547	-0.26639768
149	0x3edb0c02	0.427826
150	0x3e91f14e	0.28504413
151	0xbe782814	-0.24234039
152	0x3e2022df	0.15638302
153	0xbc8933f1	-0.0167484
154	0xbc556013	-0.013023394
155	0x3cafcc90	0.021459848
156	0x3b44a266	0.0030004024
157	0x3aa510df	0.0012593529
158	0xbd0f2a8d	-0.03495269
159	0xbc050e44	-0.008121077
160	0x3d0ede2c	0.03487985
161	0x3cd15c82	0.025556806
162	0x3f92c4ff	1.1466368
163	0xbf08e8e6	-0.53480375
164	0xbf38fb07	-0.7225804
165	0xbf9669e4	-1.1751065
166	0xbf70b3f1	-0.9402457
167	0xbe567955	-0.20944722
168	0x392d3f42	0.00016522131
169	0xbecf27f6	-0.40460175
170	0xbdacec33	-0.08443489
171	0x3e27bb49	0.16380037
172	0x3e1ece0f	0.15508293
173	0xbe59b10d	-0.21258946
174	0x3da96395	0.08270947
175	0x3e8d5fdc	0.27612197
176	0x3dfd5545	0.123697795
177	0xbe4c1735	-0.19930728
178	0xbdd4d8e8	-0.10392934
179	0x3c0b8e39	0.008517795
180	0xbe0eba8b	-0.13938348
181	0x3cdccde8	0.026953653
182	0xbba2dbba	-0.004970041
183	0xbd82bd4f	-0.06383764
184	0xbd42754d	-0.047475148
185	0x3afa905f	0.0019116512
186	0xbce81099	-0.028328227
187	0xbb966985	-0.0045902156
188	0x3b5baab3	0.0033518493
189	0xbdef6fdc	-0.11691257
190	0x3edfd834	0.43719637
191	0xbfdc0d61	-1.7191583
192	0xbf924986	-1.1428688
193	0x3f947906	1.1599433
194	0x3e24f060	0.16107321
195	0x3d3ba310	0.045809805
196	0x3e44456f	0.19167112
197	0xbc78287c	-0.015146371
198	0x3db4cd9b	0.08828279
199	0x3e69424c	0.22779197
200	0x3ded4d5f	0.11587023
201	0xbe5b2531	-0.21400906
202	0xbde62f56	-0.11239497
203	0xbdb47a4e	-0.0881239
204	0xbe20fbf8	-0.15721118
205	0xbe0ec792	-0.13943318
206	0x3e515597	0.20442806
207	0xbcd0d6ac	-0.025492989
208	0xbcfcfcd4	-0.030882277
209	0xba0929f9	-0.00052323897
210	0xbbde391d	-0.006781711
211	0xbdbe63a1	-0.092963465
212	0xb921964b	-0.00015410145
213	0xbc8f256a	-0.017473895
214	0xbdeacf7b	-0.11465355
215	0x3dced928	0.10100013
216	0x3ff6bd0f	1.9276446
217	0x3e1082b2	0.14112356
218	0xbf4b82b3	-0.79496306
219	0x3f884c9a	1.0648377
220	0x3e84560d	0.25846902
221	0xbdd6192d	-0.10454021
222	0xbeae995e	-0.34101385
223	0x3ed947f2	0.42437702
224	0x3ea21480	0.31656265
225	0xbe385ca1	-0.18004085
226	0x3eddef1c	0.43346488
227	0xbe86e8e6	-0.26349562
228	0xbe1cdfe5	-0.15319784
229	0x3d66b88d	0.056328345
230	0xbcb61eed	-0.022231543
231	0xbd416695	-0.04721697
232	0xbe0e8f74	-0.1392191
233	0x3b8ac9c1	0.0042354767
234	0xbc8d51bb	-0.017250886
235	0xbb411271	-0.0029460455
236	0xbb506ba1	-0.0031802433
237	0xbcacc7ab	-0.021091303
238	0xbc650236	-0.013977578
239	0x3c6a686f	0.0143071255
240	0xbc312791	-0.010812656
241	0x3b88969d	0.004168345
242	0xbda3144c	-0.07962856
243	0x3f85130a	1.0396435
244	0xbf006362	-0.50151646
245	0x3ecf9d35	0.40549627
246	0xbf775410	-0.96612644
247	0x3f605266	0.8762573
248	0x3d2e5250	0.042558968
249	0xbec718a9	-0.38886002
250	0x3ea46ca1	0.32114127
251	0xbdc2192c	-0.094774574
252	0xbdd7e80b	-0.105423056
253	0xbbf83f4c	-0.007575905
254	0x3eddfff3	0.43359336
255	0x3e1bc102	0.15210345

actor.l1.bias f4 [102]
0	0x3ef18f15	0.47179475
1	0xbed31b58	-0.412318
2	0x3f25b203	0.6472475
3	0x3d24bb16	0.04021748
4	0x3e177a22	0.14792684
5	0xbefbef38	-0.49205947
6	0xbf836abe	-1.026695
7	0xbe5c5e42	-0.21520332
8	0xbf10008d	-0.5625084
9	0xbf758c56	-0.9591726
10	0x3e2b5ff4	0.16735822
11	0xbf48981f	-0.7835712
12	0xbf97edc1	-1.1869432
13	0x3e642a53	0.2228177
14	0xbeb070b9	-0.34461
15	0x3e50fbd6	0.20408568
16	0xbd186d38	-0.037213534
17	0x3e809824	0.25116074
18	0x3eb1d2e5	0.34731212
19	0x3d85f919	0.06541652
20	0x3e28036e	0.16407558
21	0xbe182adf	-0.14860104
22	0xbe8b1fac	-0.271726
23	0xbe919c7a	-0.28439695
24	0x3f679877	0.9046702
25	0xbf2c16c7	-0.67222255
26	0xbe89ea35	-0.26936498
27	0xbf1c147c	-0.60968757
28	0xbf60c366	-0.87798154
29	0xbf7ea6a9	-0.99473053
30	0xbf37c8f1	-0.7179099
31	0xbf678acd	-0.9044617
32	0x3f3edc47	0.74554867
33	0x3e0800a2	0.13281491
34	0xbf0b4827	-0.5440697
35	0xbf00718c	-0.5017326
36	0xbf7344e2	-0.9502698
37	0xbebfd5b1	-0.3746772
38	0xbf114472	-0.56745064
39	0xbf35a7c6	-0.70959127
40	0xbfb1a0cb	-1.3877195
41	0xbf5328a9	-0.8248392
42	0xbe9f9426	-0.31167716
43	0x3e2e49ee	0.1702039
44	0xbf1b1680	-0.6058121
45	0xbf30bd06	-0.69038427
46	0xbf80e3c8	-1.0069513
47	0xbf099143	-0.53737277
48	0x3e086042	0.1331797
49	0xbed21c55	-0.4103724
50	0xbeb60ca7	-0.35556528
51	0xbe2bf301	-0.16791917
52	0x3e236392	0.15955952
53	0xbf7500cd	-0.95704347
54	0xbc88bd2b	-0.016691765
55	0xbf80ebce	-1.0071962
56	0xbf6bf36b	-0.921683
57	0xbe648588	-0.22316563
58	0x3f48e402	0.7847291
59	0xbeb5b191	-0.35487035
60	0xbe8840cd	-0.2661194
61	0xbf3b5315	-0.7317365
62	0xbfc461bd	-1.5342327
63	0xbe238612	-0.15969113
64	0xbe4320eb	-0.19055526
65	0x3e88c900	0.2671585
66	0xbf0ee862	-0.5582334
67	0x3ba68544	0.0050818045
68	0xbf9ddc56	-1.2332866
69	0x3d010639	0.031500075
70	0xbf1f59ce	-0.62246406
71	0x3d702e86	0.05863812
72	0xbdabbe00	-0.08385849
73	0xbefbfb90	-0.49215364
74	0xbe15fcc4	-0.14647204
75	0xbf60ce4c	-0.87814784
76	0xbeda72d8	-0.42665744
77	0xbfc70a6d	-1.5550057
78	0x3e8061e6	0.2507469
79	0xbf01c458	-0.5069022
80	0xbf2c8421	-0.6738911
81	0x3f03368a	0.51255095
82	0xbf3d4466	-0.7393249
83	0xbe1f3f3c	-0.15551466
84	0xbedcb47c	-0.4310645
85	0xbee21bd2	-0.4416185
86	0xbe760230	-0.24024272
87	0x3deeebcd	0.11666069
88	0xbe664187	-0.22485934
89	0xbe31ca28	-0.17362273
90	0x3ba5e22a	0.0050623612
91	0xbde4bf92	-0.11169352
92	0x3e33083d	0.17483611
93	0xbf6062c2	-0.8765069
94	0x3e747461	0.2387252
95	0xbe0b43c4	-0.1360007
96	0xbf37bc4c	-0.71771693
97	0xbf17041b	-0.5899064
98	0xbe93fbf6	-0.28903168
99	0xbd378db0	-0.044812858
100	0xbe00f850	-0.12594724
101	0xbf19e800	-0.6011963

actor.l2.weight f4 [102, 102]
0	0xbe03d3ff	-0.12873839
1	0xbd81ce3d	-0.06338165
2	0xbe3b760d	-0.18306752
3	0x3c38c0c0	0.011276424
4	0x3ca6771d	0.02032047
5	0xbf495d40	-0.78657913
6	0xbf17da8f	-0.5931787
7	0x3ee4dc5f	0.4469938
8	0x3c1e6960	0.009668678
9	0xbf4b405b	-0.79395074
10	0xbf6a996c	-0.91640353
11	0x3e1477d0	0.1449883
12	0xbe6d6b14	-0.23185378
13	0x3e8ed772	0.27898747
14	0x3e1c6cc1	0.15275861
15	0x3c188a79	0.009310358
16	0xbe9ceb39	-0.3064821
17	0x3f84470b	1.033418
18	0x3e809974	0.25117075
19	0x3d4e57f4	0.050376847
20	0x3e1d19f6	0.15341935
21	0x3cb93b8d	0.022611404
22	0x3d8bb5b8	0.068217695
23	0xbe7483c4	-0.2387839
24	0xbd9fe1d8	-0.07806748
25	0x3d9d789c	0.0768902
26	0xbd279718	-0.04091558
27	0x3dabc34e	0.08386861
28	0xbe98a188	-0.2981074
29	0xbf728f19	-0.947496
30	0x3d7148d7	0.058907356
31	0xbef7ab8f	-0.48373076
32	0xbdbd60a9	-0.09246952
33	0x3d125ac3	0.03573109
34	0xbd00fb9a	-0.031489946
35	0xbec5d056	-0.3863551
36	0x3c327035	0.01089101
37	0x3ec1203d	0.37719908
38	0xbe907e1c	-0.28221214
39	0xbf189101	-0.5959626
40	0xc02ace44	-2.6688395
41	0x3ddba73e	0.10725258
42	0x3e054664	0.13015133
43	0xbf3c2981	-0.7350083
44	0xbe0f2480	-0.13978767
45	0xbe9d880c	-0.30767858
46	0x3e34fd87	0.17674838
47	0x3e43cc4c	0.19120902
48	0xbf1883c6	-0.5957607
49	0x3d837631	0.064190276
50	0xbee69aeb	-0.45040068
51	0xbdb0d908	-0.086351454
52	0xbd90d851	-0.07072509
53	0xbf3ec804	-0.7452395
54	0x3cd9b2a1	0.026574435
55	0xbe24269d	-0.16030355
56	0x3e125476	0.14290032
57	0xbded9987	-0.11601549
58	0xc010f0b4	-2.2646914
59	0xbeea63e3	-0.45779333
60	0x3c14c92f	0.009081169
61	0x3d219403	0.039447796
62	0x3de6c506	0.11268048
63	0x3dd50957	0.10402172
64	0xbe65ec66	-0.2245346
65	0xbd5a42ac	-0.05328624
66	0xbe02a60c	-0.12758654
67	0x3ea7e090	0.32788515
68	0xbe366645	-0.1781245
69	0x3e6fc876	0.23416314
70	0xbea2bc4e	-0.3178429
71	0x3ebcaebb	0.3685206
72	0xbf3bb37a	-0.73320735
73	0xbe9d537e	-0.30727762
74	0x3c3b1dc2	0.011420669
75	0xbdff2f0b	-0.124601446
76	0xbcf3a844	-0.029743321
77	0x3daead55	0.08529154
78	0x3da96463	0.082711
79	0xbe9ebbec	-0.31002748
80	0xbe83a6a7	-0.25713083
81	0x3cf4b3a2	0.029870812
82	0xbe89f730	-0.26946402
83	0xbebb3ee7	-0.36571428
84	0xbe88f99e	-0.26752943
85	0xbd98caf9	-0.07460589
86	0xbf1e1b1e	-0.6176013
87	0x3ee6639f	0.4499788
88	0x3e909cba	0.28244573
89	0x3deab6e0	0.11460662
90	0x3e5cef8b	0.21575753
91	0xbcc32d54	-0.023825325
92	0xbdf0b104	-0.11752513
93	0x3b6beca4	0.0035999203
94	0xbd12eb0d	-0.035868693
95	0xbd54aafc	-0.051920876
96	0xbe5c232b	-0.2149779
97	0xbe076c08	-0.13224804
98	0xbf604a3b	-0.87613267
99	0xbec60ba9	-0.3868077
100	0xbcdafe08	-0.02673246
101	0xbe00d593	-0.12581472
102	0x3ee6cc7a	0.45077878
103	0xbeac60cb	-0.33667597
104	0xbf18cf0f	-0.59690946
105	0xbe130df6	-0.14360794
106	0xbf6feb4f	-0.9371843
107	0x3dd4969e	0.103802904
108	0x3ec3f80d	0.38275185
109	0xbe09587d	-0.13412662
110	0x3de6f0d5	0.11276404
111	0xbe990579	-0.29886988
112	0xbe7d1ee8	-0.24718821
113	0x3e39db73	0.1815012
114	0x3eca9521	0.395669
115	0xbe08c294	-0.13355476
116	0x3effd4fb	0.4996718
117	0x3dd58bde	0.10427068
118	0xbf388d17	-0.72090286
119	0xbd898bed	-0.06716142
120	0xbf606e9e	-0.8766879
121	0xbf3bea8f	-0.73404783
122	0xbb8846b4	-0.004158819
123	0xbeb3e03f	-0.35132024
124	0x3bdc12ed	0.0067161233
125	0x3bf274c0	0.0073991716
126	0xbf6bf6ca	-0.92173445
127	0x3d1a0d0d	0.037610102
128	0xbeec710f	-0.46180007
129	0x3d24a707	0.040198352
130	0x3e8a849c	0.27054298
131	0x3d69fb6b	0.057124536
132	0x3f2132ab	0.6296794
133	0x3e469ac7	0.1939498
134	0xbf401afe	-0.75041187
135	0x3f093975	0.536033
136	0xbd4484f1	-0.047978345
137	0xbea602d5	-0.32424036
138	0xbe0b5bcd	-0.13609238
139	0xbbbbbfc2	-0.0057296464
140	0x3e234eda	0.15948048
141	0xbe6a6454	-0.22889835
142	0x3e275a6f	0.16343091
143	0x3e478a40	0.19486332
144	0xbca98c68	-0.020696834
145	0xbd9a141c	-0.07523367
146	0xbced225d	-0.02894705
147	0xbdba30c6	-0.09091334
148	0xbe1ec36e	-0.15504238
149	0xbf5f6443	-0.8726236
150	0xbf7b737a	-0.9822308
151	0xbd90f9b8	-0.0707888
152	0xbefe3dfc	-0.49656665
153	0x3e51f7d4	0.20504695
154	0xbea97e0d	-0.33103982
155	0x3e6870e8	0.2269932
156	0xbf3c7bb4	-0.73626256
157	0x3e14fb38	0.14548957
158	0xbe5438b2	-0.20724753
159	0xbda140bf	-0.078736775
160	0xbf1cbba2	-0.61223805
161	0x3f053877	0.52039284
162	0x3eaf5874	0.34247172
163	0xbc9b5427	-0.018961025
164	0x3e88d4fc	0.26724994
165	0xbe2164e8	-0.15761149
166	0xbe7dc9d1	-0.24784018
167	0x3f065aa6	0.5248207
168	0xbe936cee	-0.28794044
169	0xbe93f703	-0.28899392
170	0xbf39bcaa	-0.72553504
171	0xbf0c6458	-0.5484061
172	0xbd63737f	-0.055530068
173	0xbe1f71fa	-0.15570822
174	0xbe7e6ca6	-0.24846134
175	0xbe634cb8	-0.22197235
176	0xbf2ba98c	-0.67055583
177	0x3e84cfe2	0.25939852
178	0xbea3a0fa	-0.31958753
179	0xbe1de512	-0.15419415
180	0xbe7fec43	-0.2499247
181	0xbd077314	-0.03306873
182	0xbf0aa8ab	-0.54163617
183	0xbdd88c2a	-0.10573609
184	0x3bb7d1d2	0.0056097293
185	0xbed06f1f	-0.4070978
186	0x3f1cc07e	0.6123122
187	0xbde4d0e9	-0.11172659
188	0x3f4e8048	0.8066449
189	0x3dbab170	0.09115875
190	0xbef966eb	-0.48711333
191	0xbddeeda2	-0.108851686
192	0xbd8ff1dc	-0.07028553
193	0xbed4e19e	-0.41578382
194	0x3be19bec	0.0068850424
195	0x3df151cc	0.1178318
196	0xbf05f308	-0.5232396
197	0x3d992dd0	0.07479441
198	0xbeced515	-0.40396944
199	0x3ed714fa	0.4200819
200	0xbe60e221	-0.21961261
201	0xbeb42846	-0.35186976
202	0x3ecfaeae	0.40562958
203	0xbec013f5	-0.37515226
204	0x3e9a0676	0.30083054
205	0x3da7daf5	0.081960596
206	0xbfd08a07	-1.6292123
207	0xbee28f8e	-0.4425015
208	0xbe88e655	-0.2673823
209	0xbe9e722d	-0.30946484
210	0x3e97a11f	0.29615113
211	0xbe8f8c7b	-0.28036866
212	0x3e9575b2	0.29191357
213	0x3dec896b	0.11549648
214	0xbf8c7246	-1.0972373
215	0x3e7d5dfe	0.24742886
216	0x3ed51eac	0.41624963
217	0xbea91e42	-0.33030897
218	0xbf1f88cc	-0.6231811
219	0xbe7ead23	-0.24870734
220	0x3eb059b9	0.34443453
221	0xbf152494	-0.5825894
222	0xbdfe5dbe	-0.12420224
223	0xbea03a13	-0.31294307
224	0xbf2cb8e0	-0.67469597
225	0x3e8fd2d5	0.2809054
226	0xbee2db93	-0.44308147
227	0x3ef35f71	0.47533754
228	0x3cb93d10	0.022612125
229	0xbd7333a5	-0.059375424
230	0xbf1219ad	-0.5707043
231	0x3e01ab46	0.12662992
232	0xbd9ff2f5	-0.07810012
233	0xbd430eef	-0.047621664
234	0xbf1cbf70	-0.6122961
235	0x3de3b8c1	0.111192234
236	0xbf461e82	-0.773903
237	0xbe010907	-0.126011
238	0x3e387abd	0.18015571
239	0xbe64577b	-0.22298996
240	0xbe7ded5f	-0.24797581
241	0xbe2da604	-0.16957861
242	0x3c8ade47	0.016951693
243	0xbe5b37c8	-0.21407998
244	0xbe6e83b4	-0.23292428
245	0xbf1ff710	-0.6248636
246	0x3cb644e2	0.022249643
247	0xbf06e985	-0.5270007
248	0xbe914eb8	-0.2838037
249	0x3e510a91	0.20414187
250	0xbed06a11	-0.40705922
251	0xbe9889a1	-0.29792503
252	0x3e8935f7	0.26798984
253	0x3da5b170	0.08090484
254	0x3e856247	0.26051542
255	0xbd66f537	-0.0563862

actor.l2.bias f4 [102]
0	0xbd40ded2	-0.047087498
1	0xbeef24ac	-0.46707666
2	0xbed3a124	-0.41333878
3	0xbeca6822	-0.39532572
4	0x3e4110ae	0.18854019
5	0xbedce9dc	-0.4314717
6	0xbe9f7d72	-0.31150395
7	0xbee41194	-0.4454466
8	0x3e226008	0.15856946
9	0x3a042259	0.00050405186
10	0x3e61ce61	0.22051384
11	0x3cee134d	0.029061938
12	0x3f335743	0.70055026
13	0xbe9bbb9b	-0.3041657
14	0xbea45097	-0.32092735
15	0xbeea880a	-0.45806915
16	0xbf241060	-0.64087486
17	0x3da368f2	0.07979001
18	0xbe76eccf	-0.24113773
19	0x3eba6392	0.3640409
20	0xbe601080	-0.21881294
21	0xbdc484ba	-0.09595628
22	0x3f0acaec	0.54215884
23	0xbe890260	-0.26759624
24	0xbeced38b	-0.4039577
25	0x3d46709c	0.048447236
26	0x3e345d82	0.17613795
27	0x3dd87bae	0.10570465
28	0xbe0ab75a	-0.13546506
29	0xbf163fa1	-0.5869084
30	0xbf004ace	-0.5011414
31	0xbf164401	-0.58697516
32	0xbeb93b71	-0.36178163
33	0xbe9e27be	-0.30889696
34	0x3e0e30d7	0.13885818
35	0x3e7ff48a	0.24995628
36	0x3e4b5d72	0.19859865
37	0xbeeb8d33	-0.46006164
38	0xbccf8863	-0.025333589
39	0xbe1d396f	-0.1535394
40	0x3e6af571	0.22945191
41	0xbeacec43	-0.33774003
42	0x3f0e155a	0.5550133
43	0xbf1d7a27	-0.61514515
44	0xbeae2f7f	-0.34020612
45	0xbe1a8ce8	-0.15092814
46	0xbe4c4e77	-0.19951807
47	0xbeb68783	-0.35650262
48	0xbebeb49b	-0.37247166
49	0xbec8eb16	-0.39241856
50	0xbea6473d	-0.32476225
51	0xbf15fc7a	-0.58588374
52	0xbec95a63	-0.39326772
53	0xbe84bf74	-0.25927317
54	0xbebbed57	-0.36704513
55	0xbebd3544	-0.369547
56	0xbe16ad19	-0.14714469
57	0xbe96f53f	-0.29483983
58	0xbd8b2d66	-0.067957684
59	0xbe9e0a32	-0.30867153
60	0xbf1e7978	-0.61904097
61	0xbf11072a	-0.56651556
62	0xbdeda39d	-0.116034724
63	0xbde43386	-0.1114264
64	0xbe222336	-0.15833744
65	0xbe8dd128	-0.27698636
66	0xbe75bec7	-0.23998557
67	0xbf0f9ead	-0.56101495
68	0xbf33c930	-0.7022886
69	0x3e98fb72	0.29879338
70	0xbf0ac091	-0.54200083
71	0xbd0fa37b	-0.035068016
72	0xbe811294	-0.25209486
73	0xbf0d794d	-0.55263215
74	0xbe71a07e	-0.23596379
75	0xbe13888f	-0.14407562
76	0xbee2bcf6	-0.4428479
77	0x3e8efd22	0.279275
78	0xbedc6ed9	-0.4305332
79	0xbe9c2f15	-0.3050467
80	0xbf175147	-0.59108394
81	0x3dec1818	0.11528033
82	0xbdfe95a3	-0.12430885
83	0xbd3c99f5	-0.046045262
84	0x3de406a2	0.111340776
85	0x3e24397c	0.16037554
86	0xbe9af1a4	-0.30262482
87	0xbeb7fc3a	-0.3593462
88	0xbf06c2ee	-0.5264119
89	0xbd3ac49d	-0.04559766
90	0x3eedcbf6	0.46444672
91	0x3e9442d6	0.28957242
92	0xbf02bd88	-0.5107045
93	0xbe92aebc	-0.28648937
94	0x3f0aee38	0.5426974
95	0xbd66eb10	-0.056376517
96	0xbe1d3aba	-0.15354434
97	0xbf3aac5b	-0.72919244
98	0xbdf9105c	-0.121613234
99	0xbe1233c9	-0.14277567
100	0x3ea43155	0.32068887
101	0x3e9d87bd	0.30767623

actor.l3.weight f4 [8, 102]
0	0x3a269c51	0.00063556904
1	0xbed0bee2	-0.40770632
2	0x3e74aec9	0.238948
3	0x3e8523c4	0.2600385
4	0x3d598fbe	0.0531156
5	0xbe1d1980	-0.15341759
6	0xbdcb5ff0	-0.09930408
7	0x3e53584b	0.2063915
8	0x3ce62d1d	0.028097684
9	0x3dabcb33	0.083883666
10	0x3da4e20d	0.08050928
11	0x3e1baf9a	0.15203705
12	0x3dfadc33	0.12249031
13	0xbde829df	-0.11336111
14	0xbd195d76	-0.037442647
15	0x3f338054	0.7011769
16	0x3dd29a66	0.102833554
17	0x3e39c36a	0.18140951
18	0xbea1cbfd	-0.31600943
19	0xbdb9c660	-0.0907104
20	0xbe074b49	-0.13212313
21	0xbc283eea	-0.010268906
22	0x3e478ce6	0.19487342
23	0xbc1f26ce	-0.009713842
24	0x3d8e807e	0.06958102
25	0xbe38ef89	-0.18060125
26	0x3e58eb8a	0.21183601
27	0x3d5ea27f	0.054354187
28	0x3e5713fc	0.21003717
29	0x3eda8c95	0.4268538
30	0xbe022533	-0.12709503
31	0x3df32998	0.11873168
32	0x3e177445	0.14790447
33	0xbd591f56	-0.0530084
34	0x3e1df947	0.15427123
35	0xbdba6ca9	-0.091027565
36	0xbda00d36	-0.0781502
37	0x3e02aec3	0.12761979
38	0x3cead04a	0.028663773
39	0xbd838a62	-0.06422879
40	0x3e794e38	0.24346244
41	0x3e72dbc4	0.23716646
42	0x3d9571dc	0.072971076
43	0x3d8f76db	0.07005092
44	0x3debb743	0.11509564
45	0xbf2b401e	-0.6689471
46	0x3e06df45	0.13171108
47	0xbd83ff91	-0.0644523
48	0xbe506b53	-0.20353441
49	0x3f060c15	0.52362186
50	0xbe3902f5	-0.18067534
51	0xbe7163f1	-0.23573281
52	0xbe2f1a4f	-0.1709988
53	0xbe23d4cd	-0.15999146
54	0x3eb96808	0.36212182
55	0xbeb54435	-0.354036
56	0xbe23407a	-0.15942565
57	0x3cf5d684	0.030009516
58	0x3dee190d	0.11625872
59	0xbce33308	-0.027734295
60	0xbddb477c	-0.10706994
61	0x3cd274c4	0.025690444
62	0xbee946b3	-0.45561752
63	0x3d180d3f	0.037122007
64	0x3ca3bedf	0.019988475
65	0x3e52ddf4	0.20592481
66	0xbdbe55c7	-0.092937045
67	0xbdc8e649	-0.098095484
68	0x3d1273cd	0.035754967
69	0xbe85c5cf	-0.26127478
70	0x3da5c4c8	0.08094174
71	0xbc827c37	-0.01592837
72	0x3e3e50cf	0.18585514
73	0xbc9e0b5c	-0.019292526
74	0xbe0d4bc9	-0.13798441
75	0x3e473e45	0.19457348
76	0xbe2313d9	-0.1592554
77	0xbd21271b	-0.039343935
78	0xbeb8fdbd	-0.36131087
79	0xbeb73f84	-0.35790646
80	0xbdac22e7	-0.084050946
81	0xbd27d645	-0.040975828
82	0x3d7c1cff	0.06155109
83	0xbcc46022	-0.023971621
84	0xbd18bd4f	-0.037289914
85	0x3e39ef45	0.1815768
86	0xbc899460	-0.016794384
87	0xbf1c21d9	-0.6098915
88	0xbe25a185	-0.16174896
89	0xbd0d2e43	-0.034467947
90	0x3cf709fa	0.030156124
91	0x3d0a865a	0.033819534
92	0xbdf09973	-0.11748018
93	0x3db2dc58	0.087334335
94	0x3da997cb	0.08280905
95	0x3cd5cdba	0.026099075
96	0x3eac515f	0.3365583
97	0x3e1f5170	0.1555841
98	0xbef3f6c4	-0.47649205
99	0xbec33276	-0.38124436
100	0xbd0902ef	-0.033450063
101	0xbdf8bf87	-0.12145906
102	0x3dc0a5a2	0.09406592
103	0x3e0725a8	0.13197958
104	0xbebe4c6d	-0.37167683
105	0xbed06703	-0.40703592
106	0xbdac9b47	-0.08428054
107	0xbe3a590e	-0.18198034
108	0x3e271945	0.16318233
109	0x3e742024	0.23840386
110	0x3da84d14	0.082178265
111	0xbea6ef52	-0.32604462
112	0x3d8fdb96	0.070243046
113	0x3e9f688b	0.31134447
114	0xbd610b58	-0.05494246
115	0x3c51e2a1	0.01281038
116	0x3db1b4cb	0.08677062
117	0x3d26cb77	0.040721383
118	0xbe5a1a60	-0.21299124
119	0xbd318eda	-0.043349124
120	0xbd42a573	-0.047521066
121	0x3daa60cf	0.08319246
122	0xbe333e62	-0.17504266
123	0xbdb4b979	-0.088244386
124	0x3e07cb95	0.13261254
125	0xbbe92b17	-0.0071157324
126	0x3dfcd895	0.12345997
127	0x3e6c3f23	0.2307096
128	0xbeb594dc	-0.35465133
129	0x3de1e636	0.110302374
130	0x3daaff1f	0.08349442
131	0x3eaa869b	0.3330582
132	0xbe52b801	-0.20578004
133	0xbd9d2eb2	-0.07674922
134	0xbde7b084	-0.113129646
135	0x3d4f3d3f	0.05059552
136	0xbe880ab2	-0.2657066
137	0xbe02de51	-0.1278012
138	0x3d8dd8b8	0.069261014
139	0x3d7a6fde	0.06114184
140	0x3d6d5edb	0.05795179
141	0xbd2300fc	-0.03979586
142	0xbda4e822	-0.08052088
143	0xbe012017	-0.12609898
144	0xbda0857b	-0.078379594
145	0xbe142d11	-0.14470316
146	0xbdf2014b	-0.11816653
147	0xbe17891a	-0.14798394
148	0xbe95d74d	-0.29265824
149	0x3ee54db6	0.4478585
150	0x3ddc40b8	0.107545316
151	0xbe2af0d5	-0.16693433
152	0x3e1f4f7b	0.15557663
153	0x3e501665	0.20321043
154	0xbdd63015	-0.1045839
155	0x3d56191e	0.052270047
156	0x3d88bba5	0.06676415
157	0xbe9b5c44	-0.3034383
158	0x3ea15c45	0.3151571
159	0x3e217d8b	0.15770547
160	0xbe5e13a6	-0.21687183
161	0xbdb9eaf6	-0.09078018
162	0x3d747864	0.059685126
163	0x3dd7a261	0.10529018
164	0x3f28d034	0.6594269
165	0xbc3e8164	-0.011627529
166	0x3d8ac414	0.0677568
167	0xbce71207	-0.028206838
168	0x3dd4f8fd	0.10399053
169	0xbe6dcdf9	-0.23223104
170	0x3f122124	0.5708182
171	0x3dd90b19	0.1059782
172	0xbc244608	-0.010026462
173	0x3cd0f550	0.0255076
174	0x3d9aeae5	0.07564334
175	0x3e1a71de	0.150825
176	0xbd1b3d80	-0.037900448
177	0x3d8157b1	0.06315554
178	0xbda809cd	-0.08204994
179	0x3d957935	0.07298509
180	0x3ca1680c	0.019702934
181	0xbf10915d	-0.56471807
182	0x3e296f35	0.16546328
183	0x3e508183	0.20361905
184	0x3d2b082f	0.04175585
185	0x3ef9945d	0.48746005
186	0xbe14ca9e	-0.14530417
187	0xbe134c57	-0.1438459
188	0xbd881c7f	-0.0664606
189	0xbe9b9fb8	-0.30395293
190	0x3c888696	0.016665738
191	0xbd50af6d	-0.05094855
192	0xbe3f8d64	-0.1870628
193	0xbe0dc8de	-0.13846156
194	0x3d8ac162	0.06775166
195	0xbde8916c	-0.11355862
196	0xbd86e063	-0.06585767
197	0xbe921e59	-0.28538778
198	0x3cbfd4b1	0.023416849
199	0xbe7c8b0d	-0.24662419
200	0xbe985ed5	-0.2975985
201	0x3dd368b5	0.10322706
202	0xbd90618a	-0.07049854
203	0x3e0406dd	0.12893243
204	0x3d5e9168	0.05433789
205	0xbd6ca7ba	-0.057777144
206	0xbe27ac02	-0.1637421
207	0x3d4efdf3	0.050535154
208	0xbe1f03d1	-0.155288
209	0xbdca8bf6	-0.09889977
210	0xbd2a7973	-0.04161973
211	0xbc53fd76	-0.012938848
212	0x3da0ba8c	0.07848081
213	0xbf01ca4b	-0.506993
214	0x3ca84477	0.02054046
215	0xbefbe6a1	-0.49199393
216	0xbe24d076	-0.16095147
217	0x3d4d83c8	0.050174505
218	0x3dc14c0d	0.09438334
219	0xbe2ac23a	-0.16675654
220	0x3f4f1d26	0.8090385
221	0x3f073e66	0.5282959
222	0x3d94059f	0.07227635
223	0xbe5e4446	-0.21705732
224	0xbe50c1e0	-0.20386457
225	0xbd043fb7	-0.032287326
226	0x3c2f6ad6	0.010706624
227	0xbd15111b	-0.036393266
228	0x3eab0e88	0.33409524
229	0xbd259db1	-0.04043359
230	0x3e142284	0.14466292
231	0xbe42820f	-0.18994926
232	0xbbc20905	-0.0059214854
233	0x3f743e02	0.95407116
234	0x3e33c604	0.17556006
235	0xbeeb8f7e	-0.46007913
236	0xbdc63683	-0.09678366
237	0x3e213e03	0.15746312
238	0x3d89e3c3	0.06732895
239	0x3b2acd7b	0.0026062417
240	0x3e1474d8	0.14497697
241	0x3ec69a8e	0.3878979
242	0xbe50e1d9	-0.20398654
243	0x3dd43aff	0.10362815
244	0x3e8e7936	0.27826852
245	0x3db7e306	0.08978848
246	0xbcb6ee5a	-0.022330452
247	0xbdc5b695	-0.096539654
248	0xbea22149	-0.3166602
249	0xbdc102b0	-0.09424341
250	0x3e6b783c	0.22995085
251	0x3dd95d08	0.106134474
252	0xbdf9ebf6	-0.12203209
253	0x3e9c1cbb	0.3049067
254	0xbd57d6cd	-0.052695084
255	0x3cdfb2c4	0.027306922

actor.l3.bias f4 [8]
0	0x3bdec285	0.006798091
1	0x3d9571de	0.07297109
2	0xbe76aef6	-0.2409018
3	0x3c8510a1	0.01624328
4	0x3d6444f0	0.055729806
5	0x3dcd1fbe	0.1001582
6	0x3db7411f	0.08947968
7	0xbdd04ad1	-0.1017052
