DDPG/models/pruning/DDPG-HumanoidStandup-0.35-l1.onnx (onnx, 373671 bytes, 6 tensors)

actor.l1.weight f4 [166, 376]
00000000: ba8a 1cbc 50af 123e 8d79 2ebd 84a9 5fbd
00000010: 1a1b 66bb 93bd db3d c97e 1abd 1a06 d8bd
00000020: 8485 4dbd 4a76 96bb c288 6cbc 5ac2 82bd
00000030: 1ec3 0d3d b6ff c83d 72d1 96bd b4ab f63c
00000040: bb82 943d 89b6 ef3c 2dbf e93a 19b3 b3bd
00000050: 96a5 ef3d 06a2 79bd 5e58 4abd 819c b4bc
00000060: 79ef 0c3d ee1e 1ebb 7d47 80bd 8175 8a3c
00000070: 475c f13c ccf7 76bc bc4b 62bd 61c1 babc
00000080: f9ae d5bc 05e9 88bc 13a8 df3d e721 0e3d
00000090: 6596 84bd 6d07 fd3c dfcf 0b3e d516 e9bd
000000a0: 4ffb dcbc 210e 28bc 3c4c a1bd aff5 1c3e
000000b0: bf86 f23c 81b8 2f3d 1d63 52bd 1e63 e53c
000000c0: 1f12 9fbc ef72 443d 4998 94ba aca1 0a3d
000000d0: c2a2 81bd 5862 823c c976 48bc c16a b43d
000000e0: bb15 ac3d 0457 febc d8e7 a53d 365c 80bc
000000f0: f168 92bc ddc1 563c e61a 21bd 8229 b8bc
00000100: d976 b1bc 5c7b a0bd 305a b53d 9cf8 6a3b
00000110: b34b a2bb 2f4e 8bbd 89c2 633c c180 8ebd
00000120: c97d 3a3d 9e14 19bd 37c1 beba dfc3 d93d
00000130: 5992 f53d 8e12 133d 28f7 423c 37e1 ddba
00000140: 08d5 8bbd 7b3b cebc 3561 173c 0867 a8bd
00000150: e3b8 d1bd 024c a93d 4311 173c 1aa3 1a3d
00000160: 4b0d 6b3b 1907 cdbd 8512 83bc 1fff 903d
00000170: c63c bd3b a627 b93d 4635 253d 75a5 1d3d
00000180: 9bed 623d 2b68 b83d 1fdb 233d 0782 213c
00000190: 9f1b 483c 98cb 0f3d e3d9 c9bc 0c66 833d
000001a0: c5da a03c 1904 be3d 568c 61bc bdce 13bd
000001b0: 0430 05be e698 c0bc e8bf 18bc df0b 5f3d
000001c0: 4c09 cd3d 62d5 f5bb 4e0b 7d3d 99ca 4e3c
000001d0: d0bd 663c d038 38bd bf93 9bbc 6632 a83c
000001e0: 7845 55bd 1b1a 013e cbf9 dabb e066 033d
000001f0: 4903 a93b d0f4 663c 5721 193d 3b93 d4bc
00000200: 55a9 4abd 3d5c dabc fc05 1abd aba4 593c
00000210: a8aa 8bbd b61a 3d3c 59b7 8b3c d568 babd
00000220: 0721 cabb 163f 943d e59d 9bbc 837c 84bc
00000230: 3fe4 983d f35c ba3d 8e39 e93d d806 97bd
00000240: fada 803d 543b b53c d4e1 d4bc 339a 913d
00000250: 5d10 cdbd 3eab 0cbe a2b8 913d 88bc 6dbd
00000260: 0ec2 1e3e fbea 10bc 6e95 a339 47e2 be3d
00000270: cb9f 9f3c 3980 ab3c 2235 293c 91d4 203d
00000280: 08d7 afbd fd24 663b 078a 84bd b1ad 6d3d
00000290: 80f0 d73d 8070 a03d eeaf bd3d da7a ef3d
000002a0: b55e 3f3d 002e 8cbd 921a 913d 3438 d23c
000002b0: 085f e73c ca35 6fbd 7bc2 82bd 87d9 e83d
000002c0: eca0 50bc 8919 81bd efa3 823d 443f b6ba
000002d0: cdb4 01bd 5e5e 9b3d 9f33 ebbc bd39 1e3c
000002e0: 05d2 02bc ea49 6c3d 213d 803c dd14 cebb
000002f0: dc29 1ebc e1ae c53d 25d4 5d3b 84d8 483b
00000300: c1e5 b7bc 5121 a03d 596e 9f3c 81dd 913c
00000310: 3e44 d9bc 6734 053c f4ff 1fbd 40ac 453d
00000320: 3da7 943d 53d4 28bc 0cf2 723d fa2f c3bd
00000330: f965 93bd ae01 b73c d1cf 7dbc c570 66bd
00000340: 7784 55bd 187e 273c 598f ce3d 52c7 01bd
00000350: fe2f ff3c 03d6 9ebc d360 44bd b68f 193e
00000360: afef 07bd 303b 9bbc 9ffd 203d 77fc a23c
00000370: 9181 153b 1093 fd3d 43fe 293d 64b1 92bc
00000380: 80f8 8d3c e4e2 123c ac51 463b 63f0 0fbd
00000390: ac1f bdbc efe4 e5bc b8dd 04bd 07e4 50bb
000003a0: ea0a 653d e976 113d cb7b b1bc ef79 9c3d
000003b0: 1992 72bc 799c 853d 021b 6cbd edde babc
000003c0: eee0 c23d 710c c73d 81b1 943c 3bdd a5bd
000003d0: dfba c2bc 83fb 70bd f603 303d dd91 15bb
000003e0: e114 b83c e9b7 0fbd 28cc 3a3d 91b5 c6bc
000003f0: 9430 f7bb 2e4b 5abd bd5d 953c 09bb 4fbd
-0.009554559 0.14324689 -0.04259639 -0.054605022 -0.0035111369 0.10729518 -0.037718568 -0.10548039
-0.05017616 -0.004591738 -0.0144369025 -0.06384726 0.034609906 0.09814398 -0.07364167 0.030111171
0.07251497 0.029261844 0.0017833464 -0.087743945 0.11701505 -0.060945533 -0.04940068 -0.022047283
0.034408066 -0.0024127322 -0.06263635 0.016901733 0.029462947 -0.015073728 -0.055248007 -0.022797288
-0.02608441 -0.016712675 0.109207295 0.0347003 -0.06473998 0.03088733 0.13653515 -0.11381308
-0.026975302 -0.010257275 -0.07875869 0.15328096 0.029605268 0.042900566 -0.051364053 0.028001364
-0.01941782 0.04796117 -0.0011336888 0.03384559 -0.06329872 0.015916035 -0.012235352 0.08809424
0.08402582 -0.031047352 0.08100861 -0.01566897 -0.017872306 0.013107744 -0.039332293 -0.02248073
-0.021663116 -0.07836029 0.088550925 0.003585375 -0.0049528717 -0.06802022 0.013901361 -0.069581516
0.045530114 -0.037373178 -0.0014553432 0.106330626 0.11990804 0.035906367 0.011899747 -0.0016928081
-0.06827742 -0.025174847 0.009239485 -0.08222777 -0.102403425 0.082664505 0.009220424 0.037753202
0.0035866078 -0.100111194 -0.016000042 0.070799105 0.005775067 0.090407655 0.04033401 0.03848787
0.05540238 0.090042435 0.040003892 0.009857661 0.012213617 0.03510627 -0.02464003 0.06415948
0.019635567 0.09278125 -0.013766369 -0.036085833 -0.13006598 -0.023510408 -0.009323098 0.05445468
0.10011539 -0.007502244 0.06177836 0.012621545 0.014083341 -0.044976056 -0.01899135 0.020531844
-0.052068204 0.12607615 -0.0066826097 0.03208053 0.0051578623 0.014096454 0.03738531 -0.025949111
-0.049477894 -0.02665531 -0.037603363 0.013283889 -0.068196595 0.011542013 0.0170552 -0.091020264
-0.006168488 0.07238595 -0.018996188 -0.016172653 0.074654095 0.0909976 0.11387931 -0.07374352
0.062917665 0.022123016 -0.02598659 0.07109489 -0.10012887 -0.13737199 0.07115294 -0.058041126
0.15503713 -0.008845086 0.00031201117 0.09320503 0.019485375 0.020935165 0.010327609 0.03926522
-0.08585936 0.0035117262 -0.06471639 0.058026973 0.105439186 0.07833958 0.092620715 0.11693354
0.04672118 -0.06844711 0.07085146 0.025661565 0.028243557 -0.058400907 -0.063847505 0.11369615
-0.012733679 -0.063036986 0.06378924 -0.0013904353 -0.031666566 0.075863585 -0.028711138 0.009657321
-0.007984643 0.057687677 0.015654149 -0.006289108 -0.009653535 0.09652496 0.0033848372 0.0030646631
-0.022448422 0.078188546 0.019461798 0.017805817 -0.026521798 0.0081301695 -0.039062455 0.048259974
0.07258461 -0.010304528 0.059312865 -0.09530635 -0.07197184 0.022339668 -0.015491442 -0.05625989
-0.05212828 0.010222934 0.10085935 -0.031684227 0.031150814 -0.019389158 -0.0479439 0.14996228
-0.033187564 -0.018949121 0.039304372 0.019895775 0.0022812823 0.123815656 0.04150225 -0.017906852
0.017330408 0.008965228 0.0030261083 -0.03514136 -0.023086391 -0.028063266 -0.03243801 -0.0031874196
0.05591861 0.035513792 -0.021665474 0.076404445 -0.01480534 0.065239854 -0.057642944 -0.022811377
0.09515558 0.0971917 0.018151047 -0.08098837 -0.023770748 -0.05883361 0.042972527 -0.0022822537
0.022470893 -0.0350875 0.045604855 -0.0242565 -0.0075436328 -0.053294353 0.018233174 -0.05071548

actor.l1.bias f4 [166]
00000000: 8065 ee3b b3d4 433d 010e 943d 8a36 9d3b
00000010: 8edb 923b 4fcf 58bc 6dbe b13c b9dc 00bb
00000020: 6be8 3fbd 5e8e a0bb 4a31 5fbd 8632 d8bc
00000030: d6cc b43c a8fd 05bd 2b6d 18bc be61 2c3d
00000040: cd63 9abc 24b3 55bc 0cc8 b9bc ebf6 5e3b
00000050: b411 8e3d 1c87 3c3d 7268 c03c 4b6f 2d3d
00000060: f515 9c3a a065 513c eac9 2bbb 5d18 64bd
00000070: 4073 c63c bdad cbbc 1167 81bc 517a 523c
00000080: 237f 8b3c 711c b6ba bd94 043d e3c2 5f3b
00000090: da55 893d 24bb 4b3c ebbb 8bbb 234b 963d
000000a0: d2bb 09bd ca85 2abd 810a 263c d4e6 3f3d
000000b0: f8a3 3e3c b706 ed3c d4b2 1f3d d175 233d
000000c0: dc8a 5c3b a3aa 84bc 4acb 023c aaf2 553d
000000d0: d557 81bb 6657 b03c 8fa3 ad3b 117e 2a3d
000000e0: 0fca e13c 1708 ab3c a581 e73c 41fa 2ebd
000000f0: 5d45 31bd 6883 193d 9f1d e73c 27a7 093c
00000100: aae9 3abb 8e06 11bd 6266 063c a74f f0bb
00000110: a40d 493c 9b30 903c 3607 483d d3bd 363c
00000120: 2a12 1a3d 158f 7fbd 6572 1fbc 054a cfbc
00000130: e770 823d 7078 74bc 13e4 7f3d 2d2c 86bb
00000140: 4d64 4bbb 5607 b13b 7fbd 40bc 2661 6dbc
00000150: 3a9d 243d c4f7 06bc 2e79 9ebb b56d bd3c
00000160: c8ae 3d3d 23ef 07bc 4401 1fbd b5f5 1c3d
00000170: 24d7 8d39 7312 093c 7e30 203d 5774 96bc
00000180: d521 5a3c 8ad7 1a3d ba8b b53c 759e d73b
00000190: 754f 29bd effc 81bc 3eae 3c3c 7235 973d
000001a0: 8114 fbbc 4a41 8dbc 6cac 353d 4a3e 913d
000001b0: 8b4b 04bd b1aa 693a 7d05 5d3c 9d91 393d
000001c0: a847 893d ca20 903d 9e22 c13c da2d 8dbc
000001d0: 509e 643d d086 283d 9409 823d 1d71 2d3d
000001e0: 105e 51bd d402 5abb 9949 873b 24a4 183c
000001f0: 4275 9d3c 52eb 733c 2a8f edbc 2dd9 a53d
00000200: 89b8 8cbd 0e84 c23c a070 fa3c 3f91 c93c
00000210: ae1c 28bc 2b3c c73c 32af 453b c8d1 253d
00000220: 36c8 1d3d a4e2 3fbd f445 81bd 9660 783d
00000230: 89d2 e93a 51fe 453c 7761 3ebd 165f 92bd
00000240: 92bb 143c 8c16 4c3d 40d4 6dbd 1d14 07bd
00000250: 20df 2fbd ff00 5b3d ae79 5dbc 54b3 533d
00000260: 8350 6fbc 28c0 dabc 8ec1 9c3b 2581 70bd
00000270: a78b 2ebd a2e7 8b3c c86d a13c ac10 3239
00000280: e5e8 2abd 8a6b 35bd 5441 e3bc ae08 92bd
00000290: 4188 95bc 74b9 043d
0.0072752833 0.047810268 0.072292335 0.0047977613 0.0044817394 -0.01323302 0.021697247 -0.001966281
-0.04685251 -0.004899784 -0.054490365 -0.026391279 0.02207033 -0.03271261 -0.009303371 0.0420854
-0.018846417 -0.013043199 -0.022678398 0.0034021686 0.0693697 0.046027288 0.023487303 0.042342465
0.0011908399 0.012780577 -0.002621288 -0.055687297 0.024224877 -0.024863118 -0.015796216 0.012846545
0.017028397 -0.0013893974 0.03236841 0.003414326 0.06705828 0.0124347545 -0.004264345 0.0733855
-0.033626385 -0.041631497 0.01013434 0.046850994 0.011635773 0.028933866 0.038988903 0.03990728
0.0033652103 -0.016194647 0.007983038 0.052233376 -0.003947238 0.02152605 0.0052990387 0.041624133
0.02756217 0.020877881 0.028260062 -0.04271913 -0.04327904 0.037478834 0.028212367 0.008401669
-0.0028520622 -0.03540664 0.008203121 -0.007333714 0.012271319 0.017601302 0.048835002 0.011153656
0.03761498 -0.062392313 -0.009731864 -0.02530385 0.06369191 -0.014921293 0.062473368 -0.0040946216
-0.0031035126 0.005402486 -0.011763929 -0.014488494 0.040189005 -0.008237783 -0.004836223 0.023123601
0.046309263 -0.008296761 -0.038819566 0.038320262 0.00027053908 0.008366215 0.039108746 -0.018366022
0.01331373 0.03780321 0.022161353 0.006580169 -0.04133554 -0.015867678 0.011516152 0.07383241
-0.030649425 -0.017243046 0.044353887 0.07091959 -0.032298606 0.00089136796 0.013490078 0.045304883
0.067031205 0.07037504 0.023576077 -0.017233778 0.05581504 0.041144192 0.06349483 0.0423442
-0.051115096 -0.0033265846 0.0041286466 0.009316478 0.019220952 0.014887648 -0.02899893 0.080980636
-0.06871135 0.02374461 0.030571282 0.024605392 -0.010260744 0.024320683 0.003016424 0.040483266
0.038521014 -0.046847 -0.063121706 0.060638987 0.0017839234 0.01208456 -0.04647967 -0.071470425
0.009077923 0.04982619 -0.058063745 -0.032978166 -0.042937398 0.053467747 -0.01351778 0.051684693
-0.014606598 -0.026702955 0.0047838157 -0.05871691 -0.04261365 0.017078225 0.019705668 0.00016981614
-0.04172601 -0.04429201 -0.027741112 -0.07130562 -0.018253447 0.032403424

actor.l2.weight f4 [166, 166]
00000000: 66b4 093e f46f b03d 6ce5 edbb 73b1 8a3a
00000010: c7f7 163d 9e36 1f3d 39d7 8d3d bce8 233c
00000020: 2063 14bd 9fe8 0f3d 8842 a33c 19ee 523d
00000030: f614 3ebd d9a0 eabd 7c70 7e3d 384f ccbc
00000040: f33f 2abc 780c 8f3c 4f4f 1f3e b00d 3ebc
00000050: cdbb 9c3c 71d2 983d 7975 24bd 95ad 393d
00000060: b2f2 003d fd37 a63b b827 ccbd 59ba b0bd
00000070: bd06 52bd be9e bd3c 08e5 c1bb d4a4 86bc
00000080: 929d b2bc 93dc 32bc 894f cfbc 887f 80bb
00000090: 904d 5cba 5fbc 103d 46f8 ae3d 3b8b 0f3d
000000a0: 0bc6 14be 5b56 e93b e560 8bbc 74e7 0abe
000000b0: 145e b23c bccd cb3c 0898 e73d 15d4 743c
000000c0: 9151 c5bd 9548 c2bd 21eb 5a3d fc97 90bc
000000d0: 0e13 93bb 9b72 21bd 5100 48bc 7728 febb
000000e0: 22e8 85bd 0cb9 583d c0c0 53bd 9dcb f1bd
000000f0: d46e 313d 1c05 b13c d62a 50bc 68a8 4c3d
00000100: 0172 f13d 5791 063e afbb aabd 0a32 883c
00000110: 3e08 773c 5e9f 8a3d a0e8 2bbd 690d fd3d
00000120: fd59 9bbd fceb 6b3c 5a54 cf3d acca 143c
00000130: 96f5 fbbc 8c45 e53c fe1e e93d 8675 c4bd
00000140: ed49 83bd f93a ecbc e3ae c7bd 648e 94bc
00000150: 3f47 8d3d 8a77 c33c 3eaf 4abd b6b5 8e3d
00000160: b73b a7bd 4643 633d 7cf3 343b 2fea 23be
00000170: 61ff bb3d 63e9 993d 6890 24bd e13f 8fbd
00000180: 277a 02bc 2ac7 233d 2e61 513c 8e75 413c
00000190: ed9c 7cbc 3503 a93d 5808 87bd 7239 4a3d
000001a0: 0510 7d3c d0e6 713d d067 98bd 16bb 88bd
000001b0: a374 85bd 0bf7 41bc dfa4 8fbc f0a7 10ba
000001c0: ac38 e2bc 0fc1 26bd a0b8 833d b868 69bd
000001d0: b082 493d 4d36 833d b7d8 64bd 30fb 81bd
000001e0: 5049 babd 8c3b 753d 92d5 82bd 78fa b4bd
000001f0: 7b50 cabc 8680 0bbd c24b 933d 0e60 9a3c
00000200: 5155 9a3d a03f 953d 8e31 5ebd c0af 663d
00000210: 98b6 1abc 6a09 34bd b50f 02bd 4b29 233d
00000220: 6d69 ad3d 6ee9 113d 89a0 2a3e 133e 7f3c
00000230: e047 d23c 6e4b 793b 562b 05bd 9b93 bc3d
00000240: c3d6 60bc 0a84 c13d 0576 6ebc 4028 f13c
00000250: 8e1e a83d 2ba7 e23c e299 03bd b936 923d
00000260: 13e3 c5bd 7d14 a0bd 8b59 0abe 7120 803b
00000270: 8eaa ad3b 42f9 f03d 6ef6 ccbc fb8f c2bc
00000280: 3a17 143c 83b2 a03d 447e e83d 300f 373d
00000290: 8286 c9bc 0f43 d1bc 13b7 953d 5b4c 0abe
000002a0: a76d 0ebd 60df b03b 6a7a 13bd 1289 61bd
000002b0: 02dd 99bd 7c77 ddbd 65da f8bd 2259 e2bb
000002c0: 173e cb3c be41 03be e386 28bd 81e2 34bc
000002d0: 50e4 2f3d e211 eebb 6745 35bd 07e6 c4bd
000002e0: 5391 45bd 2505 c13b 452c 543d 5989 c5bd
000002f0: 3e28 d3bd 1390 0ebd e039 62bc 442f 003d
00000300: bd28 a8bd 60ac 8dbc 705a 57bd 59f1 6a3c
00000310: 4d2a 2fbc 5f3d 52bc 7296 e63c 7303 4bbd
00000320: e380 9fbb 89c8 a7bd 178c 033b aba9 a63c
00000330: 24de f4bd 168e 30bd da82 b6bd ebc4 1e3d
00000340: 8396 22ba 8a95 18bc e14b 783d 0c41 2a3d
00000350: 0710 a73d 06f6 853d 0844 ef3d dd43 1abe
00000360: 3c9d 9a3a 206a 72bd 227c e0bd f382 f13c
00000370: 6de2 853c 93b8 53bd b039 52b9 5352 94bd
00000380: b0a4 b9bd 5c53 54bd 3674 2bbe 0701 46bc
00000390: f087 8dbd c53f 3f3c ae6e a03c 4878 e33c
000003a0: 2de4 70bc bfa9 0a3d 16cf 91bd 17bd d63d
000003b0: 41b2 ab3d 8ab6 8cbc bad4 32bd b910 26bb
000003c0: 71df aabc a441 1e3e cc9e 91bd b26b cf3d
000003d0: 8ed3 bdbc 8425 39bd 5b75 02bd 9e80 fb3d
000003e0: 9ea1 f3bc 48c0 493d ca23 b7bd 4ff9 4b3c
000003f0: 2a33 ddbd 07a5 133d d587 e13d 6659 b5bd
0.13447723 0.08615103 -0.0072600152 0.0010581448 0.036857393 0.038870446 0.06925816 0.010004219
-0.036227345 0.035133954 0.019929186 0.0514966 -0.04640671 -0.114564605 0.062118992 -0.024940118
-0.010391223 0.017462 0.15557598 -0.011599943 0.01913252 0.074620135 -0.040151093 0.045331556
0.031481452 0.0050725923 -0.09968513 -0.08629293 -0.051275957 0.023146983 -0.005917195 -0.016436018
-0.021803651 -0.010916847 -0.02530648 -0.003921453 -0.00084038917 0.035335895 0.08543448 0.03504489
-0.14528672 0.00712089 -0.017013976 -0.13564855 0.021773376 0.024878375 0.113082945 0.014943142
-0.09634698 -0.094865 0.053446893 -0.017650597 -0.0044883555 -0.039415937 -0.012207107 -0.0077562886
-0.065384164 0.05291085 -0.051697493 -0.11806414 0.043318585 0.021608882 -0.012705525 0.049965292
0.11789323 0.1314138 -0.08336579 0.016625423 0.015077649 0.06768678 -0.041969895 0.123560734
-0.07585523 0.014399525 0.10123511 0.009081524 -0.030756753 0.027987264 0.113828644 -0.09592728
-0.064105846 -0.028836714 -0.09750154 -0.018134303 0.06898355 0.023860712 -0.04948353 0.06968252
-0.081656866 0.05548408 0.0027610948 -0.16007303 0.09179569 0.07515218 -0.04017678 -0.06994606
-0.007963694 0.03998486 0.012779517 0.011807812 -0.015418273 0.08252565 -0.06593388 0.04937119
0.015445714 0.05905801 -0.07441676 -0.06676309 -0.06516387 -0.011838685 -0.017534671 -0.00055181887
-0.027614914 -0.04071146 0.06431699 -0.056984633 0.0491969 0.064068414 -0.055870738 -0.06346738
-0.090960145 0.05987124 -0.063883916 -0.088368356 -0.02469658 -0.034058116 0.07192184 0.01884463
0.07535804 0.07287526 -0.054246478 0.056319952 -0.009442948 -0.04395429 -0.03175326 0.039834302
0.08467374 0.035623007 0.16662802 0.0155787645 0.025669038 0.0038039344 -0.03251203 0.09207841
-0.013723078 0.094490126 -0.014554505 0.029438138 0.08208953 0.027667603 -0.032129176 0.07139344
-0.096624516 -0.07816408 -0.1351072 0.0039101173 0.0052998727 0.11766292 -0.02501985 -0.023750296
0.009038741 0.078465484 0.11352208 0.04469222 -0.024600271 -0.025544671 0.07310309 -0.1350569
-0.03477254 0.005397722 -0.036005415 -0.05506236 -0.07512857 -0.108138055 -0.121510305 -0.006907598
0.02480988 -0.12818047 -0.041144263 -0.011040331 0.042942345 -0.0072653154 -0.04425564 -0.09614187
-0.048234295 0.005890506 0.05180003 -0.096453376 -0.1031041 -0.03480537 -0.013807744 0.031295076
-0.08210895 -0.017294109 -0.052576482 0.014339768 -0.010691238 -0.012832015 0.02814791 -0.049563836
-0.0048676594 -0.08192546 0.0020072514 0.020344576 -0.119564325 -0.043104254 -0.08911677 0.038762014
-0.00062022376 -0.009312997 0.06061924 0.04156594 0.08157354 0.06541066 0.11682898 -0.1506495
0.0011796127 -0.05918324 -0.109611765 0.029481387 0.01634332 -0.051689696 -0.00020048651 -0.072422646
-0.09064615 -0.05183731 -0.1674355 -0.012085206 -0.06910694 0.011672919 0.019584026 0.027767316
-0.014702839 0.03385329 -0.07119577 0.10485285 0.083836086 -0.017176885 -0.043659903 -0.0025339557
-0.020858498 0.15454727 -0.07110366 0.10127963 -0.023172166 -0.045201793 -0.0318502 0.12280391
-0.029740151 0.04925564 -0.08942373 0.0124495765 -0.108007744 0.036046054 0.11012236 -0.08854942

actor.l2.bias f4 [166]
00000000: b711 dc3c 3be0 1bbd 25bd 2ebd a180 8d3d
00000010: 68c5 e43b d7f4 2bbd ad47 d63c 6338 f0bc
00000020: 19f7 ea3c a049 b73c abd6 34bd 9d62 a83c
00000030: 2839 53bc ab10 80bd de0a d2bc e5a6 553c
00000040: 9f93 f33c 7cd1 b13c 23d2 cd3d a8ea 1fbd
00000050: 90c7 0c3d 42a4 183d d1bc 9ebd a3e9 1bbb
00000060: 927e 6cbd 3086 463d 9663 973d 3d45 693d
00000070: 7f70 403d 8cd0 e2bc 53b1 f83b f974 03bd
00000080: 5d69 08bd cf97 cf3c 77d0 693c de2c 343d
00000090: 2ec0 5e3c a285 24bb 764f 0abd 3a3a 713c
000000a0: 9ef4 483b 4046 b93b 4b4e f5bc 6989 1b3d
000000b0: c41f 5e3d 9efb 6c3d 8b7d 9d3d 3a3b 773d
000000c0: e1fa 89bc 5e94 29bd fc6d 2a3d bbfc db3c
000000d0: 9841 68bd 2ae8 31bd 7f06 143d f130 443c
000000e0: 6ddd 273c 4913 84bc c82b 47ba b48e b8b9
000000f0: 47a7 9a3d 4e99 23bd fc67 663d 2722 8b3c
00000100: 148f abbc 75c8 203d 02e3 38bb e519 a33b
00000110: c28a 6e3d e562 9cbd 2e1e 66bd fecf 6abd
00000120: dd61 b63c 0072 72bd 9d5e b6bc 30c4 613c
00000130: ec44 f1bc 0941 803d f8f9 c4ba e058 883c
00000140: 9614 1c3d ae9c 4e3c 0277 05bd 36dc ec3a
00000150: 1512 713d b02d 6cbb 04ab 45bd 99e9 d23c
00000160: ae2d 83bc ea02 b63c 43b1 2dbd 5faf 6abd
00000170: e3ec 3e3c cda3 183c 28ae 6d3c f05b 84bc
00000180: abcb ad3d 321e 24bc 1d6e 43bc f805 f3bb
00000190: 70a3 ad3d 1fa3 69bd 4a5a 0d3d e8bf 333c
000001a0: b940 493d 4f85 293d 24cc 723c 4187 903c
000001b0: 22ab 303c 30e1 43bd 37ac 703d d816 393d
000001c0: 5a93 98bd 218f 52bb 0fe3 cfbc f8fb 71bd
000001d0: 6463 debc e4bf 44bd bb93 09bd 0f81 b63b
000001e0: b316 c63b cd97 8f3b 2648 69bd a843 e53c
000001f0: 6af8 cf3b ae82 5cbd 573c c0bc 4ed7 1a3d
00000200: d608 323d 858f 87bc e0c2 5a3d 3952 bfbb
00000210: 3d53 0f3d 2e71 503c 5a2e 993b 0a0b b93c
00000220: e742 5c3d 0ad7 a83b 7b6c 7e3a bb69 04bd
00000230: 6855 a8bc 3366 2fbc d2c4 533c dd85 7dbd
00000240: cf25 463d 67c4 a43c cd34 5fbd c578 29bc
00000250: c5ee 683d 047c 94bd 2929 693d d113 6dbd
00000260: d1b6 e73b 318b 72bd b86c 743d 5797 6e3b
00000270: 9c02 583d f0ce 27bd 1261 0d3d 706f ea3d
00000280: c087 8c3c 072f a5bc c887 4e3d 0e39 c9bc
00000290: 24c6 513d 33a2 223c
0.026863916 -0.03805564 -0.04266085 0.069093 0.0069815405 -0.041981544 0.026157225 -0.029323762
0.028682278 0.022373974 -0.044150036 0.020554835 -0.012892045 -0.06253179 -0.025639948 0.013040279
0.029733477 0.021706335 0.10049846 -0.039042145 0.034370005 0.037266023 -0.077508576 -0.0023790381
-0.057737894 0.048467815 0.073920414 0.056950796 0.046982285 -0.027687334 0.007589498 -0.032093976
-0.033303607 0.025340943 0.014270893 0.0439881 0.013595624 -0.0025104065 -0.033767186 0.014723355
0.0030663381 0.0056541264 -0.02994456 0.03797284 0.054229513 0.05785715 0.07689961 0.060359217
-0.016843261 -0.04140126 0.041608796 0.02685391 -0.05670318 -0.0434343 0.036139008 0.011974559
0.010245663 -0.016122477 -0.00075977715 -0.00035201537 0.07551437 -0.039941125 0.05625151 0.016984059
-0.020942248 0.03925367 -0.002821148 0.004977452 0.0582378 -0.0763605 -0.056181125 -0.057327263
0.022263462 -0.05919075 -0.022261912 0.013779685 -0.02945181 0.062624045 -0.001502811 0.016643941
0.03810557 0.012610598 -0.032584198 0.0018070999 0.058855135 -0.0036037974 -0.048258796 0.025746154
-0.016012993 0.022218186 -0.042405378 -0.057296153 0.011653158 0.009316397 0.014506854 -0.01615712
0.08486112 -0.010016965 -0.0119281085 -0.007416483 0.08478439 -0.05704033 0.034509934 0.010971047
0.04913399 0.0413869 0.014819179 0.01764262 0.010782989 -0.047822177 0.058757987 0.0451878
-0.0744998 -0.0032128769 -0.025376825 -0.059078187 -0.027147003 -0.048034564 -0.033588152 0.005569584
0.0060451864 0.0043821097 -0.05695357 0.027986363 0.006346752 -0.053835563 -0.023466272 0.037802987
0.043465458 -0.016547928 0.053408504 -0.005838659 0.03499149 0.012722297 0.004674715 0.022588272
0.05377474 0.005152588 0.0009705496 -0.032327395 -0.020548537 -0.010705519 0.012925344 -0.06189524
0.0483759 0.020113183 -0.054493714 -0.010343735 0.056868333 -0.072502166 0.05692402 -0.057880227
0.007071354 -0.059214775 0.059673995 0.0036406124 0.052736863 -0.040968835 0.0345164 0.11447036
0.017154574 -0.020164026 0.05042246 -0.024563339 0.051214352 0.009926367

actor.l3.weight f4 [17, 166]
00000000: 3da6 d9bc d3bf debc aa83 55bd f00f 2c3d
00000010: b659 95bc 2bee 433d b4d2 e63d ecf9 f43b
00000020: f7a5 f23d ef73 9ebc 56d8 d23d 8068 a03d
00000030: 1f0e 6a3c 0ac1 083d 0e45 e13c f74d 6fbb
00000040: 3807 11bb adae ef3d f772 793c af3e 19be
00000050: 070c e0bd 0edf 9abd ee85 813c 1229 7a3d
00000060: bd14 21bc fd2d 9e3d 3c31 833d b694 593d
00000070: b39b b83d a315 13be 84b7 e1bd 1cde ae3d
00000080: 0c27 df3c 1647 a73c 8d8a 70bd b287 463d
00000090: e1f5 bbbd a76b 783e c83a debc a3e8 a4bd
000000a0: 331d 1abc 0449 d6bc f4b0 633c 6d8c 2e3c
000000b0: 3bce 15bd 229a 34bd cb5a 35bd 8102 dfbd
000000c0: f667 a5bd 6030 22be bd5c fe3c 0fa8 ba3c
000000d0: 4554 523e e9ba 33be c9fc bc3d 1e04 68bd
000000e0: 1f2d 9f3a 98d5 abbb 1d16 1b3e d538 dd3c
000000f0: 2d6d 4a3c 1093 d7bd e06a c9bc d5dd 9bbd
00000100: 0330 5c3d bb0c e7bc e147 f8bd 6253 a3bd
00000110: 3ebd 693d 97d7 153d 385d 0bbe 6dfd bbbd
00000120: 6709 4bbb 17d9 b5bc 137a f7bc fd3e 5cbd
00000130: f0dc c0bc f50f 6a3d 33bb bb3d 32dc c2bd
00000140: a9be 6fbb b890 e13d b352 063d f115 2abd
00000150: 42b8 de3c 3e79 10be 56f1 b23d 9af2 2fbc
00000160: 2568 383e 9f27 1a3e 6e71 23be 970b c73d
00000170: 504b 76bd acf4 1abd 9981 b93d 77c0 d13c
00000180: ad4c 893d 4d24 2f3e 11cb 8fbd 6e85 003c
00000190: 2511 5bbd 87b6 a63d d5a0 3abd c9fe 2dbe
000001a0: 0d8e 8d3d ab3a c93d 361a 0e3c 99d4 153c
000001b0: 07ac ee3c 7b68 efbd 4c21 9ebc 88c1 40bc
000001c0: 9c69 a03d 03aa 63bd 15b6 133e 266d aebd
000001d0: 678b d23d 3a01 93bd fc03 b0bd 3c63 c73c
000001e0: 1521 3b3d 762c d2bc 9d26 7f3d 9b10 aebd
000001f0: 3d3b 99bd ec93 c4bd 1085 57bd a443 f13c
00000200: ec52 6a3c 325f b23d c154 393e 1b28 3c3e
00000210: 5621 40bc bac9 cd3d 04e4 83bd dd98 383d
00000220: 33db e1bd 196d 47bd cca5 57bd 4509 943b
00000230: bc69 193e fa1a 2fbd 7a27 e3bc f9af 9dbb
00000240: 1d38 a63c 694c bbbd dad6 013e ccea 06bd
00000250: a612 033d 28da eebd 2d3c 3a3e 4352 4bbd
00000260: 16a8 37be 8816 103e 9742 02bd b0bd ac3d
00000270: b73b 103d 0d35 29bc 03cc 8c3d d969 a03c
00000280: f153 51bd a095 013d 107a 333d bb02 b83d
00000290: 45e9 9cbd ffa1 5fbd c54e c6bb c5b0 353d
000002a0: b31a eeb9 621b 40bd c910 1f3e 95fb 24bd
000002b0: 99f3 683d d05b 66bd 9188 aa3c 01b1 9dbd
000002c0: 6e48 153d 54af 1ebe c2e2 cd3c 059f ed3d
000002d0: ec32 37be be11 023d 6830 113e 0325 43be
000002e0: 4d3f 073e d95d f1bd 3ca3 d4bc 7f51 d2bd
000002f0: 4735 e93d d9e9 de3c 8c8b 37bc 6689 c1bd
00000300: 5fd4 77bd 2d3f 5cbe efb9 c23d ec5f 03be
00000310: 9a54 ebbd 6aab 043e a3d7 22bc aeb5 333d
00000320: 5c73 bbbd f043 4cbe ff72 8b3c 42a4 a13d
00000330: 1138 6fbd d632 0fbe e3ce d0bd e6c7 f43c
00000340: 4133 05be 6a8c 013d 20b6 e83d de7f c43c
00000350: a3f6 32bd c694 a73c 33b5 48bd ebd3 04bd
00000360: 75dd 653c 241a a93d eefd 22bc 6e45 bbbb
00000370: 1587 d4bc e27b 79bd 8d66 013d 3375 f33d
00000380: 3c42 d0bd a1ac f13d 0a93 31be dc48 33bd
00000390: 955e ab3c 644d dabc dba7 033e d72d 103d
000003a0: 35fa 15be cdff 113d 5338 66bc 0e41 78be
000003b0: 6095 86bd 46c9 79bc 3d1e 6ebe 7d65 0fbe
000003c0: b425 41bd 5ff0 34be f709 503d c4f1 aabb
000003d0: af0b 08bd b615 59bd 1c07 ac3d 0ef9 873d
000003e0: 9d9f 8ebd 123e 623d ef89 9d3d bc24 24bd
000003f0: bed5 b1bc 53f8 1c3d 2bd0 963d bcf4 f93d
-0.026568526 -0.027191078 -0.052127518 0.042007387 -0.018231254 0.047834557 0.11270657 0.007476082
0.118480615 -0.01934239 0.10295169 0.07832432 0.014285593 0.03338722 0.027498748 -0.0036514977
-0.0022129547 0.11703239 0.015225164 -0.14965318 -0.10939794 -0.075620756 0.015810933 0.061074324
-0.009831605 0.07723615 0.06405875 0.053120337 0.09014072 -0.14363723 -0.11021331 0.08538458
0.027240299 0.020419639 -0.058725882 0.048469253 -0.09177757 0.24259816 -0.027127638 -0.080521844
-0.009406376 -0.026157863 0.013897169 0.010653597 -0.03657363 -0.044092305 -0.04427604 -0.108891495
-0.080764696 -0.15838766 0.03105008 0.022785215 0.20539959 -0.1755177 0.092279024 -0.05664455
0.0012144184 -0.005243968 0.15145154 0.027004639 0.012355131 -0.10526097 -0.024587095 -0.076106705
0.053756725 -0.028204313 -0.12123085 -0.079748884 0.05706524 0.036582556 -0.13609779 -0.091791965
-0.0030980946 -0.022198243 -0.030209577 -0.053771008 -0.023542851 0.057144124 0.09166565 -0.09514655
-0.0036582148 0.11013931 0.032793712 -0.04152483 0.02718747 -0.1410875 0.087374374 -0.010738993
0.18008478 0.15054177 -0.15961239 0.097190075 -0.060130417 -0.037830994 0.09057922 0.02560447
0.06704078 0.17103691 -0.07021154 0.007844312 -0.053483147 0.08140283 -0.045563538 -0.16991724
0.0691186 0.09825643 0.008673241 0.0091449255 0.029134763 -0.1168985 -0.019302987 -0.011764891
0.078326434 -0.055582058 0.14424928 -0.08516912 0.10280495 -0.07177968 -0.0859451 0.02433931
0.045685846 -0.025655966 0.062292684 -0.08499261 -0.07482002 -0.09598526 -0.052617133 0.029451199
0.014301997 0.08709563 0.18098737 0.18374674 -0.011726698 0.10048242 -0.06439975 0.045067657
-0.11028137 -0.048688028 -0.05264835 0.0045177066 0.1498174 -0.042750336 -0.027728785 -0.0048122373
0.020290429 -0.091454335 0.12679616 -0.032938763 0.032000206 -0.11662704 0.18187018 -0.049638998
-0.17935213 0.14071095 -0.031801786 0.084346175 0.0352132 -0.01032759 0.0687485 0.019581722
-0.051105443 0.031636834 0.04381758 0.08984896 -0.0766168 -0.05459785 -0.0060518705 0.044358034
-0.0004541479 -0.046901114 0.15533747 -0.04027899 0.056872938 -0.056239903 0.020817073 -0.076997764
0.036446027 -0.1549657 0.02513254 0.11602596 -0.17890519 0.0317552 0.14178622 -0.19057088
0.13207741 -0.11785478 -0.025956742 -0.102694504 0.11387115 0.027211117 -0.011202704 -0.09450035
-0.060505267 -0.21508475 0.0950812 -0.1282956 -0.11490746 0.12956014 -0.009939107 0.043874435
-0.091528624 -0.19947791 0.017022608 0.07892658 -0.05840308 -0.13984236 -0.101957105 0.029880475
-0.13007833 0.03162805 0.113628626 0.023986753 -0.043692242 0.020456683 -0.04900093 -0.032428663
0.01402985 0.08256939 -0.009948237 -0.005715064 -0.025943318 -0.06090916 0.03159194 0.11887588
-0.10168883 0.118005045 -0.17341247 -0.043770656 0.020919124 -0.02664823 0.12857 0.035199966
-0.14646228 0.03564434 -0.014051515 -0.24243566 -0.0657146 -0.015245741 -0.23253722 -0.14003558
-0.047155097 -0.1766982 0.050790753 -0.005216809 -0.033214267 -0.05299922 0.083997935 0.066393
-0.069640376 0.055234976 0.07692324 -0.040074095 -0.021708366 0.038322758 0.07363924 0.122048825

actor.l3.bias f4 [17]
00000000: de2f 3e3b 8254 c4bd 059b 06bd 9685 503d
00000010: c508 393d cf21 143b 94a1 0d3d d9d3 3abd
00000020: cac0 a23b 8a2e b2bb 751a 7b3d 9356 d6ba
00000030: 2764 6dbd 0cda ebbc c70d 5ebc a385 ad3b
00000040: 1c88 84bd
0.002902023 -0.09586431 -0.032862682 0.050908647 0.04517438 0.002260316 0.03457792 -0.04561219
0.00496683 -0.005437677 0.06130453 -0.0016352705 -0.05795684 -0.028790496 -0.013553089 0.0052954718
-0.06471273
