DDPG/models/pruning/DDPG-Hopper-0.25-l2.onnx (onnx, 160851 bytes, 6 tensors)

actor.l1.weight f4 [192, 11]
00000000: f9b4 a7be ad0d f33f 1862 35bf 8340 85bf
00000010: 6c62 963e 44c5 59be c207 0f3f ca8f cf3d
00000020: 94d7 6fbe 0b59 05be 3785 5d3b 8bf4 863d
00000030: cd03 18c0 ed90 dd3f 8092 fe3f cbd0 75bd
00000040: 60da b73c 42c0 383d 89a8 68be 2dd5 4e3e
00000050: d5c6 a93d 6a90 debd 194a e33c 980c 4dc0
00000060: 162a 033f c0f6 113e afe2 003d b872 74be
00000070: 8e5e b53e 4f66 ebbe 051f 8a3e cea6 a23e
00000080: 7eed 1f3e 91de 5c3d 95fc dfbf a62d 5140
00000090: 9960 5e3f 6cae 19bf 1d8a a3be 00c0 a93e
000000a0: ff61 55bf 0b2a 4c3f dc4c d33e ab81 0a3d
000000b0: 1d88 03bf ec1f 42bf 02c5 b53f 4875 e73e
000000c0: 89ec 143e 911b ef3e ee58 80be 742a 36be
000000d0: b472 693d e3f6 9abc 51b3 c6bc fae0 3c3e
000000e0: 9548 da3f 6e5a 91bc 4724 c63e fbed 22bf
000000f0: 7e0d 8dbf 80e4 02bf bead 1e3f 54f0 7fbe
00000100: 7f7e 84bd b5d8 623d 28cd 1abe 4b14 d03f
00000110: 37da 973f dd01 833e 03ee f3bf 5454 0dbf
00000120: c748 48bf 1fc7 e73e 1d2d 94be b333 08be
00000130: 1cd5 0abd 7486 13bf 1e0d 4b40 9ff4 983d
00000140: 3f34 e6be dc51 a2bd 2026 c33d 2b69 88be
00000150: c47a 323f 8da5 dabe 0f59 9abe 5dcb baba
00000160: 5758 ce3e 0030 333f 5903 dd40 b45d 893f
00000170: 141c 923e fcf7 873d 8300 96bd 21b6 423d
00000180: 91c1 dc3d 2b47 30bd bf9f b13c fea9 92bd
00000190: db65 13c0 4f9a a9bc 4937 d6be e535 fbbe
000001a0: 5853 63be df3b 47be cf1c 38be a879 6f3e
000001b0: e82e 6b3e 6f0f 0f3e abb6 783e 6cc8 c53f
000001c0: bb79 8d3f 0cc7 373f 1ecb 693f cf10 8dbe
000001d0: b5e8 2bbe 68e0 27bf 0d1b 163f 0560 9f3e
000001e0: c97e 12bd 96b0 a63e 2cda 14c0 b567 4f3f
000001f0: aa51 be3e de6a 0d3f 6f99 373e 3236 fa3e
00000200: a0ad 73be ae64 4e3e 4964 a73d a33d b1bd
00000210: 5461 0bbf 0de5 a73e 3c4e acbf 0cc0 4abe
00000220: 9507 12bf 5dd3 64bc 3b33 f43e 736f 8f3e
00000230: 40c7 94be 1ec9 7abd 3a3d 773c 89c1 bdbe
00000240: a594 d23f 4044 e43e 52e9 cc3f babe 31be
00000250: 16a5 57bd 485b 503f dd5a 173e ec2d 56bd
00000260: 942d cc3c 7f32 803e 3ad1 333e d692 863f
00000270: 9ddc 3bbe 6383 c33f ebfa 0e3f 5f45 3cbf
00000280: 4395 d93c 2b14 8bbe 88af 2e3e 4a2d 1c3d
00000290: ade4 4c3e 6d8a 0abe 2113 eabf ccf7 d73f
000002a0: b817 a73e 7494 75be 0ba1 7dbe 8b32 e63d
000002b0: fc3f b2be 8d2e f33e 6993 fe3c e046 073e
000002c0: edc8 273e e2cf 89c0 862b 9a3e 560e 6b3d
000002d0: 3f47 163e a794 29be 5812 a73d a1bc 88be
000002e0: c8a9 1a3e 9a41 a43d 39f6 473d 6ff9 013f
000002f0: cf7a b4bf d767 7fbc f325 883f 924a c83e
00000300: 1e84 203e b047 ecba 3d24 993e b240 68be
00000310: 635e 0fbe cc02 c1bd 248f a13d d3d4 1240
00000320: f0cf 8e3f 2f3f e43e f16c 1abf 529f e1bd
00000330: 12f8 7e3c f54f 3bbe de13 afbd 8f84 89bd
00000340: 1f23 01bc 9c06 cf3b 3a77 9440 a356 5e3e
00000350: 2211 883f 8294 f6be db57 6c3d 59e1 213e
00000360: e61f 53be a25c d13e 4f5b 7c3e 9195 4ebd
00000370: 4f4c 37bf 1281 02bf 87c5 673f d04c 913f
00000380: e0f7 3b3f f9fb 1c3f 0ccf 80be f30c 8d3e
00000390: 0465 08be dd19 f3bd a329 0e3d aea0 c6be
000003a0: 5fe0 2240 6af7 a1bf 6833 03bf 30cb f13d
000003b0: c50d f73e ad44 00be 3767 723c bc69 41bd
000003c0: f695 3cbd 2519 993c 8b1b 7ebe a9a2 9b3f
000003d0: cd49 153f 965c c63e a558 45be fbe7 56bf
000003e0: 257d 1cbf 633c 3a3e b99c d1be d8b6 6fbe
000003f0: 11f4 033d fd46 07be 3852 4240 86aa 48be
-0.3275526 1.8988549 -0.70852804 -1.0410312 0.29371965 -0.21266657 0.5587121 0.101348475
-0.2342208 -0.13022248 0.0033801326 0.065896116 -2.375232 1.7309853 1.9888458 -0.060013574
0.022442997 0.045105226 -0.22720541 0.20198508 0.08289877 -0.108673885 0.027745293 -3.2038937
0.51236093 0.14254284 0.031466182 -0.23871887 0.35423702 -0.45976493 0.2697679 0.31767887
0.1561794 0.053923193 -1.7498957 3.2684112 0.86866146 -0.6003177 -0.3194131 0.33154297
-0.83352655 0.7975165 0.41269577 0.033815067 -0.5137957 -0.7582996 1.4200747 0.45206666
0.14543356 0.4670072 -0.25067848 -0.17789632 0.056994155 -0.018916553 -0.024255427 0.18445197
1.70534 -0.017743316 0.38699552 -0.6364438 -1.1019742 -0.51129913 0.6198386 -0.24994022
-0.0646944 0.05538245 -0.15117323 1.6256193 1.1863469 0.2558736 -1.905701 -0.552068
-0.7823605 0.45269105 -0.2894067 -0.13300972 -0.033894643 -0.57627034 3.1726756 0.07468533
-0.44961736 -0.0792577 0.09528756 -0.26642737 0.69718575 -0.4270443 -0.3014607 -0.0014251281
0.40301773 0.6999512 6.9066586 1.0731721 0.28537047 0.06639096 -0.07324316 0.047536973
0.10779107 -0.04303662 0.021682618 -0.0716133 -2.3030918 -0.020703463 -0.41839054 -0.49064556
-0.22199762 -0.19456433 -0.1797974 0.23386252 0.22967112 0.13970731 0.24288432 1.5451789
1.1052774 0.71788096 0.9132556 -0.27551886 -0.1678799 -0.6557679 0.58635026 0.31127945
-0.035765443 0.325566 -2.3258162 0.8101762 0.3717168 0.5524119 0.17929624 0.48869473
-0.23796701 0.20155594 0.08173425 -0.086543344 -0.54445386 0.3279194 -1.3461375 -0.19799823
-0.5704282 -0.013966409 0.47695336 0.28014717 -0.29058266 -0.061226957 0.015090281 -0.37061718
1.6451613 0.4458332 1.6008704 -0.17357913 -0.052647673 0.81389284 0.14780755 -0.05228989
0.024924077 0.25038525 0.17560282 1.0513561 -0.18345876 1.5274471 0.5585162 -0.7354335
0.026560431 -0.27163824 0.17059147 0.03812913 0.20009108 -0.13529368 -1.8287088 1.6872497
0.32635283 -0.23982412 -0.24768464 0.11240109 -0.3481444 0.47496453 0.03107615 0.1321063
0.16385241 -4.3066263 0.3011133 0.05738672 0.14675616 -0.16560613 0.08157796 -0.26706412
0.15103829 0.08020325 0.0488188 0.5077123 -1.4099978 -0.015588722 1.0636581 0.39119393
0.15675399 -0.0018026736 0.2991046 -0.2268093 -0.1400085 -0.094243616 0.0788863 2.2942398
1.1157207 0.44579455 -0.6032248 -0.11016716 0.015562074 -0.1829222 -0.08548711 -0.06714737
-0.007881909 0.0063179266 4.639554 0.21712737 1.0630229 -0.48160177 0.057700973 0.1580862
-0.20617637 0.40890986 0.24644206 -0.050435606 -0.7160081 -0.50978196 0.9053578 1.1351566
0.734251 0.6132198 -0.25157964 0.27548942 -0.13319784 -0.118701674 0.034707677 -0.38794464
2.5449445 -1.265363 -0.51250315 0.11806333 0.48252693 -0.12526198 0.014795116 -0.047219977
-0.04604145 0.018688748 -0.24815194 1.2159015 0.58315736 0.38742512 -0.19272096 -0.83947724
-0.61128455 0.18187098 -0.40939882 -0.23409593 0.03221518 -0.13210674 3.0362682 -0.195963

actor.l1.bias f4 [192]
00000000: f9b2 453e 7562 b83d 61b8 a4be 9240 ae3d
00000010: 6d32 fd3e 2954 a0ba 104a d73d fcd0 03be
00000020: 84cf 833e 5182 08be 63fd 4d3e e52a 08bf
00000030: 056c 65be 4b4a 40bf 6e6f 02be bc24 b43d
00000040: 1625 d5be 3118 8dbf bece bebb 6427 17be
00000050: 6b4e 2fbe b1fd 9cbf d110 103e b6cc 35bf
00000060: e94d 40be f229 05bf 7ae4 a3bd 1375 8a3e
00000070: 3b29 503e b09e 883e 4b3f 4c3f 517c 9bbd
00000080: 3a3a 82bf 7e9c 85bf 64c7 4cbf bdb9 223d
00000090: 684a 8abc cf15 803d 2ac0 18bf 7c52 b13d
000000a0: bd4d a2be 589b 6cbe e44a 29be 8e48 e53e
000000b0: 25b9 983e f11a d13c 611f 9abe 8ef5 92bf
000000c0: b4dd 50bf 469e 6dbe 3bbc 2a3f 5875 09bf
000000d0: e86c 663f 0a2b 69bd 3b24 2abf f4ee c9bf
000000e0: 488e ca3e b5f0 0b3e 4eb3 ffbd 9d12 393b
000000f0: 6c9b 933d 8e23 aa3d a013 42bf f23f dfbe
00000100: 8758 2e3f 5746 cfbe 1f64 803d 0568 00be
00000110: 3cfe 813d 5dd3 853e bf20 c8bd 9c3f 5bbf
00000120: 6bbe 99be 1565 c2bd 5727 8dbe c433 17bf
00000130: 7d0b 96be 3e19 2e3e 49db 94bf 5b93 a2be
00000140: b795 c9bc 4c89 8d3e ef46 fe3e 8c70 8bbe
00000150: 1bc4 13bf 2219 76bd f08d 343e 5cdc 9abe
00000160: 578d 85bf c5cf 8bbf 04a1 52be dd9c e1bd
00000170: cd62 b6be 7f98 133e 4aa3 03bf 3c13 1bbf
00000180: f161 3dbd bef2 05bf 8419 693e 9f87 13bf
00000190: c3cb 853d 982c 2bbe cca3 dd3d 9c6c 663d
000001a0: cca2 aabd a99e 10bf cbd7 70bf 2cb7 43be
000001b0: bde3 993e 2794 b13d 7df8 f2be 3f18 e6be
000001c0: 13d8 4c3e 84d4 15bf e7d6 fdbe 0c7e d7be
000001d0: 5f89 23bf 6488 c1bc 6ec8 c4be e642 8fbe
000001e0: e696 8c3c daa7 edbd 8c5a 5f3d cf6f 1bbf
000001f0: 6729 22bf 81e0 a4bd 761e aebe 90e5 85bf
00000200: 8f8a f2ba 889a 5cbe 54a8 85be 89e0 d6be
00000210: ce89 14bf 4cab 13be 2caa 0c3e 243e 88bd
00000220: 5b8e 78bd 2150 e03e 8fb4 9fbe 921f 2f3e
00000230: 9fda abbe 9e06 f53d f0b9 d73e 8915 c03e
00000240: 7822 8ebf 3c8a c8be 40fc 993e 6269 19bf
00000250: 16b0 81be 7b21 20bf 93d0 12bd c639 74be
00000260: 2b3a 7f3e 63ed c0be 9cac a8be 409d 49bd
00000270: 5776 8fbe be26 c8be fb45 7dbd 0027 0e3e
00000280: fb46 4d3e a572 01be a66d a3be 382e 0cbf
00000290: 274b 3e3f 464b 37bf ce60 973d b339 8c3e
000002a0: 4d76 cfbd 4836 6d3e 1b3b a53c 8c10 5b3e
000002b0: 9715 413e 6296 9cbe a530 15bf 8e54 a7be
000002c0: b6c7 14bf 7b51 36be c76f 0ebe 38d6 56be
000002d0: 4830 213f afd2 1c3d 02b6 5cbf ee33 0bbf
000002e0: 2eaf e3be ef25 31bc 89e8 5a3e 7fbf fe3e
000002f0: 102d 31bf 7eab 08bf fbba 523e c93f 4ebe
0.19306554 0.09003154 -0.3217192 0.085084096 0.49452534 -0.0012232113 0.10512173 -0.1287269
0.2574426 -0.13330962 0.2011619 -0.5319045 -0.22404487 -0.7511336 -0.1273782 0.08796069
-0.41629857 -1.1023008 -0.0058229854 -0.1476112 -0.17119758 -1.226492 0.14068915 -0.7101549
-0.1877972 -0.5201713 -0.08002563 0.27042446 0.20328228 0.2668357 0.7978408 -0.07592071
-1.0174019 -1.0438383 -0.79991746 0.039727915 -0.016881183 0.0625416 -0.5966822 0.08658311
-0.31699935 -0.23106134 -0.16532475 0.44781917 0.29828754 0.025525542 -0.30102065 -1.1481187
-0.8158829 -0.23204908 0.66693467 -0.5369468 0.9000993 -0.05692581 -0.66461533 -1.5776048
0.39561677 0.13666041 -0.124853715 0.0028239854 0.07207379 0.08307563 -0.75811195 -0.43603474
0.6810383 -0.40483353 0.062690966 -0.1253968 0.063473195 0.2613782 -0.09771871 -0.85643935
-0.3002809 -0.09491936 -0.27569076 -0.59063363 -0.2930564 0.17001817 -1.162942 -0.31753048
-0.024607522 0.27643812 0.49663493 -0.27234304 -0.5772111 -0.060082562 0.1763227 -0.30246246
-1.0433758 -1.0922781 -0.20569235 -0.110162474 -0.35622254 0.14413641 -0.51421034 -0.60576224
-0.046235982 -0.5232352 0.2276364 -0.57628816 0.06533005 -0.1671623 0.108222574 0.05625592
-0.08331832 -0.56492096 -0.94079274 -0.19112843 0.30056563 0.08670836 -0.47455207 -0.44940373
0.20004301 -0.585274 -0.4957802 -0.42088354 -0.63881487 -0.023624606 -0.38434166 -0.27980727
0.017161798 -0.11604281 0.05452971 -0.6071748 -0.63344425 -0.08050633 -0.34007615 -1.0460682
-0.0018504428 -0.21543324 -0.26104987 -0.41968182 -0.58022773 -0.14420813 0.1373679 -0.066524774
-0.060682636 0.43811134 -0.31192443 0.17101887 -0.33565232 0.11964153 0.42134047 0.3751643
-1.1104269 -0.39167964 0.30075264 -0.59926426 -0.25329655 -0.6255109 -0.035843443 -0.23850164
0.24924533 -0.37681112 -0.3294419 -0.04922223 -0.28019974 -0.39092058 -0.061834317 0.13882065
0.20046608 -0.1264139 -0.31919593 -0.54758024 0.74333423 -0.71599233 0.07391511 0.2738777
-0.10129986 0.23165238 0.020169785 0.21393031 0.18855892 -0.30583483 -0.5827735 -0.32681698
-0.58117235 -0.1780452 -0.13909827 -0.20980155 0.62964296 0.03828686 -0.8621522 -0.54376113
-0.4446959 -0.010812267 0.21377768 0.49755475 -0.69209385 -0.53386676 0.2057914 -0.2014152

actor.l2.weight f4 [192, 192]
00000000: 2026 fa3d 938c 56be 4e41 45be 2cdf 0a3d
00000010: a2b7 74be 8213 523e cbd6 763e 1a32 813e
00000020: b124 593f d684 afbe 0381 3cbf 0797 c6be
00000030: f284 aabd 4261 eebe 24dd 3ebf 023b a43e
00000040: 18a1 893e 213f a53e 89a9 863e 27b5 db3d
00000050: 216b 023e 30a8 a2be e274 66bd 4345 4c3e
00000060: bf07 f93c c4ea ffbe baa4 683e a89b 7abe
00000070: 8ee4 c8bf afcc d93e cb4e b2be c3d7 c63d
00000080: 45b8 583f d45c c2bc d58f a23e ea62 943e
00000090: ea7f 07bf ad46 9abe 83a7 7a3f 474e b9be
000000a0: 50b9 0f3e da3d f5bf 49bf 833f bb52 d73d
000000b0: 3353 213f d5a5 a03b 3f8b b73e a8d2 da3c
000000c0: 8ed0 4b3e 3072 19be 7bad dd3e 91f7 c83e
000000d0: ec30 8d3e fd9f b73d 935a d93d 5f67 f03e
000000e0: bdfd cbbe 17ba e8be 4562 673e 7d0a bbbe
000000f0: 0557 04c0 d57c d03d 1988 25be 4914 ecbe
00000100: 4476 233f 9465 2e3e 9646 033f 31ec 45bf
00000110: 1526 1f3f 0247 393f 0295 e73e a80d 7cbe
00000120: 9e01 85be 3bb2 493f 4bb2 c8be 0533 6a3d
00000130: da98 853e 704a 1f3c a684 223e 13cc f23e
00000140: 14dd 49bf b7af de3e 62d5 a63d 79c4 98bf
00000150: 6084 e83e 66ce a7be 2184 6b3d 103e b5be
00000160: 6f38 093f b8df cebe 21dc 27bc 670a 183f
00000170: 84ca 5abf cc49 debe 22e8 e8bd becb 0ebf
00000180: 33e5 86bf 95d3 e0bd d506 24be 20d6 913e
00000190: 423c 78be d009 423e d820 29bd 9aac 493f
000001a0: 86e7 dcbe cc24 4e3f dd15 243e a875 a93e
000001b0: ae90 11be 004d 4bbf aaef ca3e 4dc0 ea3e
000001c0: 0546 9fbe 8706 75bd 5c36 cabe 9914 dcbc
000001d0: 2496 83be 9616 86be cfdb 8ebe ec4d a5bf
000001e0: 4568 2fbe 7b73 15bf 8452 a0bb ac88 063e
000001f0: df66 bdbd d38f b2be f261 43be 08b9 9f3e
00000200: 2481 7dbe 9ae7 3ec0 5fb1 91bf ed8b 383d
00000210: aa9c 98bc a0cc 0c3f 9e98 1bbe 5d34 4abb
00000220: 8688 20be 351c 973d 0c9a 563e a297 803e
00000230: 8738 b4bf 6741 e8bc c855 23bf 8fc4 e9be
00000240: 7cc9 343e 9b57 0d3f 0e22 6cbf 4dc8 70bd
00000250: 4c4d 4cbf e5d9 c9be 8d74 9b3d 54d7 5c3e
00000260: ad58 c43f 613d 94bd af8b 0cbe 94d6 e9be
00000270: ec8f 9f3d 2a57 203d 5089 503e 9946 813e
00000280: e251 e03e 8caa e33d c3d2 1a3e 6bbd 633e
00000290: 82b6 92be 8999 bbbf 0486 91bd 65a1 05be
000002a0: aaa9 273d b2ef 12bf e58b 623e da65 4e3f
000002b0: 7500 12bf 9685 5ebe f74d 54be 9cc0 22bf
000002c0: 53e3 4dbe c6e3 c93e f65f 533c 1d51 2a3f
000002d0: ca8e 9c3e c69b 17bd 6c10 873e 85b7 a83e
000002e0: f5e6 8cbe e8aa 863e 8678 24bf 4c86 f13e
000002f0: 3e79 09be 1d86 623c 8431 643e 8d14 303e
00000300: 7b84 8dbe 44c9 ef3d 5998 463e e385 b93d
00000310: 6350 02bf 93bb e53e 6646 25be 0963 493f
00000320: 9507 24bf 6868 15bf 2671 66be 5ea3 5b3e
00000330: dd65 2cbf 9b85 6fbf 255a f7bd d198 ccbd
00000340: d35a 0f3f b445 24bc 2af1 65bd dc95 0fbf
00000350: 2ae4 c73e 876d 15c0 871d a53d 096e 87be
00000360: c3b4 04bd 5895 8fbe fc84 da3d 2b6e 99bd
00000370: 177c 61bf c5fe 273e f048 753e 4529 883e
00000380: 6f26 48bf 002c fe3e 5159 433f 683e 79bf
00000390: a52b 493e 8f91 a83e 4ea0 92be f10b abbd
000003a0: fe83 1fbf 9bed 003f d41a 3b3d 67fd 7fbf
000003b0: 5bcb 5bbe aef2 a53c ecd1 633d f4cf 8cbf
000003c0: 87d3 c1bc eaca 143d 9c6c 1e3e 16e5 213b
000003d0: d211 29be c28c 98be 58e7 a0be 4269 ebbe
000003e0: 6e71 54be dcf0 383d 4c33 22bf 655a 0f3e
000003f0: 44ee b93e 52e5 a8bd cbc4 1d3d 31eb e0bf
0.12214303 -0.20952062 -0.19263193 0.03390424 -0.23898175 0.20515254 0.24105375 0.25233537
0.8482161 -0.34281033 -0.73634356 -0.387871 -0.083261386 -0.46558577 -0.74556184 0.3207627
0.26880717 0.32274726 0.2630122 0.107279114 0.12736179 -0.31768942 -0.056263812 0.19948296
0.030399201 -0.499838 0.22719088 -0.2447344 -1.5694749 0.42538974 -0.3482574 0.09709122
0.84656173 -0.023725905 0.3175036 0.28981715 -0.52929556 -0.30132046 0.9791185 -0.36192533
0.14035535 -1.9159501 1.0292751 0.105138265 0.63017577 0.004902581 0.35848424 0.026711777
0.19903776 -0.14984965 0.43296418 0.39251378 0.27576387 0.08966062 0.10612979 0.46953866
-0.39842024 -0.45454475 0.2259608 -0.3653144 -2.0678113 0.1018006 -0.16165198 -0.46109226
0.63852334 0.17030936 0.5127958 -0.77313524 0.62167484 0.72373974 0.4523087 -0.24614584
-0.25977796 0.78787583 -0.39198527 0.057177562 0.2609318 0.009722337 0.15870914 0.4742132
-0.78852963 0.43493435 0.08146168 -1.1934959 0.45413494 -0.32774657 0.057499055 -0.35398912
0.53601736 -0.4040506 -0.010245354 0.5939087 -0.85465264 -0.43415678 -0.11372401 -0.55779636
-1.0538696 -0.10977856 -0.16018231 0.28483677 -0.24241737 0.18949056 -0.041291088 0.78778994
-0.43145388 0.805249 0.16023965 0.33097577 -0.14215347 -0.7941437 0.39635974 0.4584984
-0.31108108 -0.059820678 -0.39494598 -0.02686529 -0.25700486 -0.26189107 -0.27902076 -1.2914405
-0.1712962 -0.58379334 -0.004892649 0.13138074 -0.09248137 -0.34875354 -0.19080332 0.31195855
-0.24756294 -2.9828858 -1.1382254 0.04505532 -0.01862939 0.5499973 -0.15194938 -0.0030853965
-0.1567708 0.07378427 0.20957202 0.25115687 -1.4079751 -0.028351499 -0.63802767 -0.45657775
0.17654985 0.552118 -0.92239463 -0.05878477 -0.79805446 -0.39424053 0.0759059 0.21566516
1.5339562 -0.072382696 -0.1372516 -0.45671523 0.07791123 0.039145626 0.2036488 0.25249174
0.43812472 0.111165136 0.15119462 0.22240226 -0.28654867 -1.465623 -0.071056396 -0.13049848
0.04093329 -0.57396996 0.22123678 0.80624163 -0.5703195 -0.21730646 -0.20732866 -0.6357515
-0.20106249 0.3943159 0.012901297 0.6653002 0.3057769 -0.03701379 0.26379716 0.32952514
-0.27519956 0.26302266 -0.64246404 0.47172773 -0.13425156 0.01382592 0.22284514 0.1719534
-0.27640137 0.1170831 0.19394054 0.0905874 -0.5090391 0.4486967 -0.16140136 0.7866674
-0.6407407 -0.58362436 -0.225041 0.21449038 -0.6734293 -0.9356324 -0.120777406 -0.09990085
0.5599796 -0.010026384 -0.056138195 -0.5608804 0.39041263 -2.33481 0.080622725 -0.26451138
-0.03239895 -0.28043628 0.10669896 -0.07491716 -0.8807997 0.1640578 0.23953605 0.26593986
-0.78183645 0.49642944 0.7630816 -0.9736085 0.19645555 0.32923552 -0.28637928 -0.08351887
-0.6231078 0.5036256 0.045679882 -0.99996036 -0.21464293 0.02025732 0.05562012 -1.1000962
-0.023660434 0.036326326 0.15471119 0.0024703196 -0.16510704 -0.2979489 -0.314265 -0.45978743
-0.20746395 0.045151576 -0.6335952 0.13999327 0.36314595 -0.082468644 0.038517755 -1.7571775

actor.l2.bias f4 [192]
00000000: 64bc 04bf 9ed3 7abe d7a2 963c 8e39 423e
00000010: af3b 99be eeba 7abe 253b 3bbe a2fc d5be
00000020: 18bd e43e 8c2e 653e 6cbb 62be 734f 843d
00000030: 7aee 95bd 9d5e 9cbe ca7f 59be 8c45 da3d
00000040: e38c 9a3d ad69 92bd d0cf f2be 9008 483e
00000050: 2d01 af3d e346 ed3c 726f 9cbe 3549 efbe
00000060: d702 b4be 79f4 acbe 1be3 d7be e2ed 453e
00000070: bc3c a4be 2323 bbbe 0ddd 0cbe b5cc 46bf
00000080: 2349 89be de39 64be 7984 693c 7eaf a6be
00000090: 97a3 ad3e 4d7c a1bf 33ad 113e 1d96 05be
000000a0: 4faa 203e e3fd 10be bae9 c0bd 9326 9dbd
000000b0: 050e 9bbe 30fc 593f 9499 963e 6ec1 07be
000000c0: c811 50bf 412d 19bf a411 84bd 2bcd 6dbe
000000d0: b286 f43e 6211 623e 801a 71bf 8fc9 de3e
000000e0: 19af 35bf eba8 ac3e 44ee 19be 0801 ab3d
000000f0: beb3 8abe 1ba3 3ebf 1f8a 6a3e 7331 3fbf
00000100: 7fd6 193e e71d b9bd e7ed 49be fd97 d8bd
00000110: 8ee8 2bbd 71f2 56bf f8f1 793e 03c9 04bf
00000120: c7e3 8f3e 88ba 15bf 5f18 3dbe 6ded ea3e
00000130: f972 06bf 0508 de3d c54b d53d 8fa5 bbbd
00000140: 3fed babd 4d9d 07be 5737 3b3e 18ee 62be
00000150: 1502 c73d bd5b 313e 1c83 06bd c862 9ebf
00000160: c364 af3c cb96 15be a164 e6be 108a 903d
00000170: 3e5b 13bf 538e 7fbe 2546 193c aa28 1b3d
00000180: 966b 6cbc b567 1fbe c9ba a03d 2461 43bc
00000190: 4411 203e 6438 65bf 95a9 c6bb 19ed 3abd
000001a0: 6844 02bf 9604 e53e 6e96 2f3d b134 ddbe
000001b0: 1476 0cbd af09 193f 628d a43e ee41 093b
000001c0: 601f df3c f17e 31bf 1951 0d3f fd8b 22bf
000001d0: 178a 34bf 01cd 82bf 9a5a 0ebf af32 17bf
000001e0: 4ceb 39bf 4861 e9be caaa cf3e ee5a acbd
000001f0: 9b2f 4abf c8ba 8dbe f09e 26bf ab72 e6be
00000200: 78d6 87bc 2fc8 4c3e 2194 5fbe bcea dc3e
00000210: 1f2f cf3d ba46 4ebf d38e c5bd ce07 103f
00000220: 3c6e 0abc 9b97 7cbe 0cd2 69be 74ec 693e
00000230: 637e e33e e854 84be 27ea 19bd d0f1 ba3e
00000240: 5a14 4a3e 81b4 a7be de55 acbb 4ce5 843e
00000250: ba2f c0be 8cb5 503e 3e7f 92be 5893 ddbe
00000260: 5f83 4d3e e732 dcbe 3f45 66be 5093 bf3e
00000270: 9acd 74be 1158 083f c5d3 903e e82e 76be
00000280: 4d4d 8f3e dcf4 76be eae8 3d3c 2a2b 1e3e
00000290: 23ca 77bd 0f09 bcbd 20d1 a63d 49b9 81be
000002a0: d59a 4dbe 45df ac3e 99f9 4c3d d02d 89be
000002b0: bf81 253e 7d9a 9abe 7457 473e f5cb b2be
000002c0: 6517 fabe cfb7 97bd f5f5 013e 758e 79bd
000002d0: 37ac c0bd d39e 95bf adb0 143e 8877 a8be
000002e0: 7c3e a3be 67f8 7dbf 40ea aebd 1e67 c9be
000002f0: 0835 b13b 2ff1 0e3f 904f 813e d199 4e3e
-0.5184996 -0.24494788 0.018388195 0.18967268 -0.29928347 -0.2448537 -0.1828428 -0.41794306
0.44675517 0.22381037 -0.22141808 0.06460466 -0.073208764 -0.30540934 -0.21240154 0.10657796
0.07546403 -0.07149062 -0.47424173 0.19534516 0.08545146 0.028964465 -0.30553776 -0.4673554
-0.35158417 -0.33780268 -0.42165455 0.19329026 -0.32077587 -0.36550245 -0.13756199 -0.7765611
-0.2681361 -0.222877 0.014252775 -0.32555765 0.33913872 -1.2616059 0.14226227 -0.13045545
0.15689968 -0.1415935 -0.0941958 -0.07673373 -0.30284134 0.8515043 0.29414046 -0.13257381
-0.8127713 -0.59834677 -0.06448677 -0.23222797 0.47759014 0.22076944 -0.9418106 0.43513152
-0.709703 0.33722624 -0.15032297 0.08349806 -0.27090257 -0.7446763 0.22904252 -0.7468483
0.1502323 -0.090389065 -0.19719659 -0.105758645 -0.04196983 -0.83963686 0.2440871 -0.5186922
0.28103468 -0.5848775 -0.18466328 0.45884266 -0.52519184 0.10841373 0.104148425 -0.09162437
-0.09127282 -0.13243599 0.18282829 -0.22161138 0.09717194 0.17320152 -0.03283988 -1.2373896
0.021410352 -0.14608304 -0.4499865 0.07057583 -0.575611 -0.24956636 0.009355103 0.037880577
-0.014429947 -0.15566905 0.078481264 -0.011925016 0.15631586 -0.8953917 -0.006062696 -0.04563627
-0.5088563 0.4473006 0.04286807 -0.43204263 -0.034292296 0.597804 0.32139117 0.0020943838
0.02723664 -0.6933432 0.5520187 -0.63494855 -0.7052321 -1.0218812 -0.55606997 -0.5906171
-0.7262466 -0.45582032 0.4055999 -0.08415781 -0.7897889 -0.27681565 -0.6508627 -0.4500936
-0.016581759 0.19998239 -0.2183385 0.43147838 0.101164095 -0.8057667 -0.09646382 0.5626191
-0.0084491335 -0.24667208 -0.22834033 0.22844106 0.44432363 -0.25846028 -0.03757682 0.36512613
0.19734326 -0.327549 -0.0052592596 0.2595619 -0.37536412 0.20381755 -0.28612703 -0.43276477
0.20069645 -0.43007585 -0.22487353 0.37417078 -0.23906556 0.5325938 0.28286567 -0.24041331
0.27988663 -0.24116844 0.011591176 0.15446153 -0.060495507 -0.09181415 0.08145356 -0.25336674
-0.20078595 0.3376409 0.050042722 -0.26792765 0.16162775 -0.3019599 0.19466954 -0.34921232
-0.48845974 -0.074081056 0.12691481 -0.060926873 -0.094078474 -1.1689094 0.14520521 -0.32903695
-0.3188361 -0.99207157 -0.085407734 -0.39336485 0.005407933 0.55836767 0.25256014 0.20175864

actor.l3.weight f4 [3, 192]
00000000: a817 fdbe 75e8 a03e f2e5 ca3e e002 cc3f
00000010: c8b2 3ebd 2029 a7be 286e 2abe 640e 9c3e
00000020: 5318 7f3e c1f7 af3e 0872 02be d30b 24bb
00000030: 5dbc 413e a8b2 2ebe 08ad febd 4e0e 673e
00000040: 1bbb 6bbf 4b88 b03e 5fdb a73f 1bb8 62bf
00000050: fc8c 253f e610 b03f 6b62 e3bd 22cc b6bf
00000060: ef88 22be 9b1d 033e b00b 7d3f 534e c4bf
00000070: 69f9 a03e 2927 d7be bf16 1cbf e4b5 83be
00000080: c1d6 3f3e f2b2 8fbd f05c 0ebe 4954 d03d
00000090: 642f 0ebf 8bad efbd f9dc cd3e b1d0 5dbe
000000a0: 4fe4 82be 45df b63e f964 653e 8af6 49bf
000000b0: da29 963e 3521 9ebf f514 b8bc d1d4 553e
000000c0: e83a 43bf a222 94bf a59f 9740 4f9b 5840
000000d0: b8da a33e 7e50 e339 fbb8 efbe 7a17 b140
000000e0: 958d f0bf b1ee a8be 4909 153f 37b5 023f
000000f0: 9d6b cf3e 5a9a 85bf 5423 d63e dcd0 1f40
00000100: 6fe2 b240 3d25 e63e 003c bdbd 056c bf3f
00000110: 5304 7fc0 c6d8 ca3e 1887 f83f 8c47 3cbe
00000120: 9856 8e3e ad64 90be 7eff 3cbf 954a 88be
00000130: 6c25 753e 1791 af3f 4391 3440 823f 56be
00000140: b480 3c3e b6bb 2cbe 5a30 b33d 6bdd eabd
00000150: 689b 7740 9f97 b3be b6cf 0d3e 9d79 f0be
00000160: 744d 173d 4e16 11be 727d 2cbf 5b67 c43f
00000170: 15f1 a13f ba09 a6be 2924 d63e b9d0 873d
00000180: c74c 8c3d 0079 003f 48ee 043f a5e7 a0be
00000190: 144f 08be a993 ecbe 0690 84bc e2c7 243e
000001a0: 214e 113d a804 81bf d01e 5a3e 5587 84be
000001b0: 2f30 a7c0 fba6 38bf d28d 623f 45a9 a43f
000001c0: eaa1 83bd 6e8b f5bf c2d0 ca3b 9dd4 93be
000001d0: 5581 b0be 27d4 4dbf ce59 c4bd 22e2 4d3d
000001e0: afdd b2be 0a8a 89be 6297 5c3e 2f7f b7be
000001f0: e8ee 273e b526 9cbe 019e 023f e1b3 cbbf
00000200: 0d53 dd3e b50c 5a3f 8a58 d33f eea7 dfbe
00000210: 5276 253f 322e efbd 4638 f23e 52c0 46bf
00000220: 1e0c 613f ef9d 603f 12f9 c3be e41c 5bbf
00000230: 13ec 7d3f de9e a13e 53db a8bf eb4d 11bf
00000240: 23eb 57bf 1528 c73e 239a c33e 0940 ab3e
00000250: affe 6e3f c86e 023f 5d53 1ec0 2504 ccbd
00000260: b44f bf3f 63b6 3c40 cb4d 0fbf 1dba ecbe
00000270: 6dde 463f 2cec bdbf 14ef edbe 09e3 ccbf
00000280: b41f 06bf 774d 68be 7c91 f53f cf5e e6be
00000290: ccbd e1bf 06b3 fdbd e85b a53e 6184 a03e
000002a0: 0d92 7f3e aa55 3b40 f4d6 94be 39f5 1f40
000002b0: 9d84 68be ffea c43d 5722 b63f 4e31 853e
000002c0: 5903 123e c4c2 dc3d 9250 3ac0 d0b4 b2be
000002d0: a4d8 3e39 8533 dbbe 52f8 373e 998c b13f
000002e0: 0d5e 63be fa2b 9dbd 7591 0340 b03d 643d
000002f0: 3c98 80be 4b7c 8cbf 2e46 96bb a8ec 3cbe
00000300: cf32 94be 47d5 883e 8094 63c0 6a13 d83f
00000310: 2708 cd3f 2613 2740 a695 6a3e 8ae4 12c0
00000320: a879 cb3e bcd9 01bf 3baa a33e 0a7d a73f
00000330: d781 32bf 48d7 e13f 2e82 fdbe 4627 90be
00000340: 16ab e93f 5dac f3be c0ef 8a3c eef3 b43f
00000350: 5506 8abf 92c0 d63f c4dc 4b3f b27e 7c40
00000360: 6568 d43f 0412 ec3f eb75 7dbf 35f7 313f
00000370: 1cc4 b43f ccdc b6bf 24d8 2040 c8c4 68bf
00000380: 64df 37c0 f191 133f 39b8 f93f e078 98bf
00000390: 7860 793f f64b 8fc0 d228 b43f 290c 07bf
000003a0: af3a 8b3f 53ee 03bf 68c1 8dbf db7b da3e
000003b0: 480e e23e b680 7d3f dabd b73f 0c4c 1f3f
000003c0: 8690 11bf 22cc 04c0 05d9 84bf 2e06 6c40
000003d0: e8cb 2cbf da90 923d 1bd9 ed3d e4e4 9b3f
000003e0: 9932 d7be 8d47 0540 0a37 b0be 375c 0fbf
000003f0: ccd3 81bf 3b2a 85bf 85a1 75be a284 f03e
-0.4943211 0.3142735 0.3962856 1.5938377 -0.046557218 -0.32648563 -0.16643584 0.3047973
0.24911623 0.3436871 -0.12738812 -0.0025031462 0.18919511 -0.1706034 -0.12435347 0.2256405
-0.92082375 0.34478983 1.3113822 -0.8856217 0.6466825 1.3755157 -0.11102756 -1.4281046
-0.15872549 0.12804262 0.9884596 -1.5336403 0.31440285 -0.42022064 -0.6097221 -0.2572471
0.18734266 -0.07016553 -0.1390264 0.10172326 -0.5554106 -0.117030226 0.4020765 -0.2166164
-0.2556481 0.35717216 0.224018 -0.78891814 0.29328805 -1.2353884 -0.02247093 0.20881964
-0.7626176 -1.1573069 4.738238 3.3844793 0.32002807 0.00043356785 -0.46820816 5.534116
-1.8793207 -0.32994607 0.58217293 0.5105776 0.4051179 -1.0437729 0.41823828 2.4971228
5.590141 0.44950286 -0.0923996 1.495484 -3.984639 0.3961851 1.9416227 -0.18386668
0.2780044 -0.2820181 -0.7382735 -0.26619402 0.23940057 1.3716153 2.821366 -0.20922664
0.18408471 -0.16868481 0.08749457 -0.114680134 3.8688602 -0.35076615 0.13848767 -0.46967784
0.0369391 -0.14168665 -0.67378914 1.5344042 1.2651697 -0.32429296 0.41824463 0.066316076
0.068505816 0.5018463 0.5192609 -0.3142673 -0.13311416 -0.46206406 -0.016181957 0.16091874
0.0354749 -1.0079546 0.21300817 -0.258845 -5.224632 -0.7212979 0.8849765 1.2864157
-0.06427367 -1.9183176 0.0061894367 -0.2887315 -0.34473673 -0.80401844 -0.095874414 0.050264485
-0.34934756 -0.26863128 0.21542123 -0.3583922 0.16399729 -0.3049828 0.51022345 -1.591427
0.43227425 0.8517564 1.6511395 -0.43682808 0.6463367 -0.11678733 0.47308558 -0.7763721
0.87909114 0.8774099 -0.38275963 -0.8559096 0.99188346 0.3156652 -1.3191932 -0.5675952
-0.84343165 0.38897768 0.38203534 0.33447292 0.93357366 0.5095029 -2.473838 -0.09961728
1.4946198 2.948632 -0.5597808 -0.46235743 0.77683145 -1.4837699 -0.46471465 -1.6006786
-0.52392125 -0.226858 1.9185023 -0.44994208 -1.7636046 -0.12387662 0.3229668 0.31350997
0.24958058 2.9271035 -0.29070246 2.4993422 -0.22706838 0.096151344 1.422923 0.2601418
0.1425909 0.10779336 -2.9111676 -0.34903574 0.00018200517 -0.42812744 0.1796582 1.3871032
-0.22203846 -0.076744035 2.055753 0.055722892 -0.25116146 -1.0975431 -0.004586003 -0.18449652
-0.28945014 0.26725218 -3.5559387 1.6880925 1.6018113 2.6105437 0.22908649 -2.295199
0.39741254 -0.5072286 0.31965813 1.3085034 -0.6972937 1.7643824 -0.49513382 -0.28154963
1.8255336 -0.4759244 0.016960025 1.4136941 -1.0783182 1.6777518 0.79633737 3.9452329
1.6594359 1.8442998 -0.99008054 0.69517833 1.4122348 -1.4286132 2.5131922 -0.90925264
-2.8730097 0.57644564 1.9509345 -1.1911888 0.97412825 -4.4780226 1.4074957 -0.5275293
1.0877284 -0.5153553 -1.1074648 0.4267262 0.4415152 0.9902452 1.4354813 0.62225413
-0.5686115 -2.0749593 -1.0378729 3.6878772 -0.67498636 0.071565345 0.11613675 1.2179227
-0.4203079 2.082492 -0.3441699 -0.56000084 -1.014276 -1.0403513 -0.23987396 0.4697619

actor.l3.bias f4 [3]
00000000: 4c4b 293e d664 333e ca86 fd3e
0.1653263 0.17518935 0.49516898
