DDPG/models/pruning/DDPG-Humanoid-0.5-l2.onnx (onnx, 268943 bytes, 6 tensors)

actor.l1.weight f4 [128, 376]
000000 58 9c 8a be db 82 b5 bd a1 ef c5 bb ed a6 fc 3f
       -0.27072406 -0.08862849 -0.006040529 1.9738442
000010 3c 0f ee bf 99 3b ac 3e 05 d0 11 c0 db 83 db bd
       -1.8598399 0.3363922 -2.2783215 -0.10718509
000020 ce a6 8a bf 90 05 da 3f 22 f9 2d c0 84 30 82 3f
       -1.0832155 1.7032948 -2.7183309 1.0171056
000030 a5 b9 cb be 34 c0 fb 3f 66 ae 32 bf 32 05 27 be
       -0.39790073 1.9668031 -0.6979736 -0.16310576
000040 ec 58 9a bd c0 0b 66 3f 26 50 48 3f 4e 57 82 3d
       -0.07536492 0.8986168 0.78247297 0.06364308
000050 cf 0a e7 3f c4 90 67 bf f3 d5 ab c0 98 65 63 c0
       1.8050174 -0.9045527 -5.369867 -3.5530758
000060 19 e9 a1 bf 03 57 b5 3d 7c 1d ac 3e fc 70 96 be
       -1.2649261 0.08854487 0.33616245 -0.29383075
000070 10 af 2f 3d 3e a2 fd 3d 58 59 ac 3d dd 67 52 3e
       0.042891562 0.12384461 0.084154785 0.20547433
000080 1d 1b 85 be 88 db 1c 3e c5 29 27 be 81 b2 16 3f
       -0.25997248 0.1531812 -0.16324528 0.58866125
000090 89 0e 5e be b2 c7 bc bc 0b 4e b8 3d eb b3 63 3d
       -0.21685232 -0.02304444 0.089992605 0.055591505
0000a0 b4 dd e9 bc 06 3b 48 3d fd d2 72 bc 2d cd c0 3e
       -0.0285481 0.048884414 -0.014820811 0.37656537
0000b0 72 a9 a1 be e3 3f 2f bd 35 94 8a 3d 31 46 b9 bd
       -0.3157459 -0.042785536 0.067665495 -0.09046591
0000c0 5d a8 2f 3d d2 99 8a bd 8c fa bd 3d 31 21 ba 3c
       0.042885173 -0.0676762 0.09276304 0.022720905
0000d0 2f a9 85 3d 52 51 81 3c 34 90 0b 3b e0 10 d9 be
       0.0652641 0.015785847 0.0021295669 -0.42395687
0000e0 c5 c3 21 bf 65 52 89 40 95 80 ef 3e f6 ff 6b 3f
       -0.63189346 4.291308 0.46777788 0.9218744
0000f0 7f 60 d1 3e 32 b6 9f bf 9e 96 36 bf 93 8a a0 be
       0.40893933 -1.2477477 -0.71323574 -0.31355724
000100 eb d8 40 3e f1 88 88 3e ee 33 32 3f d9 98 c9 3f
       0.18832748 0.26666978 0.6961049 1.574977
000110 30 86 09 bf 16 41 a0 40 65 4d 07 40 bd 24 96 c0
       -0.5372038 5.007945 2.1140988 -4.6919847
000120 8d 42 1a c0 58 76 ab 3e 21 16 96 3e d4 a3 8b 3f
       -2.410312 0.33488727 0.29313758 1.0909371
000130 31 db 1f 40 7c a5 e3 3f 60 d3 85 be 08 2d 78 40
       2.4977534 1.7784877 -0.2613783 3.8777485
000140 92 c3 b2 bc c6 21 53 c0 48 15 df bf 78 b2 ce 3f
       -0.02182177 -3.2989364 -1.742837 1.6148214
000150 78 79 66 3e 51 74 d0 3e 22 ad 39 bf 3c b6 2f 40
       0.22507274 0.40713742 -0.72529805 2.7454977
000160 dd db 01 c0 73 74 41 3e 93 79 3c bf 99 d2 89 bf
       -2.0290444 0.18892078 -0.7362301 -1.0767394
000170 e9 1f cf bf 12 bf 27 3f 4f 92 7d 3e c0 c8 30 3d
       -1.6181613 0.65525925 0.24762844 0.0431602
000180 b7 2b 60 be 40 57 22 40 ea 0b 13 3f 11 7b cc 40
       -0.21891676 2.5365753 0.57440054 6.3900228
000190 b7 55 9f bf 9f 4c b1 40 b6 7c db bf 8a 9d c5 3d
       -1.2448033 5.540603 -1.7147434 0.09649189
0001a0 f4 2c 99 3e 70 fb 40 3e aa ef 39 bc f3 6c cc 3f
       0.2991711 0.18845916 -0.011348644 1.5970749
0001b0 d5 bf 5d 3f 15 d5 dd 40 56 46 9f bf a1 d9 c9 40
       0.8662084 6.932261 -1.244334 6.307816
0001c0 b5 47 cf bf ba df 14 be 8a 92 9f 3e 24 b0 c8 be
       -1.6193758 -0.1453847 0.31166488 -0.39196885
0001d0 b8 64 4e 3e 15 fc f8 3f 83 12 96 be 6d fa d1 3f
       0.20155609 1.9451929 -0.29310998 1.6404549
0001e0 5a 4e 70 bf ca 06 8e 3f 2d ab ed bd 00 27 37 3f
       -0.93869555 1.1095822 -0.11604915 0.71543884
0001f0 4b d6 d5 3e 3a e8 f5 bc 45 0d d5 be 71 eb 90 40
       0.41765055 -0.03001796 -0.41611686 4.5287404
000200 74 b5 1f c0 25 d3 85 40 32 dc 3b 40 e2 54 81 40
       -2.49545 4.1820245 2.9353147 4.0416117
000210 9a d5 4f 40 b9 f6 80 3e bb d0 64 3e 18 b5 80 3e
       3.2474122 0.25188234 0.2234525 0.25138164
000220 26 ae 30 bf 8d 6b 9a 40 6b d2 bd bf 8a 9b 8b 40
       -0.6901573 4.8256288 -1.482984 4.3627367
000230 c7 c9 8b 40 9d 0f 7e 40 0c 4a 9f 40 53 58 69 3e
       4.368381 3.969703 4.977789 0.227876
000240 72 85 a3 3e ad b2 12 be 84 6a bb 3e 13 84 a6 3f
       0.31937748 -0.14325972 0.36604702 1.3009056
000250 0c ba 45 c0 d4 42 65 40 ab 88 9b bf c3 06 52 c0
       -3.0894804 3.5822039 -1.2151083 -3.2816627
000260 ee ad 23 3f cc 7d 21 be 28 99 61 3e ad 53 98 3e
       0.6393727 -0.15770644 0.2203108 0.2975134
000270 76 63 04 3f 51 c8 b7 be e3 fc 57 c0 0e 16 7c 40
       0.51714265 -0.35895017 -3.37481 3.938846
000280 3a 43 f3 bf 91 97 95 c0 19 b6 88 3f 11 86 ca bd
       -1.9004891 -4.6747518 1.0680572 -0.098888524
000290 f0 8f 5b 3e 77 cc f0 be 39 e2 43 bf 16 b5 4c 3f
       0.21441627 -0.47030994 -0.76517063 0.79963815
0002a0 6e e8 c8 3f 3b e9 03 40 78 d3 fd 3f 45 52 be bf
       1.5695932 2.0611103 1.983016 -1.4868857
0002b0 2f f8 97 bf 4d 04 0f bf b3 c7 2e 3e a0 14 31 bf
       -1.1872615 -0.5586594 0.17068367 -0.69172096
0002c0 75 45 a7 bf 7d 9b 81 3d 5c c3 8b 3f 91 5f 54 40
       -1.3068072 0.06328485 1.0918994 3.318333
0002d0 56 2a f1 3f 61 dc 02 c0 a5 5e 84 bf fd 11 cb bf
       1.8841045 -2.0447009 -1.0341383 -1.5864865
0002e0 1a a6 76 3e e9 32 86 3d 1f 23 6c bd e0 e0 91 3c
       0.240868 0.06552679 -0.05765068 0.017807424
0002f0 79 de 83 bc d4 0d 4f bc 86 93 70 3d 7a c7 4b 3f
       -0.016097294 -0.012637574 0.05873444 0.7960125
000300 fd 8b bd be 6c d9 4d be fe 5a d3 bf 8a 49 e0 bf
       -0.37020865 -0.20102471 -1.6512144 -1.7522442
000310 06 c6 f8 bd 28 19 d9 3e f8 e6 05 bf b8 05 03 3e
       -0.12147145 0.42402005 -0.52305555 0.1279515
000320 2f 1f f0 bf a5 63 1a c0 76 ae 2e 3d eb 33 0d 3f
       -1.8759516 -2.4123318 0.042646848 0.55157346
000330 5d 19 57 be 0c 08 7e 3d 14 62 16 c0 d4 78 3e c0
       -0.21005769 0.062019393 -2.3497362 -2.9761248
000340 b1 02 b7 be c9 7d 9c be 5b 9d 93 ba 29 21 9d be
       -0.3574424 -0.30564716 -0.0011262106 -0.30689362
000350 60 f9 42 3e 5c 31 cc bf 72 8b 62 be 95 20 e8 be
       0.19040442 -1.5952563 -0.22123507 -0.45337358
000360 7a cc c0 3c 32 8f 98 3b 00 38 67 bd cd 06 22 bf
       0.023535002 0.004655742 -0.05644989 -0.6329163
000370 ef bd 0c 3f 29 76 06 bf 3b 4d d6 bb 3b 0a fa bd
       0.54977316 -0.5252405 -0.0065399683 -0.122089826
000380 b8 7a fd bd dc a9 48 bf fe 7d dc 3e 80 ae 2f 3f
       -0.12376922 -0.78384185 0.43064874 0.6862564
000390 e0 e7 b3 be c4 4c 3a bd 44 c1 ba 3e cf d5 2c bf
       -0.35137844 -0.045483366 0.36475575 -0.67513746
0003a0 cf 3a ea 3d b1 73 03 3f 71 12 6e be c0 df 87 be
       0.11436998 0.51348406 -0.23249222 -0.26537895
0003b0 20 e3 3c be 4c d4 5b bd 3a b7 99 3c d8 7c f6 3e
       -0.18446016 -0.05366926 0.018764127 0.48142123
0003c0 e6 ec 07 be bb 13 92 be 4b fd 4f be 06 2b 4f bd
       -0.13273963 -0.28530678 -0.20311467 -0.05057814
0003d0 aa f7 8e bd 31 e5 31 3f 4c 80 b1 bd d4 e8 00 bf
       -0.06980832 0.69490343 -0.08667049 -0.5035527
0003e0 20 33 5d bd 4a d1 2b bf f9 76 97 3e ff 26 19 3f
       -0.054003835 -0.67116225 0.29582956 0.5982513
0003f0 02 cd bc bd de 21 03 be 99 db 01 3e 66 f5 7e bf
       -0.0921879 -0.12805888 0.12681426 -0.995932

actor.l1.bias f4 [128]
000000 4c a0 90 3e 6c c1 19 bd 00 22 f2 bc 68 26 18 be
       0.28247297 -0.037537977 -0.029557228 -0.14858401
000010 77 d3 92 3d 76 aa 0c be 45 21 dd be 3d b5 94 3d
       0.0716924 -0.137369 -0.43189445 0.07261131
000020 e4 91 91 3d ec 41 6c 3e 3a ed b6 bd bc 41 42 3d
       0.071079046 0.23072022 -0.08931966 0.04742597
000030 cf 43 1f bd a7 61 18 3e 3e dd b7 bf 1b ee e6 3d
       -0.038883027 0.14881001 -1.4364393 0.11275884
000040 ba e5 13 3e d6 cc 9d bd 32 ff 4d 3d d9 38 c5 3d
       0.14443102 -0.07705085 0.0502922 0.096299835
000050 2e f0 d4 3e c6 64 61 3e 19 99 d1 be 5c 75 9b be
       0.41589493 0.22011098 -0.40937117 -0.30362976
000060 ad ff aa bd bf bf 51 bd 36 b5 f8 3d c1 59 ab be
       -0.083495475 -0.051208254 0.12143938 -0.33466914
000070 38 1f f7 be 0a 0c 67 be 69 8c 1a 3e 13 1f 0b 3e
       -0.48266006 -0.22563186 0.15092625 0.13586073
000080 d7 d4 8d 3e 96 9f 0f 3e 82 59 be bb 00 61 89 bd
       0.27701446 0.14025721 -0.00580901 -0.067079544
000090 da 12 58 bc 95 45 44 3e 62 32 51 be cd 67 a1 3e
       -0.013188088 0.19167168 -0.20429376 0.31524506
0000a0 8b 7e 42 3e 31 01 64 3e 91 5d 61 be 91 d6 bf 3d
       0.18993585 0.2226608 -0.22008349 0.09367097
0000b0 6f 39 ca bc 8a 18 3f 3d ae c9 ae bd 6c 5a 87 3e
       -0.02468559 0.04665426 -0.08534561 0.26436174
0000c0 90 1c e7 3b ed 4d 49 3e 0a 54 12 3e 00 35 4b be
       0.0070529655 0.19658633 0.14289871 -0.19844437
0000d0 92 9c 11 be d9 31 75 bc 5c 43 c5 bd e5 e4 d0 3d
       -0.14219883 -0.014965498 -0.096319884 0.10199908
0000e0 de 7c 35 be 2f 80 82 be dd 7c f0 bc f5 5e 65 bd
       -0.17723414 -0.2548842 -0.029356414 -0.05599876
0000f0 63 2a 47 3e 7f 3d 70 3e 18 f5 c3 bb 6c b7 1d 3f
       0.19449763 0.23460959 -0.005980145 0.61608005
000100 4d f5 70 3d 65 d3 64 bf 11 2a 8c be 33 5c 14 3c
       0.058827687 -0.8938506 -0.27375844 0.009055185
000110 b4 20 25 3c 11 11 4a 3d c9 40 52 3e f4 f8 7e bc
       0.010078598 0.049332682 0.20532526 -0.015562285
000120 b1 40 d2 3d 44 c8 15 be a3 ca 93 be 06 d7 c5 3d
       0.10266245 -0.14627177 -0.28865537 0.09660153
000130 00 e0 d4 bd de 41 9e bd 63 60 43 3b 53 79 43 be
       -0.10394287 -0.07727407 0.002981209 -0.1908925
000140 53 15 ff 3d 8e 4e f8 3d a1 8a 60 bb 2f 3a ed 3c
       0.12455239 0.12124358 -0.0034262317 0.028958408
000150 7b 67 8d 3e fe f1 8a 3e 24 4b 60 3e 61 c8 4a 3e
       0.27618012 0.2713775 0.21903664 0.19803001
000160 d1 d7 ef bc 8e 81 90 3d 4e ea b2 be 8b bd 96 bc
       -0.029277714 0.070559606 -0.34944385 -0.018400928
000170 90 51 3c bd 87 39 6c 3e 34 f7 90 be aa c2 83 bd
       -0.04597622 0.2306882 -0.283136 -0.064336136
000180 7d 69 00 bd 68 c1 0d 3d 20 4e 7d 3e 3c e0 c7 be
       -0.0313506 0.034608275 0.24736834 -0.39038265
000190 4b d0 69 3c 95 71 ef 3b 95 17 f4 3c bd 7a 92 be
       0.014270852 0.007307241 0.029796401 -0.28609267
0001a0 68 98 04 be 40 55 d0 3d 2c 34 88 3c 7c 93 df 3d
       -0.12948763 0.1017251 0.01662644 0.10916802
0001b0 22 79 33 bf fa e2 f3 3c e9 53 09 bd db 6b 40 bf
       -0.7010671 0.029771317 -0.03352729 -0.75164574
0001c0 ed 74 81 3e 49 cb 10 be 81 5a ab be 50 bd 1b be
       0.2528452 -0.14140047 -0.33467487 -0.15208936
0001d0 5f e2 1b 3e d9 60 5e 3e ea da 97 be 31 23 15 be
       0.15223072 0.21716632 -0.29659206 -0.14564206
0001e0 53 b6 12 3c d9 ec 53 3d cc 60 39 3d ef 61 e0 3a
       0.008954602 0.051739547 0.04525833 0.001711903
0001f0 1b 35 d1 be a5 8a 2c be e4 2f 2f bd a1 ae c4 bd
       -0.4086083 -0.16849764 -0.04277028 -0.0960362

actor.l2.weight f4 [128, 128]
000000 4d 62 99 bd f5 0e b0 be f1 7b 4a 3e 53 3f e1 be
       -0.074894525 -0.3438641 0.19773842 -0.43993625
000010 cc 47 86 3e 50 d3 bf be c1 3f a0 be 89 50 ab be
       0.26226652 -0.37465906 -0.3129864 -0.3345988
000020 da e4 37 be 79 25 e2 be 12 c8 31 3e f2 07 81 3d
       -0.17958394 -0.44169214 0.17361477 0.063003436
000030 e6 47 e5 3d 1e 7d 86 3d 61 1a 7c bc ef 9a 81 be
       0.11195354 0.06566833 -0.015387149 -0.25313517
000040 bd cc bb 3e 78 a2 ba 3e 16 5b da 3e 63 bb 41 3d
       0.3667964 0.3645208 0.42647618 0.047297847
000050 93 4f d2 3e e8 66 33 bd 29 0e 97 bf 10 75 34 bf
       0.41076335 -0.04379931 -1.1801196 -0.70491123
000060 e9 0d 3e 3d ad e5 23 be 95 10 81 be 10 49 d1 3e
       0.046399985 -0.16005583 -0.25207964 0.40876055
000070 1d ca bc 3e fc 88 04 be 08 95 30 be 85 ee 04 3e
       0.3687295 -0.1294288 -0.17244351 0.12981613
000080 6a 5d 6f 3e 25 d7 c8 be 6a 78 c9 be d3 fa ac 3e
       0.23375478 -0.39226642 -0.3934968 0.33785114
000090 53 c1 4a 3c 4f d3 8e be 3b a6 50 3f 47 dc 50 be
       0.012375194 -0.2789559 0.8150365 -0.20396529
0000a0 1e e4 8a bd 0b 66 03 bd 33 7a 61 be 88 54 0c bf
       -0.06781791 -0.032079738 -0.22019272 -0.54816484
0000b0 d9 57 e1 3d 41 9e 1c 3e f1 e5 e7 bd 2e 55 91 be
       0.11003084 0.15294744 -0.11323155 -0.283853
0000c0 3c 50 1c 3e d3 ae 5e be e0 ce cf 3e a0 6e 92 3d
       0.15264982 -0.21746378 0.4058752 0.07150006
0000d0 71 99 35 bf ca 50 94 3e ca af 50 3d 04 f7 c9 3d
       -0.7093726 0.28967887 0.050948896 0.098615676
0000e0 c5 70 07 bf 8e ee 00 3e e4 cf 14 bd 5e 23 89 3e
       -0.5290645 0.12591001 -0.036331072 0.26784796
0000f0 7a af 4d bf e2 84 ec be a3 e8 44 3e e8 ae 51 be
       -0.8034588 -0.46195132 0.19229369 -0.20476878
000100 3f 29 02 be 95 19 ae 3e 5b a8 44 bb a2 60 08 bf
       -0.12711047 0.34003893 -0.0030007574 -0.5327245
000110 28 e1 a7 bd c1 2e 67 3c b0 6e 27 3e 3b b4 17 bf
       -0.08197242 0.014110268 0.16350818 -0.59259385
000120 e6 86 48 bf 3c f3 4e bd b0 09 05 be 03 2b 01 bf
       -0.7833084 -0.050524935 -0.12991977 -0.50456256
000130 49 e7 bc be 7e 7f dd bd bd 93 8e 3d 6c 46 84 be
       -0.36895207 -0.10815333 0.069617726 -0.25834978
000140 9e 40 05 bf 60 58 18 3f a8 8f 26 be 33 df 21 bd
       -0.52051723 0.5950985 -0.16265738 -0.0395195
000150 f5 45 1d be 9a cf 12 be 65 10 b0 3e d3 1d cf be
       -0.15358718 -0.14337006 0.34387508 -0.40452442
000160 48 8a 33 bc 75 35 6a 3d 90 e2 51 3f a1 a0 29 bd
       -0.010958262 0.057179887 0.8198633 -0.041412953
000170 e6 95 b2 3d 12 35 c4 bd 83 bb 77 3e 18 30 82 3e
       0.08719997 -0.09580435 0.24192624 0.25427318
000180 10 7f b5 be 73 a6 98 be 56 1f a6 bd 8d e8 d8 3e
       -0.35448503 -0.2981449 -0.081114456 0.42364922
000190 e3 73 64 bd b0 91 17 be 5b ce 14 bf dd f5 03 bf
       -0.05577458 -0.14801669 -0.58127373 -0.5154703
0001a0 35 ec 2c be 64 c5 7f bc ff 14 c2 be 50 c9 59 be
       -0.16886981 -0.015611026 -0.37906644 -0.21268201
0001b0 b7 3a 75 be 78 f2 04 be e8 e6 71 be c8 85 ba bd
       -0.23948179 -0.1298312 -0.2362324 -0.09107548
0001c0 83 9d a6 bd d2 09 07 3d 2b 0e a1 3e c2 d1 7a 3b
       -0.08135512 0.03296835 0.31456122 0.0038271998
0001d0 2b ae 57 3e 55 2a ea be f5 db 8a be 87 1d 62 3b
       0.21062534 -0.45735422 -0.2712094 0.0034502463
0001e0 79 bf 47 3e da 14 10 3f 1e f4 23 3e dc 09 e5 3c
       0.19506635 0.56281817 0.16011092 0.027958803
0001f0 f2 0c 24 3a 20 c8 21 3d 1b 41 ff be 1d cc f7 be
       0.00062580325 0.039497495 -0.4985436 -0.48397914
000200 8d c6 39 3e c1 d0 ad be 62 64 df 3d c1 ef 28 be
       0.18142147 -0.3394833 0.109078184 -0.16497709
000210 51 8c 5c 3e b9 84 ba 3e 67 19 81 3e c0 30 49 3d
       0.21537901 0.36429384 0.25214693 0.049118757
000220 1c 12 9f be 45 d9 37 bf ac 2e 14 3e ef a3 d4 be
       -0.31068504 -0.718159 0.14470929 -0.4153132
000230 39 bb 07 bf 87 36 8c be d7 82 89 be bc 75 2e bf
       -0.53020054 -0.2738535 -0.26857635 -0.681484
000240 51 04 c2 bd ab d6 1f bf a7 8d 46 bd 08 da 5f bd
       -0.094734795 -0.6243693 -0.048474934 -0.05465129
000250 f2 08 5b bd ad a7 04 3e f9 7a 2f 3e 5a 13 5e 3f
       -0.053475328 0.12954588 0.17136754 0.8674828
000260 4d c6 3f 3c bd 90 f3 bc aa 4c 0c bf 7d eb 2e be
       0.011704993 -0.029732103 -0.5480448 -0.17082019
000270 dd 6a 60 be 23 c5 ec 3e 99 5a 03 3e 5c 22 d6 3e
       -0.21915765 0.46244153 0.12827529 0.4182309
000280 62 d9 3a 3d 1f 45 d5 bd bb 33 e1 3e c0 fb 98 be
       0.04561747 -0.104135744 0.4398478 -0.2987957
000290 7d 00 06 bf 7f e8 22 3f b4 4d 26 3e 88 67 85 3d
       -0.52344495 0.6363601 0.16240579 0.06513888
0002a0 0f 16 40 3f 7e c5 26 be 79 96 18 3d 37 03 ba bd
       0.7503366 -0.16286275 0.037252877 -0.090826444
0002b0 ad 7a 01 3f e7 03 17 3e 67 bb a6 bd 38 c7 8e be
       0.50577813 0.14747582 -0.08141213 -0.27886367
0002c0 f4 1a 8a be cc 93 0f 3f 5d 16 d1 3e e8 e7 75 3f
       -0.2697369 0.56084895 0.40837374 0.96056986
0002d0 4d 95 3f 3b a3 1e bf 3d 52 8e 19 bc a6 a0 fb 3d
       0.0029233277 0.09332015 -0.009372311 0.12286501
0002e0 f5 44 1e bf 18 d9 45 be a4 f7 91 3d 19 26 75 3f
       -0.6182397 -0.19321096 0.07127312 0.9576126
0002f0 b8 2d 8f be 29 70 ae 3e b8 b7 0a bf 77 88 30 bf
       -0.27964568 0.34069946 -0.5418658 -0.6895823
000300 cb ca b1 bd 77 b3 a6 be b1 a8 44 3e 78 26 82 3f
       -0.08681258 -0.32558796 0.19204976 1.016799
000310 cd 1e a2 bd a5 c2 05 bc 7d b3 a7 bf 23 e1 c2 3c
       -0.07916031 -0.008164083 -1.310165 0.023788994
000320 f9 e6 37 3e 18 fb 98 3e 8a d1 ba 3e 02 db 52 be
       0.17959203 0.2987907 0.3648799 -0.20591357
000330 41 9a af be 92 9e 85 bd 4e d3 16 3e 00 e4 cf 3c
       -0.34297374 -0.065243855 0.14729044 0.025377274
000340 7a 1b be bd e1 9a 98 be 78 bd 9b bd 07 9c 11 3e
       -0.092825845 -0.29805663 -0.07604498 0.14219676
000350 c3 73 1b 3e 11 53 a5 3e e5 fe 91 bc 02 a5 a8 3d
       0.15180878 0.32289937 -0.017821738 0.08234598
000360 ca f2 bc 3e 8c d0 b0 bd 8d 24 a6 3a 92 34 53 3f
       0.36903983 -0.08633527 0.0012675688 0.8250209
000370 57 0f 88 be 8f 70 3d 3d 63 99 fc 3e e9 cf c3 3e
       -0.26574203 0.046249922 0.49335775 0.3824456
000380 8c 29 89 be 74 d1 08 bf 74 71 80 3e cf 68 38 3e
       -0.2678951 -0.534446 0.25086558 0.18008731
000390 ca 1e 3f be 58 da b3 bd 45 4e b6 bd f5 1e 0b bf
       -0.18664089 -0.0878188 -0.089016475 -0.5434411
0003a0 33 1e 86 3c a2 28 27 bf 12 c1 ea be 8c f8 68 be
       0.016371822 -0.65296376 -0.45850426 -0.22751063
0003b0 a7 e4 9f 3e 25 30 2b be bb 8d ad bd 31 fc 0c bd
       0.31229135 -0.16717584 -0.084742986 -0.034420196
0003c0 76 cd f6 3a 5b 6a e1 be 71 8a 5f bd a3 c2 78 bd
       0.0018829543 -0.44026455 -0.054575387 -0.060732495
0003d0 f7 bb 1d bd 1f 92 52 3e 99 a7 8a be 8a 6d 09 be
       -0.038509335 0.20563553 -0.27080992 -0.13420692
0003e0 24 f5 6a 3e 8d 77 94 bd c7 d8 bf be 1e 8e dd be
       0.22945076 -0.07249365 -0.37470075 -0.4327249
0003f0 02 17 d1 3c 20 d4 46 be 89 24 79 be 9e 0d 63 be
       0.025523666 -0.19416857 -0.24330343 -0.22173163

actor.l2.bias f4 [128]
000000 31 4c 14 be 02 49 dd be e2 54 3e bd 36 db ea be
       -0.1448219 -0.43219763 -0.04646767 -0.4587037
000010 54 fa 95 be f3 e7 47 3d 62 c2 57 bd ba 6b 70 be
       -0.29292548 0.04880519 -0.052675612 -0.23478594
000020 37 5d 9d bd 9e 10 10 be 35 6c 2d 3e f3 9a af be
       -0.07683795 -0.14068839 0.16935809 -0.34297904
000030 66 c5 cb 3e 11 da a3 3e 46 f4 c4 be 30 52 50 be
       0.3979904 0.3200231 -0.38467616 -0.20343852
000040 ab 36 f5 3d 84 a0 52 be 12 d4 0a 3c d9 f7 d6 bd
       0.11973318 -0.20569044 0.008473413 -0.10496492
000050 7d e0 3b be c4 09 9a be 1c 85 b2 be 27 bf be 3e
       -0.18347354 -0.30085576 -0.3486718 0.37255213
000060 bd 0a 9f be d5 ca d3 3d be 6c 07 3d 31 5e 10 ba
       -0.3106288 0.103414215 0.03306269 -0.00055071997
000070 b7 a6 5d bf 67 a0 8a be 00 23 ab be 14 59 87 be
       -0.8658251 -0.27075502 -0.3342514 -0.2643515
000080 a1 c9 8d 3e 21 82 40 bd 27 ad 2d 3c f4 83 e8 be
       0.27692893 -0.0469991 0.010600365 -0.45413172
000090 da eb ba be df 54 bb 3c 73 05 cb be e1 a5 c0 3d
       -0.36508065 0.022867618 -0.39652595 0.09406639
0000a0 50 e2 b6 be 48 73 c7 be 57 61 2f be 74 b2 77 bd
       -0.35719538 -0.3895514 -0.17126976 -0.06047292
0000b0 75 fb dc be 17 d3 69 bc 25 ba 6c 3d 49 15 21 be
       -0.43160596 -0.014271519 0.05779471 -0.15730776
0000c0 0f f6 59 bf 53 77 81 bf 58 9e 93 3c 5b 3b f0 3d
       -0.8514108 -1.011454 0.01801984 0.11730071
0000d0 f7 17 2b bf 19 23 b1 3d 3c c6 1e bd 8a 62 04 3e
       -0.6683344 0.086492725 -0.03876327 0.12928215
0000e0 83 57 7a be 79 61 a2 bd cd a4 0b 3e 6e 46 a0 3d
       -0.24447446 -0.07928748 0.13637085 0.078259334
0000f0 03 1f a4 be 8e bb a4 bf 2f 69 ef ba 7e 52 63 3e
       -0.3205491 -1.2869737 -0.00182656 0.22199437
000100 f5 83 21 be 1b 83 a6 bc 57 07 3e bd 17 3a 74 3d
       -0.15772994 -0.020326188 -0.04639372 0.05962571
000110 ac e1 4a bf 23 3e bf bd 88 98 a2 3e ea 4f 09 bd
       -0.792506 -0.093380235 0.31756997 -0.033523478
000120 81 ad 5e bf 81 02 ed bd 50 45 8b be 33 ec fb bd
       -0.86983496 -0.11572743 -0.2720132 -0.12300911
000130 3b ba e4 3a 0b e8 6e 3b 68 29 83 3d eb 52 61 bf
       0.001745052 0.0036454226 0.06404382 -0.8801715
000140 f2 56 32 3e 6e 64 f7 bd 8d 73 a0 3e 8b df 17 bd
       0.1741598 -0.12079702 0.31338158 -0.03707842
000150 06 95 a5 be 39 2c 1d 3e 50 d4 e3 be fa 33 6b be
       -0.32340258 0.15348901 -0.4449792 -0.22969046
000160 84 b4 85 bd 8d 96 96 bd 8a 88 a9 be 23 94 09 3e
       -0.06528571 -0.07352934 -0.33111984 0.13435416
000170 0f 92 55 3d ca 32 89 3c db 96 26 bf 5d da 8e be
       0.052141245 0.01674785 -0.6507394 -0.27900973
000180 6d 94 1b be f5 0a 15 be ca a3 1f bf 74 2e d3 3e
       -0.15193339 -0.14554961 -0.623593 0.41246378
000190 e5 a9 cb be 7d 25 e9 3d e4 7c 3b bf 6a 89 c7 be
       -0.39778057 0.113841034 -0.7323744 -0.38972026
0001a0 2c b6 10 be 26 99 6b be 84 66 88 3d eb 1b c9 be
       -0.14131993 -0.2300764 0.06660178 -0.39279112
0001b0 6f 0c 89 3d 71 bf 0f 3e 5d dc e8 3b 44 4e b5 bd
       0.06691825 0.14037873 0.0071063475 -0.088528186
0001c0 b8 08 96 be 8d 24 05 be 98 6e 09 be 50 17 d1 3b
       -0.29303527 -0.13002224 -0.13421094 0.006380953
0001d0 86 41 fb be e7 4f d9 be e5 86 4c be 14 1a 0d bf
       -0.49073428 -0.42443773 -0.19973333 -0.5511792
0001e0 b6 0e 6e be c5 c0 a7 3d 18 f9 22 3d 9c 03 cd bd
       -0.232478 0.08191065 0.039788336 -0.10010454
0001f0 ba b9 c2 be e2 cf ed 3e d5 91 9b 3e d0 e3 57 bf
       -0.38032323 0.46447664 0.303847 -0.8433199

actor.l3.weight f4 [17, 128]
000000 2a 3c 0c bf fa de 27 3e 9b 54 22 3e 8c 65 49 bf
       -0.54779303 0.16393653 0.15852587 -0.78670573
000010 07 f4 d4 3d 69 82 57 3e 4c 03 9e be 6f f2 d7 3e
       0.10398107 0.21045841 -0.3086189 0.4217715
000020 90 cf 14 3f 03 c0 8d 3e ba a1 58 3e 3c 6b 6f 3d
       0.58129215 0.27685556 0.21155444 0.058451876
000030 e6 ff b4 3b 34 a8 1a 3d 16 5a 25 3f 1f 93 0f be
       0.0055236695 0.037758067 0.64590585 -0.14020966
000040 eb 26 8c be 9f c2 24 be c4 b1 eb bd 53 13 07 bd
       -0.27373442 -0.16089867 -0.115085155 -0.032977413
000050 f8 c5 9b be ac c3 09 3f db 46 5b 3e ca 9c 60 3c
       -0.30424476 0.53814197 0.21413748 0.013709256
000060 8f 51 4e bf 34 73 cb 3e d9 07 37 3c ad 32 88 3f
       -0.805932 0.3973633 0.011171305 1.0640465
000070 da 6d 54 3f f1 6b 31 3f a4 a5 0e be 13 4d d2 3c
       0.8298012 0.6930533 -0.13930374 0.025671517
000080 b2 c7 1f be bc af ad bd dc 80 c6 be a9 f8 e6 be
       -0.15603521 -0.08480784 -0.38770187 -0.45111588
000090 bd 93 e0 3d 86 fb 66 be f5 c4 db 3e c5 52 01 bf
       0.10965679 -0.22556886 0.42923704 -0.5051692
0000a0 39 11 47 3e 24 a9 70 be 36 9e 3c 3e e5 87 c9 bd
       0.19440164 -0.23502022 0.18419728 -0.09840373
0000b0 12 ed 88 3d ef 6e c5 3e 80 5b 8b be f5 ea cc 3e
       0.066858426 0.38561198 -0.27218246 0.40023008
0000c0 c0 71 71 be f8 fe ce 3e 88 4f b8 bd c5 df fe be
       -0.23578548 0.404289 -0.089995444 -0.49780098
0000d0 e4 1f da be cb 2e 98 3e 14 cc 4c be 01 14 bd 3e
       -0.42602456 0.297232 -0.19999725 0.36929324
0000e0 47 6d 66 3f de 37 83 bd fd 2a 65 be f5 29 3d be
       0.90010494 -0.0640714 -0.2237968 -0.18473037
0000f0 d4 60 0f 3f 2c 27 c6 3d fa 82 07 bf 5c 38 34 3e
       0.56007123 0.0967544 -0.5293423 0.17599624
000100 32 d2 f7 3d f3 cb 6e bd 24 74 82 bd be 10 9f be
       0.121006384 -0.05829997 -0.06369808 -0.3106746
000110 c1 aa 2d bf 24 fe b8 3e 48 8e 95 3d 15 7e cb 3e
       -0.67838675 0.36131394 0.073025286 0.3974463
000120 f5 32 72 3e 49 52 05 3f 85 6d fd 3d 0f 93 91 3e
       0.23652251 0.5207868 0.12374405 0.2843251
000130 4e f5 c4 3e f1 a7 72 3e 6a 92 c5 3a 0d ec 7a 3e
       0.38468403 0.23696877 0.0015073542 0.24504109
000140 f8 40 1f be e8 ab 0d 3d 39 52 42 be dd 7d 41 3e
       -0.15552127 0.03458777 -0.18976678 0.1889567
000150 22 69 8d 3d 26 68 be be 64 14 1b be 14 1f 73 3e
       0.06904818 -0.37188834 -0.15144497 0.23742324
000160 27 01 56 3d d3 2c 80 be 01 36 9d 3e 6a 06 be 3e
       0.052247193 -0.25034198 0.30705264 0.3711427
000170 34 e2 96 be 3c 4d 21 bf 4d 8f 40 be 68 36 9f be
       -0.29469454 -0.63008475 -0.18804665 -0.31096196
000180 b6 9a 48 3f a0 a4 38 3f 8c a7 68 be d6 bb 42 3e
       0.7836107 0.721262 -0.22720164 0.19016966
000190 7d 39 81 be 9b d5 29 be 06 df 25 bf 65 09 19 3d
       -0.25239173 -0.1658539 -0.6479343 0.037362475
0001a0 3e 6b fa bd be 8c b3 be 65 5f b1 3e c2 38 ee bc
       -0.12227486 -0.35068315 0.34643093 -0.029079799
0001b0 c2 0a 4a be 2b b0 6d 3d 71 61 14 3c 9c 1c b9 be
       -0.19730666 0.058029335 0.009056435 -0.3615464
0001c0 4d 67 a7 3e 0f 3f b1 3c c1 3b 2d 3e 18 c7 58 3f
       0.32696 0.021636514 0.16917326 0.8467879
0001d0 0a 93 d5 3b b3 ee ff be 8c 14 9b 3e 84 ab 71 3f
       0.0065177726 -0.499868 0.30289114 0.9440234
0001e0 47 6f 11 be 3c 4d cd 3d 6c 54 bd 3c cb ff 26 bf
       -0.14202605 0.10024497 0.023111545 -0.6523406
0001f0 f4 68 c2 bd cc 6f 2c 3e 8a d2 51 3c 03 37 8e bf
       -0.094926745 0.16839522 0.012806544 -1.1110538
000200 f3 0c 30 3e a1 5f 17 3f 8b a7 f2 be 39 2d 71 be
       0.1719244 0.59130293 -0.4739345 -0.23552407
000210 ca c3 18 3e 6f d4 0f 3f 3a 3d 85 be 56 5f 14 3f
       0.14918438 0.5618352 -0.26023275 0.5795797
000220 e4 c6 e2 3c 53 c7 e5 3e 9e b4 97 3d 9e 42 4a bf
       0.027682729 0.44878635 0.07407497 -0.790079
000230 7a 1d b1 bd 6e 8a 2c ba 5a 55 cc 3e fd de 0e be
       -0.086482 -0.0006581907 0.39908868 -0.13952251
000240 50 4e 0d be a6 53 bf 3e 2e 4f b4 3e d2 dc d4 be
       -0.13799405 0.37368506 0.3521666 -0.41574723
000250 90 d1 d8 3e f0 40 1f 3f ea 73 5b 3e 89 49 f2 be
       0.42347383 0.6220846 0.21430936 -0.47321728
000260 32 b1 24 be f6 db eb bd 47 ce 61 3e 9b 82 29 3f
       -0.1608322 -0.115165636 0.22051345 0.66214913
000270 32 8e 41 bf 7e 3d 05 bf 01 e6 4a 3c 46 b7 a0 3e
       -0.756076 -0.52046955 0.012383939 0.31389827
000280 52 a8 39 be ba 01 06 3f 10 01 58 be a9 96 bb be
       -0.18130615 0.52346385 -0.21094155 -0.36638382
000290 21 85 81 3e c6 e0 ca be 95 e0 5f 3f fe 23 01 3f
       0.25296882 -0.39624614 0.8745206 0.50445545
0002a0 5d 13 3b bf ea 73 26 3f 7c af 0e bf 4c 35 51 bf
       -0.7307642 0.6502062 -0.5573652 -0.8172195
0002b0 61 65 ef 3d 63 68 95 be 2a 71 8d 3d c4 b4 ab be
       0.11689258 -0.29181203 0.0690635 -0.3353635
0002c0 19 b6 11 3f c9 0c 43 bf 3c fe a9 3d 2d 75 28 bf
       0.56918484 -0.76191384 0.083004445 -0.65803796
0002d0 9c 30 9b bc 18 fe 90 be db 7d 09 3e 0c f5 1b 3d
       -0.018944077 -0.28318858 0.13426916 0.03807549
0002e0 6c 8b e1 3e 07 81 8c bd fc 89 a3 be 63 7b 5f be
       0.44051683 -0.068605475 -0.3194121 -0.21824412
0002f0 71 ac c6 be cf d1 62 bf ef 10 2e 3d 02 be 44 3d
       -0.38803437 -0.8860139 0.042496618 0.048032768
000300 a5 0c c9 be 7d ac 82 3e d7 0f 74 3e 3a 13 16 3e
       -0.3926746 0.25522223 0.23834167 0.14655772
000310 f2 f5 42 3e 5b 9b 96 3e 2e 21 d5 be da 4c e7 bd
       0.19039133 0.29415402 -0.41626877 -0.11293955
000320 5c c9 1b bf d4 d7 fe 3e 7c 0f 43 3f 48 c5 30 bf
       -0.60854125 0.4977404 0.761955 -0.6905103
000330 93 0f fa 3d ba c3 9c bc e6 dd e9 bd fa 99 fc be
       0.12210002 -0.019136298 -0.11419277 -0.49336225
000340 6c c7 8b 3d e3 85 a8 3e c0 ba 16 be 67 91 cf be
       0.06825146 0.32914647 -0.14719677 -0.4054062
000350 6f 29 59 be 5d 07 78 be e4 31 ba bd a8 1a 00 3f
       -0.21207212 -0.24221559 -0.09091547 0.50040674
000360 34 a8 ad bc 01 87 88 3e 9a 49 2d 3e 68 bb b1 3a
       -0.02119837 0.266655 0.16922608 0.001355988
000370 ef e9 bb 3d 21 26 81 3c b6 c8 9b 3f 9b 7b 13 bf
       0.09175479 0.015765252 1.2170627 -0.5761048
000380 38 5e dd 3e 4e c4 c6 3e 79 bd e3 bb 3b da d7 bd
       0.43235946 0.38821644 -0.006950077 -0.10539671
000390 f7 70 e3 3e 3d 57 0d 3f 1c f0 84 be 7f 6f b2 3d
       0.44422123 0.5521124 -0.2596444 0.087126724
0003a0 ba 00 c0 be 36 38 d7 3e 1c cf 7e 3e 60 12 52 3d
       -0.37500554 0.42035073 0.24883693 0.051287055
0003b0 fd 1c ad bd b0 ad b9 be e4 8f 76 be 6c 47 ea 3d
       -0.08452795 -0.36265326 -0.24078327 0.11439404
0003c0 19 2c 1e be 14 97 04 bf 37 8d 09 3d 7b 1d 81 be
       -0.1544651 -0.51793027 0.03358194 -0.25217804
0003d0 7e 79 65 3d ec c5 28 be 37 55 b3 3e 2e 21 1e 3f
       0.056024067 -0.16481751 0.3502595 0.6176938
0003e0 0e 8a ff 3d f7 a3 2a 3e 28 c8 97 3e f6 3b fc 3e
       0.12477504 0.1666411 0.29644895 0.49264497
0003f0 16 7d 42 3e 56 67 54 3a 25 e4 fb 3d 5f 3e d9 be
       0.18993029 0.00081025565 0.122993745 -0.42430398

actor.l3.bias f4 [17]
000000 d0 2d 60 be 8d 90 9e 3e 13 2f 90 bd 4d 93 1a 3f
       -0.21892476 0.30969658 -0.07040229 0.60381013
000010 0d d5 54 3e 60 6f 8f 3d d4 6a 60 3f 4e 6d 23 3e
       0.20784397 0.07003665 0.87663007 0.15959665
000020 e3 39 9f be a7 84 d3 3e 72 72 87 3f da 1a 80 be
       -0.31098852 0.41312143 1.0581801 -0.25020486
000030 23 87 99 be d8 c5 c5 3e 37 c5 13 3e fd 3f b6 bd
       -0.29985914 0.38627505 0.144307 -0.088989235
000040 fb 06 b0 be
       -0.34380326
