TRPO/models/pruning/TRPO-Hopper-0.5-l2.onnx (onnx, 21337 bytes, 6 tensors)

actor.l1.weight f4 [64, 11]
000000 c8 0c 87 bd bd 43 f2 bd e1 bb ec bd 0b 91 2c 3d
       -0.06594235 -0.11829326 -0.115592726 0.04213051
000010 b2 54 1b 3e 34 25 26 3e a0 52 9f be e3 22 2f 3e
       0.15169027 0.1622513 -0.31117725 0.17103152
000020 21 e4 f9 3d 11 eb a6 3e e5 85 89 3e 82 a7 9e be
       0.12201715 0.32601216 0.26859966 -0.30987173
000030 57 a8 93 be 0b ab 2a be 39 fd 8e 3e eb 11 37 bd
       -0.2883937 -0.1666681 0.2792757 -0.044694822
000040 8e d2 e6 3d 8d 78 1e be 5a 03 5a 3e d0 db 2b be
       0.11270629 -0.15475674 0.21290341 -0.1678307
000050 f8 40 2d 3e 40 c9 96 bd 48 6b 89 3e f7 b2 a9 bc
       0.16919315 -0.07362604 0.26839662 -0.02071522
000060 61 56 43 be b1 47 51 3e 4a dc bc 3d 51 c3 4d be
       -0.1907592 0.20437504 0.09221704 -0.20094039
000070 e7 d8 9c 3e f8 e1 4b 3e a7 9c 8c 3e 2f 4b c0 bd
       0.30634233 0.19910419 0.27463266 -0.0938934
000080 83 14 af 3d a4 8d ee 3d 95 d3 9a be ac 99 0c 3e
       0.08548834 0.116481096 -0.3023955 0.13730496
000090 61 bd 59 be ce 86 7f be 29 c1 a3 bc 66 b0 41 bd
       -0.21263649 -0.24953768 -0.019989567 -0.047287367
0000a0 5c 40 04 3e ac 89 15 be 66 35 a1 be cb 3a 52 3e
       0.12915176 -0.14603299 -0.31486052 0.2053024
0000b0 86 04 03 be 28 05 94 3e ec a8 9d bd bb c9 38 3e
       -0.12794694 0.28910184 -0.07698235 0.18045704
0000c0 05 97 ec 3d 75 f8 2f be 98 4f a0 be b8 f8 b7 3e
       0.11552242 -0.17184623 -0.31310725 0.35931945
0000d0 b8 05 f3 3d 52 05 48 3e 27 96 5e 3d 27 de 6a ba
       0.11866325 0.1953328 0.054342415 -0.0008959495
0000e0 77 bf 84 3e 29 42 a8 3e 11 4f 44 be 15 94 5d 3d
       0.25927326 0.32862976 -0.19170786 0.0540963
0000f0 3b 10 78 3e fe fe 92 3e 18 ce 83 3e 80 61 2f be
       0.24224941 0.2871017 0.25743175 -0.17127037
000100 72 65 68 be b7 79 63 be cc b0 fb 3c 00 f3 97 3e
       -0.22694948 -0.222144 0.030723952 0.29677582
000110 1e 83 34 be 44 99 28 3e 0e 71 2c be c8 1e 97 be
       -0.17628142 0.16464716 -0.16840002 -0.29515672
000120 3b 16 d7 3c e9 65 2f 3e 7c a2 95 3e 0a 72 4e be
       0.026255718 0.1712872 0.29225528 -0.2016069
000130 25 2d 14 3e 2f 66 86 3e f7 f3 59 3e 6c 45 63 3e
       0.14470346 0.26249835 0.21284471 0.22194451
000140 56 e5 5c 3e 3c d7 39 3e 2d 9c 93 3d 69 61 15 be
       0.2157186 0.18148512 0.072075225 -0.1458794
000150 d7 34 8b be 25 65 2f be c5 73 36 3c 1b 02 53 be
       -0.2718875 -0.17128427 0.011136 -0.20606272
000160 59 98 97 be 12 e2 3d be d7 84 47 be 46 db fe bd
       -0.2960842 -0.1854327 -0.19484268 -0.12444167
000170 d8 be 5d 3e 2d af 98 bd ff 9a 8a be 8f 3a f5 3d
       0.21654832 -0.07455287 -0.27071378 0.1197406
000180 c2 fa d7 3d 64 00 36 3e 53 79 08 be 46 3f 68 3e
       0.10545875 0.17773587 -0.13327532 0.22680387
000190 73 83 4a bc 52 f6 63 be 6f 5c 67 3e a4 54 8a bd
       -0.0123604415 -0.22261932 0.22593854 -0.06754425
0001a0 bb 32 93 bc c0 be 75 be e5 67 97 bd 81 58 66 be
       -0.017968526 -0.23998547 -0.07392863 -0.22494699
0001b0 68 bb 7c 3e 0f d3 8f be f3 bd 18 3e 02 f9 3c 3d
       0.24680865 -0.28090712 0.1491621 0.04613591
0001c0 15 22 09 3e 86 50 91 be 8b 26 9f 3e 40 69 83 3e
       0.13391908 -0.28381747 0.31084093 0.25666237
0001d0 6b 0c da 3e 3c d5 43 3e d4 f3 b3 be a9 9d 07 be
       0.425876 0.19124311 -0.35146964 -0.13243736
0001e0 a8 4f 1d 3e 1c 52 4a be f4 3c 91 3e f2 d2 81 be
       0.15362418 -0.19757885 0.28366816 -0.2535625
0001f0 c5 56 63 be 84 49 37 3e a7 85 25 be f7 0f c3 bd
       -0.22201069 0.17899138 -0.16164266 -0.095245294
000200 4a 94 8a 3e 84 53 72 3e 76 53 89 3e 82 d9 44 3c
       0.2706626 0.23664671 0.26821488 0.0120147485
000210 37 ca 5e be 16 45 a1 3e 79 da 3f bd ae 21 06 be
       -0.21756826 0.3149802 -0.04683921 -0.13098785
000220 13 09 c0 3d d6 bc 41 be 02 13 3e 3e a5 21 d9 3d
       0.09376731 -0.18919691 0.18561938 0.1060212
000230 50 4f a7 be db c0 a4 be 15 b1 e1 bd 38 18 49 3e
       -0.32677698 -0.32178387 -0.11020104 0.19638145
000240 14 ae 05 bb b2 2b 32 be d2 3d 92 3a 90 d0 91 be
       -0.0020397948 -0.17399481 0.001115734 -0.28479433
000250 a2 86 31 be 55 de 7c be ed 86 8c 3e ee 70 7f 3e
       -0.17336515 -0.24694188 0.2744669 0.24945423
000260 70 ba 20 be 97 ce ee 3c 83 80 b2 3d 51 f5 0c 3d
       -0.1569612 0.029151244 0.08715918 0.03441364
000270 ef cb 02 be 66 ac 34 3e 71 75 4d 3e 4e d4 35 bd
       -0.12773107 0.1764389 0.20064332 -0.044391923
000280 cc 64 a2 3d 78 1a bc 3e 99 a5 be 3e 9d 7f f3 bd
       0.07929382 0.36738944 0.37235716 -0.11889575
000290 a4 09 ee 3d ca 63 18 3e 95 be 87 3e c5 ee 2a bd
       0.116229326 0.14881817 0.2651259 -0.041731615
0002a0 f5 49 b3 bd 06 99 b2 be 21 f0 2a be b6 6c b3 3d
       -0.087543406 -0.34882373 -0.16693164 0.08760969
0002b0 21 30 d2 be 1c 83 c5 bd ff e2 37 3e 66 36 2b 3e
       -0.41052344 -0.09644148 0.17957686 0.1671997
0002c0 9e c2 77 be a8 5f 81 be a6 e4 9a 3e 92 c0 23 bd
       -0.24195334 -0.25268292 0.3025257 -0.03997857
0002d0 09 a8 a3 bd ac e8 07 be 1a 03 e0 bd c0 68 84 be
       -0.079910345 -0.13272351 -0.109380916 -0.25861168
0002e0 df b7 fb bd b9 45 52 3e 31 64 5e bd 71 82 9a 3e
       -0.1229093 0.2053441 -0.05429477 0.30177644
0002f0 62 1b b1 3d 0e d3 95 3e 2a f8 3a 3e e6 fd 1a be
       0.08647801 0.29262584 0.1825873 -0.15135917
000300 de 74 50 3e 2b e9 53 3d e9 7b 9b be 19 1c 06 be
       0.20357081 0.05173604 -0.30367973 -0.13096656
000310 cc 92 8e be a7 42 f1 bd 07 ad 19 be 47 cf f4 bd
       -0.27846372 -0.11780291 -0.15007411 -0.119535975
000320 3d 31 7d be 73 b9 8c 3e 12 a1 c4 3d 86 66 81 3e
       -0.24725814 0.27485237 0.09601034 0.25273532
000330 13 a0 10 3d 43 e2 46 3e ba 7b 28 bd d1 6d 99 be
       0.03530891 0.1942225 -0.04113362 -0.29966596
000340 a4 b9 83 bd 08 9c 66 be 36 57 9a 3e 25 ca 8a be
       -0.064318925 -0.22520459 0.30144662 -0.2710735
000350 1b c3 39 3e 2d 7a 13 3d 28 aa 1c 3e 7d 99 e6 bd
       0.18140833 0.036005188 0.15299284 -0.11259744
000360 ea bd 5f 3e 2b 1b c2 bd be 4f 90 be 4b 44 1e 3e
       0.2184979 -0.09477838 -0.28185838 0.15455739
000370 f7 1d 0f 3e 6e ad a0 3e 9a 9d c6 bb 8c aa 8f 3e
       0.13976274 0.31382316 -0.006061268 0.28059804
000380 15 2a 5c 3e e9 4c 22 be 2d e2 57 be 9a 19 86 3d
       0.21500428 -0.15849651 -0.21082373 0.06547852
000390 2c a9 85 be 0d 85 20 3d 2b 6d 8f be 0a bf 9d 3e
       -0.2610563 0.039189387 -0.28012976 0.30809814
0003a0 bd e9 a9 3e f0 f6 9f 3e 12 8d 89 be 17 45 b2 3c
       0.3318614 0.31243086 -0.2686544 0.02176146
0003b0 73 88 7f 3d 1c 41 a2 be ee 78 c1 3d 2a e0 9e bd
       0.062385987 -0.316903 0.09446894 -0.077576
0003c0 97 ff 45 3e 43 bf 11 3e 30 51 8c 3e d6 ff 2f be
       0.19335781 0.14233117 0.2740569 -0.17187437
0003d0 64 6b 82 be 01 ed 89 3e a9 7a 1f 3e 3a 47 29 3e
       -0.25472558 0.26938632 0.15574135 0.16531077
0003e0 b8 6f e0 3d e2 3c b1 bd 2c 3f 37 3e 00 fc 89 be
       0.10958809 -0.086541906 0.17895192 -0.26950073
0003f0 a2 83 0d 3d f3 8f 2f 3e 8a 01 38 3e 30 6d 39 be
       0.034549363 0.17144756 0.17969337 -0.18108058

actor.l1.bias f4 [64]
000000 bc a4 f7 3d ef 04 3f 3e 97 00 8c be f5 e9 3a be
       0.120919675 0.18654226 -0.273442 -0.1825331
000010 47 0e ee 3d f3 f1 b0 3d 68 fc 8a be 91 ba e2 3d
       0.11623817 0.08639898 -0.27145696 0.11070741
000020 39 6f 94 3d b2 c2 74 3d b8 b3 28 3e 54 d3 ca 3d
       0.072477765 0.05975599 0.16474807 0.09903589
000030 09 d8 8b 3e 12 6a 0a 3e d2 58 55 be d2 84 c3 3e
       0.2731326 0.13517025 -0.20834664 0.3818727
000040 6b 40 82 be 67 bf 82 be 2f ee d6 bd ec 40 38 be
       -0.25439772 -0.25536653 -0.10494649 -0.17993516
000050 43 ea fd bd b2 e4 6c 3e 1f 4c 39 3e 26 70 80 3b
       -0.123981975 0.23134115 0.18095444 0.003919619
000060 eb 68 97 bd 09 d2 18 bc ea 0a 5c be 30 cc 36 bb
       -0.073930584 -0.00932742 -0.21488538 -0.0027892701
000070 ed 5b 84 bd 2a 7a 85 bd 18 c9 68 bd 2e 70 94 be
       -0.06462846 -0.065174416 -0.056832403 -0.28991836
000080 d0 c2 96 3c 7e 74 29 3d d0 16 59 3e 74 39 7d 3d
       0.01840344 0.04137086 0.21200109 0.06182237
000090 48 e3 34 bd c1 51 0a be 58 01 16 3e 77 e3 60 3d
       -0.044162065 -0.13507749 0.1464895 0.054904427
0000a0 3b 8c 85 3e 75 15 6c 3d 71 88 8a bd 8b b9 b4 3c
       0.2608355 0.05763765 -0.067643054 0.02206113
0000b0 53 7e d0 bd b4 2f 83 bd e3 90 a8 bd a3 b2 51 3c
       -0.101803444 -0.06405583 -0.0823076 0.012798938
0000c0 31 cb 30 bd e7 57 af bc de a3 76 3e 2c 21 65 3e
       -0.04316253 -0.02140422 0.24085948 0.22375935
0000d0 ee b9 cf 3d 74 63 fd bd cd e2 02 3d cb 4c 4c 3e
       0.10142885 -0.12372485 0.031954575 0.19951169
0000e0 1d 02 9e bd 7d d1 a5 3e 54 bc 65 3c ca e6 51 3d
       -0.07715247 0.3238639 0.014021952 0.05124549
0000f0 b8 42 4a 3e c5 f3 e5 bd cb 4d e2 bd 21 ba f6 3b
       0.19752014 -0.11228136 -0.11049994 0.0075295125

actor.l2.weight f4 [64, 64]
000000 5d df b9 3d fd 6a 3f 3d 79 a4 60 bb f1 8c 1f bd
       0.09075806 0.04673289 -0.003427772 -0.03895277
000010 83 22 9e 3d e1 de c8 bd f5 0c 97 bd 5f 3f 7d 3d
       0.07721426 -0.09808136 -0.07375518 0.061828014
000020 61 52 92 bd 9f 81 04 bd 88 33 99 bd 34 d6 fe 3c
       -0.07144619 -0.03235018 -0.07480532 0.031108
000030 37 27 59 3d 49 b8 ad 3d 86 8d 50 bd e2 42 c1 bc
       0.053015914 0.08482415 -0.050916217 -0.023591463
000040 03 12 fa bc 9f 01 b5 3c 11 8c ed 3b c7 39 ab 3b
       -0.030526167 0.0220955 0.007249363 0.0052253935
000050 ae 1b 56 bd da 77 d1 3d 3c e6 a2 3d 80 9a 63 bb
       -0.05227249 0.10227938 0.0795407 -0.003472954
000060 90 43 a2 3c cb c8 6d bd c4 6e b6 3d b8 b8 8b 3d
       0.019807607 -0.05805282 0.089078456 0.06822342
000070 72 68 89 bd 0e f9 71 3d 6a 6a c7 bd 65 1b 56 3d
       -0.067093745 0.059075408 -0.09737094 0.05227222
000080 ce 01 41 3d cb e3 e8 3d 19 3d b9 3c da 9d ab 3c
       0.04712086 0.11371573 0.022612141 0.020949293
000090 49 f4 6d bd 50 e8 b0 3b ce c4 fc 3d 6b 75 ba 3c
       -0.058094297 0.0053987876 0.12342225 0.022761067
0000a0 14 3c 2f bd f6 78 bd bb 7e 37 28 3d b5 04 92 3d
       -0.042781904 -0.005782242 0.041068546 0.07129804
0000b0 9b c9 f9 3b 33 fb 04 3d 55 10 a1 3d bc b3 e6 3b
       0.00762291 0.032466125 0.07864443 0.007040469
0000c0 5a 71 0e bc 9b f3 19 be b8 82 8d 3d 6a 07 3e bc
       -0.008694017 -0.15034334 0.06909698 -0.011598447
0000d0 06 0f ed 3d 40 3d 9c bd b7 73 e4 3d 45 39 50 3d
       0.11575131 -0.0762887 0.11154883 0.050835866
0000e0 ab f5 f5 bb 5d 6c c6 3c cd 8d 92 bd 06 18 04 3c
       -0.0075060925 0.024221594 -0.071559526 0.008062368
0000f0 04 18 06 3d bf bf 8a bd 59 6d 96 bd 0d 35 84 3d
       0.032737747 -0.06774854 -0.07345075 0.06455431
000100 47 08 96 bc a4 87 0e 3c 86 08 69 3d 28 e2 dc 3a
       -0.018314494 0.008699331 0.056892894 0.0016852068
000110 cb 93 3d 3b 69 61 a2 bd 8f 35 b2 3d a2 87 b8 bd
       0.0028927203 -0.07928736 0.08701622 -0.09010245
000120 95 76 00 bd 71 94 d0 bc 18 ea fa 3c 8c 88 31 3d
       -0.03136309 -0.025461407 0.030629203 0.043343112
000130 48 f2 ec bd 9a 02 de 3d 7b e2 11 bd 0c 78 d7 bc
       -0.11569649 0.1084034 -0.03561638 -0.02630236
000140 c9 29 8d 3d 0f f7 4b 3d 03 73 5c 3c 87 79 34 bd
       0.068927355 0.04979616 0.013455155 -0.04406121
000150 8e b0 51 3d 9b 58 90 bd ae 82 d3 3c 8c 1d 17 3d
       0.051193766 -0.0704815 0.025819149 0.036893412
000160 ce d9 31 bd aa 09 d3 bc 71 f5 7d bd 32 25 e4 3d
       -0.043420605 -0.025761444 -0.06200165 0.11139907
000170 d3 b6 5e 3d fa d2 8f 3d a5 4f 64 3d 0c a1 bf 3c
       0.054373574 0.070226625 0.055740017 0.023392223
000180 c2 30 02 bb 7e 45 a4 bd e7 68 9c 3a e1 ab 21 3d
       -0.0019865488 -0.08021067 0.0011933119 0.039470557
000190 5e 4c 92 bd ef cb 7a bd 3a 56 67 bb fc be 49 bd
       -0.07143472 -0.061229642 -0.0035299198 -0.049254403
0001a0 94 82 34 3d 1d 42 ce 3d df 92 53 bd ba 64 23 bd
       0.04406984 0.10071204 -0.05165374 -0.039890982
0001b0 95 c0 6d 3c a7 ad 0c bd fe 10 bf bd fb 44 d4 bd
       0.014511247 -0.034345295 -0.09329413 -0.103647195
0001c0 e0 24 e7 3c b8 cc 53 bc 0f b2 be bd a9 49 e8 bc
       0.028215826 -0.012927227 -0.09311306 -0.028355436
0001d0 c6 10 82 3d 31 de 90 bb a8 30 2e 3c f7 85 7a 3b
       0.063508555 -0.0044210185 0.010631718 0.0038226822
0001e0 81 ff bc 3d 51 c0 86 3b 92 2e 1c 3d 9b f1 bf 3c
       0.09228421 0.0041122814 0.03813035 0.023430636
0001f0 f5 36 4f 3d 4d e5 80 3d 29 ff f6 bc f1 c4 33 3d
       0.05058952 0.06293736 -0.030150967 0.04388899
000200 e8 fa 14 3d c7 2b 0a bd a5 36 1d 3d 9f 92 2c 3d
       0.036372095 -0.033733156 0.03838219 0.042132016
000210 6f d7 95 bd fc e0 66 bd 2f 8d af 3c 3d e6 03 3d
       -0.07316481 -0.056366906 0.021429626 0.032201994
000220 da 69 e0 bc e4 78 26 3e 41 7e c6 bb f7 58 a2 bd
       -0.027394224 0.16257054 -0.006057531 -0.07927125
000230 c0 9e 37 bd 33 94 3b bd 3a 07 a1 3d 29 b2 79 3d
       -0.04482913 -0.04579563 0.078627065 0.060960922
000240 4c 64 6e 3c 5e c3 c0 bc 74 ce db 3d 2d e3 0a 3d
       0.01455028 -0.023530658 0.10732737 0.033908058
000250 0d 5e af 3d 46 1c 4e bd 10 09 f1 3d 52 45 75 3d
       0.08562861 -0.050319932 0.11769307 0.059880562
000260 4d 46 19 3d d5 d0 dc 3d b3 87 4a 3d 39 dd fd 3d
       0.03742056 0.10782019 0.04944582 0.123957105
000270 c3 2e 22 3d b7 2a b6 bd 3d a9 4f bc 0b b8 e6 3d
       0.039595377 -0.08894866 -0.012674627 0.11265572
000280 ea ac cc 3d f2 1e 8b 3d 85 dd 02 3d c7 65 74 3d
       0.09993918 0.06793012 0.03194954 0.059667375
000290 34 4d 29 3d 39 50 d7 3c df ce ed bc 98 88 67 3d
       0.041333392 0.02628337 -0.029029308 0.05652675
0002a0 4a 04 8d 3d b9 38 68 bb 8a 18 51 3c d7 ec b7 3d
       0.06885584 -0.00354342 0.012762198 0.089807205
0002b0 c4 c9 83 bc 65 19 8c 3d c1 b8 5e 3a 6c d3 84 3d
       -0.01608742 0.06840781 0.00084961584 0.06485638
0002c0 b1 54 71 bd d1 79 92 3c d1 03 54 bd f4 54 2c 3d
       -0.05891866 0.017880352 -0.051761452 0.042073205
0002d0 b6 f9 0b bd b2 64 1f bd 85 06 a9 3d 11 a2 5e bd
       -0.03417369 -0.03891439 0.082531966 -0.054353777
0002e0 92 2a a2 3b 49 62 88 3d ea fb 65 3d 8f c6 37 bd
       0.0049489224 0.066593714 0.056148447 -0.044867095
0002f0 5e 0f cc bc fe 99 30 bd 59 d0 3a 3d e4 f2 8f bd
       -0.024909671 -0.04311561 0.045608852 -0.070287496
000300 0d 0a 25 3c 1e 4d 41 3d d0 e2 2f bd ff ae c5 bd
       0.010073197 0.047192685 -0.042940915 -0.096525185
000310 e2 38 79 3c 7c a8 3a 3d 11 48 25 3d 47 b4 48 bd
       0.015211316 0.045570835 0.04035193 -0.04900005
000320 b7 f2 a6 bd 10 be 34 bd 66 2a 4e 3d ec e3 a9 bd
       -0.08151763 -0.04412657 0.050333403 -0.08295426
000330 a4 69 a1 bd 77 89 c3 3d 0f b0 75 bc d6 ae 91 3d
       -0.078814775 0.09547704 -0.014995589 0.071134254
000340 a4 c5 ed 3b 87 c3 22 bd 9b 5b ed 3c fc 72 bf bc
       0.0072562266 -0.03973725 0.028974345 -0.023370259
000350 13 9d 95 bd 5b 9e 91 bd df 4f 16 bd 75 17 17 3d
       -0.0730535 -0.07110282 -0.036697265 0.036887605
000360 c4 db 46 bd 55 4a eb bc c9 72 7b 3c dc 72 48 3d
       -0.04854943 -0.028721968 0.015347191 0.048937663
000370 0e 9b cd 3b d1 ac 16 3d b6 2e ba bd 38 cc ae bd
       0.0062745875 0.036785904 -0.09090941 -0.085350454
000380 ba 11 b2 3d 15 90 71 bd 7e ab 7d 3d 80 9c 52 bc
       0.08694787 -0.058975298 0.061931126 -0.012854695
000390 1d 15 da bc ef 3c 39 bd 84 42 49 bd 94 40 04 be
       -0.026621396 -0.045224126 -0.0491357 -0.1291526
0003a0 05 6e 25 bd 98 23 10 bd e5 41 dc 3c 1a 66 ae 3d
       -0.040388126 -0.035190195 0.02688689 0.08515568
0003b0 48 3d f6 bd c2 74 d1 3c 98 40 06 bd ce 0c c6 bd
       -0.12023407 0.02556837 -0.032776445 -0.09670411
0003c0 f6 b6 0c 3d 67 ff 57 3c e9 c5 ef 3d 4e 7c 75 3d
       0.034354173 0.013183451 0.1170767 0.059933
0003d0 1c 0d a5 3c 35 86 01 3c c6 61 97 3b b0 c6 7b bc
       0.020147853 0.007905533 0.00461981 -0.015367195
0003e0 d0 14 28 3d fc f7 bc 3d a7 be a7 3d 27 63 9a bc
       0.041035473 0.09226987 0.08190661 -0.018846108
0003f0 d0 17 9b bd bb 2e fa bd 10 e1 5d bd 45 0d 45 3c
       -0.07572901 -0.122159444 -0.054169714 0.0120270895

actor.l2.bias f4 [64]
000000 11 f5 ae 3d 06 65 83 bc 6f 6d ac 3d f4 05 f9 3b
       0.085428365 -0.016039383 0.0841931 0.0075995866
000010 71 13 cc 3d 28 14 77 bd 5b 7d 22 3d b5 e7 25 3e
       0.09964646 -0.060321957 0.03967033 0.1620167
000020 bc d4 87 3d d7 0f 59 bb 9a 38 e0 3d f3 cb 91 bd
       0.06632373 -0.0033121014 0.10948296 -0.07118978
000030 fd f7 af bc 23 fe 7e bd 68 1b 7a bc d4 f2 99 bd
       -0.021480555 -0.062254082 -0.015265323 -0.07517019
000040 c7 d7 1d bb 2e b6 20 bc a6 09 09 3c 47 2c 79 3d
       -0.0024084912 -0.00980906 0.008364117 0.06083324
000050 a9 36 96 3d 32 61 86 3d 7c 12 c8 3d f8 33 2b bd
       0.07334644 0.06561507 0.097691506 -0.041797608
000060 be c8 30 3c 1a a0 ac 3c a0 72 a0 bd 3a 78 19 3e
       0.010790048 0.021072436 -0.07834363 0.14987269
000070 a0 f2 de bc ed ea e6 bc 54 76 8c bc ba ad 4d 3d
       -0.027215302 -0.028188193 -0.017146267 0.050214507
000080 83 3d c0 3c ff 0a 96 bb 9f ca 4d bd c7 fa 3d 3c
       0.023466831 -0.0045789476 -0.050242063 0.0115954345
000090 b5 1c 5b bd b0 53 c6 3c 69 7c 1a bd b0 c8 b6 3d
       -0.053494174 0.024209827 -0.037716303 0.08924997
0000a0 e2 85 9e 3d ef ff 1f bc bc af 6f 3c 8c fa df bc
       0.0774038 -0.009765609 0.014629301 -0.02734115
0000b0 54 2c 6f bd 68 41 a9 bc ab 57 79 3d 5a 14 b9 bc
       -0.058391884 -0.020661071 0.060874622 -0.022592712
0000c0 ad 70 bd bd 48 27 5e 3d f1 a0 1d 3c aa d1 3c 3d
       -0.09250007 0.05423668 0.009620891 0.04609839
0000d0 66 58 8f 3d b1 d3 4c 3d 36 f6 b9 3d c3 1b df 3c
       0.069992825 0.050006572 0.09080164 0.027234918
0000e0 ac 34 e5 3d ad a7 02 3d 6b 35 25 3d b1 16 ab bc
       0.11191687 0.03189819 0.040334146 -0.020884844
0000f0 76 95 a7 bc 63 95 94 3c bb 2c a8 bc fd 70 f9 3d
       -0.02045701 0.01813764 -0.020529142 0.12179754

actor.out.weight f4 [3, 64]
000000 60 2d 47 be 7c 82 30 3e 8c eb 37 3e 6c 25 38 3e
       -0.19450903 0.17237276 0.17960948 0.17983025
000010 1b a9 95 be d0 f3 b3 3d 39 9e 52 bd 3c 0d 93 be
       -0.2923058 0.08786738 -0.051420424 -0.28721035
000020 77 95 bd 3c cc ae 9d 3e 55 1d ac bd 04 40 69 3e
       0.02314256 0.30797422 -0.08404032 0.22778326
000030 c9 b4 28 3e c8 9f da 3c 5d f4 70 3c fe 4f b0 bb
       0.16475214 0.026687518 0.014706698 -0.0053806296
000040 09 45 9a 3e 7c a8 37 3e f0 6f 2a bd ab 3d 27 3e
       0.30130795 0.17935365 -0.04161066 0.16332118
000050 76 2c 7a bd e0 fd fa 3d 88 8c 67 bd 4c 55 80 be
       -0.061077558 0.12255454 -0.056530505 -0.25065076
000060 bd 15 91 3e 93 1c f0 bd f5 68 ae 3d a7 62 2e be
       0.28336897 -0.117242 0.08516113 -0.1702982
000070 f0 84 35 3e a5 5f 67 be ed 76 74 be 71 4c 47 be
       0.17726493 -0.22595079 -0.23873492 -0.19462754
000080 2d 53 d3 bd f7 22 ab be 86 ff a3 3e 77 62 33 be
       -0.10318599 -0.33425114 0.32030886 -0.1751803
000090 c0 d5 52 bd 40 bc 2f bc f0 c7 3b be cc 6b 6d 3e
       -0.05147338 -0.010726035 -0.18337989 0.23185652
0000a0 8b fb b5 bc 88 39 34 3e 53 9d 39 be 00 f9 34 3e
       -0.022214672 0.17600071 -0.1812642 0.17673111
0000b0 af 6b 8e 3e 19 f6 10 3e 9d 6b ea 3d 11 77 c3 3d
       0.2781653 0.14156379 0.11446307 0.095441945
0000c0 ba 20 ed 3d 19 28 a4 bd 13 f3 58 be 99 7c 71 bc
       0.11578508 -0.080154605 -0.21186475 -0.014739179
0000d0 d3 69 12 bd f9 9b 4a be 81 c2 29 be c2 03 b2 bd
       -0.035745453 -0.19786061 -0.16578104 -0.08692123
0000e0 3d 8c ad 3a ab 2c 79 be 5a cf e9 bd cd f1 ab 3e
       0.0013240647 -0.24333446 -0.11416502 0.33582917
0000f0 02 aa 50 3e 62 29 b8 3d ae 32 3f 3d 9e cd 08 3e
       0.20377353 0.08992268 0.04667919 0.13359687
000100 a7 22 17 3e 57 d5 7f bd 71 11 a5 3c 16 b4 14 bd
       0.14759313 -0.062459316 0.020149918 -0.036304556
000110 0c a6 3e 3c c5 f6 28 3d 2c 66 40 be 08 06 91 3e
       0.011636268 0.041250963 -0.18788975 0.28324914
000120 1d 6f c9 3d 11 a2 8d 3c 98 3a cc 3d 76 1b 0d 3e
       0.09835646 0.017289193 0.09972113 0.13780007
000130 d5 7a 1a bd 62 1a 3f be 6d e8 b5 bd 76 9e 04 3d
       -0.037714798 -0.18662408 -0.08882222 0.032377683
000140 4b c0 b5 3d b6 d5 11 3e a3 c8 86 bc 59 fb 09 3e
       0.088745676 0.1424168 -0.016453093 0.13474788
000150 95 1b 64 be 8a f5 32 be 86 90 2a 3e 27 37 fb bd
       -0.22276147 -0.17476478 0.16656694 -0.12266379
000160 1b cb 20 be 59 3b 87 3d f0 99 63 3d 31 c9 8c 3d
       -0.15702479 0.066031165 0.055566728 0.06874312
000170 ec 10 e8 bd 26 99 67 3d 15 a5 3c 3d db 40 40 3d
       -0.113313526 0.056542538 0.046055872 0.04693685
000180 1a f8 98 3d 35 f9 10 3e a7 89 5c be 1e c5 26 bd
       0.074691966 0.14157565 -0.21536885 -0.04071533
000190 24 f7 98 3d da f8 17 3e 07 49 cc 3d 72 e0 06 3e
       0.07469013 0.14841023 0.09974866 0.13171557
0001a0 a9 cc 00 3d 6d f6 9c 3d 2f 4c 80 bd 41 33 07 be
       0.03144518 0.076641895 -0.06264531 -0.13203146
0001b0 28 ae b9 3c 80 69 af bd cb 95 c9 3d 07 24 3f 3d
       0.022666052 -0.085650444 0.09843024 0.046665218
0001c0 93 04 09 be aa 38 38 be 23 b6 63 3c a0 38 ee 3d
       -0.13380651 -0.17990366 0.013898405 0.11631894
0001d0 e9 f5 00 3e eb 95 19 3e b9 bd ae bb 2a 5b b7 bc
       0.12593807 0.14998595 -0.0053326753 -0.022382338
0001e0 93 17 2f 3e d1 12 56 be a7 e4 89 3e 9b f9 e7 3c
       0.17098837 -0.20905615 0.2693226 0.028317263
0001f0 31 a6 d2 3d 1c 95 79 be fa e1 8a 3c 1e 70 61 3e
       0.10285605 -0.24373287 0.016953457 0.22015426
000200 ba 36 03 3e cf 94 69 3d af 4e 3e 3e 7b bf de 3d
       0.12813845 0.05702668 0.18584703 0.10876366
000210 ce 0e cd bc 03 ee a9 bd c2 4a e4 3d 2b b5 58 3e
       -0.025031473 -0.0829735 0.111470714 0.2116286
000220 2c bb fc 3d 64 18 bf ba 9c f7 52 3e 6f c1 0e 3e
       0.12340388 -0.0014579413 0.20602268 0.13940977
000230 1f 7d 6d 3d a0 ff 67 b9 75 ba 9b 3d 92 22 14 3d
       0.057980653 -0.00022125104 0.07603923 0.03616578
000240 ed 9e 5a 3d 3f 27 00 3e 1d ce 79 bd 48 df 26 3d
       0.05337422 0.12514971 -0.06098758 0.04074028
000250 e3 3d 86 bc 8c 2c 7d bd 2c ae a0 3d e8 a3 8e bd
       -0.016386932 -0.06181006 0.07845721 -0.069648564
000260 42 f4 7e bd 33 79 00 3d 92 61 e6 bd 0e fe 44 3e
       -0.06224466 0.031365585 -0.11249079 0.19237539
000270 ee 04 e2 bd 18 ab 11 be 45 9b af 3d ee 2e d9 3d
       -0.110360965 -0.14225423 0.08574537 0.10604654
000280 f6 8a 01 bd e4 ab 03 be d5 01 e8 bd d8 bc a1 bc
       -0.031626664 -0.1285854 -0.113284744 -0.019743368
000290 12 e8 61 bd 67 5e 5b 3e 86 c2 32 3d c5 e0 3f 3d
       -0.05515296 0.2142273 0.043642543 0.046845216
0002a0 b5 9a 31 3d 1d 39 74 bc d7 c2 ae bd c1 0c 40 3c
       0.04336043 -0.014906195 -0.085332565 0.011721791
0002b0 29 ad 6d 3d fe 98 de bd c1 eb 8e 3d f1 4a 0d bd
       0.058026467 -0.10869025 0.0697856 -0.034495298
0002c0 19 37 01 be 31 ad d8 bd 4a 8b 86 bd 4a e3 a4 bc
       -0.12618674 -0.10579909 -0.06569536 -0.020127911
0002d0 87 db 4a 3e 71 32 f2 3d 2b 7e b6 3d ea fa 4b 3e
       0.19810306 0.11826027 0.089107834 0.19919935
0002e0 9b 19 a0 3d e6 69 ad bd f2 ea ee 3d 82 ce e0 3b
       0.07817384 -0.08467464 0.11665906 0.006860555
0002f0 78 04 f6 3d fe 3c a4 bd ae ed f2 bc 61 e7 31 3e
       0.12012571 -0.08019446 -0.02965435 0.1737342

actor.out.bias f4 [3]
000000 02 c9 34 be ac 82 65 3e ea 6b 0b 3f
       -0.17654803 0.22413129 0.5446154
