TRPO/models/pruning/trpo-Ant-0.1-l2-dim1.pt (torch, 254634 bytes, 15 tensors)

actor.log_std f4 [8]
-2.1846256 -2.0638685 -2.210766 -1.869104 -1.8996503 -2.032045 -1.9209454 -2.0051026
00000000: e8d0 0bc0 6c16 04c0 317d 0dc0 cd3e efbf
00000010: be27 f3bf 060d 02c0 8ae1 f5bf 9a53 00c0

actor.l1.bias f4 [128]
0.035560302 -0.14211425 -0.21271887 0.101569176 0.0055873506 0.09689625 0.00093809795 0.140258
-0.1297569 -0.108425 -0.16991326 -0.16226618 0.16659777 -0.036937673 -0.10977433 -0.07530749
-0.0015033098 -0.054193646 -0.16100669 0.16037972 0.027618457 -0.120782405 0.052471604 -0.03680864
-0.047099292 -0.112235695 -0.18750101 0.09411995 -0.17546768 0.12392481 -0.19565754 -0.018722018
-0.1692324 -0.13404702 -0.15198727 -0.11573036 0.004665671 0.015206496 -0.09945019 0.112116665
-0.10140179 -0.029478436 0.09942194 0.18633392 0.16553387 -0.18074776 -0.13257699 0.07968324
0.006317072 0.16828184 0.13261563 -0.14751321 0.1931209 0.05532308 0.09535368 -0.039201617
0.14865245 -0.11548126 0.078082316 0.21148133 0.058849223 -0.049575273 0.0039243544 0.16095178
-0.12211928 -0.09679633 0.02995226 -0.10362106 -0.060749218 -0.07969334 0.12752241 -0.15464348
-0.16885723 0.16400476 0.017422358 -0.16425952 0.062058184 -0.11511979 -0.020340852 0.14951694
-0.11350218 -0.16714068 0.024871636 -0.11174887 -0.041578762 0.15174386 0.043137282 0.08279262
-0.16858333 -0.10378262 -0.1692377 0.19463436 -0.047982633 0.17649075 0.16502905 -0.12342803
0.07283512 -0.06700191 0.19021772 0.15475523 0.06968326 0.10944438 -0.0497684 -0.020047765
-0.023041941 -0.065495305 -0.16066568 -0.039558418 -0.07487329 0.15559624 0.14685209 -0.17342898
-0.13541235 -0.12342854 -0.17734022 0.00029506415 0.043928094 -0.04508458 0.033081397 -0.04338354
-0.19425198 -0.12212669 -0.17523699 -0.07614726 -0.09640365 0.13878945 -0.057368208 -0.053461205
00000000: aea7 113d 6686 11be fad2 59be 8003 d03d
00000010: 1816 b73b 8b71 c63d b0ea 753a cb9f 0f3e
00000020: fede 04be ed0d debd befd 2dbe 1b29 26be
00000030: 9b98 2a3e f54b 17bd 5dd1 e0bd d03a 9abd
00000040: b50a c5ba 28fa 5dbd f0de 24be 953a 243e
00000050: 1a40 e23c c45c f7bd 77ec 563d a8c4 16bd
00000060: 30eb 40bd d4db e5bd 4400 40be f6c1 c03d
00000070: cdad 33be 4acc fd3d 735a 48be eb5e 99bc
00000080: 424b 2dbe 9f43 09be 8da2 1bbe 0a04 edbd
00000090: 7ce2 983b ab24 793c 8bac cbbd 6c9d e53d
000000a0: beab cfbd c37c f1bc bb9d cb3d 52ce 3e3e
000000b0: b681 293e f115 39be 43c2 07be f730 a33d
000000c0: 71ff ce3b 1352 2c3e 64cc 073e b40d 17be
000000d0: 7cc1 453e 749a 623d ca48 c33d e091 20bd
000000e0: 5938 183e 7081 ecbd 9fe9 9f3d 908e 583e
000000f0: e20b 713d 710f 4bbd df97 803b 8bd0 243e
00000100: ac19 fabd 273d c6bd 715e f53c 4737 d4bd
00000110: 2cd4 78bd 4336 a3bd 3c95 023e dc5a 1ebe
00000120: e9e8 2cbe ddf0 273e 55b9 8e3c a633 28be
00000130: b930 7e3d edc3 ebbd dca1 a6bc f81a 193e
00000140: d573 e8bd ed26 2bbe 9abf cb3c 97dc e4bd
00000150: 7e4e 2abd be62 1b3e b8b0 303d 2d8f a93d
00000160: 1ca1 2cbe fb8b d4bd a64c 2dbe 3b4e 473e
00000170: 7089 44bd feb9 343e 60fd 283e d6c7 fcbd
00000180: 942a 953d 4c38 89bd 6fc8 423e 2878 1e3e
00000190: 19b6 8e3d 6024 e03d f3d9 4bbd 363b a4bc
000001a0: 74c2 bcbc 6722 86bd 8b85 24be 0208 22bd
000001b0: 2b57 99bd 9f54 1f3e 6560 163e 5e97 31be
000001c0: 89a9 0abe 1ac8 fcbd ad98 35be d7b2 9a39
000001d0: f2ed 333d 9caa 38bd 5c80 073d f0b2 31bd
000001e0: fee9 46be 8f1d fabd 5371 33be 18f3 9bbd
000001f0: 476f c5bd d21e 0e3e edfa 6abd 23fa 5abd

actor.l1.weight_orig f4 [128, 27]
0.09500512 -0.120784506 -0.03296766 0.0855363 -0.23286536 0.11069565 -0.056768235 0.089533344
0.04289835 -0.022340983 0.062247388 0.02010543 0.062450234 -0.09859547 0.0022503072 -0.039386526
0.06710416 0.0067809895 0.16418311 0.035874397 -0.04723294 -0.18621475 -0.016406503 -0.12652452
-0.05030364 -0.039712332 0.09343192 0.09939188 -0.1939796 0.12172088 0.05339013 0.18627077
0.13355467 -0.17936666 -0.2032114 -0.08104627 0.15913837 -0.033787947 0.07478896 -0.10204937
0.17786166 -0.10593611 0.15121032 0.004615613 -0.07735831 0.068778254 -0.045185387 0.0046328614
-0.04780922 -0.015357561 -0.16456194 -0.08352917 0.14174554 -0.08180009 0.18218501 0.15149644
-0.012331308 -0.13846499 0.14015038 0.059912235 -0.11123368 0.117620006 0.13804719 0.1805674
-0.10215801 -0.031080818 -0.0072041247 0.032656632 -0.15593585 -0.1289742 0.12771288 -0.06363408
0.124397315 -0.044522174 -0.027262963 -0.04383235 0.025903936 0.06436961 -0.2034837 0.031804387
-0.13935085 -0.13740735 0.037291266 -0.038387924 0.10478745 -0.122960135 -0.15237997 0.15807907
-0.021716533 0.11962001 0.07336167 -0.14898096 0.01906602 0.051842898 -0.12952185 -0.09653459
0.051499657 0.041769028 -0.057945766 -0.045626022 0.15315922 -0.04097885 0.028522376 0.09481401
-0.13288373 -0.14698035 0.19161136 -0.025980916 0.14641428 0.06080532 0.061925724 0.15337586
0.19059739 -0.13363154 0.039048444 0.14075705 0.12557995 0.1260561 -0.15763085 -0.15100196
-0.110515505 0.0050065373 0.19293271 -0.1162645 0.09683145 -0.10571729 -0.15190648 -0.07248379
0.16259283 0.2181225 -0.0719959 0.0033859175 0.07634532 0.18198691 0.013119353 0.13574733
0.15702479 0.047054127 -0.15170038 -0.20756331 -0.06901207 0.03216432 -0.17284505 0.07711171
0.029376166 -0.04720486 0.08201994 0.03876631 0.08993768 0.1225699 -0.110270105 0.16126393
-0.03447023 -0.049320295 -0.16666853 -0.19479866 -0.16332053 0.010499904 0.12571405 -0.026562994
-0.015012443 0.15615238 0.06283337 0.12545176 -0.101991914 0.05032386 -0.050918788 -0.042982183
-0.14651287 -0.06435133 -0.07740094 0.07901347 0.035257146 0.045725077 0.20740676 0.21719478
0.12722686 0.009141692 -0.15686885 0.14536548 -0.03961953 0.016364511 -0.24214667 -0.026454698
-0.05227478 0.15052813 -0.14488885 -0.16417356 -0.037166428 -0.09934737 0.075206 -0.077425726
-0.09758767 0.030163828 0.14218505 -0.12639457 0.10737642 0.118912876 0.2071906 -0.13670482
0.040524255 -0.123954065 0.16768938 -0.047763094 0.13555512 0.0017599697 -0.043619692 -0.015565871
0.05670249 0.11564401 -0.008003611 0.13301623 -0.13732763 0.15535608 0.0833384 0.08421838
0.13113217 -0.11491013 -0.07415387 0.16375796 -0.12516505 0.18660139 -0.15562765 -0.17342383
0.1087591 -0.17160115 -0.03381677 0.13979171 0.13345717 0.1736084 -0.03171783 -0.19985358
0.19586079 -0.030116202 -0.086987376 0.0716414 -0.16478229 0.11740948 0.098130286 -0.11368128
-0.14311296 -0.046135865 0.0047626444 -0.016276844 -0.10110767 0.0019942152 -0.17734784 -0.14652695
-0.13125838 0.1425008 0.18521704 -0.046012744 0.0062428014 0.088574186 0.03455178 -0.12508962
00000000: 0b92 c23d de5d f7bd 1909 07bd a82d af3d
00000010: 4274 6ebe 67b4 e23d cf85 68bd 425d b73d
00000020: 2eb6 2f3d 7004 b7bc 1ef7 7e3d 25b4 a43c
00000030: d1cb 7f3d 6cec c9bd e479 133b c453 21bd
00000040: e86d 893d 1033 de3b 9e1f 283e 08f1 123d
00000050: 5477 41bd 14af 3ebe ee66 86bc a58f 01be
00000060: 310b 4ebd 66a9 22bd 3c59 bf3d f88d cb3d
00000070: 97a2 46be cc48 f93d 9caf 5a3d c4bd 3e3e
00000080: 8ec2 083e e5ab 37be a616 50be 96fb a5bd
00000090: 2bf5 223e 3b65 0abd f42a 993d 43ff d0bd
000000a0: 5e21 363e 08f5 d8bd e1d6 1a3e 913e 973b
000000b0: 096e 9ebd 9ddb 8c3d 5014 39bd 42cf 973b
000000c0: 9ad3 43bd 489e 7bbc ed82 28be 5711 abbd
000000d0: be25 113e ce86 a7bd b58e 3a3e e221 1b3e
000000e0: 4109 4abc c4c9 0dbe 9583 0f3e 8866 753d
000000f0: 7cce e3bd c2e2 f03d 3e5c 0d3e a9e6 383e
00000100: 3838 d1bd 339d febc 9410 ecbb f6c2 053d
00000110: a6ad 1fbe d011 04be 2ac7 023e 9652 82bd
00000120: 05c4 fe3d e25c 36bd 9456 dfbc 8d89 33bd
00000130: 7e34 d43c 37d4 833d 085e 50be 5145 023d
00000140: fdb1 0ebe 83b4 0cbe babe 183d a83c 1dbd
00000150: cd9a d63d 86d2 fbbd 7f09 1cbe 7bdf 213e
00000160: dfe6 b1bc 56fb f43d a53e 963d 778e 18be
00000170: 5830 9c3c 3859 543d 60a1 04be edb3 c5bd
00000180: 4ef1 523d 0016 2b3d 8a58 6dbd 5ae2 3abd
00000190: c5d5 1c3e 70d9 27bd c2a7 e93c d92d c23d
000001a0: ac12 08be 0482 16be c535 443e eed5 d4bc
000001b0: a0ed 153e 000f 793d d4a5 7d3d 900e 1d3e
000001c0: f62b 433e b5d6 08be 43f1 1f3d 9e22 103e
000001d0: 0898 003e da14 013e fb69 21be 42a0 1abe
000001e0: f455 e2bd e10d a43b 2790 453e 151c eebd
000001f0: 914f c63d 4e82 d8bd 5f8d 1bbe 6272 94bd
00000200: bc7e 263e 815b 5f3e 9672 93bd 45e6 5d3b
00000210: ef5a 9c3d c75a 3a3e 8ef2 563c 5901 0b3e
00000220: 1bcb 203e d4bb 403d 5857 1bbe 7a8b 54be
00000230: 3356 8dbd bcbe 033d 4bfe 30be bfec 9d3d
00000240: 49a6 f03c e259 41bd 12fa a73d 6cc9 1e3d
00000250: 3f31 b83d ed05 fb3d 4bd5 e1bd 5f22 253e
00000260: a830 0dbd 1404 4abd 28ab 2abe 4d79 47be
00000270: 7f3d 27be ca07 2c3c 2fbb 003e a39a d9bc
00000280: c0f6 75bc 69e6 1f3e c8ae 803d 6d76 003e
00000290: 23e1 d0bd 6420 4e3d 3890 50bd 160e 30bd
000002a0: 7807 16be a1ca 83bd 6284 9ebd d0d1 a13d
000002b0: cc69 103d 384a 3b3d 7062 543e 4f68 5e3e
000002c0: c247 023e 09c7 153c 3aa2 20be b0da 143e
000002d0: 1748 22bd de0e 863c 4cf5 77be 86b7 d8bc
000002e0: 141e 56bd 0c24 1a3e be5d 14be 1d1d 28be
000002f0: d33b 18bd a276 cbbd 9a05 9a3d 6191 9ebd
00000300: 0bdc c7bd 221a f73c f598 113e 946d 01be
00000310: 2be8 db3d 9888 f33d c629 543e 59fc 0bbe
00000320: c3fc 253d a1db fdbd c4b6 2b3e 3ca3 43bd
00000330: f6ce 0a3e c9ae e63a 90aa 32bd ff07 7fbc
00000340: df40 683d c4d6 ec3d 9421 03bc 6835 083e
00000350: 9d9f 0cbe aa15 1f3e 53ad aa3d b07a ac3d
00000360: 8347 063e 0156 ebbd fcdd 97bd 2bb0 273e
00000370: 442b 00be 6f14 3f3e db5c 1fbe 0496 31be
00000380: 17bd de3d 36b8 2fbe 7483 0abd 8f25 0f3e
00000390: ffa8 083e 67c6 313e 8eea 01bd 6ba6 4cbe
000003a0: bb8f 483e 41b6 f6bc 7026 b2bd bab8 923d
000003b0: b0bc 28be 6274 f03d 88f8 c83d bbd1 e8bd
000003c0: 348c 12be f6f8 3cbd f50f 9c3b 0457 85bc
000003d0: 8a11 cfbd 61b1 023b ac9a 35be 290b 16be
000003e0: 9968 06be bbeb 113e 89a9 3d3e dc77 3cbd
000003f0: 6a90 cc3b 6266 b53d 2b86 0d3d 7e17 00be

actor.l1.weight_mask f4 [128, 27]
1.0 1.0 1.0 1.0 1.0 1.0 1.0 1.0
1.0 1.0 1.0 1.0 1.0 1.0 0.0 1.0
1.0 0.0 1.0 1.0 1.0 1.0 0.0 1.0
1.0 1.0 1.0 1.0 1.0 1.0 1.0 1.0
1.0 1.0 1.0 1.0 1.0 1.0 1.0 1.0
1.0 1.0 1.0 0.0 1.0 1.0 1.0 0.0
1.0 0.0 1.0 1.0 1.0 1.0 1.0 1.0
0.0 1.0 1.0 1.0 1.0 1.0 1.0 1.0
1.0 1.0 0.0 1.0 1.0 1.0 1.0 1.0
1.0 1.0 1.0 1.0 1.0 1.0 1.0 1.0
1.0 1.0 1.0 1.0 1.0 1.0 1.0 1.0
1.0 1.0 1.0 1.0 1.0 1.0 1.0 1.0
1.0 1.0 1.0 1.0 1.0 1.0 1.0 1.0
1.0 1.0 1.0 1.0 1.0 1.0 1.0 1.0
1.0 1.0 1.0 1.0 1.0 1.0 1.0 1.0
1.0 0.0 1.0 1.0 1.0 1.0 1.0 1.0
1.0 1.0 1.0 0.0 1.0 1.0 0.0 1.0
1.0 1.0 1.0 1.0 1.0 1.0 1.0 1.0
1.0 1.0 1.0 1.0 1.0 1.0 1.0 1.0
1.0 1.0 1.0 1.0 1.0 0.0 1.0 1.0
0.0 1.0 1.0 1.0 1.0 1.0 1.0 1.0
1.0 1.0 1.0 1.0 1.0 1.0 1.0 1.0
1.0 0.0 1.0 1.0 1.0 0.0 1.0 1.0
1.0 1.0 1.0 1.0 1.0 1.0 1.0 1.0
1.0 1.0 1.0 1.0 1.0 1.0 1.0 1.0
1.0 1.0 1.0 1.0 1.0 0.0 1.0 0.0
1.0 1.0 0.0 1.0 1.0 1.0 1.0 1.0
1.0 1.0 1.0 1.0 1.0 1.0 1.0 1.0
1.0 1.0 1.0 1.0 1.0 1.0 1.0 1.0
1.0 1.0 1.0 1.0 1.0 1.0 1.0 1.0
1.0 1.0 0.0 0.0 1.0 0.0 1.0 1.0
1.0 1.0 1.0 1.0 0.0 1.0 1.0 1.0
00000000: 0000 803f 0000 803f 0000 803f 0000 803f
00000010: 0000 803f 0000 803f 0000 803f 0000 803f
00000020: 0000 803f 0000 803f 0000 803f 0000 803f
00000030: 0000 803f 0000 803f 0000 0000 0000 803f
00000040: 0000 803f 0000 0000 0000 803f 0000 803f
00000050: 0000 803f 0000 803f 0000 0000 0000 803f
00000060: 0000 803f 0000 803f 0000 803f 0000 803f
00000070: 0000 803f 0000 803f 0000 803f 0000 803f
00000080: 0000 803f 0000 803f 0000 803f 0000 803f
00000090: 0000 803f 0000 803f 0000 803f 0000 803f
000000a0: 0000 803f 0000 803f 0000 803f 0000 0000
000000b0: 0000 803f 0000 803f 0000 803f 0000 0000
000000c0: 0000 803f 0000 0000 0000 803f 0000 803f
000000d0: 0000 803f 0000 803f 0000 803f 0000 803f
000000e0: 0000 0000 0000 803f 0000 803f 0000 803f
000000f0: 0000 803f 0000 803f 0000 803f 0000 803f
00000100: 0000 803f 0000 803f 0000 0000 0000 803f
00000110: 0000 803f 0000 803f 0000 803f 0000 803f
00000120: 0000 803f 0000 803f 0000 803f 0000 803f
00000130: 0000 803f 0000 803f 0000 803f 0000 803f
00000140: 0000 803f 0000 803f 0000 803f 0000 803f
00000150: 0000 803f 0000 803f 0000 803f 0000 803f
00000160: 0000 803f 0000 803f 0000 803f 0000 803f
00000170: 0000 803f 0000 803f 0000 803f 0000 803f
00000180: 0000 803f 0000 803f 0000 803f 0000 803f
00000190: 0000 803f 0000 803f 0000 803f 0000 803f
000001a0: 0000 803f 0000 803f 0000 803f 0000 803f
000001b0: 0000 803f 0000 803f 0000 803f 0000 803f
000001c0: 0000 803f 0000 803f 0000 803f 0000 803f
000001d0: 0000 803f 0000 803f 0000 803f 0000 803f
000001e0: 0000 803f 0000 0000 0000 803f 0000 803f
000001f0: 0000 803f 0000 803f 0000 803f 0000 803f
00000200: 0000 803f 0000 803f 0000 803f 0000 0000
00000210: 0000 803f 0000 803f 0000 0000 0000 803f
00000220: 0000 803f 0000 803f 0000 803f 0000 803f
00000230: 0000 803f 0000 803f 0000 803f 0000 803f
00000240: 0000 803f 0000 803f 0000 803f 0000 803f
00000250: 0000 803f 0000 803f 0000 803f 0000 803f
00000260: 0000 803f 0000 803f 0000 803f 0000 803f
00000270: 0000 803f 0000 0000 0000 803f 0000 803f
00000280: 0000 0000 0000 803f 0000 803f 0000 803f
00000290: 0000 803f 0000 803f 0000 803f 0000 803f
000002a0: 0000 803f 0000 803f 0000 803f 0000 803f
000002b0: 0000 803f 0000 803f 0000 803f 0000 803f
000002c0: 0000 803f 0000 0000 0000 803f 0000 803f
000002d0: 0000 803f 0000 0000 0000 803f 0000 803f
000002e0: 0000 803f 0000 803f 0000 803f 0000 803f
000002f0: 0000 803f 0000 803f 0000 803f 0000 803f
00000300: 0000 803f 0000 803f 0000 803f 0000 803f
00000310: 0000 803f 0000 803f 0000 803f 0000 803f
00000320: 0000 803f 0000 803f 0000 803f 0000 803f
00000330: 0000 803f 0000 0000 0000 803f 0000 0000
00000340: 0000 803f 0000 803f 0000 0000 0000 803f
00000350: 0000 803f 0000 803f 0000 803f 0000 803f
00000360: 0000 803f 0000 803f 0000 803f 0000 803f
00000370: 0000 803f 0000 803f 0000 803f 0000 803f
00000380: 0000 803f 0000 803f 0000 803f 0000 803f
00000390: 0000 803f 0000 803f 0000 803f 0000 803f
000003a0: 0000 803f 0000 803f 0000 803f 0000 803f
000003b0: 0000 803f 0000 803f 0000 803f 0000 803f
000003c0: 0000 803f 0000 803f 0000 0000 0000 0000
000003d0: 0000 803f 0000 0000 0000 803f 0000 803f
000003e0: 0000 803f 0000 803f 0000 803f 0000 803f
000003f0: 0000 0000 0000 803f 0000 803f 0000 803f

actor.l2.bias f4 [128]
0.020702675 -0.031011213 -0.09702724 -0.083358444 0.022181362 0.014348437 -0.08381625 -0.08091236
-0.06282585 -0.06776257 0.059088297 0.08796965 -0.024558797 -0.07248908 0.01708522 -0.004413796
-0.037258577 -0.0452688 -0.030096902 -0.01883524 0.034646884 -0.081209704 0.059310302 -0.039824728
0.068190895 0.030256547 -0.03943997 -0.06584981 0.026340986 -0.014592211 -0.05547093 0.027624967
0.08685061 -0.06173815 0.054637663 0.0052887173 -0.02386539 0.09065535 0.046364143 0.010929334
0.050098665 -0.08032051 -0.076026216 0.06334282 -0.070393436 0.004528445 0.04505487 0.023627099
-0.073637106 -0.010455029 -0.056574073 -0.069875754 0.058774564 -0.040060487 -0.06735923 -0.026863704
-0.05072005 -0.09180751 -0.017367473 0.038539577 -0.05663943 -0.000987558 0.008559128 -0.083670564
-0.0667632 0.04768841 0.04126675 -0.047817107 -0.048071086 -0.07844677 -0.020208362 -0.04183111
0.0661224 0.04593117 0.061098527 0.051142644 0.037862856 -0.07149297 0.025833104 -0.101503894
0.068350405 -0.096529335 -0.01635876 0.0017918528 0.081458144 -0.08456311 -0.08171105 -0.045408558
-0.021880534 0.02897257 0.05069324 -0.013603785 0.027178021 0.020976411 -0.009921715 0.08893095
-0.07212683 0.037539866 0.016568247 0.059804495 -0.018604726 -0.030817974 -0.048580788 -0.08830928
0.012979439 0.007486835 0.0320103 0.014833823 -0.048568826 -0.020719886 0.009486391 -0.04756858
0.06126608 0.118673526 -0.0054106484 0.055954155 0.019483853 -0.08300213 -0.12631539 -0.026853718
-0.070540994 -0.028605899 0.017658686 -0.035281282 -0.0047701835 0.04105237 -0.043722156 -0.091708295
00000000: a898 a93c 3a0b febc 38b6 c6bd d5b7 aabd
00000010: b0b5 b53c b515 6b3c dba7 abbd 61b5 a5bd
00000020: d7aa 80bd 1ac7 8abd 9206 723d 6f29 b43d
00000030: 882f c9bc 2875 94bd 4ef6 8b3c 9ba1 90bb
00000040: 739c 18bd c76b 39bd c78d f6bc 5c4c 9abc
00000050: e4e9 0d3d 4651 a6bd 5cef 723d 411f 23bd
00000060: aba7 8b3d 94dc f73c ce8b 21bd 44dc 86bd
00000070: 0dc9 d73c 2b14 6fbc 7c35 63bd c14d e23c
00000080: bcde b13d 24e1 7cbd becb 5f3d fa4c ad3b
00000090: 5a81 c3bc 83a9 b93d 54e8 3d3d f310 333c
000000a0: 4234 4d3d 147f a4bd a2b3 9bbd e1b9 813d
000000b0: 6f2a 90bd 5a63 943b 758b 383d 9e8d c13c
000000c0: 0dcf 96bd 924b 2bbc 37ba 67bd 051b 8fbd
000000d0: 99bd 703d 7716 24bd a3f3 89bd 4511 dcbc
000000e0: d4bf 4fbd 9305 bcbd 3b46 8ebc addb 1d3d
000000f0: bffe 67bd f370 81ba 963b 0c3c 795b abbd
00000100: 25bb 88bd ec54 433d 5307 293d dfdb 43bd
00000110: 30e6 44bd b3a8 a0bd 028c a5bc 1957 2bbd
00000120: 2e6b 873d 5322 3c3d 7342 7a3d f37a 513d
00000130: 1516 1b3d e86a 92bd f29f d33c 46e1 cfbd
00000140: 4cfb 8b3d 2cb1 c5bd ce02 86bc 9adc ea3a
00000150: 87d3 a63d 6c2f adbd 1f58 a7bd 53fe 39bd
00000160: ce3e b3bc e257 ed3c b7a3 4f3d 69e2 5ebc
00000170: 71a4 de3c b9d6 ab3c b08e 22bc 6e21 b63d
00000180: 3bb7 93bd 67c3 193d 22ba 873c 8ff5 743d
00000190: f068 98bc fa75 fcbc a6fc 46bd 7fdb b4bd
000001a0: b7a7 543c 2054 f53b 3b1d 033d 9009 733c
000001b0: 1bf0 46bd c0bc a9bc cf6c 1b3c 45d7 42bd
000001c0: 24f2 7a3d 1b0b f33d cf4b b1bb 2f30 653d
000001d0: 9a9c 9f3c 05fd a9bd d258 01be 54fc dbbc
000001e0: cc77 90bd eb56 eabc f3a8 903c 1b83 10bd
000001f0: 334f 9cbb 8826 283d 0116 33bd 8fd1 bbbd

actor.l2.weight_orig f4 [128, 128]
-0.06909914 0.006358909 0.10099749 0.028949412 0.029521288 0.036489516 -0.0041368166 0.10089849
-0.009448367 -0.042547952 0.010399802 0.003918022 -0.014111629 0.017501945 0.027216038 0.012942033
0.033772033 -0.04235282 -0.051386107 -0.08070107 0.075191155 -0.0751834 0.013279626 0.07121703
-0.059415344 0.056084152 0.016790008 -0.050281946 0.11397275 0.06268711 -0.04482568 -0.020204626
-0.0071589327 -0.054541543 0.07214292 0.048608813 0.086219154 -0.0010691766 -0.030039687 0.028883569
-0.036505565 0.09291452 -0.027035141 0.005413648 0.07199982 0.04357312 0.03128118 -0.08302716
0.09781028 -0.016605573 -0.006809243 -0.07783605 -0.07463989 0.03396121 -0.013493223 -0.005326121
-0.0010161737 -0.054246727 0.10214124 -0.1279392 0.085128315 0.02977337 0.0419531 -0.019472238
-0.059616618 0.06532871 0.06097551 -0.0638837 -0.047312222 -0.03273859 -0.01565242 0.06560653
-0.0602396 0.032103393 0.15455186 0.07314175 -0.010015494 0.086671464 -0.038081948 0.0040245247
-0.07585255 0.060075972 -0.04822864 0.026233228 -0.050447427 -0.07670261 -0.046909645 0.09254238
0.046198994 -0.059040047 0.076754 0.0006234853 -0.0033212597 -0.09194507 0.0061827754 0.12102827
-0.010057227 0.117895044 0.01304681 -0.075183526 -0.06559407 0.05510316 0.052214578 0.03959473
0.094804406 0.0023328834 -0.021770263 0.020242373 -0.0236614 0.07727287 0.08824354 0.06726881
0.04484958 0.020308362 -0.028586306 0.10143284 0.034316555 0.021429729 0.08491302 -0.008771578
0.012895049 -0.0051256754 0.0010196894 0.044624273 0.1609155 0.007725138 0.051346138 0.12949483
0.012043484 0.066689126 0.041315913 -0.094797105 -0.040143162 0.04470353 -0.031775042 -0.015886443
-0.029559005 -0.08038469 -0.0006976689 0.009401419 -0.034307662 -0.054434318 -0.0789609 0.06355288
0.037932254 -0.03272104 -0.060822558 -0.0063349223 -0.05710338 -0.090587735 -0.056170717 0.07404734
-0.03617208 0.08513658 0.02558862 -0.025454782 -0.03717009 0.040362377 -0.02271584 -0.043641433
0.026377609 -0.045613 0.04963036 0.030555433 -0.09976693 -0.03117391 9.41289e-05 0.019438997
0.02333618 0.0016926118 -0.01429687 -0.026555778 0.029984001 -0.027527837 -0.019129764 0.078137495
0.058130167 0.06660041 0.09955955 -0.061402433 -0.013856887 -0.07742627 -0.021879103 0.044998076
0.08044181 -0.0764659 0.05957496 -0.025002891 0.059037507 0.0038880731 -0.060508605 0.03992982
-0.05596641 -0.0408396 -0.037890308 0.04101917 0.033981457 -0.049574614 -0.04492934 0.01678004
0.04784992 0.038563393 -0.086371325 0.04442197 -0.07579892 -0.008004 -0.011378041 -0.07830875
0.056381084 -0.07011414 -0.00503146 -0.03503725 0.04845084 0.011739795 0.04460535 -0.0025847787
-0.041556634 -0.03971408 0.06443982 0.049933787 -0.04663779 -0.043932196 -0.038197044 -0.030555077
-0.041202202 0.0662809 -0.050085805 0.09062883 0.07864364 -0.07223568 0.043885175 -0.07221842
0.0028213363 -0.050519384 -0.064032726 0.017308723 0.01903649 -0.046354406 -0.012944671 0.025111035
-0.08160716 0.016849322 -0.09845638 -0.018497555 0.08109215 -0.025433404 -0.04834389 -0.07533269
0.076934695 0.021918612 -0.0711342 -0.023312088 0.05287412 -0.0908626 -0.0060391924 -0.051862545
00000000: da83 8dbd 655e d03b c6d7 ce3d 5127 ed3c
00000010: a1d6 f13c 0876 153d 228e 87bb dea3 ce3d
00000020: 53cd 1abc c346 2ebd ee63 2a3c c062 803b
00000030: 7634 67bc 3d60 8f3c 2bf4 de3c d20a 543c
00000040: 8b54 0a3d 277a 2dbd 3d7a 52bd 9a46 a5bd
00000050: d2fd 993d c1f9 99bd ca92 593c 3cda 913d
00000060: 815d 73bd 7fb8 653d 338b 893c 71f4 4dbd
00000070: 8c6a e93d 1962 803d 229b 37bd 2c84 a5bc
00000080: 7b95 eabb f466 5fbd abbf 933d 091a 473d
00000090: ab93 b03d 9d23 8cba ca15 f6bc 3c9d ec3c
000000a0: dc86 15bd f849 be3d cd78 ddbc f964 b13b
000000b0: a474 933d ba79 323d b220 003d 250a aabd
000000c0: c250 c83d 6908 88bc 1220 dfbb 8268 9fbd
000000d0: ccdc 98bd e91a 0b3d ae12 5dbc be86 aebb
000000e0: 2231 85ba d131 5ebd 6d2f d13d 7e02 03be
000000f0: c157 ae3d 48e7 f33c 04d7 2b3d 3e84 9fbc
00000100: 8e30 74bd 0fcb 853d 75c1 793d 75d5 82bd
00000110: 76ca 41bd e618 06bd 8139 80bc b75c 863d
00000120: ccbd 76bd d97e 033d d842 1e3e 58cb 953d
00000130: 0718 24bc cf80 b13d d1fb 1bbd 29e0 833b
00000140: 9558 9bbd 3912 763d 658b 45bd 11e7 d63c
00000150: f6a1 4ebd 4216 9dbd 5424 40bd dc86 bd3d
00000160: 283b 3d3d fad3 71bd 3331 9d3d 6471 233a
00000170: 7ea9 59bb b24d bcbd e198 ca3b abdd f73d
00000180: 11c7 24bc f572 f13d 4ac2 553c d2f9 99bd
00000190: 2f56 86bd dab3 613d f4de 553d 152e 223d
000001a0: d028 c23d 4ae3 183b 8d57 b2bc 55d3 a53c
000001b0: 8dd5 c1bc 3d41 9e3d 07b9 b43d 3bc4 893d
000001c0: 31b4 373d b95d a63c d42d eabc 05bc cf3d
000001d0: 848f 0c3d 668d af3c e1e6 ad3d aab6 0fbc
000001e0: c145 533c 48f5 a7bb 19a7 853a f1c7 363d
000001f0: 08c7 243e 2823 fd3b 5450 523d 4b9a 043e
00000200: 0852 453c 4f94 883d e03a 293d fc24 c2bd
00000210: 286d 24bd 0c1b 373d 8c26 02bd 4924 82bc
00000220: ba25 f2bc baa0 a4bd c4e3 36ba 6908 1a3c
00000230: 3186 0cbd 85f6 5ebd 41b6 a1bd 0328 823d
00000240: da5e 1b3d 7f06 06bd 1321 79bd 2e95 cfbb
00000250: 3ce5 69bd 1086 b9bd 4413 66bd 22a6 973d
00000260: 2d29 14bd 165c ae3d 3a9f d13c 8c86 d0bc
00000270: aa3f 18bd 0553 253d 9216 babc 5cc1 32bd
00000280: db15 d83c b2d4 3abd 3449 4b3d 634f fa3c
00000290: 9b52 ccbd 6d60 ffbc 1267 c538 883e 9f3c
000002a0: 842b bf3c a1da dd3a 6b3d 6abc 818b d9bc
000002b0: 02a1 f53c 0f82 e1bc 06b6 9cbc 8d06 a03d
000002c0: e619 6e3d cc65 883d e1e5 cb3d 1e81 7bbd
000002d0: ff07 63bc aa91 9ebd ce3b b3bc e74f 383d
000002e0: adbe a43d 279a 9cbd e004 743d ddd2 ccbc
000002f0: 50d1 713d 0bcf 7e3b dfd7 77bd 738d 233d
00000300: 093d 65bd 6d47 27bd de32 1bbd b803 283d
00000310: 2430 0b3d c00e 4bbd d407 38bd 4b76 893c
00000320: 47fe 433d a6f4 1d3d 73e3 b0bd d0f3 353d
00000330: 773c 9bbd 3623 03bc f66a 3abc 5760 a0bd
00000340: daef 663d 0198 8fbd f2de a4bb 3883 0fbd
00000350: 6374 463d 4558 403c 19b4 363d 6465 29bb
00000360: 4a37 2abd 3bab 22bd 06f9 833d 5f87 4c3d
00000370: 4407 3fbd 3ff2 33bd 8174 1cbd a44e fabc
00000380: a4c3 28bd 48be 873d c626 4dbd 9c9b b93d
00000390: eb0f a13d 4df0 93bd f1c0 333d 40e7 93bd
000003a0: 2be6 383b 6aed 4ebd 9723 83bd 06cb 8d3c
000003b0: 6af2 9b3c 1ede 3dbd e315 54bc a8b5 cd3c
000003c0: a821 a7bd 9707 8a3c 80a3 c9bd 2f88 97bc
000003d0: a413 a63d b759 d0bc 3e04 46bd 0648 9abd
000003e0: f08f 9d3d a98e b33c cfae 91bd fef8 bebc
000003f0: 8992 583d 2c16 babd 6be4 c5bb d26d 54bd

actor.l2.weight_mask f4 [128, 128]
1.0 0.0 1.0 1.0 1.0 1.0 0.0 1.0
1.0 1.0 1.0 0.0 1.0 1.0 1.0 1.0
1.0 1.0 1.0 1.0 1.0 1.0 1.0 1.0
1.0 1.0 1.0 1.0 1.0 1.0 1.0 1.0
0.0 1.0 1.0 1.0 1.0 0.0 1.0 1.0
1.0 1.0 1.0 0.0 1.0 1.0 1.0 1.0
1.0 1.0 0.0 1.0 1.0 1.0 1.0 0.0
0.0 1.0 1.0 1.0 1.0 1.0 1.0 1.0
1.0 1.0 1.0 1.0 1.0 1.0 1.0 1.0
1.0 1.0 1.0 1.0 1.0 1.0 1.0 0.0
1.0 1.0 1.0 1.0 1.0 1.0 1.0 1.0
1.0 1.0 1.0 0.0 0.0 1.0 0.0 1.0
1.0 1.0 1.0 1.0 1.0 1.0 1.0 1.0
1.0 0.0 1.0 1.0 1.0 1.0 1.0 1.0
1.0 1.0 1.0 1.0 1.0 1.0 1.0 1.0
1.0 0.0 0.0 1.0 1.0 0.0 1.0 1.0
1.0 1.0 1.0 1.0 1.0 1.0 1.0 1.0
1.0 1.0 0.0 1.0 1.0 1.0 1.0 1.0
1.0 1.0 1.0 0.0 1.0 1.0 1.0 1.0
1.0 1.0 1.0 1.0 1.0 1.0 1.0 1.0
1.0 1.0 1.0 1.0 1.0 1.0 0.0 1.0
1.0 0.0 1.0 1.0 1.0 1.0 1.0 1.0
1.0 1.0 1.0 1.0 1.0 1.0 1.0 1.0
1.0 1.0 1.0 1.0 1.0 0.0 1.0 1.0
1.0 1.0 1.0 1.0 1.0 1.0 1.0 1.0
1.0 1.0 1.0 1.0 1.0 0.0 1.0 1.0
1.0 1.0 0.0 1.0 1.0 1.0 1.0 0.0
1.0 1.0 1.0 1.0 1.0 1.0 1.0 1.0
1.0 1.0 1.0 1.0 1.0 1.0 1.0 1.0
0.0 1.0 1.0 1.0 1.0 1.0 1.0 1.0
1.0 1.0 1.0 1.0 1.0 1.0 1.0 1.0
1.0 1.0 1.0 1.0 1.0 1.0 0.0 1.0
00000000: 0000 803f 0000 0000 0000 803f 0000 803f
00000010: 0000 803f 0000 803f 0000 0000 0000 803f
00000020: 0000 803f 0000 803f 0000 803f 0000 0000
00000030: 0000 803f 0000 803f 0000 803f 0000 803f
00000040: 0000 803f 0000 803f 0000 803f 0000 803f
00000050: 0000 803f 0000 803f 0000 803f 0000 803f
00000060: 0000 803f 0000 803f 0000 803f 0000 803f
00000070: 0000 803f 0000 803f 0000 803f 0000 803f
00000080: 0000 0000 0000 803f 0000 803f 0000 803f
00000090: 0000 803f 0000 0000 0000 803f 0000 803f
000000a0: 0000 803f 0000 803f 0000 803f 0000 0000
000000b0: 0000 803f 0000 803f 0000 803f 0000 803f
000000c0: 0000 803f 0000 803f 0000 0000 0000 803f
000000d0: 0000 803f 0000 803f 0000 803f 0000 0000
000000e0: 0000 0000 0000 803f 0000 803f 0000 803f
000000f0: 0000 803f 0000 803f 0000 803f 0000 803f
00000100: 0000 803f 0000 803f 0000 803f 0000 803f
00000110: 0000 803f 0000 803f 0000 803f 0000 803f
00000120: 0000 803f 0000 803f 0000 803f 0000 803f
00000130: 0000 803f 0000 803f 0000 803f 0000 0000
00000140: 0000 803f 0000 803f 0000 803f 0000 803f
00000150: 0000 803f 0000 803f 0000 803f 0000 803f
00000160: 0000 803f 0000 803f 0000 803f 0000 0000
00000170: 0000 0000 0000 803f 0000 0000 0000 803f
00000180: 0000 803f 0000 803f 0000 803f 0000 803f
00000190: 0000 803f 0000 803f 0000 803f 0000 803f
000001a0: 0000 803f 0000 0000 0000 803f 0000 803f
000001b0: 0000 803f 0000 803f 0000 803f 0000 803f
000001c0: 0000 803f 0000 803f 0000 803f 0000 803f
000001d0: 0000 803f 0000 803f 0000 803f 0000 803f
000001e0: 0000 803f 0000 0000 0000 0000 0000 803f
000001f0: 0000 803f 0000 0000 0000 803f 0000 803f
00000200: 0000 803f 0000 803f 0000 803f 0000 803f
00000210: 0000 803f 0000 803f 0000 803f 0000 803f
00000220: 0000 803f 0000 803f 0000 0000 0000 803f
00000230: 0000 803f 0000 803f 0000 803f 0000 803f
00000240: 0000 803f 0000 803f 0000 803f 0000 0000
00000250: 0000 803f 0000 803f 0000 803f 0000 803f
00000260: 0000 803f 0000 803f 0000 803f 0000 803f
00000270: 0000 803f 0000 803f 0000 803f 0000 803f
00000280: 0000 803f 0000 803f 0000 803f 0000 803f
00000290: 0000 803f 0000 803f 0000 0000 0000 803f
000002a0: 0000 803f 0000 0000 0000 803f 0000 803f
000002b0: 0000 803f 0000 803f 0000 803f 0000 803f
000002c0: 0000 803f 0000 803f 0000 803f 0000 803f
000002d0: 0000 803f 0000 803f 0000 803f 0000 803f
000002e0: 0000 803f 0000 803f 0000 803f 0000 803f
000002f0: 0000 803f 0000 0000 0000 803f 0000 803f
00000300: 0000 803f 0000 803f 0000 803f 0000 803f
00000310: 0000 803f 0000 803f 0000 803f 0000 803f
00000320: 0000 803f 0000 803f 0000 803f 0000 803f
00000330: 0000 803f 0000 0000 0000 803f 0000 803f
00000340: 0000 803f 0000 803f 0000 0000 0000 803f
00000350: 0000 803f 0000 803f 0000 803f 0000 0000
00000360: 0000 803f 0000 803f 0000 803f 0000 803f
00000370: 0000 803f 0000 803f 0000 803f 0000 803f
00000380: 0000 803f 0000 803f 0000 803f 0000 803f
00000390: 0000 803f 0000 803f 0000 803f 0000 803f
000003a0: 0000 0000 0000 803f 0000 803f 0000 803f
000003b0: 0000 803f 0000 803f 0000 803f 0000 803f
000003c0: 0000 803f 0000 803f 0000 803f 0000 803f
000003d0: 0000 803f 0000 803f 0000 803f 0000 803f
000003e0: 0000 803f 0000 803f 0000 803f 0000 803f
000003f0: 0000 803f 0000 803f 0000 0000 0000 803f

actor.out.bias f4 [8]
-0.16348363 0.01697806 0.0574492 0.06601197 0.021282181 -0.030502986 -0.095871255 -0.045027703
00000000: 4168 27be 9315 8b3c da4f 6b3d 4931 873d
00000010: f857 ae3c 66e1 f9bc 2658 c4bd f86e 38bd

actor.out.weight_orig f4 [8, 128]
0.014106634 0.012865185 -0.01532201 -0.0010986268 0.032374244 -0.092645906 0.07829389 -0.03636368
0.009919945 0.04506513 0.009760642 -0.046173908 -0.00066522486 -0.020040665 0.002469268 0.040575545
0.033157293 0.03422928 0.028581506 -0.048271913 -0.08945304 0.025469502 -0.036607645 -0.09073689
0.037718367 0.021097723 -0.05049063 -0.01879242 0.021923827 0.070642844 -0.028553512 0.021717275
0.012283334 -0.013648338 -0.0106185535 -0.04676508 0.0066010747 -0.03342319 -0.07669957 -0.0058216983
-0.042875968 -0.15077418 0.033083454 -0.055585902 0.024213912 0.071068704 -0.05070481 -0.06877933
-0.017012302 -0.051146194 0.049054977 -0.110089965 -0.03895172 0.0042974073 -0.05858116 0.033724237
-0.011461233 -0.096639335 -0.014326476 0.008183183 0.039591625 -0.04441914 0.067610286 -0.092227735
-0.053038314 0.051969126 -0.012783178 0.042398658 -0.022931218 0.010756966 -0.019644247 -0.04274844
0.012217821 -0.069830485 0.023447916 -0.035113472 0.14834072 0.047763925 -0.016945712 0.05854459
0.06155684 0.060386688 0.0008551363 0.03904965 -0.095024854 -0.031697836 -0.07994237 0.009588432
0.017889053 -0.015460938 -0.02072672 -0.0634932 0.040393345 0.017794047 -0.033191226 -0.00011964189
0.058466353 0.02797713 -0.064174935 0.048274633 0.030834666 0.016394785 -0.0024558208 0.093783945
0.027105585 -0.02998912 0.042075884 0.010742382 -0.043767698 0.03720443 0.018725967 -0.028376285
0.012349066 0.0025658153 0.017166888 -0.04424845 -0.08978355 -0.020821046 0.07018028 0.067513205
-0.051994655 -0.0002840682 0.06328645 -0.043771945 -0.088868596 0.04706495 -0.008160571 -0.0795589
-0.111679554 0.01228711 0.035613716 0.043150835 0.03976455 0.049687337 -0.031082997 0.022553517
-0.008459068 0.039635792 0.14936443 -0.09282392 -0.014447769 0.03880076 0.11466361 -0.039105162
0.0013438914 0.025425278 0.0026965886 0.043525543 -0.016929906 -0.079695396 0.08997253 -0.09896214
0.03292579 -0.051138625 -0.091979414 -0.011669652 -0.10442635 0.037856296 0.008153665 0.014499042
0.027355766 -0.03944657 -0.056426942 0.18891335 0.014734747 0.08996916 -0.0703779 -0.044472095
0.013580967 -0.0006908823 0.03940742 0.048348177 0.07565559 -0.048619 -0.03793656 -0.0093664285
-0.0121279145 -0.03586081 -0.03733772 0.025647592 -0.020144347 -0.08223022 -0.028930528 -0.0714338
0.023258796 0.055623736 0.023720805 -0.050654016 0.08138218 -0.057994105 0.060698904 0.06160276
-0.0007014166 0.055560835 0.016162712 -0.114922345 0.03663829 -0.09012944 -0.050245743 -0.08748334
0.0965002 0.03856197 0.07385277 0.05845015 0.1663869 0.014323866 -0.04938378 -0.04727564
0.06961036 0.049015664 -0.064413495 0.012206268 0.027207585 -0.030660264 0.02626268 -0.022932706
0.05104918 -0.04574802 0.032186173 0.031866007 -0.0810255 -0.06758229 -0.028234726 0.039806876
0.026790028 0.050046824 0.049130607 0.000749785 0.052399326 -0.019296536 -0.11103408 -0.11073185
-0.024236266 0.058148436 0.0013387784 0.09828806 0.056318257 0.015549758 0.106275626 0.056909163
-0.12554756 0.086722225 0.019588389 -0.05854038 0.010413595 0.07984551 0.012164081 0.07578331
0.0096572805 0.022466056 -0.028037526 -0.06778104 0.029326312 0.00952645 -0.0127654215 -0.041058943
00000000: 831f 673c 7fc8 523c 2b09 7bbc ccff 8fba
00000010: db9a 043d 23bd bdbd 8c58 a03d 15f2 14bd
00000020: 4487 223c 3796 383d 1aeb 1f3c da20 3dbd
00000030: 7c62 2eba 522c a4bc 71d3 213b 8b32 263d
00000040: f1cf 073d 0034 0c3d c323 ea3c c5b8 45bd
00000050: 2833 b7bd 6ba5 d03c e6f1 15bd 43d4 b9bd
00000060: 937e 1a3d 22d5 ac3c 43cf 4ebd 90f2 99bc
00000070: 9999 b33c 32ad 903d 0ee9 e9bc 6de8 b13c
00000080: 0940 493c 479d 5fbc 71f9 2dbc be8c 3fbd
00000090: d44d d83b c1e6 08bd aa14 9dbd f2c3 bebb
000000a0: b69e 2fbd 8c64 1abe 8482 073d 0bae 63bd
000000b0: 415c c63c 788c 913d d9af 4fbd 2ddc 8cbd
000000c0: 625d 8bbc ac7e 51bd dfed 483d d976 e1bd
000000d0: d78b 1fbd 44d1 8c3b ccf2 6fbd 6d22 0a3d
000000e0: e5c7 3bbc d8ea c5bd 98b9 6abc c212 063c
000000f0: d42a 223d d8f0 35bd 4377 8a3d e5e1 bcbd
00000100: b43e 59bd 94dd 543d 8970 51bc 37aa 2d3d
00000110: 40da bbbc fc3d 303c f9ec a0bc fd18 2fbd
00000120: 412d 483c 4903 8fbd d815 c03c 25d3 0fbd
00000130: a1e6 173e 1ba4 433d bcd1 8abc 74cc 6f3d
00000140: 0623 7c3d 0858 773d 3a2b 603a 87f2 1f3d
00000150: 649c c2bd 97d5 01bd d3b8 a3bd cc18 1d3c
00000160: 108c 923c e04f 7dbc 15cb a9bc b908 82bd
00000170: 7e73 253d d2c4 913c 86f3 07bd 40e8 fab8
00000180: 6a7a 6f3d 4b30 e53c 266e 83bd 9fbb 453d
00000190: fb98 fc3c 5b4e 863c d6f1 20bb cc11 c03d
000001a0: 880c de3c beab f5bc c357 2c3d d100 303c
000001b0: c245 33bd ac63 183d 3367 993c 6275 e8bc
000001c0: bd53 4a3c 3d27 283b 93a1 8c3c dd3d 35bd
000001d0: 70e0 b7bd e690 aabc aeba 8f3d 5d44 8a3d
000001e0: 59f8 54bd fdee 94b9 549c 813d 364a 33bd
000001f0: bd00 b6bd 2dc7 403d eab3 05bc c7ef a2bd
00000200: 40b8 e4bd e04f 493c b0df 113d eebe 303d
00000210: 27e0 223d f384 4b3d c5a1 febc 27c2 b83c
00000220: e797 0abc 2459 223d fdf2 183e 781a bebd
00000230: 56b6 6cbc 8ced 1e3d c1d4 ea3d bc2c 20bd
00000240: 8325 b03a ac48 d03c 40b9 303b d747 323d
00000250: 96b0 8abc 5737 a3bd 8543 b83d aaac cabd
00000260: 31dd 063d bc76 51bd b45f bcbd 1132 3fbc
00000270: 7bdd d5bd 340f 1b3d f396 053c 648d 6d3c
00000280: 3319 e03c ba92 21bd f01f 67bd 8072 413e
00000290: 026a 713c c041 b83d 4a22 90bd 5f28 36bd
000002a0: b482 5e3c 541c 35ba ad69 213d bd08 463d
000002b0: 51f1 9a3d b724 47bd 5e63 1bbd a675 19bc
000002c0: 29b4 46bc c9e2 12bd 70ef 18bd e61a d23c
000002d0: c205 a5bc 5168 a8bd b7ff ecbc e24b 92bd
000002e0: 3b89 be3c b7d5 633d 2252 c23c 967a 4fbd
000002f0: b3ab a63d 3a8b 6dbd 6a9f 783d 2d53 7c3d
00000300: 45df 37ba c293 633d aa67 843c 685c ebbd
00000310: 0812 163d c995 b8bd 7bce 4dbd 772a b3bd
00000320: e6a1 c53d 28f3 1d3d 1f40 973d 6d69 6f3d
00000330: 5461 2a3e a6ae 6a3c a646 4abd 1aa4 41bd
00000340: e08f 8e3d a6c4 483d 39eb 83bd ccfc 473c
00000350: 71e2 de3c 3c2b fbbc d524 d73c 5fdd bbbc
00000360: f218 513d 4762 3bbd a6d5 033d ee85 023d
00000370: b3f0 a5bd 9568 8abd 834c e7bc 890c 233d
00000380: c376 db3c e6fd 4c3d 2d3d 493d 388d 443a
00000390: ada0 563d c513 9ebc d665 e3bd 61c7 e2bd
000003a0: 228b c6bc 0e2d 6e3d f379 af3a 404b c93d
000003b0: f9ad 663d 6ac4 7e3c 09a7 d93d 9519 693d
000003c0: 8a8f 00be 6c9b b13d d477 a03c 0ac8 6fbd
000003d0: c89d 2a3c 0b86 a33d db4b 473c 4834 9b3d
000003e0: 9239 1e3c bc0a b83c f4ae e5bc c9d0 8abd
000003f0: bc3d f03c d414 1c3c 0f26 51bc 6c2d 28bd

actor.out.weight_mask f4 [8, 128]
1.0 1.0 1.0 0.0 1.0 1.0 1.0 1.0
1.0 1.0 1.0 1.0 0.0 1.0 0.0 1.0
1.0 1.0 1.0 1.0 1.0 1.0 1.0 1.0
1.0 1.0 1.0 1.0 1.0 1.0 1.0 1.0
1.0 1.0 1.0 1.0 0.0 1.0 1.0 0.0
1.0 1.0 1.0 1.0 1.0 1.0 1.0 1.0
1.0 1.0 1.0 1.0 1.0 0.0 1.0 1.0
1.0 1.0 1.0 1.0 1.0 1.0 1.0 1.0
1.0 1.0 1.0 1.0 1.0 1.0 1.0 1.0
1.0 1.0 1.0 1.0 1.0 1.0 1.0 1.0
1.0 1.0 0.0 1.0 1.0 1.0 1.0 1.0
1.0 1.0 1.0 1.0 1.0 1.0 1.0 0.0
1.0 1.0 1.0 1.0 1.0 1.0 0.0 1.0
1.0 1.0 1.0 1.0 1.0 1.0 1.0 1.0
1.0 0.0 1.0 1.0 1.0 1.0 1.0 1.0
1.0 0.0 1.0 1.0 1.0 1.0 1.0 1.0
1.0 1.0 1.0 1.0 1.0 1.0 1.0 1.0
1.0 1.0 1.0 1.0 1.0 1.0 1.0 1.0
0.0 1.0 0.0 1.0 1.0 1.0 1.0 1.0
1.0 1.0 1.0 1.0 1.0 1.0 1.0 1.0
1.0 1.0 1.0 1.0 1.0 1.0 1.0 1.0
1.0 0.0 1.0 1.0 1.0 1.0 1.0 1.0
1.0 1.0 1.0 1.0 1.0 1.0 1.0 1.0
1.0 1.0 1.0 1.0 1.0 1.0 1.0 1.0
0.0 1.0 1.0 1.0 1.0 1.0 1.0 1.0
1.0 1.0 1.0 1.0 1.0 1.0 1.0 1.0
1.0 1.0 1.0 1.0 1.0 1.0 1.0 1.0
1.0 1.0 1.0 1.0 1.0 1.0 1.0 1.0
1.0 1.0 1.0 0.0 1.0 1.0 1.0 1.0
1.0 1.0 0.0 1.0 1.0 1.0 1.0 1.0
1.0 1.0 1.0 1.0 1.0 1.0 1.0 1.0
1.0 1.0 1.0 1.0 1.0 1.0 1.0 1.0
00000000: 0000 803f 0000 803f 0000 803f 0000 0000
00000010: 0000 803f 0000 803f 0000 803f 0000 803f
00000020: 0000 803f 0000 803f 0000 803f 0000 803f
00000030: 0000 0000 0000 803f 0000 0000 0000 803f
00000040: 0000 803f 0000 803f 0000 803f 0000 803f
00000050: 0000 803f 0000 803f 0000 803f 0000 803f
00000060: 0000 803f 0000 803f 0000 803f 0000 803f
00000070: 0000 803f 0000 803f 0000 803f 0000 803f
00000080: 0000 803f 0000 803f 0000 803f 0000 803f
00000090: 0000 0000 0000 803f 0000 803f 0000 0000
000000a0: 0000 803f 0000 803f 0000 803f 0000 803f
000000b0: 0000 803f 0000 803f 0000 803f 0000 803f
000000c0: 0000 803f 0000 803f 0000 803f 0000 803f
000000d0: 0000 803f 0000 0000 0000 803f 0000 803f
000000e0: 0000 803f 0000 803f 0000 803f 0000 803f
000000f0: 0000 803f 0000 803f 0000 803f 0000 803f
00000100: 0000 803f 0000 803f 0000 803f 0000 803f
00000110: 0000 803f 0000 803f 0000 803f 0000 803f
00000120: 0000 803f 0000 803f 0000 803f 0000 803f
00000130: 0000 803f 0000 803f 0000 803f 0000 803f
00000140: 0000 803f 0000 803f 0000 0000 0000 803f
00000150: 0000 803f 0000 803f 0000 803f 0000 803f
00000160: 0000 803f 0000 803f 0000 803f 0000 803f
00000170: 0000 803f 0000 803f 0000 803f 0000 0000
00000180: 0000 803f 0000 803f 0000 803f 0000 803f
00000190: 0000 803f 0000 803f 0000 0000 0000 803f
000001a0: 0000 803f 0000 803f 0000 803f 0000 803f
000001b0: 0000 803f 0000 803f 0000 803f 0000 803f
000001c0: 0000 803f 0000 0000 0000 803f 0000 803f
000001d0: 0000 803f 0000 803f 0000 803f 0000 803f
000001e0: 0000 803f 0000 0000 0000 803f 0000 803f
000001f0: 0000 803f 0000 803f 0000 803f 0000 803f
00000200: 0000 803f 0000 803f 0000 803f 0000 803f
00000210: 0000 803f 0000 803f 0000 803f 0000 803f
00000220: 0000 803f 0000 803f 0000 803f 0000 803f
00000230: 0000 803f 0000 803f 0000 803f 0000 803f
00000240: 0000 0000 0000 803f 0000 0000 0000 803f
00000250: 0000 803f 0000 803f 0000 803f 0000 803f
00000260: 0000 803f 0000 803f 0000 803f 0000 803f
00000270: 0000 803f 0000 803f 0000 803f 0000 803f
00000280: 0000 803f 0000 803f 0000 803f 0000 803f
00000290: 0000 803f 0000 803f 0000 803f 0000 803f
000002a0: 0000 803f 0000 0000 0000 803f 0000 803f
000002b0: 0000 803f 0000 803f 0000 803f 0000 803f
000002c0: 0000 803f 0000 803f 0000 803f 0000 803f
000002d0: 0000 803f 0000 803f 0000 803f 0000 803f
000002e0: 0000 803f 0000 803f 0000 803f 0000 803f
000002f0: 0000 803f 0000 803f 0000 803f 0000 803f
00000300: 0000 0000 0000 803f 0000 803f 0000 803f
00000310: 0000 803f 0000 803f 0000 803f 0000 803f
00000320: 0000 803f 0000 803f 0000 803f 0000 803f
00000330: 0000 803f 0000 803f 0000 803f 0000 803f
00000340: 0000 803f 0000 803f 0000 803f 0000 803f
00000350: 0000 803f 0000 803f 0000 803f 0000 803f
00000360: 0000 803f 0000 803f 0000 803f 0000 803f
00000370: 0000 803f 0000 803f 0000 803f 0000 803f
00000380: 0000 803f 0000 803f 0000 803f 0000 0000
00000390: 0000 803f 0000 803f 0000 803f 0000 803f
000003a0: 0000 803f 0000 803f 0000 0000 0000 803f
000003b0: 0000 803f 0000 803f 0000 803f 0000 803f
000003c0: 0000 803f 0000 803f 0000 803f 0000 803f
000003d0: 0000 803f 0000 803f 0000 803f 0000 803f
000003e0: 0000 803f 0000 803f 0000 803f 0000 803f
000003f0: 0000 803f 0000 803f 0000 803f 0000 803f

critic.l1.weight f4 [128, 27]
0.026695833 -0.2919828 -0.17204353 -0.30140054 0.043092564 -0.072326474 0.113306485 0.1039459
-0.016450962 -0.217165 -0.266413 -0.11720507 0.16905114 -0.31033418 0.23516189 -0.40867314
0.06858791 -0.0047550527 0.1892837 -0.14388448 0.1413834 0.11885304 0.023825534 0.0636027
0.040801503 0.022112785 0.21074894 0.31646705 0.18627068 -0.11597221 -0.110133044 -0.06740308
0.08757486 0.06366295 0.2986163 -0.14104263 -0.12120151 -0.24859667 -0.25413767 -0.10653057
0.34582466 0.12304578 -0.21317059 0.027261738 -0.030367466 -0.063221455 0.027563365 0.005503605
-0.09294479 -0.114218526 0.014947517 0.040239245 0.020747969 -0.089902006 0.048215643 0.430863
0.15473433 -0.0990563 -0.02596842 0.004886407 -0.09440439 -0.18789513 0.05654838 -0.105586454
-0.11511655 -0.17335209 0.16506787 0.18363366 -0.15597159 -0.1487499 0.029274328 -0.00323558
-0.09480234 0.094890885 0.064534076 -0.012517255 -0.0060421918 -0.013503758 -0.0005384495 -0.0052307085
0.040693533 0.11347176 -0.12896265 -0.1679432 0.1277244 0.104863964 0.15540813 -0.1945589
0.10917301 -0.09388896 0.084057845 0.0562588 -0.13503586 0.10959865 0.0650299 -0.10607046
-0.0042016613 -0.15727356 0.0020312094 0.097401 -0.16642214 0.114847586 -0.07857389 -0.115551196
0.089515835 0.107425764 -0.13700429 0.019347355 -0.048613157 0.28791103 -0.12851155 0.04976009
0.045392692 0.078568704 0.073636755 -0.17532778 -0.11540278 -0.19914545 -0.07248093 -0.098957784
-0.20639396 -0.12380014 -0.14227806 0.056330428 -0.024521839 0.022469258 0.077101655 -0.1789345
-0.11642901 0.13268542 -0.16242939 -0.09607004 0.042862557 0.12920927 -0.04266231 0.022518523
0.3555585 0.17311992 0.10191223 0.12553999 0.28698435 0.22094844 -0.105087824 0.13561544
-0.11084244 -0.15267876 -0.2644161 0.1414485 0.07333501 0.13114706 0.072180785 0.07112817
0.074579485 0.11406111 -0.036145598 -0.0036847016 0.032492723 -0.01848832 0.011868659 -0.09075144
0.017340297 -0.014428283 0.11169796 0.4409304 -0.046282124 -0.10870656 0.075082 0.017921466
0.20127855 -0.058406807 0.14452812 -0.22148797 0.0005368902 -0.025282068 -0.075712636 0.28532523
0.07275724 -0.07470552 0.2627824 -0.23392653 -0.11265867 -0.101175174 -0.05491736 0.03628925
0.0064126845 -0.07010276 -0.1304153 0.12502818 -0.024876291 -0.044251196 0.523107 -0.10773198
0.0060278676 0.25790402 0.40500557 -0.048239455 0.011057884 -0.082075834 -0.3519036 -0.23764493
-0.09080033 0.16323052 0.3958836 0.023998797 -0.03200598 -0.061234802 -0.08680493 -0.041030392
-0.109976515 -0.05685727 -0.05467792 -0.09670887 -0.035337258 -0.039993707 -0.02547934 -0.023960132
0.14690587 0.37070468 0.13739268 0.121715225 0.10469078 0.23444706 0.02216903 -0.31478038
-0.030179488 -0.17095639 0.07076029 -0.24407908 -0.10858083 -0.10650554 0.061546948 -0.007139488
-0.189452 -0.032653145 0.066085204 0.009039713 -0.056445394 0.058975946 0.0051066303 0.09322441
0.018408015 -0.11663706 -0.10501461 -0.13165322 0.23301935 -0.016933078 -0.021961413 0.1477864
-0.031687707 -0.09329275 0.28218183 0.039016616 0.22810492 0.19620095 -0.13432206 0.17554313
00000000: 38b1 da3c c57e 95be 2e2c 30be 2c51 9abe
00000010: d481 303d e71f 94bd 3b0d e83d 97e1 d43d
00000020: 2bc4 86bc 8060 5ebe 4967 88be 3609 f0bd
00000030: be1b 2d3e 1fe4 9ebe 47ce 703e 9b3d d1be
00000040: d177 8c3d 46d0 9bbb 96d3 413e 7456 13be
00000050: cfc6 103e 3969 f33d c42d c33c 2242 823d
00000060: 7a1f 273d df25 b53c 92ce 573e f807 a23e
00000070: bebd 3e3e d782 edbd 6f8d e1bd a00a 8abd
00000080: 735a b33d b961 823d 3ce4 983e 7b6d 10be
00000090: 7f38 f8bd 2090 7ebe 551e 82be b32c dabd
000000a0: ee0f b13e 6dff fb3d 6449 5abe 0254 df3c
000000b0: 31c5 f8bc 407a 81bd 91cc e13c 9657 b43b
000000c0: d759 bebd 67eb e9bd 6ee6 743c e8d1 243d
000000d0: a5f7 a93c 8b1e b8bd c47d 453d 139a dc3e
000000e0: ad72 1e3e 08de cabd b9bb d4bc 271e a03b
000000f0: 1757 c1bd 9567 40be 469f 673d b63d d8bd
00000100: 3ac2 ebbd 3683 31be 8d07 293e 760a 3c3e
00000110: 04b7 1fbe e551 18be b7d0 ef3c 060c 54bb
00000120: bb27 c2bd 2756 c23d 712a 843d 2c15 4dbc
00000130: 94fd c5bb de3e 5dbc bc26 0dba 5d66 abbb
00000140: 43ae 263d e263 e83d c90e 04be 4df9 2bbe
00000150: 2fca 023e ebc2 d63d 4f23 1f3e 733a 47be
00000160: 1996 df3d db48 c0bd 8526 ac3d a16f 663d
00000170: d746 0abe 4275 e03d 652e 853d 783b d9bd
00000180: 17ae 89bb 520c 21be 0a1e 053b 2d7a c73d
00000190: 916a 2abe 3635 eb3d 59eb a0bd 1ba6 ecbd
000001a0: 1454 b73d 0a02 dc3d da4a 0cbe 587e 9e3c
000001b0: 971e 47bd 1369 933e 8898 03be 3cd1 4b3d
000001c0: b0ed 393d a1e8 a03d dece 963d 2089 33be
000001d0: 4b58 ecbd c9ec 4bbe e270 94bd 61aa cabd
000001e0: f058 53be ee8a fdbd 57b1 11be bcba 663d
000001f0: 06e2 c8bc 7311 b83c 79e7 9d3d 9b3a 37be
00000200: 5572 eebd b0de 073e e453 26be 5ec0 c4bd
00000210: a690 2f3d 6f4f 043e adbe 2ebd c478 b83c
00000220: c40b b63e 5946 313e 5cb7 d03d 8e8d 003e
00000230: 9def 923e 4f40 623e 4938 d7bd c6de 0a3e
00000240: 5c01 e3bd d257 1cbe 8c61 87be e0d7 103e
00000250: aa30 963d 6a4b 063e 85d3 933d a5ab 913d
00000260: 21bd 983d df98 e93d 680d 14bd 097b 71bb
00000270: 1717 053d d174 97bc c474 423c e4db b9bd
00000280: 3d0d 8e3c 9b64 6cbc e6c1 e43d a1c1 e13e
00000290: 5392 3dbd 8ca1 debd 97c4 993d 0ad0 923c
000002a0: f71b 4e3e fa3b 6fbd 2eff 133e becd 62be
000002b0: 17be 0c3a 571c cfbc 3a0f 9bbd 2616 923e
000002c0: bf01 953d 35ff 98bd 6a8b 863e 708a 6fbe
000002d0: 97b9 e6bd ee34 cfbd 07f1 60bd 09a4 143d
000002e0: 7f21 d23b 0992 8fbd 978b 05be 6307 003e
000002f0: 5dc9 cbbc be40 35bd 57ea 053f 96a2 dcbd
00000300: 6b85 c53b ff0b 843e e45c cf3e bc96 45bd
00000310: 212c 353c 6017 a8bd b52c b4be 3159 73be
00000320: 86f5 b9bd e725 273e 41b1 ca3e 2099 c43c
00000330: b418 03bd 58d1 7abd c8c6 b1bd 7c0f 28bd
00000340: 5e3b e1bd 2be3 68bd f4f5 5fbd 4d0f c6bd
00000350: cdbd 10bd 71d0 23bd 0dba d0bc 0a48 c4bc
00000360: 7e6e 163e 01cd bd3e abb0 0c3e d545 f93d
00000370: 1f68 d63d e412 703e d39b b53c e52a a1be
00000380: f93a f7bc 310f 2fbe c5ea 903d deef 79be
00000390: a05f debd 941f dabd a718 7c3d 5ef2 e9bb
000003a0: b5ff 41be 4ebf 05bd ae57 873d 4e1b 143c
000003b0: 4933 67bd c390 713d 8555 a73b 71ec be3d
000003c0: 68cc 963c 69df eebd e611 d7bd 1ad0 06be
000003d0: a09c 6e3e 3db7 8abc 6ce8 b3bc 5155 173e
000003e0: f8ca 01bd 4510 bfbd 237a 903e e3cf 1f3d
000003f0: 5694 693e e7e8 483e b98b 09be 94c1 333e

critic.l1.bias f4 [128]
-0.13845776 0.22488905 0.09231341 -0.18112215 0.14075397 0.10425625 0.20949455 0.2527181
-0.017951064 -0.09629778 0.3850184 -0.04810506 0.016089203 0.14567892 0.32993752 0.06276316
-0.11787426 0.08454436 0.29853466 -0.04672816 0.30131236 -0.077634916 0.25179294 0.33338532
0.10580467 -0.037511658 0.26892883 0.14784142 0.23261075 0.03704534 0.23522297 -0.0874385
0.21762942 0.044474542 -0.13854046 0.07807901 -0.12635611 0.060209885 0.09431325 0.006095756
-0.16675948 -0.068434365 0.08692653 -0.1015239 -0.04686682 0.13176005 0.2867476 -0.17496425
0.059888057 0.074258976 0.17660755 -0.014292367 0.09424723 0.017273834 -0.12103564 0.032695062
0.08554961 -0.11975934 -0.08717014 0.036149647 0.010869978 0.010570381 -0.049937397 0.20968035
0.31820413 0.18452449 -0.093681835 0.0982963 0.2591747 0.15175764 0.35884473 -0.12890267
0.0270549 -0.056493096 -0.104889855 0.10422437 0.056698274 0.08871609 0.06603457 0.2821742
-0.087422475 0.25265726 -0.11460857 0.011389538 0.16619381 0.20251232 0.35316446 0.02642896
-0.13891672 0.33814883 0.11319192 0.15128206 -0.07987001 0.16215295 0.11471817 -0.113282375
0.035108622 0.11061463 0.15995693 0.19706869 0.19187444 0.21960975 0.21076964 -0.0014321607
0.12715688 0.008295623 -0.026109718 0.15673406 0.2299997 0.019954132 0.16280684 0.14126298
0.06398544 0.04149522 0.058075003 0.26728955 -0.11941393 0.15921691 0.2054627 0.26518592
0.22615142 -0.00026815935 0.055796597 0.13860498 0.15187036 0.24858108 0.20584448 0.18759769
00000000: dfc7 0dbe 5149 663e d00e bd3d 1678 39be
00000010: cf21 103e 4d84 d53d bd85 563e 4464 813e
00000020: 1c0e 93bc c537 c5bd 2221 c53e d009 45bd
00000030: 81cd 833c db2c 153e 92ed a83e f989 803d
00000040: 0f68 f1bd 9825 ad3d 89d9 983e 0766 3fbd
00000050: 9d45 9a3e 0eff 9ebd 01eb 803e 7bb1 aa3e
00000060: 1eb0 d83d d3a5 19bd 0ab1 893e be63 173e
00000070: 8331 6e3e dbbc 173d 4ade 703e f512 b3bd
00000080: 3fda 5e3e f02a 363d 8ddd 0dbe e3e7 9f3d
00000090: 7f63 01be a49e 763d 4e27 c13d e8be c73b
000000a0: ffc2 2abe 5127 8cbd 8906 b23d c3eb cfbd
000000b0: 6cf7 3fbd 1bec 063e 95d0 923e d429 33be
000000c0: 2e4d 753d 1715 983d 9cd8 343e 882a 6abc
000000d0: b104 c13d db81 8d3c 89e1 f7bd 42eb 053d
000000e0: a234 af3d 6344 f5bd 4286 b2bd a711 143d
000000f0: fe17 323c 642f 2d3c 288b 4cbd 72b6 563e
00000100: a7eb a23e fdf3 3c3e 43dc bfbd 924f c93d
00000110: 8cb2 843e 5b66 1b3e 7fba b73e 10ff 03be
00000120: 3da2 dd3c 4e65 67bd 7ed0 d6bd 9673 d53d
00000130: 733c 683d c8b0 b53d 223d 873d 2379 903e
00000140: 8e0a b3bd 4b5c 813e e6b7 eabd 2f9b 3a3c
00000150: b62e 2a3e 645f 4f3e f9d1 b43e 8c81 d83c
00000160: 2f40 0ebe d821 ad3e 2ad1 e73d afe9 1a3e
00000170: e392 a3bd 6c0b 263e 5cf1 ea3d 9700 e8bd
00000180: 0fce 0f3d ec89 e23d c0cb 233e 60cc 493e
00000190: bc7a 443e 61e1 603e ffd3 573e 57b7 bbba
000001a0: 6a35 023e 5dea 073c 0ce4 d5bc e57e 203e
000001b0: 0b85 6b3e d976 a33c d6b6 263e 3ea7 103e
000001c0: cc0a 833d e4f6 293d 0ee0 6d3d 2dda 883e
000001d0: 4a8f f4bd c209 233e d064 523e 73c6 873e
000001e0: 3d94 673e bd97 8cb9 f98a 643d 77ee 0d3e
000001f0: e783 1b3e 0a8c 7e3e e5c8 523e 9c19 403e
