TRPO/models/pruning/TRPO-HalfCheetah-0.7-l2.onnx (onnx, 31573 bytes, 6 tensors)

actor.l1.weight f4 [76, 17]
000000 f0 69 0f 3e cb b5 ef 3d 10 4f 2b be 7b f1 5c be
       0.14005256 0.11704596 -0.16729379 -0.21576492
000010 af 24 6f 3e 38 4a a4 3c 20 ba 2d 3e 6a 7e 60 3d
       0.23353837 0.020054922 0.16965532 0.054808058
000020 c1 ab 9f 3d fe 1f 43 3e 9b 1b 74 3e d5 1e f1 bd
       0.07796431 0.19055173 0.23838656 -0.11773459
000030 c8 db 82 3c e2 62 3f 3e 30 a2 42 3e 58 0e 15 3e
       0.01597394 0.18690065 0.19007182 0.14556253
000040 92 a7 2c be 7d c7 43 be 09 b1 3c be 95 eb 5a 3d
       -0.16860798 -0.19119067 -0.18426909 0.053447325
000050 cb 1d 86 3e 0e 2c 1e be 94 4b f7 3d 86 1f 14 be
       0.26194605 -0.15446493 0.12074962 -0.1446515
000060 e3 c6 79 be b4 0b 5f bd 8a 52 03 3e 18 2e 4b 3e
       -0.24392276 -0.05445452 0.12824455 0.19841802
000070 6e ed 21 be 29 bb b1 3c 30 3f 20 3e 2f 4c 49 3e
       -0.15813228 0.02169569 0.15649104 0.19657968
000080 b7 0f 1a 3e fd 0f 1e 3e dd 4f 99 bd 91 ce bc 3d
       0.15045057 0.15435787 -0.07485936 0.09219087
000090 98 74 40 3d 69 1f 68 3d 02 ca 77 3e 38 ef 76 3e
       0.046986192 0.05667058 0.24198154 0.24114692
0000a0 6c 83 2b 3e 8f b1 1f 3c 99 cd 30 be 65 e1 48 3e
       0.16749352 0.009746923 -0.1726593 0.19617231
0000b0 bd 41 97 bd 71 7d e1 bb b6 23 60 be aa be 10 bd
       -0.073855855 -0.006881409 -0.21888623 -0.03533808
0000c0 b8 15 03 be e1 86 57 3e 98 18 5a be 08 78 1a 3e
       -0.12801254 0.21047546 -0.21298444 0.15084851
0000d0 79 40 34 bb ad 5d be bc a5 e1 47 bc 3a 05 23 3d
       -0.002750425 -0.023238027 -0.012199794 0.039799906
0000e0 4e 0c f6 3d 2e 5a 2c 3d e0 d9 9b 3d 3f dd 5a be
       0.12014066 0.04207819 0.07609916 -0.21373461
0000f0 bb 32 42 3e 2c 4b 57 3e 96 ce 64 3e 8c 92 53 3e
       0.18964665 0.2102477 0.22344431 0.20661372
000100 1d 98 27 be 20 7a 8c bd d9 79 4b 3e 35 14 3d be
       -0.1636662 -0.06859231 0.198707 -0.1846474
000110 d2 a2 5d 3e 21 9f 50 be 04 f0 28 be a4 e3 fa 3d
       0.21644142 -0.20373203 -0.16497809 0.1225045
000120 81 c8 34 be f6 75 6e bd 5c 71 32 3e fc f0 41 3e
       -0.17654611 -0.058217965 0.17426056 0.18939584
000130 b4 f5 64 3e a9 93 59 bd 5f 58 52 be 1f b7 66 3e
       0.22359353 -0.053119335 -0.20541523 0.22530793
000140 75 16 05 bd 63 57 e5 bd c6 82 46 3d 7a ea 3f be
       -0.03249212 -0.11198308 0.04846456 -0.1874179
000150 ea 04 11 3e 9c 66 ec bd 56 58 03 3e 70 80 15 3e
       0.14162031 -0.11543009 0.12826666 0.14599776
000160 98 41 83 bc a4 87 ff bc 2e 7e 68 3e 0e 6c 5b 3e
       -0.016022488 -0.031192608 0.22704384 0.21427938
000170 60 95 09 be 4f 34 71 3e f9 f6 87 3d 46 36 2e be
       -0.13435888 0.2355511 0.06638903 -0.17012891
000180 4c 5f e7 3d 19 52 31 be 57 f2 57 3e 81 97 1c be
       0.11297473 -0.17316474 0.21088539 -0.15292169
000190 35 5c b4 3d ea b0 9c 3d f5 96 6e be 8f 15 7c 3e
       0.088066496 0.07650931 -0.23299773 0.24617599
0001a0 f1 4e 6f 3d b8 dc 69 3e c2 1c 18 bd 03 8b 93 bd
       0.058424894 0.22838104 -0.0371368 -0.07204249
0001b0 d0 8b 6a be 53 14 ce bd 60 8b 16 3e e3 91 76 be
       -0.22904897 -0.1006247 0.14701605 -0.24079089
0001c0 6e 4e 9f bd 63 3e 2a 3e 2c 10 09 3e 02 56 9c 3d
       -0.07778631 0.16625361 0.13385075 0.07633592
0001d0 42 2d b3 ba 72 1b 48 bd f2 61 fe bc f6 95 0a be
       -0.0013670104 -0.0488543 -0.031052563 -0.13533768
0001e0 a6 05 66 be eb e4 3a be dd cb 7f 3e 1a 16 28 bd
       -0.22463092 -0.18251388 0.24980111 -0.041036703
0001f0 db 6a 4e bd 57 0a c6 bd c4 b4 07 be 3c ad 65 be
       -0.050394874 -0.09669941 -0.1325255 -0.22429365
000200 56 d6 15 be 19 b3 1a 3e c1 a6 bd 3c a7 0c aa bd
       -0.14632544 0.15107383 0.023150804 -0.083031945
000210 53 c0 9e bd 8e 2c 4d 3e 0b 36 0d 3e 83 f9 48 3e
       -0.07751527 0.20036528 0.13790147 0.19626431
000220 10 4b 42 3e a8 c1 d8 3c 8c 4a f2 bd 49 fc 6f 3e
       0.18973947 0.02645953 -0.11830625 0.23436083
000230 ce 25 86 3b 64 95 4b 3e b9 3a 83 3d 9e de 62 3e
       0.004093862 0.19881207 0.06407685 0.22155234
000240 93 89 17 3e ca 34 de bd cf 7a 30 3e 6b 7d 91 bb
       0.14798574 -0.108499125 0.17234348 -0.00444
000250 4b 06 54 be 64 16 1f bd fa d7 83 be 61 12 be bd
       -0.20705526 -0.038839713 -0.25750715 -0.09280849
000260 a2 cc 12 be 08 7c 6e be 9b 94 09 3e 52 5b 25 3c
       -0.14335874 -0.23289502 0.13435595 0.010092573
000270 62 7c de 3d 55 2f 08 be 64 0f 1d 3e 8e 42 f3 bd
       0.10863568 -0.13299306 0.15337902 -0.11877929
000280 06 88 57 be dd 51 aa 3d ca 5c 0a 3e c4 87 84 3e
       -0.21047983 0.083163954 0.13511959 0.2588483
000290 03 11 81 bc 09 dd 83 3e f0 cc 0b 3e c0 19 fb bd
       -0.015755182 0.25754574 0.13652396 -0.12260771
0002a0 ff 68 31 be 33 08 17 3e 08 ec 5f be 99 26 39 3d
       -0.17325209 0.14749222 -0.21867383 0.045202825
0002b0 8a 98 ee 3d 78 d4 31 3e 9b 38 fb bd 49 9a 2f be
       0.11650188 0.17366207 -0.12266656 -0.17148699
0002c0 16 10 b8 3d de bd 48 be 13 5c 5d be 0c d0 68 be
       0.08987443 -0.19603679 -0.21617155 -0.22735614
0002d0 ca 44 f6 bd 0b bb 18 bd 46 9c ed bd 38 3d eb bd
       -0.12024839 -0.037287753 -0.116020724 -0.11486286
0002e0 f2 96 4c be 03 27 f7 3d f5 37 b1 bc 3f 83 1e be
       -0.19979456 0.12067988 -0.021633128 -0.15479754
0002f0 6d 07 a5 3d 09 7c 36 be 83 03 33 3e b6 60 0f 3e
       0.08058057 -0.17820753 0.17481808 0.14001736
000300 39 15 79 be b7 c6 45 be 26 42 27 be ed 26 0a be
       -0.24324502 -0.19314085 -0.16333827 -0.13491412
000310 a4 89 a7 3c be 52 71 be 5f 54 26 be 1b 1f b3 3d
       0.020451374 -0.2356672 -0.16243123 0.08746167
000320 4f d2 c2 bd 38 00 e3 bd cb ce 56 be 94 99 a9 3d
       -0.095127694 -0.11084026 -0.20977323 0.08281246
000330 08 b1 6c 3e 43 99 37 3d 0c a6 75 bd 48 ed 0e 3b
       0.23114407 0.044823896 -0.059972808 0.002180891
000340 8b 08 75 3e 36 31 28 3e 57 41 92 bc 00 fa 72 3e
       0.2392904 0.16425022 -0.017853422 0.2372818
000350 fa 42 da 3d 35 24 0a be 82 b2 65 be 51 3e f1 3d
       0.10657306 -0.13490374 -0.22431377 0.11779464
000360 6c ff 68 3e e7 e6 f1 bd 5c fa cb 3d da 97 49 bb
       0.22753686 -0.11811619 0.09959862 -0.0030760677
000370 20 d0 ac bd 04 94 42 be 57 95 70 3e d3 e1 60 be
       -0.08438134 -0.19001776 0.23494469 -0.21961145
000380 48 37 ae bd 65 b9 2d be 37 65 b3 3d 51 5b 4e be
       -0.08506638 -0.16965254 0.087595396 -0.20152022
000390 a4 d8 f0 bd 9c a8 16 be c7 9a 19 be 13 a2 e7 bd
       -0.11760071 -0.14712757 -0.15000449 -0.1131021
0003a0 35 10 68 3e a8 39 19 bc 97 e5 8a 3d c4 1e 6e be
       0.22662432 -0.009352125 0.06782072 -0.23253924
0003b0 0b 02 5e 3e 36 89 22 bd 89 c5 61 be 13 8a 37 3e
       0.21680467 -0.039681636 -0.2204801 0.17923765
0003c0 64 0b 87 bd f8 db 65 3e 1c 16 27 be 45 4d 6a be
       -0.065939695 0.22447193 -0.16317028 -0.22881038
0003d0 f9 26 3f be 5d 45 d1 3d 6d 44 06 bd 31 a3 76 be
       -0.1866721 0.10218308 -0.0327801 -0.2408569
0003e0 9f 97 3b 3d 7a b7 36 3b 1b d9 bb 3d aa 85 0b be
       0.045798894 0.0027880357 0.09172269 -0.13625208
0003f0 2a 48 0a be fe 46 3a 3e 56 51 fd bd fb 93 32 3e
       -0.13504091 0.18191144 -0.12369029 0.17439263

actor.l1.bias f4 [76]
000000 55 bb 23 bd 2a eb 4d 3e ec da 5a bd 61 b8 60 3d
       -0.039973576 0.20109239 -0.053431436 0.054863337
000010 5a 38 82 3d 8f 82 18 be 9a 73 13 3d 74 13 40 3e
       0.063584045 -0.14893554 0.035998918 0.18757421
000020 c6 dd 62 3e 3a 54 f1 bd bf cf ee bd 04 e6 fa 3d
       0.22154912 -0.11783643 -0.11660718 0.12250903
000030 0d 2d 6b 3e d2 11 28 3e 81 9b 14 be a4 e3 b7 bb
       0.22966404 0.16413048 -0.14512445 -0.0056118537
000040 b3 cb 08 be 39 dd 79 be 17 c2 7f 3d 1c 7f 1f be
       -0.13358955 -0.24400796 0.062440958 -0.15575832
000050 3a b9 55 3d 99 53 13 3e af 97 e6 bd b4 22 1e be
       0.0521786 0.14387359 -0.112594 -0.15442926
000060 75 26 cd bc 80 11 80 3e e3 a2 2d be d6 5a 64 be
       -0.025042752 0.2501335 -0.16956668 -0.22300276
000070 57 01 21 be ba 9a 90 3d e2 ff 3f be 01 ba bc 3d
       -0.15723167 0.07060762 -0.18749955 0.09215165
000080 b8 51 53 3e 81 cf 6a be c9 5a 5b be 2d 4e 8c bd
       0.20636642 -0.22930719 -0.2142135 -0.06850848
000090 fb 09 14 be f5 c9 80 3d d9 65 26 be 7d 8e 32 3e
       -0.14456932 0.0628852 -0.1624979 0.17437167
0000a0 1a 37 22 bd c5 a0 e5 3c 6c bb 75 3d bf 35 11 3e
       -0.03960333 0.028030762 0.059993193 0.14180659
0000b0 93 91 56 be 53 71 94 3d 06 67 a6 3c 46 44 30 3e
       -0.2095397 0.072481774 0.020312797 0.17213544
0000c0 69 d1 b9 bd f3 61 50 be 9b 7b 59 3d c3 f8 99 bd
       -0.09073145 -0.20349865 0.053096395 -0.07518151
0000d0 26 f3 0d 3e be ac 87 3c 58 b4 8d bd 8c 4f 5d be
       0.13862285 0.016561862 -0.069191635 -0.21612376
0000e0 b6 f2 a4 3d af b9 62 3e db 65 b4 3c 8c 3f 71 3e
       0.08054106 0.22141145 0.022021225 0.23559397
0000f0 ea 75 49 be 9f 83 0d be 31 a2 2a 3d 9b ff 44 be
       -0.19673887 -0.1381974 0.041658584 -0.19238131
000100 c1 38 59 3d d1 3d 5e bc 5b d2 19 3c 00 1c 06 be
       0.05303264 -0.013564543 0.009388532 -0.13096619
000110 28 1e 8b bd a9 9a 15 3e 9c 65 fd 3d 62 86 3a 3e
       -0.06792861 0.1460978 0.12372896 0.18215325
000120 9c 17 f0 3d 9d 55 b3 bd b4 82 92 3d 9a 0c 42 3e
       0.11723253 -0.08756564 0.07153836 0.1895012

actor.l2.weight f4 [76, 76]
000000 00 1c 8a 3d 17 c3 2c bd ea 2c 20 3d a9 5b 76 bd
       0.06743622 -0.04217824 0.039105333 -0.060146008
000010 ff d9 1b 3d 90 a5 05 bd bf cc 6e 3d 87 5a e6 3c
       0.038049694 -0.032628596 0.05830073 0.028119339
000020 02 16 47 3d f2 f9 6b bc 1a bf 8d 3d 06 7e da bc
       0.048604973 -0.014402853 0.06921215 -0.02667142
000030 75 5e 59 3b f8 d8 7c bd 72 12 31 3c 6b df bd bc
       0.0033167873 -0.061730355 0.01080762 -0.023177823
000040 b3 17 03 bb b7 97 1b bd 1a 46 4e bd 40 59 6d bd
       -0.002000314 -0.037986483 -0.050359823 -0.057946444
000050 f2 ee 3c 3d 97 99 b5 bc 93 be e0 3c f2 e7 3e bd
       0.046126314 -0.022167964 0.027434623 -0.04660792
000060 54 dc 6c 3d 0c 1f 41 3c ab dc 63 3d 4c f5 03 3d
       0.05782731 0.011787187 0.055630367 0.032216355
000070 55 c6 84 bc f4 82 dd bc c7 0b 6d 3d 7a fc 21 3d
       -0.016207853 -0.027039982 0.05787256 0.03954742
000080 66 ca dd 3a 1d af 0a 3d 75 44 5f bd fc 87 61 bd
       0.0016921281 0.033858407 -0.054508645 -0.055061325
000090 6e 58 52 bb 4f b0 02 3c 86 3e 10 3a 0b 90 62 3d
       -0.0032096165 0.007976606 0.0005502481 0.05531315
0000a0 02 b3 95 3d 4d cc 6c bc 16 1d e7 bc 2b 8e de bc
       0.07309534 -0.014453006 -0.028212111 -0.0271674
0000b0 fa 35 fb bc da 2c 66 bc 73 a7 66 3d 6e 8a 11 3d
       -0.030665386 -0.014048779 0.056312036 0.035532407
0000c0 a4 41 7d bc 67 22 16 3d 50 52 d4 ba b4 26 9e bc
       -0.0154575445 0.036653902 -0.0016198847 -0.019305564
0000d0 eb c1 4f bd ef 01 24 3d 8b 77 6e 3d 9e 0f 94 3c
       -0.050722044 0.040040907 0.058219474 0.018073853
0000e0 13 66 02 bb 07 b1 dd 3b 5b c0 7a 3d 36 a0 69 bb
       -0.0019897267 0.006765488 0.0612186 -0.0035648472
0000f0 66 a1 0f 3d 82 7b 90 39 d7 41 4e bd fa 00 ab bc
       0.03506603 0.0002755784 -0.05035576 -0.02087449
000100 98 0b 17 3d 25 94 3b bc 96 77 74 3d db 11 4f 3d
       0.03687629 -0.011448895 0.05968436 0.050554138
000110 22 21 6f 3d 59 3e 0c bd da 31 88 bc c5 82 e0 bc
       0.058381207 -0.034239147 -0.016625334 -0.027406106
000120 24 bf 66 bd 7e 84 cf 39 54 e0 40 bd 5e 51 18 bd
       -0.05633463 0.0003958083 -0.047088936 -0.037186973
000130 b5 94 10 3d a8 e6 6e 3d 50 e5 84 3d 15 04 5a 3c
       0.035298068 0.05832544 0.064890504 0.013306637
000140 9e 61 71 bd 17 93 d7 bb f3 0d 93 3c b6 d7 66 bd
       -0.058930986 -0.006578814 0.017950987 -0.05635806
000150 7d 2e 8b 3d a3 44 7a bd e2 30 4e 3c 52 ee 89 bc
       0.06795976 -0.061100613 0.012584897 -0.016837273
000160 10 7c 97 3c b6 eb 37 bc 72 29 5d bd a5 a8 12 bd
       0.018491775 -0.011225631 -0.053994603 -0.035805363
000170 2f 89 90 bb 0b 68 94 3c ad a2 16 3d 98 86 84 3d
       -0.004410885 0.018116018 0.036776233 0.06470984
000180 f9 a7 a1 bc 97 09 c5 3c d0 47 18 bd 95 44 53 bd
       -0.019733416 0.024052424 -0.03717786 -0.051579077
000190 08 57 1f bd 34 43 7d 3d f3 72 f1 bc 1c 59 9d 3c
       -0.03890136 0.061831668 -0.029473757 0.01920753
0001a0 08 bc 32 bd 05 aa 1d bd 95 f5 15 bd d1 9c 2e bd
       -0.04363635 -0.03849222 -0.03661116 -0.04263002
0001b0 e8 aa 8e 3d da 91 51 3b 03 3e 55 bd 08 64 26 bc
       0.069661915 0.0031977803 -0.052061092 -0.010155685
0001c0 8f d8 ef 3c 99 af 87 3d 9b f3 b2 bc ff d1 8e 3d
       0.029278068 0.066252895 -0.021844676 0.06973647
0001d0 82 06 77 3d 8f 38 18 bd 8c 1e 48 bb 12 61 fb bc
       0.06030894 -0.037163313 -0.0030535785 -0.030685935
0001e0 28 69 59 3d db 08 b5 bc 73 22 37 3d 56 0c 80 3c
       0.0530788 -0.02209895 0.044710588 0.015630882
0001f0 2b 0e d8 bc 96 ae a1 bc d9 18 33 3d 13 ca 3e bd
       -0.026373943 -0.01973657 0.04372487 -0.04657943
000200 31 0c 18 38 41 7d 40 3d 00 f4 5d 3d 2f ae 0a 3d
       3.6250978e-05 0.04699445 0.054187775 0.03385752
000210 35 56 5b 3d af 63 ac 3c 55 eb 4b bd d1 7a 27 bd
       0.05354901 0.021043627 -0.049784977 -0.04088861
000220 41 e3 89 3d ff 00 45 3d bf df ba 3c 9c 15 04 ba
       0.06732798 0.048096653 0.022811769 -0.00050386204
000230 88 02 81 3c 0e 16 25 3d 6c d8 d8 3b 5a 6c 04 bc
       0.015748277 0.040304236 0.0066175964 -0.008082474
000240 e8 b0 68 3a ce 2e 0c bd 50 10 08 bd 35 bc 9a bc
       0.0008876459 -0.034224324 -0.03321868 -0.018888572
000250 8c 84 e2 bb ad e2 b4 bb 9d 59 84 3d 6b 7e d3 3a
       -0.0069127735 -0.005520186 0.06462405 0.0016135698
000260 08 97 44 3d 75 bc 28 bd c8 87 31 bd 84 01 e3 3c
       0.047995597 -0.04119535 -0.04334238 0.027710684
000270 5b 1c 06 3d ba 3f 88 3d 6f c9 23 3d ad 59 29 bc
       0.032741886 0.0665278 0.039987024 -0.010336322
000280 0c 9f 99 3d 47 11 84 bd 82 9c 44 bd bd 11 03 3d
       0.07501039 -0.06448608 -0.04800082 0.03199934
000290 da d4 1a bd f3 93 c3 3c 4b 2b 31 bd a3 4a ef 3c
       -0.037800647 0.023874259 -0.043254178 0.029210394
0002a0 b3 8d 4c 3d e3 29 7a 3d 63 de 55 bd 91 20 7a 3d
       0.049939822 0.061075103 -0.052214038 0.061066214
0002b0 bc e5 f3 3c b7 94 95 3c 43 a3 18 bd 1e 3f ea bc
       0.029772632 0.01825939 -0.037265074 -0.02859455
0002c0 76 15 2c bd 6c cf 32 bd fa fc 48 3d 71 eb e4 3c
       -0.042012654 -0.043654844 0.049069382 0.027944298
0002d0 bf e9 93 3c 3d 36 25 bd 75 60 13 bd 56 f2 43 3d
       0.018055795 -0.04033493 -0.03598066 0.04783853
0002e0 08 e1 0d bd a1 ba 2c 3d 08 7a 36 3d 20 72 a7 3d
       -0.034638435 0.04217017 0.04454997 0.081760645
0002f0 e7 8f fc bc 85 33 9e bc 94 e8 1c 3c b9 c8 2c bd
       -0.030830337 -0.019311676 0.009576935 -0.04218361
000300 fd 8d dd 3c 3d b2 c5 3c 30 76 9c bc 11 c8 6c bd
       0.027045244 0.024132842 -0.019099325 -0.057807986
000310 45 39 e7 3c cb 57 08 3b aa a7 0d 3d 4f 2d ef bb
       0.02822555 0.0020804282 0.034583725 -0.0072991024
000320 32 ae af bc e3 de 3a 3d a5 64 45 3d 68 b8 8a bc
       -0.021445367 0.045622718 0.048191685 -0.016933635
000330 39 69 99 3d 2f 3b 28 bd c3 47 11 bd 4f 82 8e 3c
       0.07490773 -0.041072067 -0.035468828 0.01739612
000340 b6 ca 3e 3c 24 4e 00 bd 52 43 91 3b 06 17 97 3b
       0.01164501 -0.03132452 0.004433074 0.004610899
000350 b0 b8 47 3c 02 20 99 3c 25 7a 28 3d ff 5c 37 3d
       0.012190029 0.01869202 0.04113211 0.044766422
000360 4b f6 4f bd 90 c0 03 3d 53 1a 0c bd 63 31 b3 bb
       -0.050771993 0.032166064 -0.034204792 -0.005468534
000370 dc 9d 0b 3d 35 d9 0f bd c4 fe ca bc 12 84 fe 3c
       0.034086093 -0.035119254 -0.024779685 0.031068835
000380 62 1c 73 3d ba f4 de bc c3 de 0e 3d 54 11 2f bc
       0.05935324 -0.027216304 0.03488041 -0.010685284
000390 63 8d 23 bc c5 e5 d3 ba 09 c0 34 3d ed a1 30 3d
       -0.00998244 -0.0016166499 0.04412845 0.043123174
0003a0 35 26 b0 ba fb 45 2f bd 84 78 34 bd a2 77 02 3d
       -0.0013439121 -0.042791348 -0.044060245 0.031852372
0003b0 10 4d 10 bc 91 84 88 bd b3 2b 30 bd 6a 25 b7 3c
       -0.008807436 -0.0666591 -0.043010425 0.022356708
0003c0 77 9b ff 3b f9 41 34 bd c6 b8 75 3c 18 ee 89 3b
       0.0078005153 -0.04400823 0.014997667 0.004209291
0003d0 68 df 54 bc e6 f8 1f 3d b0 f6 5e 3c e6 90 63 3d
       -0.012992717 0.039055727 0.01360862 0.055558108
0003e0 82 a1 e0 bc db 99 ef 3c 34 3a f7 3c 38 41 8d 3d
       -0.027420763 0.029248169 0.03017912 0.06897205
0003f0 c0 d7 a4 3b fe be 5e bd 8f 7b 91 3c 8d 8a da bc
       0.005030602 -0.054381363 0.017759113 -0.026677394

actor.l2.bias f4 [76]
000000 8d b1 50 3b 61 22 88 bb 22 fc 81 b9 48 fb 18 bd
       0.003184411 -0.004154489 -0.0002479265 -0.037349015
000010 14 e0 11 3d 7d 98 5b bd d5 c5 ac bb 3d 59 2f 3d
       0.03561409 -0.05361222 -0.005272607 0.042809714
000020 0a 69 5c 3d b2 36 45 bd 3d 8d 1b bc 6d 4e 6b 3d
       0.05381111 -0.048147865 -0.009494123 0.05744784
000030 ee 7a f8 3c 19 b6 15 3c bd b7 5e 3d 8d 99 15 3c
       0.030332055 0.009137654 0.054374445 0.009130848
000040 7b ba 5e 3d f0 b7 0b 3d 46 d9 16 bd d1 9b 67 3d
       0.05437706 0.034110963 -0.0368283 0.056545082
000050 3d 08 b1 bc 6c ad 34 bd f5 a6 ec 3c 8e 5b b2 3a
       -0.021610374 -0.0441107 0.028888205 0.0013607608
000060 d4 24 0e bd ba 1e 11 3d 7d eb 78 3d 59 33 88 bd
       -0.03470309 0.035429694 0.060771454 -0.06650419
000070 6d d3 79 bc a4 cb 6a bc 68 be 50 3d bc 35 c2 3c
       -0.015248162 -0.014330778 0.050962836 0.023707263
000080 17 de 60 3d 8c 62 be bc 0f 9e b8 3c 08 79 8f 3c
       0.0548993 -0.02324035 0.022536306 0.017513767
000090 3d 27 bb bb 84 fe 20 bb 30 50 5a bd 22 11 a7 bc
       -0.0057114647 -0.0024565766 -0.05329913 -0.020393912
0000a0 a4 1b 48 3d df 0c 41 bd 59 22 7e 3d 41 b5 01 bd
       0.048854485 -0.047131415 0.062044475 -0.031666998
0000b0 2f d7 12 3d 70 5a e9 bb f4 76 cc 3c f1 ca 4a 3c
       0.035849746 -0.0071213767 0.024959065 0.012377487
0000c0 49 f9 f8 3c cb ea 55 3d a8 33 1f bd e2 1a 0c 3c
       0.030392306 0.05222587 -0.038867623 0.008551331
0000d0 d8 81 8e 3d 3c bc 4e 3c a3 fd 36 3d 99 93 d1 3c
       0.069583595 0.012618121 0.04467548 0.025583075
0000e0 8f 96 2d 3d 7d 2a 4c bd dc c3 02 3c 93 3f 5d ba
       0.042379912 -0.049845207 0.007981267 -0.0008439954
0000f0 ad 20 59 3d 8f 42 4d bd 8f b6 45 bd bb 5c 65 3d
       0.053009678 -0.050112303 -0.048269805 0.055996638
000100 3c f3 4f 3d 6d 1a 8e bb af f8 7a bd 24 b0 48 3d
       0.050769076 -0.0043366463 -0.06127232 0.048996106
000110 6c 3a 57 3d fe 33 cc bc 34 e9 3b 3d 70 c3 07 3d
       0.05254595 -0.024927136 0.045876697 0.033145368
000120 fc 41 b5 3d 12 5d bb 3c 35 5f 12 bd 76 83 c0 3c
       0.08850476 0.022871528 -0.035735328 0.023500185

actor.out.weight f4 [6, 76]
000000 f5 71 80 3d 5c ef b7 bd c6 98 88 bd 60 3a bf bd
       0.062717356 -0.08981201 -0.06669764 -0.09337306
000010 45 75 29 3d 63 0f 45 bd 48 7f b9 bd a8 25 8e 3a
       0.041371603 -0.048110377 -0.0905748 0.0010844963
000020 1a 6d d4 bc ec 68 9f 3b a3 7e 40 3d a1 2c 3a 3d
       -0.02593093 0.0048648026 0.04699577 0.045452718
000030 4a 27 20 3d 4a 12 c2 3d e2 96 e3 bc 39 c1 29 bc
       0.03909997 0.094761446 -0.027781907 -0.010361009
000040 cf 02 ac bd c8 df 8b bc 51 bb c1 3b 37 42 1c bd
       -0.08398973 -0.01707448 0.0059122224 -0.038149085
000050 50 83 44 3d 2d 66 c9 bb d0 d5 7e b8 8d d9 d0 3d
       0.04797679 -0.0061462135 -6.0757447e-05 0.101977445
000060 9a 9b c4 3c 50 cb ac bd a0 dc ca 3d 37 3f f8 bd
       0.023999978 -0.08437216 0.09905362 -0.12121432
000070 1e c8 09 bc cd 3b 2b 3d 7a f7 f4 3a 8b 5a 6e bd
       -0.008409528 0.041805077 0.0018689476 -0.058191817
000080 37 ff b8 3b 68 ab 6c bd 72 af 96 3d f9 c3 c5 bc
       0.0056456584 -0.057780653 0.07357682 -0.024141299
000090 34 f5 92 bb ae c0 a9 3c 3f 19 60 bc 6a f8 1a 3d
       -0.004484797 0.02072176 -0.013677894 0.037834562
0000a0 2a c4 a3 3d e3 8c 38 3c bc a9 17 bd fb a5 1c bd
       0.079964 0.011264059 -0.037027106 -0.03824423
0000b0 04 b8 41 bc b7 83 ba bd 5f be 2f 3d f2 29 5c 3d
       -0.011823658 -0.09107154 0.04290616 0.05375094
0000c0 f7 41 0d 3d 99 4c ad 3d 73 e2 cf 3d 21 89 2c 3d
       0.034486737 0.084618755 0.10150614 0.042122964
0000d0 74 9e ab bc 26 6f 0a 3c 47 8f 69 bd 84 5d 13 bd
       -0.02094958 0.008449351 -0.057021406 -0.035977855
0000e0 67 d5 9b bc e0 05 30 bc 18 d5 cc bd 9e 78 4a 3d
       -0.019022657 -0.010743588 -0.10001582 0.049431436
0000f0 a3 6c f1 bc 8b 25 c1 bb 7d 85 82 bd 90 69 66 3d
       -0.029470747 -0.005894368 -0.06373117 0.056253016
000100 08 69 02 3d 46 63 4e 3d f0 ee 08 3d 1b 5d 62 bd
       0.031838447 0.050387643 0.033430994 -0.055264574
000110 06 0d c1 3d a4 01 04 bd 57 27 c3 3c 2f b1 3c 39
       0.09426312 -0.032228127 0.02382247 0.00017995083
000120 28 ef 6b 3d 11 1c a2 3a ec 32 b8 bd 2d 08 95 3b
       0.057601124 0.0012367984 -0.089940876 0.004548094
000130 f3 50 10 bd 9e bc 25 bd b1 97 e8 bc 1d ce 6a 3c
       -0.03523345 -0.040463082 -0.028392645 0.014331368
000140 c0 67 e7 bc fc fa 68 3d 78 2d 9d 3c 8a 9b b5 bd
       -0.028247714 0.056879982 0.01918672 -0.08867557
000150 de bd 51 bd 22 23 af bc e6 3a 7b bd 86 01 2b bd
       -0.051206462 -0.021379057 -0.061335467 -0.0417495
000160 e6 37 90 3d bb a0 79 3d ed c5 65 bc 55 a9 75 bb
       0.07041912 0.0609443 -0.01402424 -0.0037484963
000170 b8 0f ab bc 59 2c dc bc d0 94 74 3c 05 9b 86 3d
       -0.020881519 -0.026876615 0.014928058 0.065725364
000180 68 bb 76 3c 98 d6 46 3b 2d 9d 14 bd 4f 67 7f 3d
       0.01505933 0.003034031 -0.036282707 0.062354382
000190 f4 17 55 bd f4 bf 97 bd d2 e3 bc bc c3 1b 3e 3d
       -0.052024797 -0.07409659 -0.023057852 0.046413194
0001a0 5a d2 f8 bc 8f 9b 2d 3d aa 9f 94 bd af 83 fa 3c
       -0.030373741 0.04238468 -0.07257016 0.03058037
0001b0 41 4c df bc bc 62 61 3b 53 a2 22 3d a1 06 ab 3a
       -0.02725804 0.0034391126 0.039705586 0.001304824
0001c0 f4 5c 39 bc 53 25 ba bb 02 d6 b3 3c 4f 9f 42 3d
       -0.011313666 -0.005680719 0.021952633 0.04751521
0001d0 7b ee ef bb b5 c7 f4 bc c6 d6 c5 bc 79 4c af 3d
       -0.0073221303 -0.029880384 -0.024150264 0.08559508
0001e0 27 75 2b 3d 74 68 78 3b ba 44 90 bc 3a 97 dc 3c
       0.041859772 0.0037904056 -0.017610896 0.02692758
0001f0 be 75 f9 bb 09 f0 b3 3c f7 89 19 3d 56 60 e6 bc
       -0.007612913 0.021965044 0.03748509 -0.028122108
000200 48 b8 1c 3d 97 77 72 3c 23 6e d7 bb d0 1f 31 3d
       0.03826168 0.01479902 -0.0065744086 0.04324323
000210 57 c3 99 3d d2 c9 af bb 0b 38 d4 3b 85 83 89 bd
       0.07507961 -0.005364635 0.0064764074 -0.067145385
000220 d6 2d 3f 3b 4a c8 04 3c 58 2f 56 bd e6 cf 1a 3d
       0.0029171607 0.008104393 -0.052291244 0.037795924
000230 f1 fa c2 bc 5e 10 f6 3c 4e 63 9f 3c 35 12 a4 bc
       -0.023801299 0.030037101 0.019456532 -0.020028213
000240 80 bb 4a ba 45 04 65 3d 93 36 a0 bd 38 b1 b1 bc
       -0.0007733628 0.055912275 -0.07822909 -0.02169095
000250 91 48 8c bc 22 c0 b2 3c 24 6e c8 bc 64 6e 71 3d
       -0.017124446 0.021820132 -0.024466582 0.058943167
000260 69 ea 94 3c 4a 97 f1 3b c8 e8 03 bc d7 6a 58 bc
       0.018178182 0.0073727714 -0.008051105 -0.013209066
000270 02 a2 5b 3c 3e fd 9a bd e2 88 10 3d d7 25 d2 3c
       0.013405325 -0.07567833 0.03528679 0.025652809
000280 c1 0a 05 bd d2 d6 c8 bc 3a 4c 16 3b 12 07 bb 3b
       -0.03248096 -0.024516497 0.0022933618 0.00570763
000290 d0 e5 4a 3d ce 8b b5 bc 0e 04 0c 3d 4d 87 58 3b
       0.049535573 -0.02216139 0.034183554 0.003303963
0002a0 81 cc 85 bc eb b5 b2 bc d0 ce a2 3c a5 ba e8 3b
       -0.016332867 -0.02181526 0.019874007 0.007102328
0002b0 82 61 05 bd 9c 7e 02 3c 8d 2e 5d 3d 55 eb a3 3d
       -0.032563694 0.007964756 0.053999472 0.080038704
0002c0 08 83 1a bb 21 d0 92 bc 5f e0 ac bc 97 93 22 3c
       -0.0023576636 -0.01792151 -0.021103082 0.0099228835
0002d0 3a f7 0d bd 93 c2 d3 bc 39 a4 0c 3c 6b ac ad bc
       -0.0346596 -0.025849616 0.008584076 -0.02120038
0002e0 b8 37 fb ba 9d cf 08 3c b9 10 6a 3b 3a 38 e5 ba
       -0.0019166386 0.00835028 0.0035715534 -0.001748807
0002f0 e1 ab 60 bc e9 c2 70 3d 75 28 e2 bb 09 e9 34 3c
       -0.013712854 0.05877963 -0.0069017955 0.011041888
000300 18 70 d0 3c 18 57 be bc 4e 90 15 bd 06 b1 c3 3b
       0.025444075 -0.023234889 -0.036514573 0.0059720306
000310 48 1e a2 bc 56 ea 8d 3b 4d 87 fb 3b 92 c3 aa 3b
       -0.01978983 0.0043309135 0.007676041 0.005211302
000320 11 6e 27 bd 7b 00 68 3d f9 75 9d 3b f2 a8 2a bd
       -0.040876452 0.056641083 0.004805323 -0.041665025
000330 cb d2 a6 3a 81 c2 da bc c5 65 7e bc ba e4 00 3d
       0.0012727616 -0.026704075 -0.015527193 0.03146813
000340 87 c4 1f bd b4 1f 55 bd ab 2f 36 bd 6e c4 10 bc
       -0.039005782 -0.052032188 -0.044479053 -0.008835895
000350 1b dd e6 bc 15 23 0f 3d 28 ef e8 39 5f c2 63 3d
       -0.028181603 0.034945566 0.00044428674 0.05560529
000360 12 2a 9e 3d 46 3c 89 3d 38 dc b8 bc f1 df 7b bd
       0.07722868 0.06700949 -0.022565946 -0.061492864
000370 35 50 02 bd 1e b7 d0 ba ae 66 0e bd 6c 09 3d 3c
       -0.031814773 -0.0015923714 -0.03476589 0.011537891
000380 39 2f 67 3c cd 24 9f 3c 12 93 79 bc 99 53 d1 bc
       0.01411038 0.019426728 -0.015232818 -0.025552558
000390 e8 71 15 3d 0d 7d 0c 3d 72 45 c0 bd 8c d8 0b be
       0.036485583 0.034298945 -0.09388246 -0.13656825
0003a0 6e 34 cb 3d 99 ba c2 bd fa ec 64 bb 40 d2 29 3d
       0.099221095 -0.09508247 -0.0034931288 0.041460276
0003b0 56 96 f2 bc 6a 8e 42 bc 88 a4 27 3e 13 38 aa 3d
       -0.029612701 -0.0118747745 0.16371357 0.083114766
0003c0 68 c0 81 3c 8f 8e 4d 3d 22 0c 24 bc b1 d1 14 3d
       0.015838817 0.050184783 -0.010012658 0.03633279
0003d0 1f 91 ec bd 11 4f e1 bc a2 30 c1 bc 32 0f 97 3b
       -0.11551117 -0.027503522 -0.02358276 0.0046099657
0003e0 5c 21 34 3c fd a4 b2 3b 22 e3 07 3e 95 c3 bd 3d
       0.010994282 0.005451797 0.13270238 0.0926582
0003f0 26 39 ae bc 79 a4 3f bd 36 15 9c 3d e9 9c 6d be
       -0.021267485 -0.046787713 0.07621233 -0.23204388

actor.out.bias f4 [6]
000000 63 14 e1 3d e5 be 83 bd 03 b8 39 bb a1 3a 3e 3e
       0.109902166 -0.064328946 -0.002833844 0.18577053
000010 ac b1 f2 3d 55 48 bc bc
       0.118502945 -0.02298371
