TRPO/models/pruning/trpo-HalfCheetah-0.65-l2-dim1.pt (torch, 862174 bytes, 15 tensors)

actor.log_std f4 [6]
000000 77 dc b5 bf 03 5b 9f bf c4 91 8e bf 07 42 a2 bf
       -1.4207906 -1.244965 -1.1138234 -1.26764
000010 6c 4c a4 bf 77 4d 91 bf
       -1.2835822 -1.1351765

actor.l1.bias f4 [256]
000000 cb 77 0d 3e 0a 08 f0 bb b4 a3 ae 3d 27 f4 8c bd
       0.13815229 -0.007325177 0.08527318 -0.06882506
000010 67 d7 25 be 3a 47 2d 3e 55 bb 23 bd 2a eb 4d 3e
       -0.1619545 0.16921702 -0.039973576 0.20109239
000020 9f b1 89 bd ba 17 5d bd ec da 5a bd e5 ec 0c be
       -0.06723332 -0.053977706 -0.053431436 -0.13762243
000030 61 b8 60 3d 5a 38 82 3d 69 4d ca bd 8f 82 18 be
       0.054863337 0.063584045 -0.09878046 -0.14893554
000040 88 04 4e 3e ed c6 61 bc 9a 73 13 3d 29 6c 0e be
       0.20118916 -0.013780338 0.035998918 -0.13908447
000050 74 13 40 3e 78 c9 48 3e f0 0a 69 3d c6 dd 62 3e
       0.18757421 0.19608104 0.056895196 0.22154912
000060 fa 72 0e 3e 2b 80 41 3e 3a 54 f1 bd d3 05 d6 bd
       0.13911048 0.18896548 -0.11783643 -0.1045033
000070 7e e4 24 bd bf cf ee bd 04 e6 fa 3d 02 61 09 be
       -0.04025697 -0.11660718 0.12250903 -0.13415912
000080 eb 29 ab 3d ff 64 03 3e 66 b3 2f bd 0d 2d 6b 3e
       0.083576046 0.12831496 -0.042895697 0.22966404
000090 5a 06 ee bd 86 42 c5 3d d2 11 28 3e 81 9b 14 be
       -0.11622305 0.09631829 0.16413048 -0.14512445
0000a0 a4 e3 b7 bb 97 d4 3d 3e 45 95 47 be b3 cb 08 be
       -0.0056118537 0.18538128 -0.19490536 -0.13358955
0000b0 3e b9 80 be c9 4a 30 3e ca 73 26 3e 53 95 1c 3d
       -0.2514133 0.17216028 0.16255108 0.038228344
0000c0 de 8a 06 3d 39 dd 79 be 73 4c ef 3d f4 83 f2 bd
       0.032847278 -0.24400796 0.116845034 -0.11841574
0000d0 72 84 0b 3e e1 a4 1d be 80 0d 2d be 43 ff 2c 3e
       0.13624743 -0.15394928 -0.16899681 0.1689425
0000e0 17 c2 7f 3d 4e 5d 93 bd 1c 7f 1f be 94 1a 5a be
       0.062440958 -0.07195531 -0.15575832 -0.21299201
0000f0 a9 ce 32 3e f3 a2 aa bd 3a b9 55 3d 99 53 13 3e
       0.17461647 -0.08331861 0.0521786 0.14387359
000100 dc 06 5e bd af 97 e6 bd b4 22 1e be 40 00 ad 3c
       -0.05420576 -0.112594 -0.15442926 0.021118283
000110 75 26 cd bc 95 c1 3e 3b b0 14 7c 3d 5d 01 60 be
       -0.025042752 0.0029107083 0.061543167 -0.2187552
000120 4b 5c fc 3d 28 46 9a bc ca 17 68 be 21 5b a3 bd
       0.12322291 -0.018832281 -0.22665325 -0.07976366
000130 47 8d 00 3b f7 99 5a 3e 80 11 80 3e 8f 10 af bd
       0.0019615458 0.21347795 0.2501335 -0.0854808
000140 e3 a2 2d be ab 19 42 3e 67 da 46 3e b7 aa 0f 3e
       -0.16956668 0.18955104 0.19419251 0.14029966
000150 d6 5a 64 be fb ff 41 3d a9 8f 70 3d a2 b5 c0 3d
       -0.22300276 0.047363263 0.058730755 0.09409644
000160 8c 3b 29 be b6 b4 83 3c e8 fc c6 bd e5 79 1d 3e
       -0.16526622 0.01607738 -0.09716207 0.1537853
000170 57 01 21 be 03 5b 53 3e ba 9a 90 3d ff d9 6b 3d
       -0.15723167 0.20640187 0.07060762 0.057580944
000180 39 80 e0 bd 25 a0 d8 bb a4 dd 85 3d e2 ff 3f be
       -0.109619565 -0.0066108876 0.06536415 -0.18749955
000190 3a 36 04 3d 7e 6c 14 3e 01 ba bc 3d b8 51 53 3e
       0.032278277 0.14494511 0.09215165 0.20636642
0001a0 1c cb f3 bd ec d0 71 be 4d 80 b9 bd 3b 8b 04 be
       -0.119039744 -0.23614854 -0.090576746 -0.12943737
0001b0 c7 64 0b 3e bd 40 a6 3d 81 cf 6a be 12 ba 29 be
       0.13612662 0.081178166 -0.22930719 -0.16574886
0001c0 c9 5a 5b be de eb 9c 3d 81 63 85 3d a0 3c cf 3c
       -0.2142135 0.076621756 0.065131195 0.025297463
0001d0 2d 4e 8c bd f2 8a 54 3e ca fb 3d 3e 39 53 65 be
       -0.06850848 0.20756128 0.18553081 -0.22395028
0001e0 fb 09 14 be f5 c9 80 3d d9 65 26 be 5a 90 34 3d
       -0.14456932 0.0628852 -0.1624979 0.044082977
0001f0 eb 73 63 3d a4 18 3b be 7d 8e 32 3e c3 35 20 be
       0.05553047 -0.18271118 0.17437167 -0.15645508
000200 0c 5a 18 be 1a 37 22 bd 96 f2 e7 bd c5 a0 e5 3c
       -0.148781 -0.03960333 -0.113255665 0.028030762
000210 05 c2 17 be dc f8 17 3e fe 49 62 be b9 22 9f bd
       -0.14820106 0.14841026 -0.22098538 -0.07770295
000220 af f5 6d 3d e7 66 96 3d 10 41 fd 3d 1f 7c 58 bd
       0.05809563 0.07343846 0.12365925 -0.052852746
000230 f0 d7 69 3d 04 04 52 be f2 52 a5 bd 7f 97 3f 3b
       0.0570907 -0.20509344 -0.08072461 0.0029234586
000240 07 af 65 be 0c 59 08 be 6c bb 75 3d c2 a5 56 be
       -0.22430049 -0.13315219 0.059993193 -0.20961669
000250 4c d0 35 3e ee de fd bd d0 b5 c6 bd bf 35 11 3e
       0.1775524 -0.12396036 -0.09702647 0.14180659
000260 e1 df 45 bd fc c3 73 3d 8e 07 59 3e 5a f3 40 3e
       -0.04830921 0.059513077 0.21194288 0.18842831
000270 4d 54 4b 3e 93 91 56 be c0 3d 75 3e 53 71 94 3d
       0.19856377 -0.2095397 0.23949337 0.072481774
000280 dc 1c 9b 3d 96 38 6f bd 15 68 0c be a2 d0 37 be
       0.07573864 -0.058403574 -0.13711579 -0.17950681
000290 06 67 a6 3c 64 95 34 be b0 42 6f be 46 44 30 3e
       0.020312797 -0.17635113 -0.23365283 0.17213544
0002a0 69 d1 b9 bd f3 61 50 be c5 ae 6b be 9b 7b 59 3d
       -0.09073145 -0.20349865 -0.23015888 0.053096395
0002b0 91 be 2b be c3 f8 99 bd 9b 33 20 be dc 78 e6 bd
       -0.16771914 -0.07518151 -0.15644686 -0.11253521
0002c0 26 f3 0d 3e 61 26 81 3e cd 58 fc 3d be ac 87 3c
       0.13862285 0.25224593 0.12321625 0.016561862
0002d0 dd 47 01 3d 29 c7 43 be 58 b4 8d bd 9f 3a 0b 3e
       0.031562675 -0.19118942 -0.069191635 0.13596581
0002e0 8d 8f 36 be 5a 53 19 3e 56 99 14 be 8c 4f 5d be
       -0.17828198 0.14973202 -0.14511618 -0.21612376
0002f0 b6 f2 a4 3d c3 cf 6d 3e af b9 62 3e b7 ed 27 be
       0.08054106 0.23223786 0.22141145 -0.16399275
000300 23 2f 4e be d4 16 22 3e 68 c2 3c be 59 72 29 3e
       -0.20135169 0.1582902 -0.18433535 0.16547526
000310 05 a3 7c 3e db 65 b4 3c 8c 3f 71 3e ea 75 49 be
       0.24671562 0.022021225 0.23559397 -0.19673887
000320 28 38 3e 3e bb ef 37 3e 6d c7 71 3e 86 9b 89 3d
       0.1857611 0.17962544 0.23611231 0.06719117
000330 aa 85 18 3e 9f 83 0d be ac 2f 2b 3d b1 b3 ac 3d
       0.14894739 -0.1381974 0.04179351 0.08432711
000340 31 a2 2a 3d c3 81 9c 3d e9 07 b9 3d a3 fd 4d 3e
       0.041658584 0.076419376 0.09034712 0.20116286
000350 9b ff 44 be 36 a8 a0 3d 03 5b 36 be c1 38 59 3d
       -0.19238131 0.07844584 -0.17808156 0.05303264
000360 03 89 34 3e 6e 19 1d be 9d d3 c9 bd 5a a1 27 be
       0.17630391 -0.15341732 -0.09854815 -0.16370144
000370 0d 4e 4f 3e d1 3d 5e bc cd 68 b2 bd 05 64 c6 bc
       0.20244618 -0.013564543 -0.087113954 -0.024217615
000380 5b d2 19 3c 00 1c 06 be 28 1e 8b bd 6f 76 17 be
       0.009388532 -0.13096619 -0.06792861 -0.14791273
000390 af 2a 71 3e 98 a7 50 3e a9 9a 15 3e 24 57 7b bd
       0.23551439 0.20376432 0.1460978 -0.0613624
0003a0 fc d3 f7 bd 65 4a 71 3e d3 1a 15 be 6d 2f 55 be
       -0.1210098 0.23563536 -0.14561014 -0.20818873
0003b0 9c 65 fd 3d 76 0a 30 3e 62 86 3a 3e 74 8c 44 3d
       0.12372896 0.1719149 0.18215325 0.04798551
0003c0 da cd ca bc 19 2c 6e be 4d 77 32 bd 9c 17 f0 3d
       -0.02475636 -0.2325901 -0.043570805 0.11723253
0003d0 0a 14 d1 bd 9d 55 b3 bd 95 bf 03 3e 51 61 9c bd
       -0.102089 -0.08756564 0.12866051 -0.07635749
0003e0 bf 5e 3e 3c 8b 33 73 be 6a ab 3b bd b4 82 92 3d
       0.011619269 -0.23750131 -0.04581777 0.07153836
0003f0 8c 92 06 3e 4e 2c 34 3d 50 dc cf 3d 9a 0c 42 3e
       0.1314184 0.043987565 0.10149443 0.1895012

actor.l1.weight_orig f4 [256, 17]
000000 2b 21 01 3e d2 5f da bd 11 de 4e bd 51 6f e2 3d
       0.12610309 -0.106628075 -0.050504748 0.11056388
000010 ee 86 6b be 15 37 17 3e ef 3f 46 bd 64 a9 01 3e
       -0.2300069 0.14767106 -0.048400816 0.12662274
000020 e6 16 1f 3d ed 59 d0 bc c4 6b a8 3d 24 03 e1 3b
       0.038840197 -0.025433505 0.0822368 0.0068668295
000030 fa 4e d3 3d c8 97 9d bd 36 aa 08 bd 51 bc 07 bd
       0.10317798 -0.076949656 -0.03336545 -0.033138577
000040 cc b3 87 3c 99 53 fe 3b 39 6b 6a 3e 16 76 7d 3d
       0.016565226 0.0077614305 0.22892465 0.061880194
000050 1a 97 d5 bd 0a 9d 17 be 8f 79 09 bd e1 6d d3 bd
       -0.10429211 -0.14806 -0.033563193 -0.10323692
000060 91 4a 92 bd c9 12 68 3c 31 94 20 3e 23 bc 17 3e
       -0.07143129 0.014164635 0.1568153 0.14817862
000070 2f 85 5d be 45 f7 07 3e f9 bf 9c 3d 76 09 89 3e
       -0.21632837 0.1327792 0.076538034 0.2676503
000080 7c ef ec 3d 68 79 68 be 77 07 74 be c2 a6 f2 bd
       0.115691155 -0.22702563 -0.23830973 -0.11848213
000090 13 be 66 3e d3 3d eb bc ba 58 d6 3d f9 5d f5 bd
       0.22533445 -0.028716004 0.10466142 -0.119808145
0000a0 45 1f 70 3e 4c c0 e1 bd ae 36 34 3e 9e 54 a1 ba
       0.23449428 -0.11023006 0.17598984 -0.0012308543
0000b0 91 ba 0b be c8 ee 07 3e 7b 93 0b be 26 f8 77 3d
       -0.13645388 0.13274682 -0.13630478 0.060539387
0000c0 15 0c 79 bd f1 25 20 bc e3 64 65 be 1c 60 c2 bd
       -0.060802538 -0.009774671 -0.22401766 -0.09490988
0000d0 ea aa 0c 3e 4c 8a a4 bd 58 4b 67 3e ca 9a 44 3e
       0.13737074 -0.080341905 0.22587335 0.19199672
0000e0 8a ac 35 bb 71 45 21 be 6f ae 22 3e aa 04 a1 3d
       -0.002772125 -0.15749146 0.15886854 0.07862218
0000f0 30 78 11 be 99 1f 46 3e 39 76 2e 3e ae 9f 70 3e
       -0.14206004 0.19347991 0.17037286 0.23498413
000100 00 a1 d3 bd dd d0 d6 bd bf 6a a2 bb 6b f4 e9 3c
       -0.10333443 -0.10489056 -0.004956573 0.02855893
000110 a0 28 3f be ba 71 47 be 62 19 0e 3e e4 bb 47 bd
       -0.18667841 -0.19476977 0.1387687 -0.04876317
000120 b8 62 f2 3d c4 07 5f 3c 98 00 a0 3d d1 30 4e 3d
       0.11835235 0.013612691 0.07812613 0.050339524
000130 98 c3 b2 3d 9c a3 f7 3d c1 df 6d be fc 1c 06 3e
       0.08728713 0.12091753 -0.23229887 0.13096994
000140 a7 c4 25 be ff 55 33 be 58 c2 c6 3c fb 2d 4d bd
       -0.16188298 -0.17513274 0.024262592 -0.05009268
000150 dc cb f3 3d a9 91 16 be c9 f6 7d be f0 55 3f 3e
       0.119041175 -0.14704002 -0.24801172 0.18685126
000160 32 31 f3 bc 89 28 0d 3e 43 af a3 3d 20 6d 3a be
       -0.029686544 0.13784994 0.07992413 -0.1820569
000170 81 21 36 3d 05 0d 48 3d bf a1 26 be d5 17 ff bd
       0.044465546 0.04884054 -0.16272639 -0.124557175
000180 20 41 d8 3d 47 3a eb 3c e2 4c ac bd f8 80 4d bd
       0.105592966 0.028714312 -0.08413102 -0.050171822
000190 8a 9d 49 3e 38 03 51 bc f0 69 0f 3e cb b5 ef 3d
       0.19689003 -0.012757115 0.14005256 0.11704596
0001a0 10 4f 2b be 7b f1 5c be af 24 6f 3e 38 4a a4 3c
       -0.16729379 -0.21576492 0.23353837 0.020054922
0001b0 20 ba 2d 3e 6a 7e 60 3d c1 ab 9f 3d fe 1f 43 3e
       0.16965532 0.054808058 0.07796431 0.19055173
0001c0 9b 1b 74 3e d5 1e f1 bd c8 db 82 3c e2 62 3f 3e
       0.23838656 -0.11773459 0.01597394 0.18690065
0001d0 30 a2 42 3e 58 0e 15 3e 92 a7 2c be 7d c7 43 be
       0.19007182 0.14556253 -0.16860798 -0.19119067
0001e0 09 b1 3c be 95 eb 5a 3d cb 1d 86 3e 0e 2c 1e be
       -0.18426909 0.053447325 0.26194605 -0.15446493
0001f0 94 4b f7 3d 86 1f 14 be e3 c6 79 be b4 0b 5f bd
       0.12074962 -0.1446515 -0.24392276 -0.05445452
000200 8a 52 03 3e 18 2e 4b 3e 6e ed 21 be 29 bb b1 3c
       0.12824455 0.19841802 -0.15813228 0.02169569
000210 30 3f 20 3e 2f 4c 49 3e b7 0f 1a 3e fd 0f 1e 3e
       0.15649104 0.19657968 0.15045057 0.15435787
000220 94 46 20 3e a3 aa 89 3d 82 45 30 be ac 15 58 be
       0.15651923 0.067219995 -0.17214015 -0.21102017
000230 ba 61 e2 bd 74 79 b2 bc 88 68 16 be 63 1b bc 3d
       -0.11053796 -0.021786429 -0.14688313 0.09184911
000240 42 ae a2 3d 95 f7 41 bd c0 f3 cd 3d 47 7d 90 3d
       0.07943393 -0.047355253 0.10056257 0.07055145
000250 c2 89 11 3e 76 9b 11 3e 80 2c b2 bd 1a 4a 7c 3e
       0.14212707 0.1421946 -0.08699894 0.24637643
000260 84 bb b3 bc 2b 04 25 bc 84 15 80 be 92 3b 1b be
       -0.02194 -0.0100717945 -0.25016415 -0.15159443
000270 7d 4f 11 be b9 e6 d2 bd 8c 48 33 3e 96 22 a1 bd
       -0.14190479 -0.10297913 0.17508143 -0.07867925
000280 13 f4 39 be 97 cb c3 3d 4a 94 a2 3d 60 8c 21 3e
       -0.18159513 0.09560316 0.0793844 0.15776205
000290 46 cc e8 bd 4b e3 dc 3c c6 7a b1 bd 30 14 77 bd
       -0.11367087 0.02696385 -0.08665995 -0.060321987
0002a0 5d 7e 2f be 66 f6 c3 bd dd 4f 99 bd 91 ce bc 3d
       -0.17138048 -0.09568481 -0.07485936 0.09219087
0002b0 98 74 40 3d 69 1f 68 3d 02 ca 77 3e 38 ef 76 3e
       0.046986192 0.05667058 0.24198154 0.24114692
0002c0 6c 83 2b 3e 8f b1 1f 3c 99 cd 30 be 65 e1 48 3e
       0.16749352 0.009746923 -0.1726593 0.19617231
0002d0 bd 41 97 bd 71 7d e1 bb b6 23 60 be aa be 10 bd
       -0.073855855 -0.006881409 -0.21888623 -0.03533808
0002e0 b8 15 03 be e1 86 57 3e 98 18 5a be fa 00 42 be
       -0.12801254 0.21047546 -0.21298444 -0.18945685
0002f0 e1 c6 e2 3b c0 bb 07 be 13 8f ad 3d 3f 89 bc bd
       0.006920681 -0.13255215 0.08474555 -0.09205865
000300 43 dc eb bd 48 8a 71 3c 61 91 33 3e 2d 55 29 be
       -0.11516621 0.0147424415 0.17535926 -0.16536398
000310 06 a2 e0 3d 30 80 1c 3e 12 e3 7d 3e 02 36 29 be
       0.109684035 0.15283275 0.24793652 -0.16524509
000320 03 c4 a5 3d 23 90 29 be 43 eb 5c 3e c6 b8 c8 bd
       0.08094027 -0.1655889 0.2157412 -0.09800868
000330 08 78 1a 3e 79 40 34 bb ad 5d be bc a5 e1 47 bc
       0.15084851 -0.002750425 -0.023238027 -0.012199794
000340 3a 05 23 3d 4e 0c f6 3d 2e 5a 2c 3d e0 d9 9b 3d
       0.039799906 0.12014066 0.04207819 0.07609916
000350 3f dd 5a be bb 32 42 3e 2c 4b 57 3e 96 ce 64 3e
       -0.21373461 0.18964665 0.2102477 0.22344431
000360 8c 92 53 3e 1d 98 27 be 20 7a 8c bd d9 79 4b 3e
       0.20661372 -0.1636662 -0.06859231 0.198707
000370 35 14 3d be d2 a2 5d 3e 21 9f 50 be 04 f0 28 be
       -0.1846474 0.21644142 -0.20373203 -0.16497809
000380 a4 e3 fa 3d 81 c8 34 be f6 75 6e bd 5c 71 32 3e
       0.1225045 -0.17654611 -0.058217965 0.17426056
000390 fc f0 41 3e b4 f5 64 3e a9 93 59 bd 5f 58 52 be
       0.18939584 0.22359353 -0.053119335 -0.20541523
0003a0 1f b7 66 3e 75 16 05 bd 63 57 e5 bd c6 82 46 3d
       0.22530793 -0.03249212 -0.11198308 0.04846456
0003b0 7a ea 3f be ea 04 11 3e a8 3a 1c 3e 96 48 40 be
       -0.1874179 0.14162031 0.1525675 -0.1877769
0003c0 55 91 4e be 55 e6 ba bc c4 fb cb 3d 92 4e ca bb
       -0.20172627 -0.022814909 0.0996013 -0.006173917
0003d0 0d ff f9 bd 49 c6 bd 3b b1 b1 65 be 36 ff 2d be
       -0.1220685 0.0057914597 -0.22431065 -0.16991886
0003e0 6d 10 26 be 1a 4f 33 3e f9 91 6c 3e 5f 2e bb bd
       -0.16217203 0.17510644 0.23102559 -0.09139704
0003f0 12 9b 09 3d 86 42 b0 3d 51 1a 25 3c 9c 66 ec bd
       0.033595152 0.08606438 0.010077075 -0.11543009

actor.l1.weight_mask f4 [256, 17]
000000 00 00 00 00 00 00 00 00 00 00 00 00 00 00 00 00
       0.0 0.0 0.0 0.0
000010 00 00 80 3f 00 00 00 00 00 00 00 00 00 00 00 00
       1.0 0.0 0.0 0.0
000020 00 00 00 00 00 00 00 00 00 00 00 00 00 00 00 00
       0.0 0.0 0.0 0.0
000030 00 00 00 00 00 00 00 00 00 00 00 00 00 00 00 00
       0.0 0.0 0.0 0.0
000040 00 00 00 00 00 00 00 00 00 00 80 3f 00 00 00 00
       0.0 0.0 1.0 0.0
000050 00 00 00 00 00 00 00 00 00 00 00 00 00 00 00 00
       0.0 0.0 0.0 0.0
000060 00 00 00 00 00 00 00 00 00 00 00 00 00 00 00 00
       0.0 0.0 0.0 0.0
000070 00 00 80 3f 00 00 00 00 00 00 00 00 00 00 80 3f
       1.0 0.0 0.0 1.0
000080 00 00 00 00 00 00 80 3f 00 00 80 3f 00 00 00 00
       0.0 1.0 1.0 0.0
000090 00 00 80 3f 00 00 00 00 00 00 00 00 00 00 00 00
       1.0 0.0 0.0 0.0
0000a0 00 00 80 3f 00 00 00 00 00 00 80 3f 00 00 00 00
       1.0 0.0 1.0 0.0
0000b0 00 00 00 00 00 00 00 00 00 00 00 00 00 00 00 00
       0.0 0.0 0.0 0.0
0000c0 00 00 00 00 00 00 00 00 00 00 80 3f 00 00 00 00
       0.0 0.0 1.0 0.0
0000d0 00 00 00 00 00 00 00 00 00 00 80 3f 00 00 80 3f
       0.0 0.0 1.0 1.0
0000e0 00 00 00 00 00 00 80 3f 00 00 80 3f 00 00 00 00
       0.0 1.0 1.0 0.0
0000f0 00 00 00 00 00 00 80 3f 00 00 80 3f 00 00 80 3f
       0.0 1.0 1.0 1.0
000100 00 00 00 00 00 00 00 00 00 00 00 00 00 00 00 00
       0.0 0.0 0.0 0.0
000110 00 00 80 3f 00 00 80 3f 00 00 00 00 00 00 00 00
       1.0 1.0 0.0 0.0
000120 00 00 00 00 00 00 00 00 00 00 00 00 00 00 00 00
       0.0 0.0 0.0 0.0
000130 00 00 00 00 00 00 00 00 00 00 80 3f 00 00 00 00
       0.0 0.0 1.0 0.0
000140 00 00 80 3f 00 00 80 3f 00 00 00 00 00 00 00 00
       1.0 1.0 0.0 0.0
000150 00 00 00 00 00 00 00 00 00 00 80 3f 00 00 80 3f
       0.0 0.0 1.0 1.0
000160 00 00 00 00 00 00 00 00 00 00 00 00 00 00 80 3f
       0.0 0.0 0.0 1.0
000170 00 00 00 00 00 00 00 00 00 00 80 3f 00 00 00 00
       0.0 0.0 1.0 0.0
000180 00 00 00 00 00 00 00 00 00 00 00 00 00 00 00 00
       0.0 0.0 0.0 0.0
000190 00 00 80 3f 00 00 00 00 00 00 00 00 00 00 00 00
       1.0 0.0 0.0 0.0
0001a0 00 00 80 3f 00 00 80 3f 00 00 80 3f 00 00 00 00
       1.0 1.0 1.0 0.0
0001b0 00 00 80 3f 00 00 00 00 00 00 00 00 00 00 80 3f
       1.0 0.0 0.0 1.0
0001c0 00 00 80 3f 00 00 00 00 00 00 00 00 00 00 80 3f
       1.0 0.0 0.0 1.0
0001d0 00 00 80 3f 00 00 00 00 00 00 80 3f 00 00 80 3f
       1.0 0.0 1.0 1.0
0001e0 00 00 80 3f 00 00 00 00 00 00 80 3f 00 00 00 00
       1.0 0.0 1.0 0.0
0001f0 00 00 00 00 00 00 00 00 00 00 80 3f 00 00 00 00
       0.0 0.0 1.0 0.0
000200 00 00 00 00 00 00 80 3f 00 00 80 3f 00 00 00 00
       0.0 1.0 1.0 0.0
000210 00 00 00 00 00 00 80 3f 00 00 00 00 00 00 00 00
       0.0 1.0 0.0 0.0
000220 00 00 00 00 00 00 00 00 00 00 80 3f 00 00 80 3f
       0.0 0.0 1.0 1.0
000230 00 00 00 00 00 00 00 00 00 00 00 00 00 00 00 00
       0.0 0.0 0.0 0.0
000240 00 00 00 00 00 00 00 00 00 00 00 00 00 00 00 00
       0.0 0.0 0.0 0.0
000250 00 00 00 00 00 00 00 00 00 00 00 00 00 00 80 3f
       0.0 0.0 0.0 1.0
000260 00 00 00 00 00 00 00 00 00 00 80 3f 00 00 00 00
       0.0 0.0 1.0 0.0
000270 00 00 00 00 00 00 00 00 00 00 80 3f 00 00 00 00
       0.0 0.0 1.0 0.0
000280 00 00 80 3f 00 00 00 00 00 00 00 00 00 00 80 3f
       1.0 0.0 0.0 1.0
000290 00 00 00 00 00 00 00 00 00 00 00 00 00 00 00 00
       0.0 0.0 0.0 0.0
0002a0 00 00 80 3f 00 00 00 00 00 00 00 00 00 00 00 00
       1.0 0.0 0.0 0.0
0002b0 00 00 00 00 00 00 00 00 00 00 80 3f 00 00 80 3f
       0.0 0.0 1.0 1.0
0002c0 00 00 80 3f 00 00 00 00 00 00 80 3f 00 00 80 3f
       1.0 0.0 1.0 1.0
0002d0 00 00 00 00 00 00 00 00 00 00 80 3f 00 00 00 00
       0.0 0.0 1.0 0.0
0002e0 00 00 00 00 00 00 80 3f 00 00 80 3f 00 00 80 3f
       0.0 1.0 1.0 1.0
0002f0 00 00 00 00 00 00 00 00 00 00 00 00 00 00 00 00
       0.0 0.0 0.0 0.0
000300 00 00 00 00 00 00 00 00 00 00 80 3f 00 00 80 3f
       0.0 0.0 1.0 1.0
000310 00 00 00 00 00 00 00 00 00 00 80 3f 00 00 80 3f
       0.0 0.0 1.0 1.0
000320 00 00 00 00 00 00 80 3f 00 00 80 3f 00 00 00 00
       0.0 1.0 1.0 0.0
000330 00 00 00 00 00 00 00 00 00 00 00 00 00 00 00 00
       0.0 0.0 0.0 0.0
000340 00 00 00 00 00 00 00 00 00 00 00 00 00 00 00 00
       0.0 0.0 0.0 0.0
000350 00 00 80 3f 00 00 80 3f 00 00 80 3f 00 00 80 3f
       1.0 1.0 1.0 1.0
000360 00 00 80 3f 00 00 80 3f 00 00 00 00 00 00 80 3f
       1.0 1.0 0.0 1.0
000370 00 00 80 3f 00 00 80 3f 00 00 80 3f 00 00 80 3f
       1.0 1.0 1.0 1.0
000380 00 00 00 00 00 00 80 3f 00 00 00 00 00 00 80 3f
       0.0 1.0 0.0 1.0
000390 00 00 80 3f 00 00 80 3f 00 00 00 00 00 00 80 3f
       1.0 1.0 0.0 1.0
0003a0 00 00 80 3f 00 00 00 00 00 00 00 00 00 00 00 00
       1.0 0.0 0.0 0.0
0003b0 00 00 80 3f 00 00 00 00 00 00 00 00 00 00 80 3f
       1.0 0.0 0.0 1.0
0003c0 00 00 80 3f 00 00 00 00 00 00 00 00 00 00 00 00
       1.0 0.0 0.0 0.0
0003d0 00 00 00 00 00 00 00 00 00 00 80 3f 00 00 80 3f
       0.0 0.0 1.0 1.0
0003e0 00 00 80 3f 00 00 80 3f 00 00 80 3f 00 00 00 00
       1.0 1.0 1.0 0.0
0003f0 00 00 00 00 00 00 00 00 00 00 00 00 00 00 00 00
       0.0 0.0 0.0 0.0

actor.l2.bias f4 [256]
000000 19 cd 6c 3a 02 a5 ea 3a 8d b1 50 3b bb 7e e2 bb
       0.00090332475 0.0017901959 0.003184411 -0.00691208
000010 49 66 88 3c c1 4b 0f bc 61 22 88 bb 5a 82 56 bd
       0.016650336 -0.0087460885 -0.004154489 -0.052370407
000020 16 a0 0a 3d 22 fc 81 b9 29 4a 03 bd ef 81 2f bd
       0.033844076 -0.0002479265 -0.032053147 -0.042848524
000030 ec 3d 59 3d 79 72 e2 3c 48 fb 18 bd 14 4e 0d 3d
       0.05303757 0.027642475 -0.037349015 0.03449829
000040 14 e0 11 3d 42 04 32 bd 7d 98 5b bd 62 d8 2c bc
       0.03561409 -0.04346109 -0.05361222 -0.010549637
000050 d5 c5 ac bb 3d 59 2f 3d 0b 0c 27 3c c7 58 30 3d
       -0.005272607 0.042809714 0.010195742 0.043053415
000060 0a 69 5c 3d 36 22 50 3c b2 36 45 bd 50 0e 87 bd
       0.05381111 0.012703469 -0.048147865 -0.06594527
000070 29 36 8a bd 95 19 2c 3c 8e 51 4a bd 3b 8b 3f 3d
       -0.067486115 0.010504146 -0.049394183 0.04676364
000080 3d 8d 1b bc 6d 4e 6b 3d 28 c0 e9 3c 0c 35 44 3c
       -0.009494123 0.05744784 0.02853401 0.011975538
000090 4a 9f ea 3b ed 58 75 3b 23 8c 27 bd ee 7a f8 3c
       0.007160102 0.0037437037 -0.04090513 0.030332055
0000a0 19 b6 15 3c bd b7 5e 3d 53 b0 8b 3d 0c fd 31 3d
       0.009137654 0.054374445 0.068207406 0.043454215
0000b0 6d f9 56 bd 49 d0 05 3d 46 c6 2b bd 8d 99 15 3c
       -0.052483965 0.03266934 -0.041937135 0.009130848
0000c0 0e 62 5d 3c 3a 07 72 3d b7 e9 16 bd 62 38 c4 3a
       0.013512148 0.059088923 -0.03684398 0.0014970417
0000d0 3c 06 48 bd 99 c8 29 bc 4c 05 37 3d 7b ba 5e 3d
       -0.04883407 -0.010362768 0.044682786 0.05437706
0000e0 67 41 03 3d c2 20 4a bd e4 05 64 bd ee cb 07 bc
       0.032044794 -0.049347647 -0.05566968 -0.008288367
0000f0 1e c2 bf 3c f0 b7 0b 3d 38 f4 30 bc b1 0c 4a 3d
       0.023407992 0.034110963 -0.010800414 0.04932851
000100 46 d9 16 bd d1 9b 67 3d 3d 08 b1 bc a0 dc 20 3c
       -0.0368283 0.056545082 -0.021610374 0.009818226
000110 6c ad 34 bd 7e d3 3f bd f5 a6 ec 3c 8e 5b b2 3a
       -0.0441107 -0.046832554 0.028888205 0.0013607608
000120 d4 24 0e bd 21 f5 ab 3c 60 39 23 3d ba 1e 11 3d
       -0.03470309 0.02099091 0.03984964 0.035429694
000130 55 93 34 3d 4c 6b 39 3d e9 85 78 3d 78 72 3f 3d
       0.04408582 0.045268342 0.06067458 0.046740025
000140 d7 87 85 bc 68 d5 e6 3b 7e 92 8d 3c 45 a6 0b bd
       -0.016300125 0.007044483 0.017281767 -0.034094114
000150 7d eb 78 3d 59 33 88 bd 9f c2 37 ba 6d d3 79 bc
       0.060771454 -0.06650419 -0.0007009897 -0.015248162
000160 c8 55 20 bc 1a 0d d5 3b a4 cb 6a bc 0d 59 6c 3d
       -0.009786077 0.006501806 -0.014330778 0.057702113
000170 d7 c4 13 3d 68 be 50 3d 19 d0 48 bd bc 35 c2 3c
       0.036076393 0.050962836 -0.049026582 0.023707263
000180 17 de 60 3d 8d 29 9a 3c c2 8d 00 bc 8c 62 be bc
       0.0548993 0.018818641 -0.007846298 -0.02324035
000190 0f 9e b8 3c c6 04 5a bb df ec 2f bd 08 79 8f 3c
       0.022536306 -0.0033267005 -0.042950507 0.017513767
0001a0 4d d4 03 bc 7b 64 dc 3c 64 78 d1 3c 0c b9 67 bd
       -0.008046222 0.026903382 0.025570102 -0.05657296
0001b0 2c 05 8a bd 9b b4 27 3d bd 6b d2 3c 2a 8e e3 bb
       -0.06739268 0.040943723 0.02568614 -0.0069444375
0001c0 92 86 37 bd 5b d5 a5 bc f1 e3 8c bb 7b 89 cf bc
       -0.04480607 -0.020243337 -0.0042996337 -0.02533411
0001d0 a9 c7 81 3d 4c 54 03 bd 3e 51 b8 ba 29 63 87 3d
       0.0633691 -0.032062814 -0.0014062298 0.0661071
0001e0 c7 b9 7e 3d cf 77 ed bc 6f 1d 7e 3b 3d 27 bb bb
       0.06218889 -0.028987793 0.0038774868 -0.0057114647
0001f0 ba ca 80 3c ef 2b 21 bb 84 fe 20 bb 91 ce d5 bb
       0.015721668 -0.0024592837 -0.0024565766 -0.006524869
000200 03 d0 95 bc 30 50 5a bd e7 f9 31 3c e4 7c be 3d
       -0.018287664 -0.05329913 0.010862804 0.09301165
000210 04 48 61 3c 22 11 a7 bc bc 06 4a 3d a4 1b 48 3d
       0.01375008 -0.020393912 0.04932283 0.048854485
000220 db c3 a6 3c df 0c 41 bd 23 f8 34 bc 59 22 7e 3d
       0.020357063 -0.047131415 -0.0110454885 0.062044475
000230 1a 2c a3 3c 41 b5 01 bd bf 00 da 3c 2d da 4e 3c
       0.01991849 -0.031666998 0.026611684 0.012625259
000240 2f d7 12 3d 05 10 06 bc 49 a7 af bb 70 5a e9 bb
       0.035849746 -0.00818253 -0.005360518 -0.0071213767
000250 d4 9c 04 bd 86 94 4e bd f4 76 cc 3c a7 86 dd 3c
       -0.032376125 -0.05043461 0.024959065 0.027041746
000260 72 e8 1c bc 4f d6 67 bd 42 b7 f2 bc f1 ca 4a 3c
       -0.009576904 -0.056600865 -0.0296284 0.012377487
000270 62 a6 39 bd 2a 6c ec bc 49 f9 f8 3c cb ea 55 3d
       -0.04532469 -0.02886017 0.030392306 0.05222587
000280 2c 06 56 bd a8 33 1f bd e2 f8 1c 3d e2 1a 0c 3c
       -0.05225198 -0.038867623 0.03832329 0.008551331
000290 cd 01 44 3c 34 de e7 bb f1 81 0f 3c d8 81 8e 3d
       0.01196332 -0.007076049 0.008759008 0.069583595
0002a0 3c bc 4e 3c 18 78 77 3c c4 ea 01 bb 5c 09 75 bd
       0.012618121 0.015104316 -0.001982377 -0.05982338
0002b0 a3 fd 36 3d 30 35 49 bd 99 93 d1 3c 7d b9 83 bd
       0.04467548 -0.04912299 0.025583075 -0.064318635
0002c0 ef fd 5c bd cd 5b 87 bd a1 13 44 bd 40 60 23 3d
       -0.053953107 -0.066093065 -0.047870282 0.039886713
0002d0 dd 67 09 3d 8f 96 2d 3d 16 b5 01 3d 9c 08 1d bd
       0.033546317 0.042379912 0.031666838 -0.03833829
0002e0 4d fc a0 3c 7d 2a 4c bd dc c3 02 3c 93 3f 5d ba
       0.019651556 -0.049845207 0.007981267 -0.0008439954
0002f0 54 c4 5b 3d ad 20 59 3d fa 69 84 3d b1 1f 46 3d
       0.05365403 0.053009678 0.06465526 0.048370067
000300 c2 0e 6f 3a 8f 42 4d bd 6c f2 54 3d e3 cb 63 3d
       0.00091193256 -0.050112303 0.051989004 0.055614363
000310 2e 58 80 bd b4 77 97 3c 3f 62 3a bd 8f b6 45 bd
       -0.06266819 0.018489696 -0.04550385 -0.048269805
000320 93 be 4a 3d bb 47 ee 3c 93 b7 27 bd 83 5a e2 3c
       0.049498152 0.029086938 -0.040946554 0.02763105
000330 65 4f 00 bd bb 5c 65 3d 18 2f 70 3d b2 0c 6b 3c
       -0.031325717 0.055996638 0.058638662 0.0143462885
000340 3c f3 4f 3d 9e 61 19 bd 02 fd 8a bc 07 25 c6 3c
       0.050769076 -0.03744661 -0.016966347 0.024187578
000350 53 0b 52 3d 5d 9c 51 3b a1 2f 10 3c 65 53 e3 bc
       0.05128033 0.003198407 0.008800418 -0.027749727
000360 f4 28 80 3d 2d 08 b6 3c 6d 1a 8e bb af f8 7a bd
       0.06257811 0.022220695 -0.0043366463 -0.06127232
000370 3a 46 15 3c 24 b0 48 3d cc 3d 30 bd f5 61 b5 3c
       0.009110982 0.048996106 -0.043027684 0.022141436
000380 55 64 33 bc 6c 3a 57 3d ed d2 49 bd d8 da 0d bc
       -0.010949214 0.05254595 -0.04927342 -0.008658133
000390 68 97 0d 3d 89 29 f4 bc 47 44 e3 bc 81 45 3e bd
       0.03456822 -0.029804962 -0.027742518 -0.046453003
0003a0 ad df 3a bd 4e 8d 03 bc 68 a3 3b 3d 4f 3c 39 3d
       -0.04562347 -0.008029295 0.045810133 0.04522353
0003b0 ce b0 e4 3c a0 fe e8 bc f7 75 d9 3c fe 33 cc bc
       0.027916338 -0.028441727 0.026545508 -0.024927136
0003c0 e5 3f 79 bd bf 01 85 3c 10 0f 3a bd 4f 89 56 bd
       -0.06085195 0.016236184 -0.04542452 -0.05237704
0003d0 b7 9d 36 bd 6f 1a 8a bc 34 e9 3b 3d 70 c3 07 3d
       -0.044584002 -0.016858308 0.045876697 0.033145368
0003e0 8f 91 8d bc fc 41 b5 3d 20 8b 3e bd 12 5d bb 3c
       -0.017281322 0.08850476 -0.0465194 0.022871528
0003f0 a1 1a 18 bd 54 20 f4 3b 35 5f 12 bd 76 83 c0 3c
       -0.03713477 0.007450143 -0.035735328 0.023500185

actor.l2.weight_orig f4 [256, 256]
000000 36 81 0b 3d 53 ba 17 3d be 08 83 3d 87 9b a1 3c
       0.034058772 0.037042927 0.06398152 0.019727482
000010 fa a9 32 3d af 0a 1e 3d 99 63 51 bd 2e 4e 06 bd
       0.043619134 0.038584407 -0.051120374 -0.0327894
000020 60 45 45 3d 41 8f 80 3d cb d8 b8 bc 62 50 da 3c
       0.048161864 0.062773235 -0.022564312 0.026649658
000030 39 f7 5b 3d f3 2b 62 bd 6a 16 b4 bc aa 25 63 3d
       0.053702567 -0.055217694 -0.021983344 0.05545584
000040 47 cc 35 bc 01 68 ae 3c 41 3f ea 3c b4 fc 1f 3c
       -0.011096067 0.021289827 0.028594615 0.009764839
000050 97 7c 73 3d d1 19 3d 3d 4d 9c 51 bd c2 de 63 3c
       0.05944499 0.0461672 -0.05117445 0.01390809
000060 c9 30 9b 3c 78 55 09 3c 8f 12 4a bc ef 2e 0a 3d
       0.018944161 0.008382194 -0.012333526 0.033736166
000070 dd 16 77 bc 0c 5a e5 3c 00 b2 94 3c 15 c4 31 3d
       -0.015081135 0.02799704 0.018151283 0.04339989
000080 aa d0 a2 bb 06 db 60 bc 2b cb 52 3d 75 37 14 3d
       -0.0049687224 -0.013724094 0.051463287 0.0361857
000090 8a 81 e8 3c c2 5b 5b bd 0c de c2 3c af e7 9f 3b
       0.028382082 -0.053554304 0.02378752 0.0048799138
0000a0 4c 6c 6a bd 01 09 74 bd 03 fc ef 3b 23 1f 91 bc
       -0.057232186 -0.0595789 0.0073237433 -0.017715042
0000b0 a3 93 44 3d 5b 23 c5 3b dd a9 39 bd 4b c6 06 bc
       0.04799236 0.0060161776 -0.04532801 -0.008225988
0000c0 29 4f 0b 3d 91 a6 37 3c 7e 40 66 3d 58 f1 43 3d
       0.03401104 0.011209146 0.05621385 0.047837585
0000d0 4b 76 93 3c 20 14 80 3d 3d 8c 1d bd be 65 ba 3b
       0.018000742 0.062538385 -0.03846382 0.005688398
0000e0 81 7a 5d bc cf 28 5b bc 40 02 16 3c c3 4c 33 3d
       -0.013517977 -0.013376429 0.00915581 0.043774378
0000f0 a6 3a b7 bb a1 83 da 3c 4a 6c 3b 3d 50 02 64 3c
       -0.0055917082 0.026674094 0.04575757 0.013916567
000100 89 ce 79 bb 97 bf 34 bd 80 c4 16 bd c7 b4 65 3b
       -0.003811749 -0.044128027 -0.03680849 0.0035050379
000110 18 41 2a 3c 77 d4 1f bb 03 58 53 bd aa c5 15 bd
       0.010391496 -0.0024388114 -0.051597606 -0.03656546
000120 3c 00 13 3d 65 6c 57 bb 19 ba 80 bd 65 0a 60 bd
       0.035888895 -0.0032871005 -0.06285495 -0.054697413
000130 8a 90 cc bc b8 2b 4d bd 9d 86 45 3d 71 6b 20 3d
       -0.024971265 -0.05009052 0.04822408 0.039164964
000140 ff 01 56 bb ed 80 32 3d 9e 2a 28 3c c8 6c b2 bc
       -0.0032654998 0.043579984 0.010264067 -0.021780387
000150 c8 b4 40 3a 8a fd a9 bc 68 af a5 bc 9e b5 2f 3d
       0.0007351157 -0.02075078 -0.020225242 0.042897813
000160 88 04 9a 3a 38 60 05 3d fe ff 02 3d 5b 70 1d 3d
       0.0011750618 0.032562464 0.031982414 0.03843723
000170 a2 0b 42 ba fe 18 04 3b 09 8a 12 3d e8 54 ec bc
       -0.0007402246 0.0020156498 0.03577617 -0.02884908
000180 73 cb ff 3a 71 d7 a5 3c f9 dc e1 ba 2f 25 df bb
       0.0019515589 0.020244332 -0.0017231993 -0.0068098526
000190 a1 06 09 3d e7 cd dc 3c da ec 24 bd 38 3c 51 bc
       0.033453587 0.02695365 -0.04026494 -0.012770705
0001a0 70 9b 11 bd 60 0a 15 3d 88 66 6d 3c 02 d2 d2 3b
       -0.035548627 0.036386847 0.014489777 0.0064337263
0001b0 55 ad 0f 3d 06 bf 10 bb 3d 19 2e 3d a4 a3 14 bb
       0.03507741 -0.0022086515 0.042504538 -0.0022680545
0001c0 9c ea eb 3c 2c ef f3 3c 7f 29 60 3d 06 31 e4 ba
       0.028798394 0.029777132 0.054727074 -0.001740963
0001d0 53 9e db 3b 88 48 6f bd 8f f9 5b 3d 60 42 50 3b
       0.0067022233 -0.05841878 0.053704794 0.0031777844
0001e0 26 ef 82 3c 5a 3c 6e bd 0d 75 83 bb 0c b9 5f 3d
       0.015983175 -0.058163024 -0.0040117563 0.054619834
0001f0 37 47 d9 bc be 2e 4a 3c cb bd 30 3d 8f 41 02 3d
       -0.026523216 0.012340246 0.04314975 0.031800803
000200 35 2b 6b 3d 3c 91 06 bd 0b 92 26 bd 1d f3 a8 3c
       0.057414252 -0.03285335 -0.04066662 0.020623738
000210 f4 68 1f bc 15 ed 2c bd e8 62 65 bd 5d 93 5e 3d
       -0.009729613 -0.042218287 -0.056002527 0.054339755
000220 97 c8 0e bd 0f 16 5b 3d 12 1a 3a bd ee c6 f4 3c
       -0.034859266 0.053487834 -0.04543502 0.029880013
000230 57 8f aa bc 3d 32 2f 3d a8 5d 6b 3d b3 11 77 3d
       -0.020820303 0.04277252 0.057462364 0.060319614
000240 59 3e e8 bc 55 34 67 bc b5 e6 0e bd 15 07 21 bc
       -0.028350042 -0.014111598 -0.034887988 -0.009828349
000250 66 a8 bf 3c 26 8d 26 3d ee c3 de bc 5f 68 3a 3d
       0.023395728 0.040661953 -0.027193036 0.045509692
000260 ed c6 1c bc 72 7b 83 3b 5a 16 12 bd 17 76 86 3c
       -0.009568912 0.0040125186 -0.035665847 0.016413732
000270 e6 39 52 3c 38 c1 3d 3d c1 2c 34 3d 7f ff 5a 3d
       0.012831187 0.046326846 0.043987993 0.053466316
000280 c9 a8 20 3d 42 4a 85 3b af 93 32 3d de 87 44 3d
       0.039223466 0.00406769 0.043597873 0.047981136
000290 35 16 42 3d 99 83 27 3d 61 5f 94 bc 33 ab a7 3b
       0.04738446 0.040896986 -0.018111886 0.005116844
0002a0 0c 05 6c bc 71 ad 0e 3d 0a 1e 4f bc ab d5 8b bd
       -0.0144055 0.034833375 -0.012641439 -0.06827863
0002b0 00 ca dc bc 5b ca 40 bd 96 b4 68 3c 3a 01 35 3d
       -0.02695179 -0.04706798 0.014203211 0.044190623
0002c0 28 52 28 bb 53 b6 c2 bc 16 7c a8 bc ac 9c 21 bd
       -0.0025683735 -0.02376858 -0.020566981 -0.039456055
0002d0 86 cd f5 3c d4 a9 0b 3d db d9 38 bd b1 e5 38 3d
       0.030005228 0.034097508 -0.04512964 0.045140926
0002e0 63 7b 9e 3c 05 22 62 bd c9 96 11 3d e5 db 0e b9
       0.019345945 -0.055208225 0.03554419 -0.00013624092
0002f0 b6 9b e8 bc fe 7f f3 3c e9 46 ef bc 79 2e 4e 3c
       -0.028394561 0.029724117 -0.029208617 0.012584322
000300 5b 86 74 3d 96 7f 09 3d f1 93 25 3d 47 03 f8 bc
       0.059698444 0.03356894 0.04042429 -0.030275
000310 dc 51 12 bd 67 f8 a0 3c 28 8e 5c 3b 20 8f 50 3d
       -0.0357226 0.019649697 0.0033654068 0.050917745
000320 de 36 6e 3d 9e bf 42 3d c5 de a8 3c 6a 4f 0f bd
       0.058157794 0.04754602 0.020614037 -0.034987845
000330 c8 91 ea 3a 80 ef 13 3c 8a 31 06 bd 9f 3a 25 bc
       0.0017896229 0.009029269 -0.032762088 -0.010084777
000340 8b 3d 66 3c d0 f6 11 bd db f9 10 3c f3 94 68 bd
       0.014052759 -0.03563577 0.008848633 -0.056782674
000350 18 bb 00 3d 10 1d 0c bd 29 3e c3 3c 89 b9 24 3a
       0.031428427 -0.034207404 0.023833351 0.00062837504
000360 66 6b 03 bd 3e 7c 9d 3c 60 16 45 bd cb 01 31 3d
       -0.032084845 0.019224282 -0.04811704 0.0432146
000370 b7 f2 e8 3b 89 8a 82 3c c6 94 26 3d 03 d4 29 3d
       0.007109012 0.0159352 0.040669225 0.041461956
000380 61 cd 50 3d bb f4 2c 3d 39 c5 16 bc 3c 34 8d b7
       0.050977115 0.04222558 -0.009202295 -1.6832833e-05
000390 9e f4 62 bd a9 91 91 3c d6 f9 74 3b c2 7b 49 3d
       -0.055409066 0.017769651 0.003738036 0.04919029
0003a0 4a 4b 57 3d ca 35 2c bb a2 4e 03 bd 35 d3 1f 3d
       0.052562036 -0.0026277178 -0.032057412 0.039019782
0003b0 c9 2a 41 3c a1 1f dc bc 85 75 12 bd 35 e4 79 bd
       0.011789986 -0.02687055 -0.035756607 -0.06100865
0003c0 7e af 09 3d 30 0e d2 3c a5 4e ac 3c 17 a6 0b 3d
       0.033614628 0.02564153 0.021033594 0.034093942
0003d0 30 18 18 bd 85 fd 66 3d bd 34 f4 3c c6 3b 97 3c
       -0.037132442 0.05639412 0.029810304 0.01846112
0003e0 bb 18 3e bc 9b 50 5e bd 1c ea 73 3c 6b 04 45 3c
       -0.011602576 -0.05427609 0.014887359 0.012024979
0003f0 f8 5c aa 3c a3 36 db 3c 45 c1 fc bc 60 f2 65 3d
       0.020796284 0.026759451 -0.030853877 0.05613935

actor.l2.weight_mask f4 [256, 256]
000000 00 00 00 00 00 00 00 00 00 00 80 3f 00 00 00 00
       0.0 0.0 1.0 0.0
000010 00 00 80 3f 00 00 00 00 00 00 80 3f 00 00 00 00
       1.0 0.0 1.0 0.0
000020 00 00 80 3f 00 00 80 3f 00 00 00 00 00 00 00 00
       1.0 1.0 0.0 0.0
000030 00 00 80 3f 00 00 80 3f 00 00 00 00 00 00 80 3f
       1.0 1.0 0.0 1.0
000040 00 00 00 00 00 00 00 00 00 00 00 00 00 00 00 00
       0.0 0.0 0.0 0.0
000050 00 00 80 3f 00 00 80 3f 00 00 80 3f 00 00 00 00
       1.0 1.0 1.0 0.0
000060 00 00 00 00 00 00 00 00 00 00 00 00 00 00 00 00
       0.0 0.0 0.0 0.0
000070 00 00 00 00 00 00 00 00 00 00 00 00 00 00 80 3f
       0.0 0.0 0.0 1.0
000080 00 00 00 00 00 00 00 00 00 00 80 3f 00 00 00 00
       0.0 0.0 1.0 0.0
000090 00 00 00 00 00 00 80 3f 00 00 00 00 00 00 00 00
       0.0 1.0 0.0 0.0
0000a0 00 00 80 3f 00 00 80 3f 00 00 00 00 00 00 00 00
       1.0 1.0 0.0 0.0
0000b0 00 00 80 3f 00 00 00 00 00 00 80 3f 00 00 00 00
       1.0 0.0 1.0 0.0
0000c0 00 00 00 00 00 00 00 00 00 00 80 3f 00 00 80 3f
       0.0 0.0 1.0 1.0
0000d0 00 00 00 00 00 00 80 3f 00 00 00 00 00 00 00 00
       0.0 1.0 0.0 0.0
0000e0 00 00 00 00 00 00 00 00 00 00 00 00 00 00 80 3f
       0.0 0.0 0.0 1.0
0000f0 00 00 00 00 00 00 00 00 00 00 80 3f 00 00 00 00
       0.0 0.0 1.0 0.0
000100 00 00 00 00 00 00 80 3f 00 00 00 00 00 00 00 00
       0.0 1.0 0.0 0.0
000110 00 00 00 00 00 00 00 00 00 00 80 3f 00 00 00 00
       0.0 0.0 1.0 0.0
000120 00 00 00 00 00 00 00 00 00 00 80 3f 00 00 80 3f
       0.0 0.0 1.0 1.0
000130 00 00 00 00 00 00 80 3f 00 00 80 3f 00 00 00 00
       0.0 1.0 1.0 0.0
000140 00 00 00 00 00 00 80 3f 00 00 00 00 00 00 00 00
       0.0 1.0 0.0 0.0
000150 00 00 00 00 00 00 00 00 00 00 00 00 00 00 80 3f
       0.0 0.0 0.0 1.0
000160 00 00 00 00 00 00 00 00 00 00 00 00 00 00 00 00
       0.0 0.0 0.0 0.0
000170 00 00 00 00 00 00 00 00 00 00 00 00 00 00 00 00
       0.0 0.0 0.0 0.0
000180 00 00 00 00 00 00 00 00 00 00 00 00 00 00 00 00
       0.0 0.0 0.0 0.0
000190 00 00 00 00 00 00 00 00 00 00 00 00 00 00 00 00
       0.0 0.0 0.0 0.0
0001a0 00 00 00 00 00 00 00 00 00 00 00 00 00 00 00 00
       0.0 0.0 0.0 0.0
0001b0 00 00 00 00 00 00 00 00 00 00 80 3f 00 00 00 00
       0.0 0.0 1.0 0.0
0001c0 00 00 00 00 00 00 00 00 00 00 80 3f 00 00 00 00
       0.0 0.0 1.0 0.0
0001d0 00 00 00 00 00 00 80 3f 00 00 80 3f 00 00 00 00
       0.0 1.0 1.0 0.0
0001e0 00 00 00 00 00 00 80 3f 00 00 00 00 00 00 80 3f
       0.0 1.0 0.0 1.0
0001f0 00 00 00 00 00 00 00 00 00 00 80 3f 00 00 00 00
       0.0 0.0 1.0 0.0
000200 00 00 80 3f 00 00 00 00 00 00 80 3f 00 00 00 00
       1.0 0.0 1.0 0.0
000210 00 00 00 00 00 00 80 3f 00 00 80 3f 00 00 80 3f
       0.0 1.0 1.0 1.0
000220 00 00 00 00 00 00 80 3f 00 00 80 3f 00 00 00 00
       0.0 1.0 1.0 0.0
000230 00 00 00 00 00 00 80 3f 00 00 80 3f 00 00 80 3f
       0.0 1.0 1.0 1.0
000240 00 00 00 00 00 00 00 00 00 00 00 00 00 00 00 00
       0.0 0.0 0.0 0.0
000250 00 00 00 00 00 00 80 3f 00 00 00 00 00 00 80 3f
       0.0 1.0 0.0 1.0
000260 00 00 00 00 00 00 00 00 00 00 00 00 00 00 00 00
       0.0 0.0 0.0 0.0
000270 00 00 00 00 00 00 80 3f 00 00 80 3f 00 00 80 3f
       0.0 1.0 1.0 1.0
000280 00 00 00 00 00 00 00 00 00 00 80 3f 00 00 80 3f
       0.0 0.0 1.0 1.0
000290 00 00 80 3f 00 00 80 3f 00 00 00 00 00 00 00 00
       1.0 1.0 0.0 0.0
0002a0 00 00 00 00 00 00 00 00 00 00 00 00 00 00 80 3f
       0.0 0.0 0.0 1.0
0002b0 00 00 00 00 00 00 80 3f 00 00 00 00 00 00 80 3f
       0.0 1.0 0.0 1.0
0002c0 00 00 00 00 00 00 00 00 00 00 00 00 00 00 00 00
       0.0 0.0 0.0 0.0
0002d0 00 00 00 00 00 00 00 00 00 00 80 3f 00 00 80 3f
       0.0 0.0 1.0 1.0
0002e0 00 00 00 00 00 00 80 3f 00 00 00 00 00 00 00 00
       0.0 1.0 0.0 0.0
0002f0 00 00 00 00 00 00 00 00 00 00 00 00 00 00 00 00
       0.0 0.0 0.0 0.0
000300 00 00 80 3f 00 00 00 00 00 00 00 00 00 00 00 00
       1.0 0.0 0.0 0.0
000310 00 00 00 00 00 00 00 00 00 00 00 00 00 00 80 3f
       0.0 0.0 0.0 1.0
000320 00 00 80 3f 00 00 80 3f 00 00 00 00 00 00 00 00
       1.0 1.0 0.0 0.0
000330 00 00 00 00 00 00 00 00 00 00 00 00 00 00 00 00
       0.0 0.0 0.0 0.0
000340 00 00 00 00 00 00 00 00 00 00 00 00 00 00 80 3f
       0.0 0.0 0.0 1.0
000350 00 00 00 00 00 00 00 00 00 00 00 00 00 00 00 00
       0.0 0.0 0.0 0.0
000360 00 00 00 00 00 00 00 00 00 00 80 3f 00 00 80 3f
       0.0 0.0 1.0 1.0
000370 00 00 00 00 00 00 00 00 00 00 80 3f 00 00 80 3f
       0.0 0.0 1.0 1.0
000380 00 00 80 3f 00 00 80 3f 00 00 00 00 00 00 00 00
       1.0 1.0 0.0 0.0
000390 00 00 80 3f 00 00 00 00 00 00 00 00 00 00 80 3f
       1.0 0.0 0.0 1.0
0003a0 00 00 80 3f 00 00 00 00 00 00 00 00 00 00 00 00
       1.0 0.0 0.0 0.0
0003b0 00 00 00 00 00 00 00 00 00 00 00 00 00 00 80 3f
       0.0 0.0 0.0 1.0
0003c0 00 00 00 00 00 00 00 00 00 00 00 00 00 00 00 00
       0.0 0.0 0.0 0.0
0003d0 00 00 00 00 00 00 80 3f 00 00 00 00 00 00 00 00
       0.0 1.0 0.0 0.0
0003e0 00 00 00 00 00 00 80 3f 00 00 00 00 00 00 00 00
       0.0 1.0 0.0 0.0
0003f0 00 00 00 00 00 00 00 00 00 00 00 00 00 00 80 3f
       0.0 0.0 0.0 1.0

actor.out.bias f4 [6]
000000 63 14 e1 3d e5 be 83 bd 03 b8 39 bb a1 3a 3e 3e
       0.109902166 -0.064328946 -0.002833844 0.18577053
000010 ac b1 f2 3d 55 48 bc bc
       0.118502945 -0.02298371

actor.out.weight_orig f4 [6, 256]
000000 db c2 fc 3c 0f d9 a8 3d f5 71 80 3d 96 3e 3c bc
       0.030854633 0.08244526 0.062717356 -0.011489531
000010 48 ff 59 3d 00 77 36 bd 5c ef b7 bd 8a 84 01 3d
       0.05322197 -0.04454708 -0.08981201 0.03162054
000020 39 a6 15 bd c6 98 88 bd 77 4f 71 3d 38 fc e3 bc
       -0.036535475 -0.06669764 0.058913674 -0.027830228
000030 66 34 96 3d e6 e1 3e 3d 60 3a bf bd a5 a8 22 3d
       0.07334213 0.046602152 -0.09337306 0.039711613
000040 45 75 29 3d b4 d5 62 3d 63 0f 45 bd 66 8b 86 3c
       0.041371603 0.055379584 -0.048110377 0.016423892
000050 48 7f b9 bd a8 25 8e 3a 26 15 50 bc 05 dd cc 3c
       -0.0905748 0.0010844963 -0.012700355 0.025007734
000060 1a 6d d4 bc 20 a4 1e 3d ec 68 9f 3b fc e0 df bc
       -0.02593093 0.03873074 0.0048648026 -0.02732896
000070 c4 fe d0 bc 6d 88 bb bc 83 b7 37 3c 42 a3 06 bd
       -0.025512107 -0.022892201 0.011213186 -0.03287054
000080 a3 7e 40 3d a1 2c 3a 3d 47 14 98 bb b9 52 28 bd
       0.04699577 0.045452718 -0.004641089 -0.041094515
000090 2c 22 e1 bc 71 b8 35 3c 34 2a 59 bd 4a 27 20 3d
       -0.027482115 0.011091338 -0.053018764 0.03909997
0000a0 4a 12 c2 3d e2 96 e3 bc a8 62 a5 3d 94 ef 2a 3c
       0.094761446 -0.027781907 0.08075458 0.010433096
0000b0 c1 69 da 3b f0 f4 90 3d cc cc 40 bd 39 c1 29 bc
       0.006665439 0.07077968 -0.04707031 -0.010361009
0000c0 08 c7 e8 3c 03 c2 94 bc ec 55 ee 3b 58 9c e3 3c
       0.028415218 -0.018158918 0.0072734263 0.027784511
0000d0 6f a4 74 3d e2 c5 8c bb 0f b8 9d bd cf 02 ac bd
       0.05972713 -0.0042960504 -0.07701122 -0.08398973
0000e0 a0 d1 6d 3d 6e 21 02 3d f5 6e 68 3d 15 2a da 3c
       0.058061242 0.031770162 0.056746442 0.026631394
0000f0 b0 13 fe 3b c8 df 8b bc 2b 0b 13 3d e9 45 66 bc
       0.007753812 -0.01707448 0.035899322 -0.014054754
000100 51 bb c1 3b 37 42 1c bd 50 83 44 3d 10 9a a1 bc
       0.0059122224 -0.038149085 0.04797679 -0.019726783
000110 2d 66 c9 bb c7 ca 37 3c d0 d5 7e b8 8d d9 d0 3d
       -0.0061462135 0.0112177795 -6.0757447e-05 0.101977445
000120 9a 9b c4 3c 71 28 41 bc a3 91 37 3d 50 cb ac bd
       0.023999978 -0.011789427 0.044816624 -0.08437216
000130 0f 2f 41 3d 02 4c 13 3d a7 45 a8 3c d8 33 88 bc
       0.04716402 0.03596116 0.020541025 -0.016626284
000140 33 4b 20 bd e7 c8 c5 3c 24 10 69 3d 64 21 01 3d
       -0.039134216 0.02414365 0.05690016 0.031525984
000150 a0 dc ca 3d 37 3f f8 bd 6f a2 f6 bc 1e c8 09 bc
       0.09905362 -0.12121432 -0.030106751 -0.008409528
000160 3e b2 ee 3b 40 f5 c5 37 cd 3b 2b 3d 71 e9 2b 3d
       0.0072844317 2.3598433e-05 0.041805077 0.041970674
000170 51 66 98 bb 7a f7 f4 3a c6 41 0c bd 8b 5a 6e bd
       -0.004650869 0.0018689476 -0.034242414 -0.058191817
000180 37 ff b8 3b 0a 53 85 3d 08 d0 0b 3d 68 ab 6c bd
       0.0056456584 0.06509979 0.03413394 -0.057780653
000190 72 af 96 3d 0c e2 c0 3c 64 50 2e 3d f9 c3 c5 bc
       0.07357682 0.023545288 0.042557135 -0.024141299
0001a0 11 6f 2a 3d 1d 0c 16 bd 16 d7 7e 3c 10 82 ec 3c
       0.041609827 -0.036632646 0.01555421 0.028870612
0001b0 e9 e7 1d 3d 39 53 4f 3d 44 e0 8b 3d 00 54 5b bb
       0.038551245 0.050616477 0.06829885 -0.0033466816
0001c0 4d c6 d0 bc 1f 74 0f bd 49 47 b9 3c 04 88 c4 bd
       -0.025485182 -0.03502285 0.022617 -0.095962554
0001d0 99 da 85 3b e8 e2 8c 3c 8d 56 49 3c 3b fe 45 bd
       0.0040848968 0.017198041 0.012288702 -0.048338156
0001e0 79 dc b7 3b 16 83 99 3c 03 b7 1e bd 34 f5 92 bb
       0.005610999 0.018739264 -0.038748752 -0.004484797
0001f0 32 0e 06 3d e9 8c 76 3d ae c0 a9 3c 22 3d c1 3b
       0.03272838 0.060192976 0.02072176 0.00589718
000200 3f 91 31 bc 3f 19 60 bc f7 ae 43 3d 0d 01 a8 3c
       -0.010837852 -0.013677894 0.04777428 0.020508314
000210 9c 39 aa bd 6a f8 1a 3d 90 8f 18 bc 2a c4 a3 3d
       -0.08311769 0.037834562 -0.009311572 0.079964
000220 5f 2d 11 bd e3 8c 38 3c d4 40 d5 bc bc a9 17 bd
       -0.03544366 0.011264059 -0.026031889 -0.037027106
000230 17 2c 6c bd fb a5 1c bd 6b b8 27 3d 41 e9 57 3d
       -0.057659235 -0.03824423 0.04094736 0.052712683
000240 04 b8 41 bc eb a4 25 bc 39 bd 78 bc b7 83 ba bd
       -0.011823658 -0.01011012 -0.015181833 -0.09107154
000250 69 1b d6 3b 36 ed 31 bc 5f be 2f 3d c4 c4 8d 3c
       0.0065340293 -0.010859778 0.04290616 0.01730574
000260 c8 8e 63 3c 0b 4f 94 bb ed 94 99 3c f2 29 5c 3d
       0.013889022 -0.004526024 0.018747771 0.05375094
000270 89 06 b9 bb 9d 9c 19 bd f7 41 0d 3d 99 4c ad 3d
       -0.005646531 -0.037502874 0.034486737 0.084618755
000280 1b 2f 94 bc 73 e2 cf 3d 44 e9 d4 3c 21 89 2c 3d
       -0.018088868 0.10150614 0.025990136 0.042122964
000290 b0 ec ad 3c aa bf 89 bc 95 5c f6 bc 74 9e ab bc
       0.021231025 -0.016815025 -0.030073443 -0.02094958
0002a0 26 6f 0a 3c bf e8 39 3a 47 19 80 3b 82 95 aa bb
       0.008449351 0.0007091872 0.0039092633 -0.005205811
0002b0 47 8f 69 bd 5e 98 dd bb 84 5d 13 bd 67 ab ac bd
       -0.057021406 -0.0067625483 -0.035977855 -0.0843113
0002c0 f9 61 29 3d 0c 73 10 3d 3e 11 89 bc f4 b9 4f 3d
       0.0413532 0.035265967 -0.016731855 0.050714448
0002d0 04 17 85 3b 67 d5 9b bc e1 e2 94 bd 22 a0 a6 3c
       0.0040615816 -0.019022657 -0.07269836 0.02034003
0002e0 07 cc 04 3b e0 05 30 bc 18 d5 cc bd 9e 78 4a 3d
       0.0020263211 -0.010743588 -0.10001582 0.049431436
0002f0 4c c4 41 3d a3 6c f1 bc 8c 99 56 3c 40 5d 3d bd
       0.047306344 -0.029470747 0.013098132 -0.04623151
000300 80 18 98 bc 8b 25 c1 bb ab 7d 18 3d aa e7 2b bc
       -0.01856637 -0.005894368 0.03722922 -0.010492245
000310 af 36 25 bc ee 78 1b 3d f6 11 45 bc 7d 85 82 bd
       -0.010083838 0.037957124 -0.012028208 -0.06373117
000320 8a ab db 3b b1 f0 2c bb 76 57 c5 3d 7f 9b c7 3a
       0.0067037987 -0.002638858 0.096358225 0.0015228837
000330 22 a6 0b 3d 90 69 66 3d f7 29 2f bd 18 bb 87 3c
       0.034093983 0.056253016 -0.04276463 0.016568705
000340 08 69 02 3d 85 4f 09 3d 78 61 bb bc 21 64 c3 bb
       0.031838447 0.0335231 -0.022873625 -0.005962864
000350 c7 f5 d1 b9 ac 32 5e bd 5b fa cc 3c ec 3e c3 bc
       -0.00040046705 -0.054247543 0.025021723 -0.023833714
000360 1a f3 05 3b e9 7e b0 3b 46 63 4e 3d f0 ee 08 3d
       0.002043909 0.0053862226 0.050387643 0.033430994
000370 e7 6a 87 bc 1b 5d 62 bd 35 3e 56 3c aa dd 1d bc
       -0.016530467 -0.055264574 0.013076355 -0.009635368
000380 b9 b6 bf 3d 06 0d c1 3d 54 c7 05 b7 b7 9e 01 bd
       0.093610235 0.09426312 -7.973827e-06 -0.031645503
000390 bc 65 84 bd 0e 16 75 bd fd a6 67 3d 1a 11 87 3d
       -0.06464717 -0.059835486 0.056555737 0.06595059
0003a0 78 b7 84 3b e6 d3 88 bd 63 27 8a 3c 85 2b 9a 3c
       0.0040501915 -0.066810414 0.016864484 0.01881958
0003b0 cb c1 c7 3c ad 77 40 bd 69 26 18 3c a4 01 04 bd
       0.0243844 -0.04698913 0.009286501 -0.032228127
0003c0 95 5e 93 bb 92 bd 53 3d 56 d0 0f 3d f2 f2 10 bd
       -0.004497359 0.05169446 0.035110794 -0.03538794
0003d0 dc 33 a2 bd 36 41 25 3d 57 27 c3 3c 2f b1 3c 39
       -0.07920048 0.040345393 0.02382247 0.00017995083
0003e0 12 08 e9 bc 28 ef 6b 3d f9 04 0f bd 11 1c a2 3a
       -0.028446231 0.057601124 -0.03491685 0.0012367984
0003f0 f8 c7 f4 bc 8e 36 01 bd ec 32 b8 bd 2d 08 95 3b
       -0.029880509 -0.031546168 -0.089940876 0.004548094
