TRPO/models/pruning/TRPO-HalfCheetah-0.5-l2.pth (torch, 371391 bytes, 12 tensors)

log_std f4 [6]
-1.4207906 -1.244965 -1.1138234 -1.26764 -1.2835822 -1.1351765
00000000: 77dc b5bf 035b 9fbf c491 8ebf 0742 a2bf
00000010: 6c4c a4bf 774d 91bf

weight f4 [128, 17]
0.0077614305 0.22892465 0.061880194 -0.10429211 -0.14806 -0.033563193 -0.10323692 -0.07143129
0.014164635 0.1568153 0.14817862 -0.21632837 0.1327792 0.076538034 0.2676503 0.115691155
-0.22702563 -0.23830973 -0.11848213 0.22533445 -0.028716004 0.10466142 -0.119808145 0.23449428
-0.11023006 0.17598984 -0.0012308543 -0.13645388 0.13274682 -0.13630478 0.060539387 -0.060802538
-0.009774671 -0.22401766 -0.09490988 0.13737074 -0.080341905 0.22587335 0.19199672 -0.002772125
-0.15749146 0.15886854 0.07862218 -0.14206004 0.19347991 0.17037286 0.23498413 -0.10333443
-0.10489056 -0.004956573 0.02855893 0.14005256 0.11704596 -0.16729379 -0.21576492 0.23353837
0.020054922 0.16965532 0.054808058 0.07796431 0.19055173 0.23838656 -0.11773459 0.01597394
0.18690065 0.19007182 0.14556253 -0.16860798 -0.19119067 -0.18426909 0.053447325 0.26194605
-0.15446493 0.12074962 -0.1446515 -0.24392276 -0.05445452 0.12824455 0.19841802 -0.15813228
0.02169569 0.15649104 0.19657968 0.15045057 0.15435787 -0.07485936 0.09219087 0.046986192
0.05667058 0.24198154 0.24114692 0.16749352 0.009746923 -0.1726593 0.19617231 -0.073855855
-0.006881409 -0.21888623 -0.03533808 -0.12801254 0.21047546 -0.21298444 -0.18945685 0.006920681
-0.13255215 0.08474555 -0.09205865 -0.11516621 0.0147424415 0.17535926 -0.16536398 0.109684035
0.15283275 0.24793652 -0.16524509 0.08094027 -0.1655889 0.2157412 -0.09800868 0.15084851
-0.002750425 -0.023238027 -0.012199794 0.039799906 0.12014066 0.04207819 0.07609916 -0.21373461
0.18964665 0.2102477 0.22344431 0.20661372 -0.1636662 -0.06859231 0.198707 -0.1846474
0.21644142 -0.20373203 -0.16497809 0.1225045 -0.17654611 -0.058217965 0.17426056 0.18939584
0.22359353 -0.053119335 -0.20541523 0.22530793 -0.03249212 -0.11198308 0.04846456 -0.1874179
0.14162031 0.1525675 -0.1877769 -0.20172627 -0.022814909 0.0996013 -0.006173917 -0.1220685
0.0057914597 -0.22431065 -0.16991886 -0.16217203 0.17510644 0.23102559 -0.09139704 0.033595152
0.08606438 0.010077075 -0.11543009 0.12826666 0.14599776 -0.016022488 -0.031192608 0.22704384
0.21427938 -0.13435888 0.2355511 0.06638903 -0.17012891 0.11297473 -0.17316474 0.21088539
-0.15292169 0.088066496 0.07650931 -0.23299773 0.24617599 0.058424894 0.22838104 -0.0371368
-0.07204249 -0.22904897 -0.1006247 0.14701605 -0.24079089 -0.07778631 0.16625361 0.13385075
0.07633592 -0.0013670104 -0.0488543 -0.031052563 -0.13533768 -0.22463092 -0.18251388 0.24980111
-0.041036703 -0.050394874 -0.09669941 -0.1325255 -0.22429365 -0.14632544 0.15107383 0.023150804
-0.083031945 -0.07751527 0.20036528 0.13790147 0.19626431 0.18973947 0.02645953 -0.11830625
0.23436083 0.004093862 0.19881207 0.06407685 0.22155234 0.14798574 -0.108499125 0.17234348
-0.00444 -0.20705526 -0.038839713 -0.25750715 -0.09280849 -0.14335874 0.16685931 -0.04566035
-0.043547142 0.11410625 0.09915932 -0.15831767 0.09148754 0.10374674 -0.19411215 0.21440962
-0.14912125 -0.10273835 -0.19135456 0.21695141 0.04914651 0.19593161 0.0108466 -0.23289502
00000000: 9953 fe3b 396b 6a3e 1676 7d3d 1a97 d5bd
00000010: 0a9d 17be 8f79 09bd e16d d3bd 914a 92bd
00000020: c912 683c 3194 203e 23bc 173e 2f85 5dbe
00000030: 45f7 073e f9bf 9c3d 7609 893e 7cef ec3d
00000040: 6879 68be 7707 74be c2a6 f2bd 13be 663e
00000050: d33d ebbc ba58 d63d f95d f5bd 451f 703e
00000060: 4cc0 e1bd ae36 343e 9e54 a1ba 91ba 0bbe
00000070: c8ee 073e 7b93 0bbe 26f8 773d 150c 79bd
00000080: f125 20bc e364 65be 1c60 c2bd eaaa 0c3e
00000090: 4c8a a4bd 584b 673e ca9a 443e 8aac 35bb
000000a0: 7145 21be 6fae 223e aa04 a13d 3078 11be
000000b0: 991f 463e 3976 2e3e ae9f 703e 00a1 d3bd
000000c0: ddd0 d6bd bf6a a2bb 6bf4 e93c f069 0f3e
000000d0: cbb5 ef3d 104f 2bbe 7bf1 5cbe af24 6f3e
000000e0: 384a a43c 20ba 2d3e 6a7e 603d c1ab 9f3d
000000f0: fe1f 433e 9b1b 743e d51e f1bd c8db 823c
00000100: e262 3f3e 30a2 423e 580e 153e 92a7 2cbe
00000110: 7dc7 43be 09b1 3cbe 95eb 5a3d cb1d 863e
00000120: 0e2c 1ebe 944b f73d 861f 14be e3c6 79be
00000130: b40b 5fbd 8a52 033e 182e 4b3e 6eed 21be
00000140: 29bb b13c 303f 203e 2f4c 493e b70f 1a3e
00000150: fd0f 1e3e dd4f 99bd 91ce bc3d 9874 403d
00000160: 691f 683d 02ca 773e 38ef 763e 6c83 2b3e
00000170: 8fb1 1f3c 99cd 30be 65e1 483e bd41 97bd
00000180: 717d e1bb b623 60be aabe 10bd b815 03be
00000190: e186 573e 9818 5abe fa00 42be e1c6 e23b
000001a0: c0bb 07be 138f ad3d 3f89 bcbd 43dc ebbd
000001b0: 488a 713c 6191 333e 2d55 29be 06a2 e03d
000001c0: 3080 1c3e 12e3 7d3e 0236 29be 03c4 a53d
000001d0: 2390 29be 43eb 5c3e c6b8 c8bd 0878 1a3e
000001e0: 7940 34bb ad5d bebc a5e1 47bc 3a05 233d
000001f0: 4e0c f63d 2e5a 2c3d e0d9 9b3d 3fdd 5abe
00000200: bb32 423e 2c4b 573e 96ce 643e 8c92 533e
00000210: 1d98 27be 207a 8cbd d979 4b3e 3514 3dbe
00000220: d2a2 5d3e 219f 50be 04f0 28be a4e3 fa3d
00000230: 81c8 34be f675 6ebd 5c71 323e fcf0 413e
00000240: b4f5 643e a993 59bd 5f58 52be 1fb7 663e
00000250: 7516 05bd 6357 e5bd c682 463d 7aea 3fbe
00000260: ea04 113e a83a 1c3e 9648 40be 5591 4ebe
00000270: 55e6 babc c4fb cb3d 924e cabb 0dff f9bd
00000280: 49c6 bd3b b1b1 65be 36ff 2dbe 6d10 26be
00000290: 1a4f 333e f991 6c3e 5f2e bbbd 129b 093d
000002a0: 8642 b03d 511a 253c 9c66 ecbd 5658 033e
000002b0: 7080 153e 9841 83bc a487 ffbc 2e7e 683e
000002c0: 0e6c 5b3e 6095 09be 4f34 713e f9f6 873d
000002d0: 4636 2ebe 4c5f e73d 1952 31be 57f2 573e
000002e0: 8197 1cbe 355c b43d eab0 9c3d f596 6ebe
000002f0: 8f15 7c3e f14e 6f3d b8dc 693e c21c 18bd
00000300: 038b 93bd d08b 6abe 5314 cebd 608b 163e
00000310: e391 76be 6e4e 9fbd 633e 2a3e 2c10 093e
00000320: 0256 9c3d 422d b3ba 721b 48bd f261 febc
00000330: f695 0abe a605 66be ebe4 3abe ddcb 7f3e
00000340: 1a16 28bd db6a 4ebd 570a c6bd c4b4 07be
00000350: 3cad 65be 56d6 15be 19b3 1a3e c1a6 bd3c
00000360: a70c aabd 53c0 9ebd 8e2c 4d3e 0b36 0d3e
00000370: 83f9 483e 104b 423e a8c1 d83c 8c4a f2bd
00000380: 49fc 6f3e ce25 863b 6495 4b3e b93a 833d
00000390: 9ede 623e 9389 173e ca34 debd cf7a 303e
000003a0: 6b7d 91bb 4b06 54be 6416 1fbd fad7 83be
000003b0: 6112 bebd a2cc 12be 2bdd 2a3e 5906 3bbd
000003c0: 7d5e 32bd 8ab0 e93d 0b14 cb3d 071e 22be
000003d0: d25d bb3d 2c79 d43d 56c5 46be 328e 5b3e
000003e0: 3eb3 18be 7c68 d2bd 73f2 43be 8328 5e3e
000003f0: da4d 493d 4ca2 483e f0b5 313c 087c 6ebe

bias f4 [128]
-0.007325177 0.08527318 -0.06882506 -0.039973576 0.20109239 -0.053431436 -0.13762243 0.054863337
0.063584045 -0.09878046 -0.14893554 0.035998918 0.18757421 0.22154912 0.13911048 -0.11783643
-0.1045033 -0.04025697 -0.11660718 0.12250903 0.083576046 0.22966404 0.16413048 -0.14512445
-0.0056118537 0.18538128 -0.13358955 -0.2514133 0.16255108 -0.24400796 0.116845034 -0.15394928
0.062440958 -0.15575832 -0.08331861 0.0521786 0.14387359 -0.05420576 -0.112594 -0.15442926
0.021118283 -0.025042752 -0.2187552 -0.018832281 0.2501335 -0.16956668 0.19419251 0.14029966
-0.22300276 0.058730755 -0.15723167 0.07060762 -0.18749955 0.09215165 0.20636642 -0.119039744
0.13612662 0.081178166 -0.22930719 -0.16574886 -0.2142135 0.076621756 -0.06850848 -0.14456932
0.0628852 -0.1624979 0.17437167 -0.03960333 0.028030762 -0.07770295 -0.052852746 -0.20509344
-0.08072461 0.0029234586 -0.13315219 0.059993193 0.14180659 0.19856377 -0.2095397 0.23949337
0.072481774 -0.13711579 0.020312797 -0.23365283 0.17213544 -0.09073145 -0.20349865 0.053096395
-0.07518151 0.13862285 0.016561862 -0.069191635 -0.14511618 -0.21612376 0.08054106 0.22141145
-0.20135169 0.022021225 0.23559397 -0.19673887 0.06719117 0.14894739 -0.1381974 0.08432711
0.041658584 0.076419376 -0.19238131 -0.17808156 0.05303264 0.17630391 -0.09854815 -0.16370144
-0.013564543 0.009388532 -0.13096619 -0.06792861 0.1460978 0.23563536 0.12372896 0.18215325
-0.02475636 -0.2325901 0.11723253 -0.08756564 0.07153836 0.1314184 0.10149443 0.1895012
00000000: 0a08 f0bb b4a3 ae3d 27f4 8cbd 55bb 23bd
00000010: 2aeb 4d3e ecda 5abd e5ec 0cbe 61b8 603d
00000020: 5a38 823d 694d cabd 8f82 18be 9a73 133d
00000030: 7413 403e c6dd 623e fa72 0e3e 3a54 f1bd
00000040: d305 d6bd 7ee4 24bd bfcf eebd 04e6 fa3d
00000050: eb29 ab3d 0d2d 6b3e d211 283e 819b 14be
00000060: a4e3 b7bb 97d4 3d3e b3cb 08be 3eb9 80be
00000070: ca73 263e 39dd 79be 734c ef3d e1a4 1dbe
00000080: 17c2 7f3d 1c7f 1fbe f3a2 aabd 3ab9 553d
00000090: 9953 133e dc06 5ebd af97 e6bd b422 1ebe
000000a0: 4000 ad3c 7526 cdbc 5d01 60be 2846 9abc
000000b0: 8011 803e e3a2 2dbe 67da 463e b7aa 0f3e
000000c0: d65a 64be a98f 703d 5701 21be ba9a 903d
000000d0: e2ff 3fbe 01ba bc3d b851 533e 1ccb f3bd
000000e0: c764 0b3e bd40 a63d 81cf 6abe 12ba 29be
000000f0: c95a 5bbe deeb 9c3d 2d4e 8cbd fb09 14be
00000100: f5c9 803d d965 26be 7d8e 323e 1a37 22bd
00000110: c5a0 e53c b922 9fbd 1f7c 58bd 0404 52be
00000120: f252 a5bd 7f97 3f3b 0c59 08be 6cbb 753d
00000130: bf35 113e 4d54 4b3e 9391 56be c03d 753e
00000140: 5371 943d 1568 0cbe 0667 a63c b042 6fbe
00000150: 4644 303e 69d1 b9bd f361 50be 9b7b 593d
00000160: c3f8 99bd 26f3 0d3e beac 873c 58b4 8dbd
00000170: 5699 14be 8c4f 5dbe b6f2 a43d afb9 623e
00000180: 232f 4ebe db65 b43c 8c3f 713e ea75 49be
00000190: 869b 893d aa85 183e 9f83 0dbe b1b3 ac3d
000001a0: 31a2 2a3d c381 9c3d 9bff 44be 035b 36be
000001b0: c138 593d 0389 343e 9dd3 c9bd 5aa1 27be
000001c0: d13d 5ebc 5bd2 193c 001c 06be 281e 8bbd
000001d0: a99a 153e 654a 713e 9c65 fd3d 6286 3a3e
000001e0: dacd cabc 192c 6ebe 9c17 f03d 9d55 b3bd
000001f0: b482 923d 8c92 063e 50dc cf3d 9a0c 423e

weight f4 [128, 128]
-0.06003615 -0.025416099 0.022865867 -0.030952616 -0.0120652905 -0.045676626 0.053404897 -0.042400133
-0.0089467 0.051205263 -0.02098125 0.005024961 -0.03710099 -0.055287186 0.023288298 -0.034076042
0.028856967 0.018032346 -0.025595991 0.033467457 -0.019890012 0.027189681 0.01868241 0.061588757
-0.03614432 -0.017638199 -0.018851139 -0.037985925 0.029806789 -0.0030707717 -0.04750355 -0.008965181
0.012234275 0.011093292 -0.013275978 0.015050061 -0.0113705965 0.06827044 0.03998096 -0.01795547
-0.04963962 0.0049095354 0.020783568 -0.06015357 0.057577927 -0.034931034 -0.041832253 0.04203291
-0.011492017 0.044058494 -0.022414224 -0.05474119 -0.013660155 0.011532083 -0.03318393 0.0072728684
-0.0416236 0.012886155 -0.044656426 0.049075317 -0.0038256366 -0.04545844 0.0149119515 -0.04563678
-0.03225708 -0.026084308 -0.027018942 -0.027027585 -0.009568766 0.05031287 0.048797578 0.0133375535
0.015253124 0.032113843 0.055647854 0.045257814 0.029655736 0.053111605 0.002465877 -0.009881276
-0.04566698 -0.0099596465 -0.052872553 0.010963198 0.03408502 0.043307815 0.046149336 0.0033335222
0.052016307 0.0044893543 -0.049270418 -0.047286082 0.046597328 -0.018946823 0.0133067975 -0.0060555814
0.062006727 -0.0063927723 0.040707473 0.006631446 0.036799766 0.000678804 -0.02039957 0.04531622
0.025053345 -0.040038805 -0.019448029 -0.009215357 -0.0034984439 0.04409173 0.053141404 -0.033631813
0.00058603875 -0.024251664 0.03333803 0.053258084 -0.040187974 0.039983127 0.002278083 -0.005971006
-0.038186297 0.02583756 -0.025696164 0.0445737 0.046391428 0.018367134 -0.031047096 -0.04881851
0.0062537673 -0.03975342 -0.0757095 0.06743622 -0.04217824 0.039105333 0.04906828 -0.060146008
0.038049694 -0.03204343 -0.032628596 0.05830073 0.028119339 0.048604973 -0.008650499 -0.014402853
-0.05059341 -0.05314676 0.06921215 -0.02667142 -0.058410026 0.0033167873 -0.061730355 0.01080762
-0.023177823 -0.011462087 -0.002000314 0.0046099634 -0.036819227 -0.037986483 -0.0027550557 -0.043664478
-0.050359823 -0.057946444 -0.009157462 0.046126314 -0.022167964 -0.022558372 0.027434623 -0.04660792
-0.018919315 0.05782731 -0.0014410572 0.040221594 0.011787187 0.055630367 -0.03409226 0.040824916
0.032216355 -0.06567754 -0.016207853 -0.027039982 0.05787256 0.03954742 0.0016921281 -0.0021661276
0.04795553 0.059386753 0.033858407 -0.00019123999 -0.054508645 -0.037851717 -0.055061325 -0.0032096165
0.007976606 0.0005502481 0.05531315 0.07309534 -0.014453006 0.05314497 0.039829656 0.0023710032
0.050169986 0.0016707483 -0.028235571 -0.028212111 -0.0271674 -0.014131399 -0.030665386 -0.06013446
-0.014048779 0.037094917 0.056312036 0.049996685 0.035532407 -0.0154575445 0.036653902 -0.0016198847
-0.019305564 -0.050722044 0.040040907 0.058219474 0.059034463 0.018073853 -0.0019897267 0.006765488
0.014423716 0.0612186 -0.0035648472 0.03506603 -0.028128292 -0.039413337 0.0002755784 0.015816217
-0.05035576 0.055953577 -0.02087449 -0.06718862 0.03687629 -0.0018374345 -0.062759854 0.007678064
-0.011448895 0.05968436 0.050554138 0.058381207 -0.034239147 -0.032928944 -0.016625334 -0.027406106
-0.044354815 0.067383 -0.05633463 0.0003958083 -0.047088936 0.0023728157 0.056117177 -0.037186973
00000000: 77e8 75bd 6c35 d0bc 3351 bb3c 5790 fdbc
00000010: 7fad 45bc 6a17 3bbd 18bf 5a3d c3ab 2dbd
00000020: 2e95 12bc 9cbc 513d dfe0 abbc 6ea8 a43b
00000030: 35f7 17bd d174 62bd 1ac7 be3c 5293 0bbd
00000040: 7265 ec3c 92b8 933c afae d1bc 2c15 093d
00000050: 61f0 a2bc e5bc de3c da0b 993c 7e44 7c3d
00000060: 110c 14bd fc7d 90bc b46d 9abc 2197 1bbd
00000070: 5e2d f43c 003f 49bb 1593 42bd b2e2 12bc
00000080: 4572 483c a4c0 353c 7d83 59bc 8894 763c
00000090: bd4b 3abc 5fd1 8b3d 13c3 233d 5a17 93bc
000000a0: ea52 4bbd 2be0 a03b 4d42 aa3c 9763 76bd
000000b0: d5d6 6b3d d813 0fbd 4c58 2bbd b32a 2c3d
000000c0: 0349 3cbc ae76 343d 099e b7bc 4c38 60bd
000000d0: d8ce 5fbc 10f1 3c3c dfeb 07bd 3e51 ee3b
000000e0: 827d 2abd 7420 533c a8e9 36bd 3303 493d
000000f0: 88b7 7abb a132 3abd 4251 743c a2ed 3abd
00000100: 0020 04bd c2ae d5bc d456 ddbc f468 ddbc
00000110: 50c6 1cbc de14 4e3d f8df 473d c185 5a3c
00000120: 3de8 793c ce89 033d 01ef 633d 4260 393d
00000130: 96f0 f23c 8e8b 593d 8d9a 213b 13e5 21bc
00000140: 4d0d 3bbd c92d 23bc e490 58bd fc9e 333c
00000150: bc9c 0b3d 8963 313d 1607 3d3d 3977 5a3b
00000160: 0d0f 553d 6f1b 933b c7cf 49bd 0daf 41bd
00000170: d7dc 3e3d 5e36 9bbc c104 5a3c e66d c6bb
00000180: c4fa 7d3d 767a d1bb e1bc 263d 9a4c d93b
00000190: 5abb 163d c4f1 313a 001d a7bc 809d 393d
000001a0: ac3c cd3c bbff 23bd 7951 9fbc 02fc 16bc
000001b0: 2646 65bb 8899 343d cdaa 593d 83c1 09bd
000001c0: 65a0 193a 6dab c6bc 758d 083d 2625 5a3d
000001d0: 259c 24bd 59c5 233d e44b 153b 6ea8 c3bb
000001e0: 3c69 1cbd 4aa9 d33c c380 d2bc e992 363d
000001f0: f004 3e3d ac76 963c 7b56 febc ebf5 47bd
00000200: 67ec cc3b 7bd4 22bd 950d 9bbd 001c 8a3d
00000210: 17c3 2cbd ea2c 203d d2fb 483d a95b 76bd
00000220: ffd9 1b3d f93f 03bd 90a5 05bd bfcc 6e3d
00000230: 875a e63c 0216 473d d3ba 0dbc f2f9 6bbc
00000240: 093b 4fbd 6bb0 59bd 1abf 8d3d 067e dabc
00000250: 5a3f 6fbd 755e 593b f8d8 7cbd 7212 313c
00000260: 6bdf bdbc 7acb 3bbc b317 03bb 2d0f 973b
00000270: c2cf 16bd b797 1bbd 2a8e 34bb 86d9 32bd
00000280: 1a46 4ebd 4059 6dbd 2e09 16bc f2ee 3c3d
00000290: 9799 b5bc 56cc b8bc 93be e03c f2e7 3ebd
000002a0: aefc 9abc 54dc 6c3d dbe1 bcba 66bf 243d
000002b0: 0c1f 413c abdc 633d 53a4 0bbd 0738 273d
000002c0: 4cf5 033d f281 86bd 55c6 84bc f482 ddbc
000002d0: c70b 6d3d 7afc 213d 66ca dd3a 97f5 0dbb
000002e0: 056d 443d 863f 733d 1daf 0a3d 9887 48b9
000002f0: 7544 5fbd 670a 1bbd fc87 61bd 6e58 52bb
00000300: 4fb0 023c 863e 103a 0b90 623d 02b3 953d
00000310: 4dcc 6cbc 8aae 593d 6c24 233d d562 1b3b
00000320: 0b7f 4d3d 03fd da3a 494e e7bc 161d e7bc
00000330: 2b8e debc 6287 67bc fa35 fbbc 8d4f 76bd
00000340: da2c 66bc d7f0 173d 73a7 663d 53c9 4c3d
00000350: 6e8a 113d a441 7dbc 6722 163d 5052 d4ba
00000360: b426 9ebc ebc1 4fbd ef01 243d 8b77 6e3d
00000370: 1fce 713d 9e0f 943c 1366 02bb 07b1 dd3b
00000380: 7351 6c3c 5bc0 7a3d 36a0 69bb 66a1 0f3d
00000390: 4e6d e6bc e16f 21bd 827b 9039 0391 813c
000003a0: d741 4ebd 942f 653d fa00 abbc 309a 89bd
000003b0: 980b 173d 12d6 f0ba 3d88 80bd 4598 fb3b
000003c0: 2594 3bbc 9677 743d db11 4f3d 2221 6f3d
000003d0: 593e 0cbd 80e0 06bd da31 88bc c582 e0bc
000003e0: 65ad 35bd 1900 8a3d 24bf 66bd 7e84 cf39
000003f0: 54e0 40bd 3e81 1b3b 20db 653d 5e51 18bd

bias f4 [128]
0.0017901959 0.003184411 -0.00691208 0.016650336 -0.004154489 -0.052370407 -0.0002479265 -0.042848524
-0.037349015 0.03561409 -0.04346109 -0.05361222 -0.005272607 0.042809714 0.010195742 0.05381111
0.012703469 -0.048147865 -0.06594527 -0.009494123 0.05744784 0.0037437037 -0.04090513 0.030332055
0.009137654 0.054374445 0.068207406 0.009130848 0.059088923 -0.010362768 0.05437706 -0.049347647
-0.05566968 -0.008288367 0.023407992 0.034110963 -0.0368283 0.056545082 -0.021610374 -0.0441107
0.028888205 0.0013607608 -0.03470309 0.02099091 0.03984964 0.035429694 0.04408582 0.060771454
-0.06650419 -0.0007009897 -0.015248162 -0.014330778 0.036076393 0.050962836 0.023707263 0.0548993
0.018818641 -0.02324035 0.022536306 -0.0033267005 0.017513767 -0.05657296 0.040943723 -0.028987793
0.0038774868 -0.0057114647 -0.0024565766 -0.05329913 0.010862804 0.09301165 -0.020393912 0.04932283
0.048854485 -0.047131415 0.062044475 -0.031666998 0.035849746 -0.0071213767 -0.032376125 0.024959065
-0.056600865 -0.0296284 0.012377487 0.030392306 0.05222587 -0.038867623 0.03832329 0.008551331
0.069583595 0.012618121 -0.001982377 0.04467548 0.025583075 0.042379912 -0.049845207 0.007981267
-0.0008439954 0.053009678 0.048370067 0.00091193256 -0.050112303 0.018489696 -0.048269805 0.049498152
-0.040946554 0.055996638 0.050769076 -0.03744661 -0.016966347 0.024187578 -0.0043366463 -0.06127232
0.009110982 0.048996106 0.05254595 0.03456822 -0.027742518 0.027916338 -0.024927136 -0.04542452
0.045876697 0.033145368 -0.017281322 0.08850476 -0.0465194 0.022871528 -0.035735328 0.023500185
00000000: 02a5 ea3a 8db1 503b bb7e e2bb 4966 883c
00000010: 6122 88bb 5a82 56bd 22fc 81b9 ef81 2fbd
00000020: 48fb 18bd 14e0 113d 4204 32bd 7d98 5bbd
00000030: d5c5 acbb 3d59 2f3d 0b0c 273c 0a69 5c3d
00000040: 3622 503c b236 45bd 500e 87bd 3d8d 1bbc
00000050: 6d4e 6b3d ed58 753b 238c 27bd ee7a f83c
00000060: 19b6 153c bdb7 5e3d 53b0 8b3d 8d99 153c
00000070: 3a07 723d 99c8 29bc 7bba 5e3d c220 4abd
00000080: e405 64bd eecb 07bc 1ec2 bf3c f0b7 0b3d
00000090: 46d9 16bd d19b 673d 3d08 b1bc 6cad 34bd
000000a0: f5a6 ec3c 8e5b b23a d424 0ebd 21f5 ab3c
000000b0: 6039 233d ba1e 113d 5593 343d 7deb 783d
000000c0: 5933 88bd 9fc2 37ba 6dd3 79bc a4cb 6abc
000000d0: d7c4 133d 68be 503d bc35 c23c 17de 603d
000000e0: 8d29 9a3c 8c62 bebc 0f9e b83c c604 5abb
000000f0: 0879 8f3c 0cb9 67bd 9bb4 273d cf77 edbc
00000100: 6f1d 7e3b 3d27 bbbb 84fe 20bb 3050 5abd
00000110: e7f9 313c e47c be3d 2211 a7bc bc06 4a3d
00000120: a41b 483d df0c 41bd 5922 7e3d 41b5 01bd
00000130: 2fd7 123d 705a e9bb d49c 04bd f476 cc3c
00000140: 4fd6 67bd 42b7 f2bc f1ca 4a3c 49f9 f83c
00000150: cbea 553d a833 1fbd e2f8 1c3d e21a 0c3c
00000160: d881 8e3d 3cbc 4e3c c4ea 01bb a3fd 363d
00000170: 9993 d13c 8f96 2d3d 7d2a 4cbd dcc3 023c
00000180: 933f 5dba ad20 593d b11f 463d c20e 6f3a
00000190: 8f42 4dbd b477 973c 8fb6 45bd 93be 4a3d
000001a0: 93b7 27bd bb5c 653d 3cf3 4f3d 9e61 19bd
000001b0: 02fd 8abc 0725 c63c 6d1a 8ebb aff8 7abd
000001c0: 3a46 153c 24b0 483d 6c3a 573d 6897 0d3d
000001d0: 4744 e3bc ceb0 e43c fe33 ccbc 100f 3abd
000001e0: 34e9 3b3d 70c3 073d 8f91 8dbc fc41 b53d
000001f0: 208b 3ebd 125d bb3c 355f 12bd 7683 c03c

weight f4 [6, 128]
0.08244526 0.062717356 -0.011489531 0.05322197 -0.08981201 0.03162054 -0.06669764 -0.027830228
-0.09337306 0.041371603 0.055379584 -0.048110377 -0.0905748 0.0010844963 -0.012700355 -0.02593093
0.03873074 0.0048648026 -0.02732896 0.04699577 0.045452718 0.011091338 -0.053018764 0.03909997
0.094761446 -0.027781907 0.08075458 -0.010361009 -0.018158918 -0.0042960504 -0.08398973 0.031770162
0.056746442 0.026631394 0.007753812 -0.01707448 0.0059122224 -0.038149085 0.04797679 -0.0061462135
-6.0757447e-05 0.101977445 0.023999978 -0.011789427 0.044816624 -0.08437216 0.04716402 0.09905362
-0.12121432 -0.030106751 -0.008409528 0.041805077 -0.004650869 0.0018689476 -0.058191817 0.0056456584
0.06509979 -0.057780653 0.07357682 0.023545288 -0.024141299 0.028870612 0.050616477 0.018739264
-0.038748752 -0.004484797 0.02072176 -0.013677894 0.04777428 0.020508314 0.037834562 -0.009311572
0.079964 0.011264059 -0.037027106 -0.03824423 -0.011823658 -0.09107154 0.0065340293 0.04290616
-0.004526024 0.018747771 0.05375094 0.034486737 0.084618755 0.10150614 0.025990136 0.042122964
-0.02094958 0.008449351 0.0039092633 -0.057021406 -0.035977855 -0.019022657 -0.010743588 -0.10001582
0.049431436 -0.029470747 -0.04623151 -0.01856637 -0.005894368 0.037957124 -0.06373117 0.0067037987
0.096358225 0.056253016 0.031838447 0.0335231 -0.022873625 -0.005962864 0.050387643 0.033430994
-0.016530467 -0.055264574 0.09426312 -0.06464717 0.056555737 0.0243844 -0.032228127 0.035110794
0.02382247 0.00017995083 -0.028446231 0.057601124 -0.03491685 0.0012367984 -0.089940876 0.004548094
0.0033380291 -0.03523345 -0.010631433 -0.075964406 -0.040463082 0.08128313 -0.028392645 0.022509912
0.014331368 -0.028247714 -0.018781397 0.056879982 0.01918672 -0.08867557 -0.043349337 -0.051206462
-0.050715163 -0.021379057 0.011694182 -0.061335467 -0.0417495 0.08360924 -0.027668942 0.07041912
0.0609443 -0.01402424 0.043616444 -0.0037484963 -0.037458856 0.023258029 -0.020881519 0.04662481
0.010466755 -0.052026294 -0.013125189 -0.026876615 0.014928058 0.065725364 0.01505933 0.003034031
-0.036282707 0.062354382 -0.052024797 -0.005425816 0.03583923 -0.07409659 0.049666278 -0.023057852
0.046413194 0.001782475 -0.030373741 0.04238468 0.014103032 -0.07257016 0.03058037 -0.02725804
-0.03228762 0.0034391126 0.039705586 0.07551156 0.001304824 0.014678432 0.13846996 -0.042445924
0.047349047 -0.011313666 -0.005680719 0.021952633 0.02695198 -0.0609333 0.04751521 0.010215307
-0.0073221303 -0.029880384 -0.024150264 0.08559508 0.041859772 0.0037904056 0.013852396 -0.017610896
-0.053442586 -0.008123427 0.02692758 -0.007612913 0.021965044 0.03748509 -0.003163801 -0.028122108
0.03826168 0.01479902 -0.044427074 -0.0065744086 0.04324323 0.07507961 -0.005364635 0.0064764074
-0.067145385 0.0029171607 0.032590162 -0.034087602 0.008104393 0.04617933 -0.052291244 -0.032515123
0.019141704 0.037795924 -0.023801299 0.037279945 -0.039198972 0.025617452 0.030037101 0.019456532
-0.021333542 -0.020028213 -0.0007733628 -0.067125656 -0.028774025 0.0184207 0.055912275 -0.016321586
-0.07822909 -0.02169095 0.07419967 -0.017124446 -0.009493721 0.021820132 -0.024466582 0.058943167
00000000: 0fd9 a83d f571 803d 963e 3cbc 48ff 593d
00000010: 5cef b7bd 8a84 013d c698 88bd 38fc e3bc
00000020: 603a bfbd 4575 293d b4d5 623d 630f 45bd
00000030: 487f b9bd a825 8e3a 2615 50bc 1a6d d4bc
00000040: 20a4 1e3d ec68 9f3b fce0 dfbc a37e 403d
00000050: a12c 3a3d 71b8 353c 342a 59bd 4a27 203d
00000060: 4a12 c23d e296 e3bc a862 a53d 39c1 29bc
00000070: 03c2 94bc e2c5 8cbb cf02 acbd 6e21 023d
00000080: f56e 683d 152a da3c b013 fe3b c8df 8bbc
00000090: 51bb c13b 3742 1cbd 5083 443d 2d66 c9bb
000000a0: d0d5 7eb8 8dd9 d03d 9a9b c43c 7128 41bc
000000b0: a391 373d 50cb acbd 0f2f 413d a0dc ca3d
000000c0: 373f f8bd 6fa2 f6bc 1ec8 09bc cd3b 2b3d
000000d0: 5166 98bb 7af7 f43a 8b5a 6ebd 37ff b83b
000000e0: 0a53 853d 68ab 6cbd 72af 963d 0ce2 c03c
000000f0: f9c3 c5bc 1082 ec3c 3953 4f3d 1683 993c
00000100: 03b7 1ebd 34f5 92bb aec0 a93c 3f19 60bc
00000110: f7ae 433d 0d01 a83c 6af8 1a3d 908f 18bc
00000120: 2ac4 a33d e38c 383c bca9 17bd fba5 1cbd
00000130: 04b8 41bc b783 babd 691b d63b 5fbe 2f3d
00000140: 0b4f 94bb ed94 993c f229 5c3d f741 0d3d
00000150: 994c ad3d 73e2 cf3d 44e9 d43c 2189 2c3d
00000160: 749e abbc 266f 0a3c 4719 803b 478f 69bd
00000170: 845d 13bd 67d5 9bbc e005 30bc 18d5 ccbd
00000180: 9e78 4a3d a36c f1bc 405d 3dbd 8018 98bc
00000190: 8b25 c1bb ee78 1b3d 7d85 82bd 8aab db3b
000001a0: 7657 c53d 9069 663d 0869 023d 854f 093d
000001b0: 7861 bbbc 2164 c3bb 4663 4e3d f0ee 083d
000001c0: e76a 87bc 1b5d 62bd 060d c13d bc65 84bd
000001d0: fda6 673d cbc1 c73c a401 04bd 56d0 0f3d
000001e0: 5727 c33c 2fb1 3c39 1208 e9bc 28ef 6b3d
000001f0: f904 0fbd 111c a23a ec32 b8bd 2d08 953b
00000200: d6c2 5a3b f350 10bd 762f 2ebc 3a93 9bbd
00000210: 9ebc 25bd c577 a63d b197 e8bc b566 b83c
00000220: 1dce 6a3c c067 e7bc 72db 99bc fcfa 683d
00000230: 782d 9d3c 8a9b b5bd 138f 31bd debd 51bd
00000240: b4ba 4fbd 2223 afbc f498 3f3c e63a 7bbd
00000250: 8601 2bbd 523b ab3d faa9 e2bc e637 903d
00000260: bba0 793d edc5 65bc 28a7 323d 55a9 75bb
00000270: 756e 19bd 9f87 be3c b80f abbc a8f9 3e3d
00000280: c17c 2b3c 8619 55bd 080b 57bc 592c dcbc
00000290: d094 743c 059b 863d 68bb 763c 98d6 463b
000002a0: 2d9d 14bd 4f67 7f3d f417 55bd 0bcb b1bb
000002b0: 28cc 123d f4bf 97bd de6e 4b3d d2e3 bcbc
000002c0: c31b 3e3d f0a1 e93a 5ad2 f8bc 8f9b 2d3d
000002d0: 6710 673c aa9f 94bd af83 fa3c 414c dfbc
000002e0: 0640 04bd bc62 613b 53a2 223d cea5 9a3d
000002f0: a106 ab3a ce7d 703c 12cb 0d3e c7db 2dbd
00000300: 13f1 413d f45c 39bc 5325 babb 02d6 b33c
00000310: 66ca dc3c 3295 79bd 4f9f 423d 1a5e 273c
00000320: 7bee efbb b5c7 f4bc c6d6 c5bc 794c af3d
00000330: 2775 2b3d 7468 783b 29f5 623c ba44 90bc
00000340: 9de6 5abd 1f18 05bc 3a97 dc3c be75 f9bb
00000350: 09f0 b33c f789 193d c657 4fbb 5660 e6bc
00000360: 48b8 1c3d 9777 723c 2af9 35bd 236e d7bb
00000370: d01f 313d 57c3 993d d2c9 afbb 0b38 d43b
00000380: 8583 89bd d62d 3f3b 437d 053d 719f 0bbd
00000390: 4ac8 043c 8a26 3d3d 582f 56bd 942e 05bd
000003a0: 10cf 9c3c e6cf 1a3d f1fa c2bc dbb2 183d
000003b0: 1a8f 20bd b1db d13c 5e10 f63c 4e63 9f3c
000003c0: aec3 aebc 3512 a4bc 80bb 4aba 2d79 89bd
000003d0: 81b7 ebbc 02e7 963c 4504 653d d9b4 85bc
000003e0: 9336 a0bd 38b1 b1bc fff5 973d 9148 8cbc
000003f0: 8d8b 1bbc 22c0 b23c 246e c8bc 646e 713d

bias f4 [6]
0.109902166 -0.064328946 -0.002833844 0.18577053 0.118502945 -0.02298371
00000000: 6314 e13d e5be 83bd 03b8 39bb a13a 3e3e
00000010: acb1 f23d 5548 bcbc

weight f4 [256, 17]
0.16015689 0.019421244 -0.24295858 0.038028523 -0.10865848 0.3026026 0.30141667 -0.038115412
-0.23270068 -0.20295535 -0.08637514 -0.230459 -0.17415617 0.056166068 0.052170675 -0.016098982
0.21343836 -0.08943735 0.14462219 -0.42105803 -0.15116942 0.03042574 -0.13192113 0.13397871
0.12011701 -0.42068762 -0.20466594 0.21457408 -0.13375083 -0.0075386707 0.078472786 -0.060822472
0.10779314 0.10425967 -0.1569574 -0.06542245 0.027133668 -0.18159541 -0.15032229 -0.08340719
0.19888942 0.25479847 -0.27887383 0.1332008 0.22374953 -0.18279506 -0.06440451 -0.060254347
-0.10679707 0.16140656 -0.12150159 -0.40438682 -0.05046069 0.05805203 -0.2081211 0.1321499
-0.19878729 -0.2144755 0.07886813 0.21065223 0.030012878 0.060074575 -0.062198006 -0.028210016
-0.22349222 0.0241678 0.06845471 -0.1063918 -0.24471791 0.12506564 0.32865715 0.255983
0.13189426 -0.15753858 -0.3245717 -0.14110695 0.35265163 -0.3648625 -0.18199912 0.09501595
0.14474536 -0.03770834 0.17577213 0.04162825 -0.09990766 -0.12053005 -0.32596502 -0.21302457
-0.16795926 -0.20428981 0.21306333 0.11791137 0.2904184 0.35673946 0.16817462 0.15180221
0.0072759353 0.16068435 -0.15691224 -0.011639037 0.107795656 0.17894748 0.03387863 0.040670685
0.35939613 -0.13753395 0.07348314 -0.2162768 -0.1754314 -0.10473654 0.10517247 0.115687415
-0.28080073 -0.018649662 -0.10525979 -0.15822344 -0.022649629 0.026364572 0.19998659 -0.37251773
-0.093808524 0.031648587 -0.35320684 0.27001983 -0.2141617 -0.1648453 0.10900356 0.14282401
-0.29305893 -0.23226738 0.00024859124 -0.1617349 0.19146325 -0.20257685 -0.1773263 -0.21319
0.083719 -0.1632813 -0.106267564 -0.050445214 -0.21641667 -0.038784098 0.05424522 -0.12038383
-0.17769867 0.23771879 0.0540849 -0.0075714095 -0.045995966 -0.21112743 0.21487778 -0.21513724
0.1375696 -0.07061957 -0.11831555 -0.27364752 0.032792192 -0.16186072 -0.025703134 0.026690159
-0.021816108 -0.11692754 -0.19024448 -0.23177947 0.14485082 -0.17340659 -0.19677156 -0.037619434
0.11549463 0.1509964 0.12118847 0.19886915 -0.06952965 0.18400304 -0.020680562 -0.10690129
-0.120621935 -0.05819467 -0.062382426 -0.01427471 0.04115558 -0.13802625 -0.22482553 -0.18047114
-0.105676845 -0.088627376 -0.023061138 -0.2649033 -0.012627325 0.4891024 0.073670775 0.18538952
0.09733594 0.0031965745 -0.049726747 0.13458368 0.13506648 -0.01133879 0.15440007 -0.14840424
-0.06521636 -0.09274359 0.004885046 0.19283602 0.16519277 -0.08852952 -0.10609821 0.050942406
-0.24202022 -0.07743985 0.08698509 -0.07736542 0.052770376 0.14467396 0.22842486 -0.23596759
-0.19998363 0.085681684 0.042764034 0.08801186 -0.0035773928 -0.08751968 -0.008072537 0.16826731
0.12412443 -0.021873485 -0.25256652 -0.15519108 -0.29029566 0.13355309 -0.022318866 -0.10741306
0.12893637 0.12625322 -0.16878644 0.028727628 -0.004003994 0.18200344 0.48089978 -0.352472
0.032244038 0.039271843 -0.11006068 0.25232524 -0.0008950802 -0.071881294 0.22391163 0.18821214
0.2645335 0.009945198 0.038946204 0.0020757623 0.0008543395 -0.0011036074 0.0036843638 0.011335055
00000000: 2b00 243e 4d19 9f3c 22ca 78be ccc3 1b3d
00000010: 5688 debd baee 9a3e 4953 9a3e e81e 1cbd
00000020: 1649 6ebe 87d3 4fbe 73e5 b0bd 72fd 6bbe
00000030: ff55 32be 640e 663d ebb0 553d 03e2 83bc
00000040: 968f 5a3e ee2a b7bd d717 143e eb94 d7be
00000050: 28cc 1abe 673f f93c 5516 07be b731 093e
00000060: e8ff f53d 5e64 d7be f393 51be 4fb9 5b3e
00000070: faf5 08be f406 f7bb 57b6 a03d fc20 79bd
00000080: a6c2 dc3d 1886 d53d 71b9 20be 35fc 85bd
00000090: 6d47 de3c 26f4 39be 16ee 19be 64d1 aabd
000000a0: aba9 4b3e f274 823e 8dc8 8ebe ca65 083e
000000b0: 991e 653e a12e 3bbe 83e6 83bd 43cd 76bd
000000c0: 6cb8 dabd c347 253e d3d5 f8bd ca0b cfbe
000000d0: deaf 4ebd f7c7 6d3d b31d 55be 4e52 073e
000000e0: e58e 4bbe 779f 5bbe 9d85 a13d 38b5 573e
000000f0: 91dd f53c c210 763d 56c3 7ebd b118 e7bc
00000100: 25db 64be 8dfb c53c fc31 8c3d f2e3 d9bd
00000110: 5597 7abe 3511 003e c045 a83e 3410 833e
00000120: 4a0f 073e cb51 21be 432e a6be 577e 10be
00000130: c18e b43e 42cf babe fa5d 3abe b997 c23d
00000140: 2138 143e 0f74 1abd 9cfd 333e 6282 2a3d
00000150: 639c ccbd 75d8 f6bd e3e4 a6be 1d23 5abe
00000160: 83fd 2bbe 5931 51be 462d 5a3e 847b f13d
00000170: b8b1 943e 8ea6 b63e f835 2c3e 0a72 1b3e
00000180: f86a ee3b 708a 243e 9aad 20be a9b1 3ebc
00000190: f8c3 dc3d 023e 373e 51c4 0a3d 4e96 263d
000001a0: c502 b83e b3d5 0cbe 547e 963d aa77 5dbe
000001b0: 4aa4 33be 1c80 d6bd aa64 d73d 86ed ec3d
000001c0: 1dc5 8fbe 2dc7 98bc 7292 d7bd 5305 22be
000001d0: b78b b9bc 84fa d73c 49c9 4c3e a5ba bebe
000001e0: af1e c0bd f3a1 013d 87d7 b4be 0a40 8a3e
000001f0: 344d 5bbe 35cd 28be 423d df3d 7540 123e
00000200: d20b 96be 80d7 6dbe 5a55 8239 d59d 25be
00000210: f10e 443e 4e70 4fbe 0795 35be 7b4e 5abe
00000220: de74 ab3d 3733 27be cfa2 d9bd a49f 4ebd
00000230: 559c 5dbe 13dc 1ebd 3c30 5e3d cc8b f6bd
00000240: a4f6 35be 8e6c 733e 2188 5d3d 9619 f8bb
00000250: 4466 3cbd ca31 58be ec08 5c3e f04c 5cbe
00000260: 0cdf 0c3e fea0 90bd 6c4f f2bd 871b 8cbe
00000270: 1b51 063d d1be 25be 618f d2bc 52a5 da3c
00000280: b2b7 b2bc b577 efbd 73cf 42be 9957 6dbe
00000290: c653 143e 7f91 31be 7c7e 49be d616 1abd
000002a0: 7388 ec3d cd9e 1a3e a931 f83d 5ba4 4b3e
000002b0: 9065 8ebd 4b6b 3c3e 486a a9bc 10ef dabd
000002c0: a208 f7bd 895d 6ebd b784 7fbd 79e0 69bc
000002d0: c192 283d c156 0dbe aa38 66be 6dcd 38be
000002e0: 1a6d d8bd 4582 b5bd b6ea bcbc 68a1 87be
000002f0: d7e2 4ebc a16b fa3e b4e0 963d c0d6 3d3e
00000300: 1158 c73d 9f7d 513b 46ae 4bbd 4ed0 093e
00000310: de4e 0a3e 55c6 39bc 0d1b 1e3e 48f7 17be
00000320: 2890 85bd 5af0 bdbd bc12 a03b ce76 453e
00000330: 4b28 293e f74e b5bd 054a d9bd fca8 503d
00000340: 26d4 77be c998 9ebd 3d25 b23d c371 9ebd
00000350: c025 583d 6925 143e 35e8 693e 7da1 71be
00000360: 82c8 4cbe e179 af3d 5729 2f3d 903f b43d
00000370: b172 6abb 853d b3bd ad42 04bc 444e 2c3e
00000380: f334 fe3d 0630 b3bc 6650 81be 69ea 1ebe
00000390: a2a1 94be 24c2 083e 0ed6 b6bc 61fb dbbd
000003a0: e507 043e 8648 013e 5ad6 2cbe 3456 eb3c
000003b0: f033 83bb 1c5f 3a3e 7f38 f63e 3677 b4be
000003c0: 5312 043d 83db 203d 7e67 e1bd c630 813e
000003d0: d1a3 6aba 8036 93bd 1749 653e afba 403e
000003e0: ef70 873e 2ff1 223c 0e86 1f3d 8309 083b
000003f0: c1f5 5f3a eba6 90ba 5e75 713b abb6 393c

bias f4 [256]
-0.0992853 -0.12055859 -0.30054283 0.33172044 -0.024140945 0.4865087 -0.012090788 0.13336568
-0.1294604 -0.18029997 0.2577637 0.24674498 -0.13697699 0.44514668 0.40473962 0.10346781
0.43143097 -0.23104893 0.3143002 -0.31779763 -0.119724624 0.34112504 0.25369522 0.40506423
0.07117472 0.12178027 -0.25166392 -0.14193739 0.40519992 0.234839 0.3210046 -0.09491127
-0.37338835 0.123022184 -0.087681785 -0.028349368 0.46961975 0.048459288 -0.021141365 0.4940734
0.38673058 -0.10031436 -0.061991118 0.26609695 0.12745677 0.005659274 -0.26257128 -0.101580516
0.15015343 -0.10777871 0.2402999 0.41428736 0.2943129 0.48147574 0.12080091 0.088856176
-0.17337538 0.21247397 0.46035773 -0.08341534 0.13406762 0.23501094 0.29568103 0.2929101
0.019121582 -0.017751463 0.012362961 -0.16081859 -0.11425881 0.17275569 0.53508216 -0.23172028
0.08631255 -0.090759195 -0.0399007 0.22454587 -0.19233696 0.23563573 0.14077142 0.053170137
0.09457048 -0.220306 -0.117509484 0.43777627 0.5137132 0.027206855 0.3260004 0.08101231
-0.080047175 -0.1246896 0.2239483 0.5189459 0.10079014 0.4827874 -0.2877604 0.3574721
-0.12208379 -0.2675969 0.24112497 0.08431337 0.06614748 0.13890915 0.33733076 0.2669879
-0.04823227 0.20872526 0.1547311 0.32880992 0.43790728 -0.035220753 -0.041143306 0.0013327037
0.08269016 0.60301036 0.32201886 0.024882196 0.113765314 0.40203667 -0.08437873 0.53688955
0.3233643 -0.008637706 0.34205225 0.116979405 0.40830255 -0.24553406 0.35552728 0.28814423
-0.19937561 -0.09306634 -0.028507292 0.4413205 -0.0754853 0.1896865 -0.2077578 0.06066308
-0.29141954 0.29433578 -0.123115964 -0.059123747 0.303485 0.04108682 -0.17806028 0.08320303
0.07153627 -0.056539968 0.2611536 0.108505435 -0.2562314 -0.106788054 0.2720901 0.29729664
-0.10679 0.11315797 -0.06265118 -0.07201038 -0.06363346 0.40508246 0.179878 -0.3060069
0.3613809 -0.36291102 0.08818345 0.21201004 0.20836522 0.12093361 -0.1510403 0.20620549
-0.1605309 -0.16070478 -0.09490998 0.6508434 -0.23300388 -0.1830397 0.24576832 0.069308296
0.41119394 0.4584144 0.04061624 -0.18678296 0.04342338 0.5333461 0.5068599 -0.17549253
0.37242812 0.07000026 -0.21661162 0.03047976 -0.0944832 -0.11392937 0.3270569 -0.21245724
-0.017291069 0.050679564 -0.24134135 0.20518155 0.13354841 -0.07372459 -0.16729233 -0.15469672
0.50592476 0.1406614 0.26971728 -0.047482584 -0.12943058 0.07892031 -0.14264512 -0.064066954
0.3377337 0.4605228 0.27345628 0.43446752 -0.06533721 0.07338615 0.48348644 0.40727833
-0.20678739 -0.31122687 0.47123024 -0.29502606 0.27734378 -0.13134426 0.31709185 0.03524849
-0.039266396 -0.10373971 -0.26799026 0.3833066 0.20607263 0.35126555 0.40160355 0.118590936
0.1318111 -0.08259045 -0.13941967 0.4842227 0.30726174 0.51851004 0.14449601 0.077919684
-0.12515074 0.50010794 0.3331168 -0.059321325 0.19899112 0.3805512 0.080008246 -0.33220938
0.15046485 0.05610167 -0.21285678 0.46579355 0.29229197 0.15298527 -0.13294157 -0.14726003
00000000: 1756 cbbd 6ce7 f6bd c0e0 99be 43d7 a93e
00000010: 3bc3 c5bc ab17 f93e 7118 46bc 0391 083e
00000020: 4491 04be 8ea0 38be 9bf9 833e b7aa 7c3e
00000030: b243 0cbe 44ea e33e 083a cf3e eee6 d33d
00000040: 85e4 dc3e 1798 6cbe f5eb a03e 5fb6 a2be
00000050: 2f32 f5bd f1a7 ae3e 57e4 813e 9464 cf3e
00000060: 0dc4 913d ef67 f93d 18da 80be 0958 11be
00000070: 5d76 cf3e a379 703e b75a a43e d760 c2bd
00000080: c22c bfbe 0ef3 fb3d 8292 b3bd ef3c e8bc
00000090: 0072 f03e 3f7d 463d a830 adbc 30f7 fc3e
000000a0: 8d01 c63e 9d71 cdbd 66ea 7dbd dc3d 883e
000000b0: 0784 023e 6e71 b93b be6f 86be 7209 d0bd
000000c0: d2c1 193e 16bb dcbd 2d11 763e 791d d43e
000000d0: 2eb0 963e fd83 f63e 7866 f73d 3afa b53d
000000e0: 5189 31be c792 593e 02b4 eb3e a9d5 aabd
000000f0: 0649 093e b5a6 703e 8163 973e 50f8 953e
00000100: dda4 9c3c 846b 91bc 048e 4a3c a1ad 24be
00000110: 8600 eabd dee6 303e 25fb 083f 1548 6dbe
00000120: a2c4 b03d f5df b9bd eb6e 23bd 5aef 653e
00000130: fbf3 44be 7e4a 713e 6226 103e eec8 593d
00000140: 2bae c13d e597 61be d0a8 f0bd 3624 e03e
00000150: b582 033f e9e0 de3c 86e9 a63e c8e9 a53d
00000160: c6ef a3bd 435d ffbd b452 653e a3d9 043f
00000170: 106b ce3d e92f f73e 5555 93be 9506 b73e
00000180: 1107 fabd 7602 89be 77e9 763e 7dac ac3d
00000190: 5478 873d 333e 0e3e 9eb6 ac3e a3b2 883e
000001a0: 338f 45bd 13bc 553e d471 1e3e c659 a83e
000001b0: 6235 e03e a343 10bd e285 28bd 1eae ae3a
000001c0: 7559 a93d e35e 1a3f a8df a43e bfd5 cb3c
000001d0: cafd e83d c0d7 cd3e c1ce acbd 9871 093f
000001e0: 0190 a53e 2a85 0dbc 7921 af3e e692 ef3d
000001f0: 080d d13e 486d 7bbe ac07 b63e a487 933e
00000200: 1f29 4cbe 9199 bebd 2088 e9bc c3f4 e13e
00000210: 0998 9abd 2e3d 423e 76be 54be da79 783d
00000220: f134 95be 2eb3 963e 3924 fcbd be2b 72bd
00000230: 6362 9b3e a74a 283d 6f55 36be 5a66 aa3d
00000240: 9c81 923d 7496 67bd edb5 853e 1938 de3d
00000250: c330 83be b2b3 dabd 654f 8b3e 4437 983e
00000260: b7b4 dabd 5ebf e73d 434f 80bd 2e7a 93bd
00000270: 4252 82bd f866 cf3e f031 383e f0ac 9cbe
00000280: eb06 b93e 79cf b9be 8699 b43d 2919 593e
00000290: b15d 553e 0aac f73d 4faa 1abe 8827 533e
000002a0: 3662 24be cb8f 24be 2a60 c2bd ac9d 263f
000002b0: 9298 6ebe c26e 3bbe b1aa 7b3e 82f1 8d3d
000002c0: 0388 d23e 4bb5 ea3e 375d 263d 0844 3fbe
000002d0: b7dc 313d 5f89 083f 92c1 013f 50b4 33be
000002e0: e6ae be3e 4c5c 8f3d 70cf 5dbe b1b0 f93c
000002f0: 6880 c1bd cd53 e9bd 0174 a73e 648e 59be
00000300: 00a6 8dbc 6095 4f3d 3022 77be 1d1b 523e
00000310: eac0 083e ebfc 96bd ae4e 2bbe d168 1ebe
00000320: 4984 013f 8b09 103e 6218 8a3e 197d 42bd
00000330: 7389 04be f9a0 a13d 9011 12be 8935 83bd
00000340: 6eeb ac3e a5c9 eb3e 7602 8c3e 8772 de3e
00000350: 84cf 85bd 7a4b 963d 898b f73e c986 d03e
00000360: 13c0 53be 2159 9fbe 1745 f13e a80d 97be
00000370: 0100 8e3e 1c7f 06be dd59 a23e b860 103d
00000380: cdd5 20bd 7c75 d4bd 0536 89be c340 c43e
00000390: b404 533e 14d9 b33e fb9e cd3e cedf f23d
000003a0: 7df9 063e 2f25 a9bd 08c4 0ebe 0aec f73e
000003b0: 6951 9d3e 13bd 043f c3f6 133e 5b94 9f3d
000003c0: 8427 00be 1307 003f 498e aa3e ebfa 72bd
000003d0: 54c4 4b3e 9bd7 c23e 5ddb a33d 5917 aabe
000003e0: 7513 1a3e ddca 653d 21f7 59be 7e7c ee3e
000003f0: 4ba7 953e 2ca8 1c3e d621 08be 55cb 16be

weight f4 [256, 256]
-0.009276641 -0.070310414 0.018585581 0.032636628 0.0060758376 0.0005183533 -0.030386537 0.014790332
0.050021045 -0.06025352 -0.028421696 -0.034134727 0.016310431 0.0035612166 0.008793899 0.025933182
0.04731644 -0.006179498 -0.06781371 -0.059110735 0.0258233 -0.004877461 0.03182248 -0.025977034
-0.027858065 -0.023629365 -0.003726559 0.04409401 -0.016470117 -0.06216285 -0.021529172 -0.051154442
0.014766723 -0.044575747 0.0035394842 -0.04620188 0.016035514 -0.045199063 0.046752065 -0.019513313
-0.004927451 0.046343002 0.022845043 0.0038470936 -0.047678564 0.020734722 -0.04220311 -0.00057745224
-0.06921437 -0.016635545 -0.046349537 -0.015269228 -0.018562242 -0.00416689 -0.03128299 -0.01176772
0.03613569 0.022747079 -0.032415796 -0.053963613 -0.05742796 0.0010860838 -0.008909201 0.041082725
0.019825028 -0.060460277 -0.051363036 -0.06009884 -0.018971123 0.007993134 0.009562884 -0.054978438
0.013743733 0.026043044 -0.042939615 -0.06766785 -0.05548218 -0.06995221 0.04810318 0.036253046
-0.008419645 -0.043390337 -0.0056828 -0.06871515 -0.010506014 0.041770436 -0.033284523 0.03370279
-0.022959268 0.037510403 0.032154012 -0.06369816 0.024666976 0.00014407952 -0.063518204 0.042526063
-0.07119431 -0.039912634 0.03780162 0.00804618 0.009124165 -0.061373167 0.027815865 -0.056532852
0.040898338 -0.036556646 -0.0014353743 -0.022881055 0.021647105 -0.000191949 0.023052271 0.040724985
0.0085860975 -0.06909131 -0.0031441778 -0.055905014 -0.00030063972 0.0052200467 -0.042688653 0.03691231
0.03208222 -0.05510497 -0.021685122 0.028315432 -0.036799513 0.046431385 0.04089898 0.04146696
0.023064688 0.04213418 -0.0015707962 0.034624 -0.06234993 -0.020495404 -0.05712275 2.2016407e-05
-0.050339818 0.02576795 -0.005449729 -0.030730426 -0.0030392502 -0.059965137 -0.005707306 -0.014013205
-0.034723893 -0.04057002 0.016113924 -0.058940127 0.02665494 -0.0092168525 0.011794289 -0.043189965
0.0022160779 0.01365341 -0.05616246 -0.03481771 -0.019295057 -0.016249292 0.03782838 -0.00082757894
0.028843073 0.010941948 -0.03669613 0.013415662 -0.062221747 -0.0031196733 -0.06004959 -0.05621043
-0.004870075 -0.013920891 -0.009844184 -0.027942445 0.036158502 0.013747828 0.036183573 -0.043519594
-0.0075493245 -0.054108378 -0.062409107 0.045049615 0.026604453 -0.056056283 -0.021014268 0.04198334
-0.024477782 0.041449316 0.041255236 0.026988465 -0.050962538 -0.061505493 0.04179394 -0.0042733075
0.0010029458 -0.05460893 -0.011781455 0.019433372 0.028397271 -0.039549638 -0.014480148 -0.009815931
0.024861678 -0.032619283 -0.067579135 0.0022793713 -0.036117543 0.027296282 -0.032621063 0.047443457
-0.03419523 0.013052191 -0.04160603 0.024513286 -0.025382865 -0.009107953 0.048088934 -0.07148611
-0.026573483 -0.037264388 0.046698835 -0.020172693 0.016993115 -0.033578992 0.016970739 -0.002474015
0.0025714922 0.02223881 0.03484905 -0.010316159 0.008823277 -0.01897802 -0.009568633 -0.020197757
-0.0480432 -0.011074023 0.014061795 0.02672557 0.041870408 -0.017232513 0.009251258 -0.049331598
-0.004052148 -0.0019946143 0.013240954 -0.014962041 -0.07183819 -0.035770245 -0.008665573 0.018754877
0.014962678 -0.03086015 -0.036645103 0.049429152 -0.056862593 -0.0037591155 0.02288046 0.0020524077
00000000: 0dfd 17bc e8fe 8fbd ca40 983c fcad 053d
00000010: d217 c73b 1ae2 073a 30ed f8bc 2653 723c
00000020: dee2 4c3d 65cc 76bd 9ed4 e8bc dbd0 0bbd
00000030: 749d 853c 4d63 693b 4914 103c d371 d43c
00000040: e2ce 413d 637d cabb eae1 8abd 191e 72bd
00000050: 638b d33c 1cd3 9fbb 4a58 023d cacd d4bc
00000060: 9936 e4bc 5f92 c1bc 4939 74bb ec9b 343d
00000070: 57ec 86bc 799e 7ebd f25d b0bc 5287 51bd
00000080: 20f0 713c 0f95 36bd b1f6 673b 2f3e 3dbd
00000090: e95c 833c a722 39bd 187f 3f3d 62da 9fbc
000000a0: 7476 a1bb 29d2 3d3d 8725 bb3c 851f 7c3b
000000b0: 994a 43bd dddb a93c 2bdd 2cbd 2a60 17ba
000000c0: 43c0 8dbd 4447 88bc 03d9 3dbd c92b 7abc
000000d0: d80f 98bc 688a 88bb 9822 00bd 65cd 40bc
000000e0: 0403 143d 1558 ba3c 6dc6 04bd f308 5dbd
000000f0: 9539 6bbd ed5a 8e3a e6f7 11bc 5c46 283d
00000100: 1968 a23c 32a5 77bd 0c62 52bd 342a 76bd
00000110: 5469 9bbc a2f5 023c a5ad 1c3c 1231 61bd
00000120: 652d 613c 3958 d53c 73e1 2fbd 7195 8abd
00000130: 4841 63bd 1b43 8fbd d707 453d 137e 143d
00000140: 8df2 09bc 11ba 31bd c836 babb 87ba 8cbd
00000150: 6b21 2cbc 7a17 2b3d 5a55 08bd f00b 0a3d
00000160: 1315 bcbc 82a4 193d edb3 033d 2e74 82bd
00000170: 6612 ca3c 0d14 1739 d515 82bd cf2f 2e3d
00000180: 53ce 91bd 6e7b 23bd dfd5 1a3d 20d4 033c
00000190: 867d 153c 6e62 7bbd 19de e33c fe8e 67bd
000001a0: 0485 273d 6cbc 15bd 2b23 bcba 0d71 bbbc
000001b0: 4555 b13c eb45 49b9 1ed8 bc3c 3ecf 263d
000001c0: b4ac 0c3c bf7f 8dbd 8d0e 4ebb a8fc 64bd
000001d0: 2e9f 9db9 ed0c ab3b 4cda 2ebd 5d31 173d
000001e0: a568 033d c0b5 61bd ffa4 b1bc c4f5 e73c
000001f0: 16bb 16bd d62e 3e3d b085 273d 42d9 293d
00000200: 28f2 bc3c e494 2c3d 2de3 cdba e5d1 0d3d
00000210: a462 7fbd fae5 a7bc 8bf9 69bd e0af b837
00000220: 2031 4ebd 4f17 d33c a493 b2bb 60be fbbc
00000230: 282e 47bb 019e 75bd 5a04 bbbb a497 65bc
00000240: a43a 0ebd c02c 26bd 5901 843c 346b 71bd
00000250: 765b da3c 4802 17bc d53c 413c f6e7 30bd
00000260: 9e3b 113b 8db2 5f3c 9c0a 66bd 049d 0ebd
00000270: ab10 9ebc 3c1d 85bc eef1 1a3d e2f1 58ba
00000280: 4f48 ec3c db45 333c ae4e 16bd 5dcd 5b3c
00000290: 3bdc 7ebd 6f73 4cbb 8ff6 75bd e83c 66bd
000002a0: 2695 9fbb 7314 64bc 8049 21bc 8ee7 e4bc
000002b0: f01a 143d 923e 613c 3a35 143d 9a41 32bd
000002c0: 5360 f7bb bfa0 5dbd b1a0 7fbd f285 383d
000002d0: 95f1 d93c 469b 65bd 1d26 acbc b9f6 2b3d
000002e0: a185 c8bc c2c6 293d 40fb 283d ea16 dd3c
000002f0: 18be 50bd 2fed 7bbd 1f30 2b3d 1a07 8cbb
00000300: 4775 833a 9dad 5fbd 0107 41bc bc32 9f3c
00000310: 65a1 e83c cdfe 21bd 253e 6dbc 00d3 20bc
00000320: b8aa cb3c cc9b 05bd ee66 8abd 8161 153b
00000330: fdef 13bd 749c df3c aa9d 05bd 1254 423d
00000340: 4c10 0cbd dbd8 553c 166b 2abd 16d0 c83c
00000350: baef cfbc 8639 15bc e7f8 443d 4f67 92bd
00000360: a2b0 d9bc 8ba2 18bd 4747 3f3d 3441 a5bc
00000370: 2535 8b3c 208a 09bd 3806 8b3c 1623 22bb
00000380: 7b86 283b 2a2e b63c e1bd 0e3d 1b05 29bc
00000390: 828f 103c cb77 9bbc c1c5 1cbc c475 a5bc
000003a0: f2c8 44bd d26f 35bc 7163 663c 95ef da3c
000003b0: 4e80 2b3d 332b 8dbc 9792 173c ee0f 4abd
000003c0: e2c7 84bb 13b8 02bb 96f0 583c 5923 75bc
000003d0: e71f 93bd d283 12bd 0cfa 0dbc d4a3 993c
000003e0: 0526 753c 6dce fcbc 2d19 16bd 3976 4a3d
000003f0: c0e8 68bd 7e5b 76bb cd6f bb3c b081 063b
