TRPO/models/pruning/TRPO-HumanoidStandup-0.55-l1.pth (torch, 895380 bytes, 12 tensors)

log_std f4 [17]
-0.0038887372 -0.00022234001 -0.0060186973 -0.003299684 -0.0040071034 -0.009188132 -0.003984767 -0.0020818827
0.0010251186 -0.0023214908 -0.008198359 -0.0005258991 -0.0030404094 -0.00024592524 -8.80284e-05 0.0007020518
-5.9828686e-05
00000000: 2fda 7ebb f123 69b9 7e38 c5bb 833f 58bb
00000010: 054e 83bb d289 16bc a692 82bb 3270 08bb
00000020: 465d 863a 2724 18bb 6952 06bc 7edc 09ba
00000030: 9b41 47bb 87ef 80b9 e39b b8b8 e609 383a
00000040: 90f0 7ab8

weight f4 [115, 376]
-0.019010283 0.04637141 0.025871465 0.006482263 -0.0099188965 -0.043647088 0.03975311 -0.013279763
-0.03332577 0.033091612 0.018221198 0.0126737915 -0.010245087 -0.016056834 0.008762269 0.03977478
0.0073114685 -0.024458187 0.051257025 0.0011063219 0.040837828 0.01260675 0.046208378 0.029755699
-0.026305638 0.036183257 0.00032514066 -0.041425817 -0.010804732 -0.046615604 -0.026719483 -0.036578313
0.035147477 -0.010909494 -0.009061194 0.024680376 0.02111538 -0.03424726 0.01901868 0.021951495
-0.040953457 0.044894867 -0.031482026 -0.020146297 -0.042408828 0.047134817 0.009820035 0.043424632
0.0033676329 0.028031126 -0.016465893 -0.041142136 0.0082785785 -0.0045990334 -0.0052070827 -0.025308
0.0011013167 0.014853022 0.018609833 -0.041541923 0.02491774 0.0052403146 0.035597067 0.036431428
-0.04010193 0.049527366 -0.05071448 0.029648615 0.0036297906 0.024404231 -0.027888676 0.031003281
-0.025525436 -0.04559642 0.017407792 0.028232448 0.051125925 -0.0053829174 0.049611077 0.033131707
-0.025577009 -0.03976548 0.02891572 -0.028257195 0.024035053 -0.04415703 0.037630927 0.01547112
-0.0059290454 0.02365155 -0.036716413 -0.011262792 0.000473071 -0.029806089 -0.012905 -0.022227988
0.049161926 0.04383295 0.044477306 0.04215045 -0.04938823 0.017254665 0.018986285 -0.037823148
0.021061985 -0.02797367 0.008214025 0.01709967 0.044500437 -0.027053999 -0.040572293 0.047721196
0.021637453 0.02507412 0.018665189 -0.018243248 0.031038346 -0.045007218 0.007175711 0.023311375
0.035236716 -0.025729412 -0.03484903 0.01934857 -0.04068335 -0.042848613 -0.046360314 -0.024988856
-0.009845613 -0.030540897 -0.021804504 -0.045639504 0.0317032 -0.011795019 -0.03238042 0.01343018
-0.038549975 0.036110908 0.029651912 -0.05068041 -0.04047984 -0.03398871 -0.02790849 0.0064419275
-0.050894946 -0.03822629 0.023563538 -0.016876426 -0.02052088 -0.042663403 0.020904627 0.0036234618
-0.019932736 -0.031580027 0.011063058 0.014039331 0.022899907 0.015338637 -0.007867387 -0.03992106
0.03283248 -0.0004536991 -0.034271445 0.044477295 0.02882384 -0.040522017 -0.02574951 -0.01753502
-0.029769953 0.024082152 -0.036789507 0.047923002 -0.021298552 0.030436328 0.0018515595 -0.022673449
0.034442488 -0.039340086 -0.027285147 0.006180706 0.040911082 -0.02209548 -0.031392507 -0.0329293
-0.022665992 -0.017814439 -0.0120119965 -0.029338052 0.016118288 0.0004188339 -0.033694893 -0.029504111
0.011005616 -0.00076084083 0.036483478 -0.007821989 -0.041799884 -0.038181163 -0.015114498 -0.011445959
0.0058681173 -0.011571016 0.019010983 -0.017176537 0.037889507 0.011808834 -0.015870007 0.04595593
0.013146459 -0.035080954 -0.02871811 0.032158684 0.023553291 0.040268306 -0.0039733355 0.03591267
0.025841381 0.015764145 -0.011927566 0.049741004 0.010413108 -0.013463243 -0.0005318705 0.050512273
0.03464602 -0.0037946985 0.050535448 0.022665197 -0.027411513 -0.04708467 0.029943112 0.04836147
-0.030063886 0.021212084 0.0022463761 -0.011198191 -0.014041903 0.014350033 0.011343003 0.034862235
0.018929742 0.023296367 0.045474626 0.016061343 0.0076291747 -0.018779427 0.037889842 0.007627386
0.033222746 0.04980709 -0.011547629 0.036326673 -0.01038029 0.046594184 0.04058254 -0.018466009
00000000: 74bb 9bbc f3ef 3d3d 65f0 d33c 2a69 d43b
00000010: de82 22bc 4ac7 32bd 28d4 223d 5d93 59bc
00000020: 9a80 08bd 128b 073d 9f44 953c bca5 4f3c
00000030: 02db 27bc 9f89 83bc 9f8f 0f3c e1ea 223d
00000040: 0b95 ef3b 895c c8bc e3f2 513d 0102 913a
00000050: 9145 273d 8b8c 4e3c ff44 3d3d 39c2 f33c
00000060: ec7e d7bc e534 143d a477 aa39 1eae 29bd
00000070: 5506 31bc 01f0 3ebd d1e2 dabc 24d3 15bd
00000080: cdf6 0f3d bcbd 32bc 6775 14bc 802e ca3c
00000090: 29fa ac3c db46 0cbd 10cd 9b3c 9fd3 b33c
000000a0: d0be 27bd aee3 373d 4cf3 00bd d909 a5bc
000000b0: e1b4 2dbd 7010 413d 36e4 203c 07de 313d
000000c0: 81b3 5c3b 88a1 e53c 7be3 86bc a884 28bd
000000d0: e0a2 073c 7db3 96bb 2da0 aabb b952 cfbc
000000e0: 0e5a 903a 175a 733c a673 983c dd27 2abd
000000f0: 4a20 cc3c f2b6 ab3b 3bce 113d 1f39 153d
00000100: ec41 24bd 35dd 4a3d fdb9 4fbd a7e1 f23c
00000110: c8e1 6d3b 62eb c73c cb76 e4bc 98fa fd3c
00000120: b81a d1bc 50c3 3abd c99a 8e3c bc47 e73c
00000130: 6b69 513d 2f63 b0bb fc34 4b3d 1db5 073d
00000140: e086 d1bc 21e1 22bd a9e0 ec3c a27b e7bc
00000150: 29e5 c43c 00de 34bd e322 1a3d 957a 7d3c
00000160: 7048 c2bb e5c0 c13c f363 16bd 9387 38bc
00000170: 8406 f839 e62b f4bc 7e6f 53bc 7817 b6bc
00000180: 045e 493d 2e8a 333d d62d 363d f3a5 2c3d
00000190: 504b 4abd a859 8d3c 2089 9b3c 72ec 1abd
000001a0: 2f8a ac3c 0a29 e5bc 1e94 063c 9b14 8c3c
000001b0: 1746 363d 59a0 ddbc 222f 26bd 4d77 433d
000001c0: 0741 b13c 3e68 cd3c bde7 983c dd72 95bc
000001d0: 2144 fe3c 7d59 38bd 3a22 eb3b 7ff7 be3c
000001e0: 6054 103d 7dc6 d2bc dbbd 0ebd e480 9e3c
000001f0: 96a3 26bd 0782 2fbd 50e4 3dbd 6eb5 ccbc
00000200: 7e4f 21bc e730 fabc 5c9f b2bc 7df0 3abd
00000210: 37db 013d e53f 41bc 55a1 04bd 420a 5c3c
00000220: 94e6 1dbd 08e9 133d 91e8 f23c 4396 4fbd
00000230: 30ce 25bd bf37 0bbd 58a0 e4bc ce16 d33b
00000240: 3877 50bd 2c93 1cbd 5208 c13c 6e40 8abc
00000250: 681b a8bc d2bf 2ebd 2e40 ab3c 9a77 6d3b
00000260: fa49 a3bc 0f5a 01bd d441 353c 3905 663c
00000270: 9698 bb3c e84e 7b3c 36e6 00bc 4484 23bd
00000280: 5a7b 063d 76de edb9 3760 0cbd d32d 363d
00000290: f91f ec3c 6afa 25bd a3f0 d2bc 9aa5 8fbc
000002a0: 1ee0 f3bc ef47 c53c 98b0 16bd e94a 443d
000002b0: 4d7a aebc 9b55 f93c 07b0 f23a abbd b9bc
000002c0: 9113 0d3d 1223 21bd 1a85 dfbc 8587 ca3b
000002d0: 6192 273d 9401 b5bc 6e95 00bd e0e0 06bd
000002e0: 08ae b9bc 96ef 91bc f7cd 44bc 5b56 f0bc
000002f0: 800a 843c ef96 db39 a803 0abd 9bb2 f1bc
00000300: e650 343c 2a73 47ba b36f 153d cd27 00bc
00000310: 5b36 2bbd da63 1cbd cda2 77bc d587 3bbc
00000320: 5649 c03b 5c94 3dbc ecbc 9b3c cfb5 8cbc
00000330: 0732 1b3d d779 413c d101 82bc 493c 3c3d
00000340: 3f64 573c 0cb1 0fbd 3e42 ebbc d3b8 033d
00000350: d5f2 c03c 61f0 243d c132 82bb 2a19 133d
00000360: 4eb1 d33c cf23 813c d66b 43bc 39bd 4b3d
00000370: be9b 2a3c ef94 5cbc 3a6d 0bba f5e5 4e3d
00000380: fce8 0d3d 7ab0 78bb 42fe 4e3d 5dac b93c
00000390: 1c8e e0bc dbdb 40bd 424b f53c ad16 463d
000003a0: 8a48 f6bc f7c4 ad3c f037 133b 9e78 37bc
000003b0: 0310 66bc 671c 6b3c 01d8 393c b4cb 0e3d
000003c0: 8c12 9b3c 06d8 be3c 9a43 3a3d 1493 833c
000003d0: 28fe f93b 50d7 99bc 6132 1b3d 27ef f93b
000003e0: 9314 083d 8502 4c3d 4432 3dbc 47cb 143d
000003f0: 1812 2abc 8bd9 3e3d e139 263d 0746 97bc

bias f4 [115]
0.04423129 0.044702668 0.022826612 0.016950006 -0.047359716 0.017799236 0.038019422 -0.046119023
0.011375357 0.0099473465 -0.048979014 0.024384102 0.049052607 -0.028550263 -0.007693799 0.0427663
0.029738048 -0.025291875 -0.012303175 0.03611579 0.0009182516 -0.03972128 0.044154916 -0.017721258
-0.021254016 0.011799134 0.024585161 -0.00825969 -0.02611698 0.028015146 0.030748142 -0.037471823
0.048287097 0.01531992 0.021498283 -0.034170065 -0.018040868 0.007144775 0.009074475 -0.04241124
-0.03474557 0.04918039 -0.0191216 0.036219362 0.0487802 -0.030800685 -0.006247542 0.04710336
-0.011431243 -0.0006333409 -0.025815042 0.023402387 -0.038102116 0.043962553 -0.045040265 -0.04939384
0.028585436 0.0035484512 0.011073096 -0.048737526 -0.023089109 -0.015306412 -0.031774446 -0.0048556644
0.027494216 0.042670842 -0.034230582 -0.04117629 0.04602856 0.019235535 0.027540829 -0.037305348
-0.045027714 -0.017196013 -0.044874426 -0.031073552 0.04113935 -0.007928715 -0.029368224 -0.017358689
0.040127546 -0.01526469 0.008848242 0.035969205 -0.008583175 0.027310738 0.04015957 -0.02555477
-0.0055038463 0.015888248 -0.018008417 -0.018031754 0.050399475 -0.050285287 -0.00050996325 0.0025499472
-0.02173558 -0.03609239 -0.034207433 -0.033510793 0.007468583 0.016342215 -0.0011563841 0.036373135
-0.04016385 0.003804007 -0.04055129 0.016291717 -0.023337625 -0.049496993 -0.024182582 -0.012845068
-0.0066658454 -0.049995456 0.03758149
00000000: df2b 353d 251a 373d e0fe ba3c bdda 8a3c
00000010: 43fc 41bd b4cf 913c 41ba 1b3d 4de7 3cbd
00000020: b55f 3a3c 32fa 223c 389e 48bd 2bc1 c73c
00000030: 63eb 483d 3ee2 e9bc 441c fcbb b72b 2f3d
00000040: 359d f33c e830 cfbc 4293 49bc 27ee 133d
00000050: d2b6 703a c8b2 22bd c9db 343d 2c2c 91bc
00000060: e71c aebc 2851 413c d266 c93c a753 07bc
00000070: 47f3 d5bc 0580 e53c 87e3 fb3c 0e7c 19bd
00000080: b1c8 453d 6700 7b3c 2b1d b03c e9f5 0bbd
00000090: 71ca 93bc b71e ea3b 1bad 143c 69b7 2dbd
000000a0: 5f51 0ebd 6071 493d e7a4 9cbc c15a 143d
000000b0: bfcd 473d b851 fcbc 2eb8 ccbb 74ef 403d
000000c0: 1c4a 3bbc ca06 26ba 117a d3bc 5db6 bf3c
000000d0: f710 1cbd 1412 343d 247c 38bd 3251 4abd
000000e0: 012c ea3c 228d 683b ee6b 353c 00a1 47bd
000000f0: 5f25 bdbc bfc7 7abc ec25 02bd 441c 9fbb
00000100: 8d3b e13c 9fc7 2e3d 5e35 0cbd 78a8 28bd
00000110: 7188 3c3d d793 9d3c 4e9d e13c 7ecd 18bd
00000120: fb6e 38bd a7de 8cbc 3fce 37bd f68d febc
00000130: bc81 283d 71e7 01bc a195 f0bc cf33 8ebc
00000140: c85c 243d c018 7abc 38f8 103c 7254 133d
00000150: 72a0 0cbc c5ba df3c 5c7e 243d 3d58 d1bc
00000160: 9c59 b4bb 1228 823c 6386 93bc 54b7 93bc
00000170: ae6f 4e3d f2f7 4dbd 0eaf 05ba 041d 273b
00000180: d10e b2bc 9dd5 13bd 181d 0cbd 9d42 09bd
00000190: 04bb f43b 1ce0 853c d091 97ba fffb 143d
000001a0: d982 24bd a64c 793b 1c19 26bd 3576 853c
000001b0: 8c2e bfbc 5cbd 4abd 8d1a c6bc 1f74 52bc
000001c0: 2a6d dabb 09c8 4cbd 0cef 193d

weight f4 [115, 115]
-0.04307145 -0.006471947 0.0014740286 0.05287941 0.031364504 -0.050242163 -0.0048373034 -0.055171177
0.036798358 -0.01811136 -0.055329435 0.0433808 0.009364116 0.026323047 -0.047862433 -0.022219308
0.061772667 -0.022730581 -0.059799492 0.004459623 -0.01124973 0.011089306 0.03644035 0.035257593
-0.043279953 0.048808005 0.034265503 -0.04727118 0.024200117 -0.011609521 -0.02178297 -0.058834497
0.03497157 0.036707923 0.0005979669 0.016244903 0.009194058 0.035436947 -0.033659466 -0.0011329029
0.0028962165 -0.012306792 0.01099054 -0.045542624 -0.023893785 -0.05834671 0.039638236 -0.035454948
0.022660663 -0.05192652 -0.045492172 0.03353 0.039345615 -0.055395458 0.01261827 0.035175268
-0.0153864 -0.014107005 -0.05759132 -0.033432737 -0.0057361447 -0.032498818 0.055351537 0.0070497994
0.0010970951 0.006086902 0.027600871 -0.027590394 -0.060044266 -0.05414619 -0.033982355 0.0435131
0.053406168 -0.03586272 0.013677762 -0.049095012 0.05780686 0.029288422 -0.002382277 0.0073609725
0.016251314 0.041510534 -0.023752047 -0.015843384 -0.055374946 0.008046257 0.005661054 -0.05060511
0.026988948 0.014858713 -0.022821434 -0.018988408 -0.057783905 0.021033105 -0.012436434 -0.059166048
-0.027624803 -0.014787651 0.048164714 -0.0012156195 -0.0034312701 -0.0070271683 -0.031042777 0.052736744
-0.038751878 0.02972403 -0.0461922 0.018633343 -0.05021622 -0.0037490518 0.015013741 0.020208783
0.03730891 0.05193828 -0.03094277 -0.040820215 -0.056475446 0.018481702 -0.061577607 -0.004230018
0.04876322 0.01865523 0.04619121 0.046599563 0.0028911093 0.0008356465 0.027332896 0.00396074
-0.055167463 -0.037824072 0.05770917 0.0075447867 0.011379262 -0.02434137 -0.03776038 -0.031336673
-0.04229029 -0.05192174 0.033773236 0.050407626 0.03805164 -0.01443588 0.008006394 -0.030318735
0.043214504 -0.00066437223 -0.03989864 -0.0016480032 -0.0020669396 -0.057614006 -0.044910036 -0.007014091
-0.055551182 0.010361002 -0.0051397574 -0.021923084 0.0219763 -0.027841372 0.047504675 0.007152753
0.026112685 -0.04495753 0.0033654224 -0.010298524 0.038203496 0.046921626 0.061984308 -0.02548625
0.020633547 -0.055412702 0.059318163 -0.05216151 0.009029259 -0.008149441 -0.014974186 0.04872082
-0.06085545 0.019101145 -0.03212827 -0.041866437 0.042676788 0.058717903 -0.034039743 0.0492505
0.059467547 -0.03333041 -0.035119627 0.040636633 0.02665602 0.026370483 -0.0014231524 -0.041218687
-0.009664 0.022052646 -0.024261013 0.000759825 -0.049343992 0.047355946 -0.035599668 0.027135309
-0.03504371 -0.009833165 0.022608943 0.043340113 0.0616991 -0.034137 -0.05868524 -0.0006357108
-0.048776735 -0.04724732 0.058389373 -0.031608902 0.049365878 -0.023053262 -0.037327133 0.018977221
-0.024574846 -0.016326118 0.053586338 0.025729971 -0.04230793 -0.044495728 0.015979653 -0.0068150423
0.009573748 0.058514412 -0.0029967814 0.027141558 -0.007936511 -0.027589267 0.020966163 0.014312255
0.053752344 0.047852725 -0.03345566 -0.046222568 0.048889957 -0.035121094 0.029559411 -0.0048574405
-0.04443095 0.03261732 -0.052056998 0.052351087 0.021247182 -0.03463247 -0.025826417 0.055623706
-0.047606435 -0.012147468 0.048520833 -0.051959347 0.049827944 -0.025508054 0.055357967 -0.04998255
00000000: b06b 30bd a012 d4bb 3134 c13a 1598 583d
00000010: 1178 003d baca 4dbd 3e82 9ebb 2cfb 61bd
00000020: e0b9 163d 465e 94bc 1ea1 62bd 11b0 313d
00000030: f36b 193c 6ea3 d73c 660b 44bd 4405 b6bc
00000040: 5605 7d3d 7c35 babc 50f0 74bd 0722 923b
00000050: ca50 38bc ecaf 353c 7a42 153d 446a 103d
00000060: 5246 31bd e7ea 473d fc59 0c3d 6d9f 41bd
00000070: 533f c63c dc35 3ebc 3372 b2bc 71fc 70bd
00000080: 593e 0f3d 0c5b 163d e1c0 1c3a 0814 853c
00000090: ada2 163c 5526 113d 82de 09bd ea7d 94ba
000000a0: 73ce 3d3b 6da2 49bc aa11 343c e78a 3abd
000000b0: e6bc c3bc f6fc 6ebd b45b 223d 3539 11bd
000000c0: dba2 b93c e7b0 54bd 0056 3abd c156 093d
000000d0: de28 213d 59e6 62bd dcbc 4e3c f113 103d
000000e0: 3d17 7cbc 1121 67bc e0e4 6bbd c4f0 08bd
000000f0: 45f6 bbbb 7b1d 05bd 4bb8 623d 0102 e73b
00000100: 67cc 8f3a a374 c73b 391b e23c 4005 e2bc
00000110: faf0 75bd 65c8 5dbd 1531 0bbd cb3a 323d
00000120: 6dc0 5a3d cae4 12bd b118 603c da17 49bd
00000130: e3c6 6c3d 46ee ef3c fa1f 1cbb 5034 f13b
00000140: 7a21 853c f306 2a3d a793 c2bc fcc9 81bc
00000150: d7d0 62bd 73d4 033c 5d80 b93b 4e47 4fbd
00000160: ed17 dd3c f671 733c 04f4 babc 948d 9bbc
00000170: d1ae 6cbd 9e4d ac3c 2fc2 4bbc 1958 72bd
00000180: 694d e2bc e747 72bc 5d48 453d 6c55 9fba
00000190: 29df 60bb 2944 e6bb 6c4d febc 7c02 583d
000001a0: 4aba 1ebd cf7f f33c 0834 3dbd f4a4 983c
000001b0: 86af 4dbd a7b2 75bb 32fc 753c e48c a53c
000001c0: 3ad1 183d 3cbd 543d b17b fdbc 1933 27bd
000001d0: cc52 67bd f066 973c cd38 7cbd f69b 8abb
000001e0: f1bb 473d dad2 983c ff32 3d3d 2fdf 3e3d
000001f0: c478 3d3b 4a0f 5b3a 3de9 df3c 18c9 813b
00000200: 47f7 61bd 6aed 1abd 7360 6c3d 423a f73b
00000210: 1670 3a3c 8e67 c7bc a1aa 1abd e25a 00bd
00000220: 9538 2dbd e4ab 54bd ce55 0a3d 3a78 4e3d
00000230: 09dc 1b3d 7884 6cbc 402d 033c ff5e f8bc
00000240: b101 313d 4429 2eba c26c 23bd d001 d8ba
00000250: 7e75 07bb aafc 6bbd 96f3 37bd 76d6 e5bb
00000260: a389 63bd 31c1 293c 696b a8bb 0a98 b3bc
00000270: a407 b43c 9713 e4bc 4394 423d a461 ea3b
00000280: 45ea d53c 6325 38bd 6b8e 5c3b 24bb 28bc
00000290: 457b 1c3d e430 403d 42e3 7d3d 8ac8 d0bc
000002a0: af07 a93c 6ef8 62bd 9af7 723d 4fa7 55bd
000002b0: 75ef 133c 3c85 05bc 4a56 75bc 7c8f 473d
000002c0: 9043 79bd 017a 9c3c ef98 03bd 247c 2bbd
000002d0: dbcd 2e3d 2f82 703d 426d 0bbd e4ba 493d
000002e0: 3e94 733d 7885 08bd 99d9 0fbd 9972 263d
000002f0: ba5d da3c e906 d83c 1289 baba edd4 28bd
00000300: c155 1ebc c0a7 b43c 08bf c6bc fe2e 473a
00000310: ed1c 4abd 4ff8 413d f5d0 11bd de4a de3c
00000320: fe89 0fbd 491b 21bc 6436 b93c 6785 313d
00000330: 32b8 7c3d 3dd3 0bbd ef5f 70bd d4a5 26ba
00000340: 1dca 47bd 6886 41bd b229 6f3d 5678 01bd
00000350: e033 4a3d 32da bcbc 56e4 18bd 1e76 9b3c
00000360: 3051 c9bc 5abe 85bc 597d 5b3d a9c7 d23c
00000370: 144b 2dbd 2741 36bd c3e7 823c b850 dfbb
00000380: 36db 1c3c cfac 6f3d a665 44bb f957 de3c
00000390: 2408 02bc e302 e2bc 3bc1 ab3c f37d 6a3c
000003a0: 6b2b 5c3d 3801 443d cd08 09bd e053 3dbd
000003b0: d640 483d 23db 0fbd 9426 f23c 2a2b 9fbb
000003c0: 3afd 35bd bd99 053d b839 55bd 186e 563d
000003d0: 920e ae3c c7da 0dbd ec91 d3bc afd5 633d
000003e0: f7fe 42bd 2c06 47bc c8bd 463d 53d3 54bd
000003f0: 6318 4c3d 44f6 d0bc 09bf 623d 81ba 4cbd

bias f4 [115]
-0.0065902835 0.03946698 0.03480019 -0.03447974 -0.0141442595 -0.023898588 0.026071053 -0.05629928
-0.035375256 -0.021650188 0.038871665 0.0150728095 -0.036850266 -0.027344473 0.034534134 -0.034264363
0.060280487 0.018364765 0.04000063 0.0059320093 0.021135654 0.054968268 0.009980363 -0.007833901
-0.035360124 0.04869513 0.016382838 -0.0037148963 -0.03788702 -0.027557682 0.02882966 0.04285136
0.022864286 -0.026910098 0.022936491 -0.040745262 0.028983949 -0.043021612 -0.0060518994 0.030791804
-0.055111405 -0.03896916 0.046805397 0.0013604575 -0.024415938 0.06140662 0.057969965 0.039927226
0.015216843 0.012996742 -0.045334186 0.023299599 0.032981906 0.053800482 -0.013225216 0.02604411
-0.022843996 -0.043568704 0.01076095 0.022745458 0.04414407 -0.012468263 0.010202572 0.046584528
-0.003207555 0.060564823 0.025237413 -0.051131304 0.04816823 0.021689512 -0.02389337 0.036911454
-0.017689867 0.056494392 0.003330017 0.034351405 0.04013835 0.03888413 -0.056250256 0.024674237
0.028105699 0.021354297 0.051901605 -0.04888903 0.011114572 0.031597707 0.059768062 -0.010539568
0.05890379 -0.009511107 -0.051736463 0.016426912 0.001399978 -0.025500298 -0.057907503 0.004701815
-0.058412183 0.017893659 -0.030313192 0.0017170771 0.009282302 -0.060686003 0.026146125 -0.048873067
0.012745309 0.026496442 0.032207213 -0.017714633 -0.024384813 0.0028886055 0.062386308 0.03567661
-0.04725071 -0.06164164 0.014592442
00000000: 4ef3 d7bb 21a8 213d a58a 0e3d a13a 0dbd
00000010: 53bd 67bc f9c6 c3bc f692 d53c 139a 66bd
00000020: a5e5 10bd bc5b b1bc e537 1f3d f2f3 763c
00000030: 4ef0 16bd 8401 e0bc aa73 0d3d ca58 0cbd
00000040: ace8 763d b471 963c b3d7 233d 4d61 c23b
00000050: ae24 ad3c 6826 613d ad84 233c c359 00bc
00000060: c7d5 10bd 8b74 473d 4d35 863c 9e75 73bb
00000070: 6b2f 1bbd a6c0 e1bc 2e2c ec3c e884 2f3d
00000080: e24d bb3c 9172 dcbc 4fe5 bb3c 81e4 26bd
00000090: bf6f ed3c 6e37 30bd 034f c6bb 183f fc3c
000000a0: 7fbc 61bd 209e 1fbd 04b7 3f3d 6151 b23a
000000b0: ef03 c8bc 8285 7b3d ea71 6d3d bb8a 233d
000000c0: 1150 793c 49f0 543c 57b0 39bd cdde be3c
000000d0: 0918 073d e55d 5c3d 94ae 58bc 755a d53c
000000e0: 5523 bbbc 1975 32bd b24e 303c af54 ba3c
000000f0: 6ad0 343d af47 4cbc b028 273c 6bcf 3e3d
00000100: d835 52bb d212 783d b1be ce3c 0f6f 51bd
00000110: 0d4c 453d 34ae b13c 07bc c3bc 7730 173d
00000120: 57ea 90bc aa66 673d 6a3c 5a3b 0fb4 0c3d
00000130: 1c68 243d f744 1f3d ab66 66bd a021 ca3c
00000140: ec3d e63c 35ef ae3c c796 543d dd3f 48bd
00000150: e519 363c 996c 013d 5bcf 743d 27ae 2cbc
00000160: 1a45 713d 79d4 1bbc 9de9 53bd bb91 863c
00000170: 777f b73a 00e6 d0bc 6b30 6dbd af11 9a3b
00000180: 9d41 6fbd b995 923c 5f53 f8bc 8c0f e13a
00000190: cc14 183c e391 78bd 6630 d63c 202f 48bd
000001a0: b3d1 503c 110f d93c b6eb 033d 471e 91bc
000001b0: a9c2 c7bc c24e 3d3b c988 7f3d a321 123d
000001c0: f689 41bd f27b 7cbd 2315 6f3c

weight f4 [17, 115]
0.020031441 0.057317834 0.029729998 -0.039696526 -0.020330386 -0.010822411 -0.0052045356 0.012306259
-0.04573764 -0.05362285 -0.039410777 -0.0133519415 0.026997805 0.030707518 -0.050419457 0.0055382564
0.027594313 0.0015629017 0.049129326 -0.02963562 0.022951996 -0.0022850374 0.004134831 -0.006052799
0.025807345 0.03943686 -0.058318138 -0.023418078 -0.032588065 0.00499223 0.054520484 0.017782519
-0.034190446 -0.05553404 0.037353657 0.043830343 0.0231347 -0.0035430412 0.039012104 -0.030123547
-0.011517423 -0.058072533 0.033049736 0.028834835 -0.008170911 0.03643645 -0.044398926 -0.018221438
-0.056328494 -0.031652164 -0.05804356 0.0423802 0.04601508 0.0072422787 0.043840665 0.038489446
-0.028711405 0.04941102 0.020013342 -0.041504513 0.04121101 0.026440313 0.059255246 0.047812875
-0.060375717 -0.04647861 -0.010507378 0.039098818 0.032344047 -0.027014313 0.019288667 0.0117371185
-0.040018335 -0.002206378 0.032806534 0.0065973573 0.020231213 -0.019707251 0.062029675 -0.04556877
0.031661354 0.05519437 -0.03290497 0.027222697 -0.035329476 -0.05085319 0.02243185 0.0049158935
0.018987339 -0.034158193 0.04330497 -0.04705652 0.031022932 -0.02660764 -0.019815309 0.032602206
-0.015472227 -0.029069915 -0.04877811 0.031880047 -0.06053881 -0.015421347 -0.034155834 -0.0465054
0.01771641 -0.03965275 -0.039421674 -0.0597683 -0.030363921 -0.034430314 0.013661557 0.06346263
0.038677994 -0.03489714 -0.008061037 -0.058262367 -0.053451184 0.0166636 -0.058542542 0.044385154
0.02023693 -0.050349146 -0.023886347 0.042648297 0.010800173 -0.00266916 0.034198638 0.028858844
-0.026407478 -0.04364356 0.03798924 -0.049751163 -0.020807434 0.026615044 0.05813524 -0.02701939
0.05806404 -0.009806597 -0.010100969 0.047714613 -0.0073442585 -0.046300333 0.034613945 0.032208186
-0.05558202 0.011750767 -0.015511999 -0.0009176728 0.004876225 0.014228173 -0.015978405 -0.048606798
0.027537487 0.06083995 0.0640277 -0.012999148 0.055145882 0.053257428 -0.017181484 0.0031053696
-0.049151763 -0.0055402173 0.018184526 0.04597125 0.04884062 0.02798441 -0.03798052 -0.0417816
0.019766541 0.016074723 0.030033125 0.04313819 0.059835684 -0.002953117 0.036078863 0.023298273
-0.032701105 -0.04930509 0.063161515 0.04022671 -0.053980675 0.05258795 0.015470789 -0.031175915
0.04046517 0.03361599 -0.047889963 -0.011509449 -0.05121232 0.041600555 -0.028569028 0.038682815
0.014075428 0.031968553 -0.0449886 0.0073435702 0.023354692 0.0071388907 -0.015607813 0.022808384
0.016608963 -0.027638072 0.05429053 0.03676667 -0.015374087 -0.0066759996 0.018243361 0.020633131
-0.01056957 -0.04588274 -0.03861021 0.03212598 -0.02462957 0.05418469 -0.025325475 0.03768656
0.06287885 0.039058983 -0.02151682 0.0075946627 -0.04721715 -0.024449615 0.06048393 -0.0526284
0.027899027 0.05986051 -0.030804614 0.057440594 -0.051062282 -0.053756993 0.027001724 0.006477445
-0.0052744164 0.018184049 0.034715198 0.041289147 0.057272285 0.0181265 -0.057582192 0.0010920091
-0.055699397 -0.059982188 0.039199077 0.019053731 -0.02786545 -0.029178243 -0.055027466 -0.0044092783
0.05141151 0.040632874 0.002974412 0.03855515 -0.04268574 0.0076213437 0.04230289 0.005898005
00000000: fa18 a43c 1bc6 6a3d 538c f33c d398 22bd
00000010: e98b a6bc 7b50 31bc cf8a aabb 31a0 493c
00000020: 6457 3bbd a2a3 5bbd 326d 21bd 1ac2 5abc
00000030: 802a dd3c 558e fb3c a284 4ebd 437a b53b
00000040: 780d e23c 47da cc3a d53b 493d 66c6 f2bc
00000050: d305 bc3c 91c0 15bb 7a7d 873b 8f56 c6bb
00000060: ed69 d33c 8b88 213d 00df 6ebd 45d7 bfbc
00000070: 107b 05bd dc95 a33b df50 5f3d a5ac 913c
00000080: 480b 0cbd a977 63bd 2600 193d 7287 333d
00000090: fb84 bd3c 5e32 68bb 28cb 1f3d a8c5 f6bc
000000a0: 93b3 3cbc 77dd 6dbd 295f 073d 0837 ec3c
000000b0: 49df 05bc 633e 153d a6db 35bd 2045 95bc
000000c0: b5b8 66bd b3a5 01bd 15bf 6dbd dc96 2d3d
000000d0: 4f7a 3c3d a350 ed3b 4592 333d 1ca7 1d3d
000000e0: 2e34 ebbc 3663 4a3d 05f3 a33c a300 2abd
000000f0: e0cc 283d 5b99 d83c a1b5 723d 6fd7 433d
00000100: 874c 77bd 5b60 3ebd 2327 2cbc 1526 203d
00000110: 317b 043d 1f4d ddbc 4403 9e3c 0b4d 403c
00000120: 44ea 23bd e198 10bb 2560 063d a52e d83b
00000130: eebb a53c 1a71 a1bc d412 7e3d 52a6 3abd
00000140: 56af 013d 7e13 623d 5dc7 06bd 2202 df3c
00000150: a4b5 10bd 6f4b 50bd 00c3 b73c 8115 a13b
00000160: 568b 9b3c 76e9 0bbd 8d60 313d 56be 40bd
00000170: ce23 fe3c 44f8 d9bc b753 a2bc e489 053d
00000180: 397f 7dbc 0824 eebc 8ecb 47bd a794 023d
00000190: 8bf7 77bd d1a9 7cbc fde6 0bbd 727c 3ebd
000001a0: 0122 913c ec6a 22bd 9f78 21bd 9bcf 74bd
000001b0: c2bd f8bc cd06 0dbd b9d4 5f3c b2f8 813d
000001c0: d16c 1e3d 4ef0 0ebd 7112 04bc 85a4 6ebd
000001d0: a1ef 5abd 1a82 883c 4eca 6fbd 35cd 353d
000001e0: ebc7 a53c e83a 4ebd 4dad c3bc fbaf 2e3d
000001f0: 35f3 303c 13ed 2ebb df13 0c3d 6269 ec3c
00000200: 7f54 d8bc 97c3 32bd 9b9a 1b3d e0c7 4bbd
00000210: 5a74 aabc cb07 da3c 381f 6e3d c557 ddbc
00000220: 8fd4 6d3d d9ab 20bc 897e 25bc 6670 433d
00000230: 1ba8 f0bb 6ba5 3dbd 5ac7 0d3d bbec 033d
00000240: f9a9 63bd 4a86 403c 0a26 7ebc fb8f 70ba
00000250: bdc8 9f3b 481d 693c 25e5 82bc ec17 47bd
00000260: 4c96 e13c 5033 793d f420 833d 61fa 54bc
00000270: a6e0 613d 7624 5a3d 2fc0 8cbc 7583 4b3b
00000280: 5c53 49bd b68a b5bb b7f7 943c 594c 3c3d
00000290: 1a0d 483d 903f e53c 7691 1bbd 2f23 2bbd
000002a0: 71ed a13c 23af 833c 0708 f63c acb1 303d
000002b0: 4316 753d 1589 41bb 6ec7 133d 05dc be3c
000002c0: 98f1 05bd 22f4 49bd d35a 813d c3c4 243d
000002d0: d71a 5dbd 7666 573d 3179 7d3c a264 ffbc
000002e0: cebe 253d ecb0 093d 4428 44bd 2192 3cbc
000002f0: 02c4 51bd 5865 2a3d 9809 eabc df71 1e3d
00000300: a09c 663c 75f1 023d f745 38bd 55a2 f03b
00000310: 5752 bf3c 5bed e93b eab7 7fbc a6d8 ba3c
00000320: 850f 883c 3d69 e2bc bf5f 5e3d a698 163d
00000330: 98e3 7bbc 58c2 dabb 1a73 953c d006 a93c
00000340: fd2b 2dbc 8aef 3bbd bd25 1ebd 8896 033d
00000350: f4c3 c9bc c4f0 5d3d 5f77 cfbc 395d 1a3d
00000360: a0c6 803d 50fc 1f3d 0b44 b0bc a6dc f83b
00000370: c566 41bd 8f4a c8bc ffbd 773d e190 57bd
00000380: 808c e43c 4b30 753d f559 fcbc d446 6b3d
00000390: af26 51bd 4b30 5cbd b832 dd3c bf40 d43b
000003a0: 03d5 acbb b7f6 943c 8631 0e3d cf1e 293d
000003b0: 5896 6a3d 077e 943c 4edb 6bbd bf21 8f3a
000003c0: 0d25 64bd e2af 75bd 368f 203d 9216 9c3c
000003d0: 1646 e4bc 3607 efbc 7b64 61bd b57b 90bb
000003e0: e094 523d a86e 263d 5aee 423b 01ec 1d3d
000003f0: 3ed7 2ebd 77bc f93b cc45 2d3d 0d44 c13b

bias f4 [17]
-0.015714493 -0.04299675 -0.0062178145 0.048577186 0.025997212 0.022389563 0.041630898 -0.037294235
0.017153999 0.013538777 0.04573371 -0.03023874 -0.042189296 -0.049410034 -0.0008831494 -0.009910086
-0.05513747
00000000: aebb 80bc 5c1d 30bd cfbe cbbb dff8 463d
00000010: 1bf8 d43c 516a b73c 2985 2a3d d7c1 18bd
00000020: 8b86 8c3c bfd1 5d3c 4553 3b3d 3cb7 f7bc
00000030: afce 2cbd 2d62 4abd 2783 67ba ea5d 22bc
00000040: d4d7 61bd

weight f4 [256, 376]
0.16857275 0.103348814 0.07943872 0.182889 0.03152284 0.11952475 -0.09807816 0.10556527
0.049390953 0.12934218 -0.08433855 -0.09310458 -0.094701976 0.015735637 0.08324031 -0.084429875
-0.052688606 -0.09623277 0.16130356 -0.16774349 0.15630269 0.06750148 0.23732564 -0.26588622
0.57255495 -0.07328509 0.4179549 0.01734141 -0.21391444 0.07386695 -0.18611485 0.0947376
-0.07188476 0.15803668 -0.017423624 0.21140413 -0.12161027 -0.05668503 0.17052718 0.0774554
-0.05310532 -0.08220736 -0.037330974 -0.07324653 -0.10191485 -0.028100861 0.045455657 -0.004913909
-0.03209729 0.004381612 0.010082802 -0.0344829 -0.0004051982 -0.0048156125 -0.025503805 0.08484487
0.08724399 0.10334053 -0.08272423 0.25117332 -0.33612645 -0.123009 0.013016729 0.45856735
0.073650874 0.081265666 0.05587249 0.07185792 0.022833664 0.018590631 0.21425991 0.0017260789
0.21316206 -0.05473894 0.12250495 0.05109396 0.08314172 0.026035534 -0.09833398 0.23308262
-0.041211452 0.08526611 0.061651733 -0.24559481 0.12139591 0.09430868 0.11772672 0.00011740366
0.15443066 -0.15456356 -0.158522 0.08679547 0.022782974 -0.25397715 0.06881412 0.016305815
0.008369519 0.09774053 0.03381786 -0.2344857 -0.14029098 -0.027132487 -0.09547973 -0.2268468
0.12645543 -0.025563115 0.06285492 0.10060052 -0.039682128 -0.19028907 -0.1680786 -0.030687343
-0.015568779 -0.16240399 0.06992418 0.04846154 -0.020237152 0.110609174 0.036610704 0.2545778
-0.094703905 0.044712227 0.010780884 -0.2579118 0.09137499 0.09732643 0.067602545 0.13854131
0.0696152 0.26434553 -0.18330586 0.046430662 0.021420345 -0.3536742 0.10240868 0.15893625
0.07727732 0.06099735 0.043478765 0.083349764 -0.0011205686 0.015379771 0.035528753 -0.108183764
0.12969393 0.07390662 0.08520275 0.03477046 -0.101552054 0.30555415 -0.08721866 -0.071179286
-0.13392226 0.32120514 0.08418001 0.05562392 0.04115797 -0.022921847 -0.14164606 0.15197623
-0.055645436 -0.057950065 -0.14743565 0.2704474 0.0963526 0.08053452 0.14538656 0.13939726
0.018501073 -0.25893328 -0.19880901 -0.18151926 0.018055676 0.2474376 0.11310894 0.056357346
0.08030155 0.1155449 0.041246675 -0.3708753 -0.07553504 -0.14289325 0.08032863 0.05892199
0.09228548 -0.009794091 -0.04597258 0.04539011 0.003201902 -0.039277352 -0.001080215 0.40703136
0.08056326 0.11808646 0.19689637 -0.13736932 0.43167543 0.31706882 0.047372393 0.034798183
0.22308199 -0.13051666 0.37561214 0.27634662 0.07373163 0.0028662023 0.25345445 -0.15082335
0.3316879 0.18867584 0.12476012 0.11181177 0.14705499 -0.16237496 0.3374745 0.21318704
0.15087567 0.066243306 -0.09351312 -0.1447673 -0.3027219 0.1398311 0.13500501 0.08916301
-0.06589014 -0.1424234 -0.2992257 0.09560812 -0.11625537 0.014649607 0.20537722 -0.20196736
0.11892796 0.06930683 -0.115034774 -0.070487335 0.1402869 -0.09520591 -0.050168112 0.1397174
-0.12467237 -0.020107526 0.13439022 -0.07434775 -0.10444966 0.377985 0.05804456 0.02503629
0.13975263 -0.059831254 0.25181141 0.33339712 0.032027792 0.035167005 0.00026709255 -0.07287387
00000000: 569e 2c3e 8ba8 d33d c5b0 a23d 4147 3b3e
00000010: 181e 013d 64c9 f43d 34dd c8bd 9b32 d83d
00000020: 2b4e 4a3d 4772 043e b1b9 acbd 9dad bebd
00000030: 1cf3 c1bd 06e8 803c e579 aa3d 92e9 acbd
00000040: 02d0 57bd b015 c5bd c32c 253e f3c4 2bbe
00000050: d00d 203e 373e 8a3d 7e05 733e 3d22 88be
00000060: f692 123f 7e16 96bd 2ffe d53e 930f 8e3c
00000070: 630c 5bbe 8e47 973d e494 3ebe c905 c23d
00000080: 5138 93bd 5ed4 213e fdbb 8ebc 537a 583e
00000090: ce0e f9bd 902e 68bd ad9e 2e3e f0a0 9e3d
000000a0: f784 59bd 555c a8bd 5de8 18bd 4702 96bd
000000b0: bcb8 d0bd c733 e6bc b62f 3a3d db04 a1bb
000000c0: 7378 03bd a093 8f3b 5632 253c f13d 0dbd
000000d0: c870 d4b9 49cc 9dbb 5bed d0bc 26c3 ad3d
000000e0: faac b23d 33a4 d33d 526b a9bd ca99 803e
000000f0: c418 acbe 25ec fbbd 1e44 553c 57c9 ea3e
00000100: 45d6 963d 9d6e a63d 8dda 643d 3f2a 933d
00000110: aa0d bb3c 614b 983c f366 5b3e 993d e23a
00000120: 2847 5a3e f035 60bd e0e3 fa3d e647 513d
00000130: 3546 aa3d 7948 d53c 5363 c9bd 36ad 6e3e
00000140: 57cd 28bd 00a0 ae3d 8786 7c3d 357d 7bbe
00000150: 6b9e f83d e924 c13d b51a f13d 9c36 f638
00000160: 1223 1e3e e945 1ebe 9753 22be d3c1 b13d
00000170: 5ca3 ba3c 4b09 82be 6bee 8c3d c693 853c
00000180: 4f20 093c 302c c83d 9984 0a3d 051d 70be
00000190: 70a8 0fbe f344 debc e08a c3bd 874a 68be
000001a0: 887d 013e bd69 d1bc 15ba 803d a507 ce3d
000001b0: ba89 22bd 23db 42be cc1c 2cbe 0664 fbbc
000001c0: 3114 7fbc 3b4d 26be 6934 8f3d 9c7f 463d
000001d0: 62c8 a5bc 1087 e23d 1bf5 153d 0558 823e
000001e0: 1ff4 c1bd 2b24 373d 4ea2 303c 040d 84be
000001f0: d022 bb3d 1453 c73d 3473 8a3d c6dd 0d3e
00000200: 6a92 8e3d 4c58 873e 88b4 3bbe 142e 3e3d
00000210: b879 af3c c914 b5be a4bb d13d 2fc0 223e
00000220: 9243 9e3d 5bd8 793d ca16 323d 48b3 aa3d
00000230: 0be0 92ba 6ffb 7b3c 9986 113d 738f ddbd
00000240: 7cce 043e 5b5c 973d c87e ae3d 786b 0e3d
00000250: 86fa cfbd 9871 9c3e b29f b2bd 72c6 91bd
00000260: eb22 09be 0075 a43e 9266 ac3d e8d5 633d
00000270: 4295 283d 99c6 bbbc aa0b 11be a89f 1b3e
00000280: 78ec 63bd 0c5d 6dbd 5ff9 16be 1578 8a3e
00000290: 8354 c53d 48ef a43d 37e0 143e 28be 0e3e
000002a0: 908f 973c e792 84be 9794 4bbe 2fe0 39be
000002b0: 7fe9 933c 4860 7d3e a9a5 e73d f6d6 663d
000002c0: 2475 a43d cea2 ec3d 46f2 283d 5ee3 bdbe
000002d0: 1db2 9abd 9c52 12be 5683 a43d 2f58 713d
000002e0: 2b00 bd3d 6577 20bc be4d 3cbd fbea 393d
000002f0: 00d7 513b 4ae1 20bd 0096 8dba 6a66 d03e
00000300: 5afe a43d 50d7 f13d 349f 493e 8baa 0cbe
00000310: 9004 dd3e d856 a23e 8e09 423d 8a88 0e3d
00000320: 9b6f 643e 29a6 05be 3c50 c03e 4e7d 8d3e
00000330: 9c00 973d e5d6 3b3b c8c4 813e 7071 1abe
00000340: ffd2 a93e 3d34 413e 3c82 ff3d 92fd e43d
00000350: 9595 163e 9f45 26be 75c9 ac3e b44d 5a3e
00000360: 277f 1a3e 92aa 873d cf83 bfbd e13d 14be
00000370: 5dfe 9abe e22f 0f3e c13e 0a3e 199b b63d
00000380: 69f1 86bd 71d7 11be 1c34 99be 31ce c33d
00000390: 4c17 eebd e804 703c 684e 523e 88d0 4ebe
000003a0: 8190 f33d bdf0 8d3d 5a97 ebbd aa5b 90bd
000003b0: 5ea7 0f3e 51fb c2bd 147d 4dbd 1412 0f3e
000003c0: 3a54 ffbd 8ab8 a4bc 979d 093e a243 98bd
000003d0: b4e9 d5bd 4087 c13e 22c0 6d3d e818 cd3c
000003e0: 501b 0f3e 9e11 75bd 6ded 803e 07b3 aa3e
000003f0: 932f 033d 470b 103d 8e08 8c39 e53e 95bd

bias f4 [256]
0.02850448 0.06919316 0.09850986 0.08839272 0.12189161 0.08883404 0.06975122 0.119249016
0.06857592 0.10751426 0.11445545 0.09396091 0.14070176 0.0795935 0.098145545 0.14952095
0.077071555 0.093509205 0.071573004 0.04635037 0.1120469 0.10847867 0.12501341 0.039392866
0.12040128 0.09254239 0.13374041 0.11725609 0.0798017 0.03648617 0.03911715 0.064244896
0.0696586 0.060525555 0.14806916 0.14290717 0.10815278 0.07087592 0.11680047 0.14248326
0.09949476 0.054840483 0.06269697 0.1291697 0.00912917 0.05247273 0.09757338 0.101983994
0.09454586 0.07310357 0.03896996 0.07473629 0.09195896 0.08962985 0.048975036 0.07927989
0.12022998 0.034781188 0.10396326 0.10266627 0.0326191 0.07279659 0.20065716 0.116380386
0.12769078 0.083751224 0.09624235 0.06819125 0.04544717 0.03841122 0.071524225 0.11094333
0.06520428 0.019851342 0.05843918 0.09701541 0.13339771 0.07966012 0.115600675 0.07107163
0.05963443 0.1357453 0.061208677 0.039987992 0.05479774 0.12546456 0.08649849 0.053161256
0.080636196 0.035537302 0.1293046 0.10235336 0.064752884 0.08183476 0.11821604 0.11414757
0.12977752 0.10490101 0.1341393 0.10548888 0.14414963 0.081829645 0.100317836 0.08658246
0.12921976 0.13031161 0.098740585 0.053568695 0.06097836 0.124959536 0.14413957 0.10633634
0.11081666 0.10967778 0.09499569 0.07623598 0.114161424 0.05015986 0.05715834 0.048142686
0.065106355 0.058303155 0.04970714 0.17190932 0.15215601 0.07971424 0.08777594 0.09521448
0.1094996 0.048716843 0.08891903 0.11644795 0.10562951 0.13808972 0.034591153 0.10131349
0.1251954 0.10729546 0.08710523 0.10623751 0.11527226 0.112181455 0.08850976 0.12078076
0.13031006 0.13900757 0.10474558 0.12575115 0.13434552 0.08155749 0.047861997 0.12895612
0.06770067 0.044625375 0.030397236 0.088169366 0.08228912 0.04408137 0.08822677 0.016007103
0.042238362 0.08447838 0.11179035 0.08796081 0.059633482 0.1413412 0.14991711 0.10166598
0.09306215 0.037764546 0.052228127 0.07209707 0.1304004 0.12881556 0.079313405 0.07314581
0.09886121 0.04728444 0.14783955 0.13571955 0.071854636 0.12142929 0.070121124 0.06638093
0.13257001 0.114741534 0.06603271 0.11364687 0.14574464 0.10146398 0.094870396 0.07424567
0.114265144 0.0642921 0.09863912 0.052631155 0.13387252 0.044301532 0.08616697 0.09042983
0.06477626 0.13241415 0.12403224 0.10724856 0.15862723 0.06314595 0.090253696 0.06506545
0.06467165 0.12855788 0.10494149 0.12284678 0.08639417 0.0463299 0.056911 0.12744272
0.11946778 0.06585898 0.078238025 0.09717488 0.042706784 0.11394916 0.11712988 0.13739835
0.12238091 0.06333818 0.070735104 0.090987235 0.06746952 0.07645958 0.051469743 0.12475906
0.054094035 0.08271162 0.07109438 0.0801615 0.1351889 0.030163016 0.090816185 0.1038071
0.043663952 0.11446327 0.10585149 0.10201741 0.0631178 0.12600686 0.12810084 0.12012945
0.07066073 0.0051460234 0.1021063 0.087103635 0.07878283 0.090784475 0.015646754 0.13296966
00000000: 3a82 e93c 25b5 8d3d 8abf c93d 3e07 b53d
00000010: 4fa2 f93d 9fee b53d bad9 8e3d d438 f43d
00000020: 8871 8c3d 7030 dc3d 9e67 ea3d 946e c03d
00000030: 1f14 103e eb01 a33d 8800 c93d 051c 193e
00000040: b1d7 9d3d c181 bf3d de94 923d e3d9 3d3d
00000050: d878 e53d 112a de3d 8403 003e 6a5a 213d
00000060: f294 f63d dd86 bd3d 3ff3 083e f623 f03d
00000070: 136f a33d 8672 153d 4e39 203d d492 833d
00000080: 2ba9 8e3d a5e9 773d 719f 173e 4256 123e
00000090: 347f dd3d 6527 913d 1635 ef3d 22e7 113e
000000a0: e9c3 cb3d 6aa0 603d 4567 803d 1045 043e
000000b0: 8492 153c a5ed 563d 8dd4 c73d fcdc d03d
000000c0: 43a1 c13d 53b7 953d f79e 1f3d 570f 993d
000000d0: fb54 bc3d db8f b73d 0c9a 483d 7f5d a23d
000000e0: 233b f63d b876 0e3d b1ea d43d b242 d23d
000000f0: 9b9b 053d 6116 953d 1279 4d3e d758 ee3d
00000100: 5fc1 023e c385 ab3d b61a c53d dba7 8b3d
00000110: d026 3a3d 1555 1d3d 4b7b 923d 4236 e33d
00000120: d289 853d 489f a23c ec5d 6f3d 04b0 c63d
00000130: 6999 083e d824 a33d 0cc0 ec3d 018e 913d
00000140: 3b43 743d d100 0b3e f3b5 7a3d 73ca 233d
00000150: 9873 603d c879 003e 1f26 b13d 9ebf 593d
00000160: 9724 a53d 908f 113d 6d68 043e a39e d13d
00000170: 299d 843d fc98 a73d 401b f23d 34c6 e93d
00000180: 66e4 043e 57d6 d63d d05b 093e 8e0a d83d
00000190: f69b 133e 4d96 a73d 7073 cd3d 2552 b13d
000001a0: 2f52 043e 6870 053e 8138 ca3d d96a 5b3d
000001b0: 72c4 793d c9ea ff3d 5399 133e dec6 d93d
000001c0: d8f3 e23d be9e e03d 1a8d c23d 9c21 9c3d
000001d0: 77cd e93d 6d74 4d3d dd1e 6a3d 4431 453d
000001e0: 7b56 853d 4acf 6e3d b799 4b3d ff08 303e
000001f0: c9ce 1b3e 3841 a33d dfc3 b33d cfff c23d
00000200: 5441 e03d 508b 473d 2e1b b63d 437c ee3d
00000210: 4954 d83d 6467 0d3e 74af 0d3d 727d cf3d
00000220: 3933 003e b9bd db3d 3a64 b23d 0d93 d93d
00000230: dd13 ec3d 64bf e53d 9b44 b53d e75b f73d
00000240: 0070 053e 0058 0e3e da84 d63d e9c4 003e
00000250: df91 093e 9d07 a73d f10a 443d 130d 043e
00000260: a6a6 8a3d 19c9 363d a003 f93c 2492 b43d
00000270: 3387 a83d ab8e 343d 3db0 b43d 5421 833c
00000280: 2202 2d3d 0003 ad3d 57f2 e43d cc24 b43d
00000290: 3d42 743d bfbb 103e df83 193e 4136 d03d
000002a0: 5e97 be3d ffae 1a3d 29ed 553d a1a7 933d
000002b0: af87 053e 3ae8 033e 116f a23d 78cd 953d
000002c0: bf77 ca3d 54ad 413d 4063 173e 11fa 0a3e
000002d0: 8628 933d ebaf f83d aa9b 8f3d baf2 873d
000002e0: 6fc0 073e 9cfd ea3d 283c 873d b1bf e83d
000002f0: 153e 153e 59cc cf3d 694b c23d 1d0e 983d
00000300: d803 ea3d 94ab 833d 4f03 ca3d c493 573d
00000310: e115 093e 8675 353d 4f78 b03d 4633 b93d
00000320: 6aa9 843d 9397 073e 9d04 fe3d 22a5 db3d
00000330: 2d6f 223e aa52 813d eed6 b83d 0941 853d
00000340: 9272 843d ada4 033e 90eb d63d 1897 fb3d
00000350: 6def b03d 6cc4 3d3d 821b 693d 5880 023e
00000360: 86ab f43d 13e1 863d 423b a03d a003 c73d
00000370: 4fed 2e3d 2d5e e93d cae1 ef3d 27b2 0c3e
00000380: d8a2 fa3d 73b7 813d 91dd 903d 8457 ba3d
00000390: 762d 8a3d d796 9c3d f0d1 523d ae81 ff3d
000003a0: b591 5d3d b664 a93d ee99 913d b62b a43d
000003b0: f66e 0a3e 6e18 f73c d6fd b93d d198 d43d
000003c0: f9d8 323d b86b ea3d aac8 d83d 81ee d03d
000003d0: e843 813d f107 013e de2c 033e 6e06 f63d
000003e0: 93b6 903d f99f a83b 1c1d d13d 6463 b23d
000003f0: e458 a13d 36ed b93d 9f2d 803c 3329 083e

weight f4 [256, 256]
0.035660118 0.0026417351 -0.044120923 -0.056768786 -0.05445546 -0.044653356 -0.027778175 0.012795078
-0.07174618 -0.07037095 0.014713643 -0.03422411 -0.061860565 0.025680752 -0.05345183 0.037691675
-0.051504795 0.0054156184 0.051055726 -0.029442204 -0.021637432 0.018351004 -0.06154915 -0.058079947
-0.0639801 0.009540989 -0.027065331 -0.0017063373 -0.06477979 -0.021709047 -0.011008016 -0.032237045
-0.06913739 -0.011941681 0.00645401 -0.04009858 -0.056184314 0.034279563 0.028350638 0.015033722
0.020932743 0.032556262 0.011474727 -0.06092529 0.048573226 -0.039221935 -0.0036939192 -0.003575573
-0.0002289184 -0.026258681 0.0019309964 -0.05427607 -0.057677988 0.045807563 -0.06937369 -0.060979724
-0.040320065 -0.018583698 -0.067214236 0.008172943 -0.03957633 0.027177442 -0.032747358 0.039638095
-0.03788681 0.04333825 0.02154525 -0.05596896 0.024953155 -0.056658216 0.03502473 0.02897347
-0.030568972 -0.00609849 -0.043806843 0.039275333 0.050335728 -0.04719286 -0.020732597 0.00033761412
-0.06105829 -0.031066503 0.004666306 0.035081964 -0.034229882 0.05028443 0.018842494 -0.06426868
0.0016429712 -0.035706975 -0.019186132 -0.047033414 -0.0122849485 -0.024199804 0.030841442 -0.062513076
0.04640718 0.0016444292 0.025504023 -0.030356979 0.022550838 -0.02064264 -0.06614117 -0.035333637
-0.028193451 0.025302285 -0.009439239 0.04754405 -0.045809384 -0.06798102 -0.063646 0.0034352671
0.037002794 -0.026012657 0.027311727 -0.01993889 0.048832525 0.031881113 0.011299515 -0.05048496
0.00835866 -0.047032636 0.05082289 0.013433513 0.0097326785 0.043258026 -0.02340414 -0.021855183
0.022822585 0.01316751 0.010329104 -0.033952482 0.0030962448 -0.07118662 0.005841272 0.05147441
-0.031107767 -0.055639096 -0.0057586045 0.013161429 0.034277827 -0.060495514 0.019831555 -0.017393788
-0.013903398 -0.024367096 -0.0013241546 -0.053971563 0.050376788 -0.0007048565 -0.041641816 -0.0070243333
-0.036810286 0.0459265 0.03321016 0.026281275 -0.054961227 -0.039612517 0.021014845 0.017834004
-0.037233684 -0.06295714 -0.019406434 -7.907797e-05 -0.06607464 -0.0033275425 -0.0010706673 -0.02795758
0.043407515 0.03229146 0.05111381 -0.0044905706 -0.0006529096 -0.00056832156 0.002864038 -0.03842435
0.03019346 0.017663684 -0.010474273 0.008383803 -0.02297731 -0.023998935 0.051487688 0.033059504
-0.030043863 0.031511076 -0.02594051 0.036405407 -0.0116511015 -0.0067488537 -0.041179765 0.034998287
0.010733285 -0.009775043 0.028604249 -0.00796014 -0.024176184 -0.013613537 0.013440414 -0.05141121
-0.053993475 -0.039068963 0.0015153037 0.0139482105 -0.02802752 0.048859663 0.000690888 0.027379379
0.036089573 -0.050809734 -0.05402779 0.010391687 -0.04522746 -0.017521316 -0.008627057 0.052096136
-0.04500473 -0.018235575 -0.057079934 0.0443537 -0.008427598 -0.0494667 0.043343443 -0.0616273
0.0056616827 0.013859435 -0.035806417 -0.048693743 -0.04738513 -0.0055954102 -0.011649413 0.03913328
0.018040061 -0.06664568 -0.031116836 0.035359785 0.03941539 -0.029945856 -0.0038538836 0.03573988
0.0046744575 0.043316025 -0.07173628 -0.0041493387 0.037971172 0.033422053 -0.056269698 0.026600303
-0.0017797449 -0.0047144997 -0.06960804 -0.041293126 -0.050728884 -0.016743107 0.019920468 0.048885114
00000000: 5810 123d f620 2d3b 24b8 34bd 6386 68bd
00000010: b00c 5fbd 70e6 36bd 0e8f e3bc 72a2 513c
00000020: a9ef 92bd a51e 90bd 7e11 713c 952e 0cbd
00000030: 8161 7dbd 7160 d23c 4ef0 5abd 9662 1a3d
00000040: b1f6 52bd 8075 b13b cf1f 513d c730 f1bc
00000050: fc40 b1bc d854 963c f61a 7cbd 3de5 6dbd
00000060: 0008 83bd cf51 1c3c 1db8 ddbc 2ea7 dfba
00000070: 44ab 84bd 2cd7 b1bc f75a 34bc fe0a 04bd
00000080: e797 8dbd 0aa7 43bc 297c d33b 693e 24bd
00000090: 8621 66bd ba68 0c3d 993f e83c 0050 763c
000000a0: 257b ab3c b759 053d 7e00 3c3c cc8c 79bd
000000b0: b8f4 463d 2ea7 20bd ae15 72bb 2954 6abb
000000c0: d109 70b9 721c d7bc 7d19 fd3a 9650 5ebd
000000d0: c13f 6cbd b6a0 3b3d cb13 8ebd e0c5 79bd
000000e0: a726 25bd d73c 98bc 9ea7 89bd cfe7 053c
000000f0: ca1a 22bd 3aa3 de3c 1822 06bd 8e5b 223d
00000100: 332f 1bbd 7383 313d aa7f b03c b53f 65bd
00000110: 8f6a cc3c 7212 68bd 1776 0f3d c559 ed3c
00000120: c86b fabc d8d5 c7bb ce6e 33bd 2cdf 203d
00000130: d62c 4e3d 4d4d 41bd 68d7 a9bc cd01 b139
00000140: 4218 7abd 2e7f febc d0e7 983b 1bb2 0f3d
00000150: a234 0cbd 0cf7 4d3d 935b 9a3c 4c9f 83bd
00000160: f758 d73a 7a41 12bd 3c2c 9dbc 1ca6 40bd
00000170: cf46 49bc ab3e c6bc 31a7 fc3c db06 80bd
00000180: 7515 3e3d e389 d73a d0ed d03c 33af f8bc
00000190: 89bc b83c c11a a9bc 0675 87bd 01ba 10bd
000001a0: f4f5 e6bc bd46 cf3c 0aa7 1abc 8dbd 423d
000001b0: 9fa2 3bbd a239 8bbd d658 82bd 3822 613b
000001c0: 3e90 173d 7f18 d5bc d8bc df3c e256 a3bc
000001d0: 9d04 483d c595 023d 9a21 393c 51c9 4ebd
000001e0: c3f2 083c 4ba5 40bd aa2b 503d 3d18 5c3c
000001f0: d075 1f3c 542f 313d 0aba bfbc a409 b3bc
00000200: 6ef6 ba3c 8abc 573c 673b 293c c211 0bbd
00000210: 5eea 4a3b 4aca 91bd 2468 bf3b d5d6 523d
00000220: b7d5 febc d2e5 63bd adb2 bcbb 09a3 573c
00000230: e866 0c3d 25ca 77bd c975 a23c 6b7d 8ebc
00000240: 14cb 63bc 819d c7bc 418f adba 4911 5dbd
00000250: e457 4e3d 1ec6 38ba 9c90 2abd 612c e6bb
00000260: 62c6 16bd 6d1d 3c3d 6007 083d d44b d73c
00000270: 061f 61bd bc40 22bd 5327 ac3c 9e18 923c
00000280: 5982 18bd acef 80bd 3efa 9ebc a9d6 a5b8
00000290: 2452 87bd e612 5abb a255 8cba 4b07 e5bc
000002a0: 14cc 313d 0d44 043d b75c 513d a325 93bb
000002b0: 0628 2bba 6afb 14ba 96b2 3b3b da62 1dbd
000002c0: 4658 f73c 6eb3 903c 499c 2bbc 385c 093c
000002d0: e93a bcbc 6a99 c4bc c1e4 523d 6769 073d
000002e0: 8c1e f6bc c211 013d 3181 d4bc d61d 153d
000002f0: 43e4 3ebc 7d25 ddbb 1dac 28bd 5d5a 0f3d
00000300: a9da 2f3c 8127 20bc 7553 ea3c 3f6b 02bc
00000310: 220d c6bc 500b 5fbc 2f35 5c3c 9094 52bd
00000320: 4328 5dbd c706 20bd 289d c63a 0987 643c
00000330: f899 e5bc 1221 483d b51c 353a b84a e03c
00000340: a9d2 133d de1d 50bd 3e4c 5dbd e541 2a3c
00000350: 6e40 39bd dd88 8fbc 8058 0dbc c262 553d
00000360: e156 38bd c662 95bc a6cc 69bd 3aac 353d
00000370: e813 0abc 989d 4abd e588 313d e86c 7cbd
00000380: a385 b93b af12 633c c0a9 12bd 1773 47bd
00000390: e916 42bd b459 b7bb 2edd 3ebc 384a 203d
000003a0: c0c8 933c 887d 88bd bce8 febc 6cd5 103d
000003b0: 0872 213d 0351 f5bc 7091 7cbb fb63 123d
000003c0: 312c 993b 256c 313d 79ea 92bd 2df7 87bb
000003d0: a987 1b3d 90e5 083d 0e7b 66bd e1e8 d93c
000003e0: 5446 e9ba 177c 9abb a98e 8ebd fb22 29bd
000003f0: 17c9 4fbd d728 89bc 4030 a33c c23b 483d
