TRPO/models/pruning/TRPO-Ant-0.45-l1.onnx (onnx, 30837 bytes, 6 tensors)

actor.l1.weight f4 [70, 27]
00000000: f88d cb3d 97a2 46be cc48 f93d 9caf 5a3d
00000010: c4bd 3e3e 8ec2 083e e5ab 37be a616 50be
00000020: 96fb a5bd 2bf5 223e 3b65 0abd f42a 993d
00000030: 43ff d0bd 5e21 363e 08f5 d8bd e1d6 1a3e
00000040: 913e 973b 096e 9ebd 9ddb 8c3d 5014 39bd
00000050: 42cf 973b 9ad3 43bd 489e 7bbc ed82 28be
00000060: 5711 abbd be25 113e ce86 a7bd b58e 3a3e
00000070: e221 1b3e 4109 4abc c4c9 0dbe 9583 0f3e
00000080: 8866 753d 7cce e3bd c2e2 f03d 3e5c 0d3e
00000090: a9e6 383e 3838 d1bd 339d febc 9410 ecbb
000000a0: f6c2 053d a6ad 1fbe d011 04be 2ac7 023e
000000b0: 9652 82bd 05c4 fe3d e25c 36bd 9456 dfbc
000000c0: 8d89 33bd 7e34 d43c 37d4 833d 085e 50be
000000d0: 5145 023d fdb1 0ebe a0ed 153e 000f 793d
000000e0: d4a5 7d3d 900e 1d3e f62b 433e b5d6 08be
000000f0: 43f1 1f3d 9e22 103e 0898 003e da14 013e
00000100: fb69 21be 42a0 1abe f455 e2bd e10d a43b
00000110: 2790 453e 151c eebd 914f c63d 4e82 d8bd
00000120: 5f8d 1bbe 6272 94bd bc7e 263e 815b 5f3e
00000130: 9672 93bd 45e6 5d3b ef5a 9c3d c75a 3a3e
00000140: 8ef2 563c 5901 0b3e 1bcb 203e d4bb 403d
00000150: 5857 1bbe 7a8b 54be 3356 8dbd bcbe 033d
00000160: 4bfe 30be bfec 9d3d 49a6 f03c e259 41bd
00000170: 12fa a73d 6cc9 1e3d 3f31 b83d ed05 fb3d
00000180: 4bd5 e1bd 5f22 253e a830 0dbd 1404 4abd
00000190: 28ab 2abe 4d79 47be 7f3d 27be ca07 2c3c
000001a0: 2fbb 003e a39a d9bc c0f6 75bc 69e6 1f3e
000001b0: c8ae 803d 6d76 003e 23e1 d0bd 6420 4e3d
000001c0: 3890 50bd 160e 30bd 7807 16be a1ca 83bd
000001d0: 6284 9ebd d0d1 a13d cc69 103d 384a 3b3d
000001e0: 7062 543e 4f68 5e3e c247 023e 09c7 153c
000001f0: 3aa2 20be b0da 143e 1748 22bd de0e 863c
00000200: 4cf5 77be 86b7 d8bc 141e 56bd 0c24 1a3e
00000210: be5d 14be 1d1d 28be d33b 18bd a276 cbbd
00000220: 9a05 9a3d 6191 9ebd 0bdc c7bd 221a f73c
00000230: f598 113e 946d 01be 2be8 db3d 9888 f33d
00000240: c629 543e 59fc 0bbe c3fc 253d a1db fdbd
00000250: c4b6 2b3e 3ca3 43bd f6ce 0a3e c9ae e63a
00000260: 90aa 32bd ff07 7fbc df40 683d c4d6 ec3d
00000270: 9421 03bc 6835 083e 9d9f 0cbe aa15 1f3e
00000280: 53ad aa3d b07a ac3d 8347 063e 0156 ebbd
00000290: fcdd 97bd 2bb0 273e 442b 00be 6f14 3f3e
000002a0: db5c 1fbe 0496 31be 17bd de3d 36b8 2fbe
000002b0: 7483 0abd 8f25 0f3e ffa8 083e 67c6 313e
000002c0: 8eea 01bd 6ba6 4cbe bb8f 483e 41b6 f6bc
000002d0: 7026 b2bd bab8 923d b0bc 28be 6274 f03d
000002e0: 88f8 c83d bbd1 e8bd 348c 12be f6f8 3cbd
000002f0: f50f 9c3b 0457 85bc 8a11 cfbd 61b1 023b
00000300: ac9a 35be 290b 16be 9968 06be bbeb 113e
00000310: 89a9 3d3e dc77 3cbd 6a90 cc3b 6266 b53d
00000320: 2b86 0d3d 7e17 00be f7b1 a13d c0b8 173e
00000330: f151 e4ba cbbd fcbc 31c6 103e 429e 3f3e
00000340: a327 d1bd 84f8 5c3e e40d 843d 443a 02be
00000350: 44d3 043e 82a4 8fbd 069b 273e 48c4 cabd
00000360: bda8 30be 69ca babd 1c97 09be b385 e73d
00000370: 9a82 7bbd a641 13bd 75dd b73d 12de 853d
00000380: ecd3 ecbd 338f 883d 0a0c b93d 950b 1bbe
00000390: 6af2 213e c1e7 e6bd a0e5 abbd de45 12be
000003a0: 2ab4 083e 9c73 073b 202e 1e3e d291 363d
000003b0: 1a62 e33d 3bfb 38be b24b bfbd c4e8 243d
000003c0: a5f6 12bc 3a55 b3bd a538 27bd 5b3e 183c
000003d0: 6c29 483d 4977 813d 089d 0abe 9160 c63d
000003e0: e71b 9d3c 7bf1 0b3e 9480 203e 14ac 40be
000003f0: 0cf1 443e 53d3 66be 10d0 cc3d 6636 243d
0.09939188 -0.1939796 0.12172088 0.05339013 0.18627077 0.13355467 -0.17936666 -0.2032114
-0.08104627 0.15913837 -0.033787947 0.07478896 -0.10204937 0.17786166 -0.10593611 0.15121032
0.004615613 -0.07735831 0.068778254 -0.045185387 0.0046328614 -0.04780922 -0.015357561 -0.16456194
-0.08352917 0.14174554 -0.08180009 0.18218501 0.15149644 -0.012331308 -0.13846499 0.14015038
0.059912235 -0.11123368 0.117620006 0.13804719 0.1805674 -0.10215801 -0.031080818 -0.0072041247
0.032656632 -0.15593585 -0.1289742 0.12771288 -0.06363408 0.124397315 -0.044522174 -0.027262963
-0.04383235 0.025903936 0.06436961 -0.2034837 0.031804387 -0.13935085 0.14641428 0.06080532
0.061925724 0.15337586 0.19059739 -0.13363154 0.039048444 0.14075705 0.12557995 0.1260561
-0.15763085 -0.15100196 -0.110515505 0.0050065373 0.19293271 -0.1162645 0.09683145 -0.10571729
-0.15190648 -0.07248379 0.16259283 0.2181225 -0.0719959 0.0033859175 0.07634532 0.18198691
0.013119353 0.13574733 0.15702479 0.047054127 -0.15170038 -0.20756331 -0.06901207 0.03216432
-0.17284505 0.07711171 0.029376166 -0.04720486 0.08201994 0.03876631 0.08993768 0.1225699
-0.110270105 0.16126393 -0.03447023 -0.049320295 -0.16666853 -0.19479866 -0.16332053 0.010499904
0.12571405 -0.026562994 -0.015012443 0.15615238 0.06283337 0.12545176 -0.101991914 0.05032386
-0.050918788 -0.042982183 -0.14651287 -0.06435133 -0.07740094 0.07901347 0.035257146 0.045725077
0.20740676 0.21719478 0.12722686 0.009141692 -0.15686885 0.14536548 -0.03961953 0.016364511
-0.24214667 -0.026454698 -0.05227478 0.15052813 -0.14488885 -0.16417356 -0.037166428 -0.09934737
0.075206 -0.077425726 -0.09758767 0.030163828 0.14218505 -0.12639457 0.10737642 0.118912876
0.2071906 -0.13670482 0.040524255 -0.123954065 0.16768938 -0.047763094 0.13555512 0.0017599697
-0.043619692 -0.015565871 0.05670249 0.11564401 -0.008003611 0.13301623 -0.13732763 0.15535608
0.0833384 0.08421838 0.13113217 -0.11491013 -0.07415387 0.16375796 -0.12516505 0.18660139
-0.15562765 -0.17342383 0.1087591 -0.17160115 -0.03381677 0.13979171 0.13345717 0.1736084
-0.03171783 -0.19985358 0.19586079 -0.030116202 -0.086987376 0.0716414 -0.16478229 0.11740948
0.098130286 -0.11368128 -0.14311296 -0.046135865 0.0047626444 -0.016276844 -0.10110767 0.0019942152
-0.17734784 -0.14652695 -0.13125838 0.1425008 0.18521704 -0.046012744 0.0062428014 0.088574186
0.03455178 -0.12508962 0.07895272 0.1481657 -0.001741944 -0.03085222 0.14138104 0.18712714
-0.10212638 0.21579176 0.06447962 -0.12717539 0.12971216 -0.07013799 0.1636773 -0.09900719
-0.17251869 -0.09120638 -0.1343655 0.11304798 -0.06140385 -0.03595128 0.089777865 0.06536497
-0.115638584 0.06667938 0.090354994 -0.15141137 0.1581513 -0.11274672 -0.08393407 -0.14284465
0.13349977 0.0020668274 0.15447283 0.04457266 0.11102696 -0.18064587 -0.093406096 0.040261045
-0.008969937 -0.0875649 -0.040825505 0.00929221 0.048867628 0.0632158 -0.13536465 0.09686387
0.019178344 0.13666336 0.15674049 -0.18815643 0.19232577 -0.22541551 0.10000622 0.04009094

actor.l1.bias f4 [70]
00000000: 6686 11be fad2 59be 1816 b73b 8b71 c63d
00000010: b0ea 753a cb9f 0f3e fede 04be ed0d debd
00000020: d03a 9abd b50a c5ba 28fa 5dbd f0de 24be
00000030: 953a 243e 1a40 e23c 30eb 40bd d4db e5bd
00000040: 4400 40be f6c1 c03d 4acc fd3d eb5e 99bc
00000050: 0a04 edbd 7ce2 983b 6c9d e53d beab cfbd
00000060: c37c f1bc 52ce 3e3e b681 293e 43c2 07be
00000070: 1352 2c3e 64cc 073e 7cc1 453e 749a 623d
00000080: 7081 ecbd 9fe9 9f3d 908e 583e df97 803b
00000090: 273d c6bd 2cd4 78bd 4336 a3bd 3c95 023e
000000a0: dc5a 1ebe ddf0 273e 55b9 8e3c a633 28be
000000b0: b930 7e3d edc3 ebbd f81a 193e ed26 2bbe
000000c0: 9abf cb3c be62 1b3e fb8b d4bd 3b4e 473e
000000d0: 60fd 283e d6c7 fcbd 6fc8 423e 2878 1e3e
000000e0: 19b6 8e3d f3d9 4bbd 363b a4bc 6722 86bd
000000f0: 8b85 24be 0208 22bd 9f54 1f3e 6560 163e
00000100: 1ac8 fcbd ad98 35be 9caa 38bd 5c80 073d
00000110: 476f c5bd d21e 0e3e
-0.14211425 -0.21271887 0.0055873506 0.09689625 0.00093809795 0.140258 -0.1297569 -0.108425
-0.07530749 -0.0015033098 -0.054193646 -0.16100669 0.16037972 0.027618457 -0.047099292 -0.112235695
-0.18750101 0.09411995 0.12392481 -0.018722018 -0.11573036 0.004665671 0.112116665 -0.10140179
-0.029478436 0.18633392 0.16553387 -0.13257699 0.16828184 0.13261563 0.1931209 0.05532308
-0.11548126 0.078082316 0.21148133 0.0039243544 -0.09679633 -0.060749218 -0.07969334 0.12752241
-0.15464348 0.16400476 0.017422358 -0.16425952 0.062058184 -0.11511979 0.14951694 -0.16714068
0.024871636 0.15174386 -0.10378262 0.19463436 0.16502905 -0.12342803 0.19021772 0.15475523
0.06968326 -0.0497684 -0.020047765 -0.065495305 -0.16066568 -0.039558418 0.15559624 0.14685209
-0.12342854 -0.17734022 -0.04508458 0.033081397 -0.09640365 0.13878945

actor.l2.weight f4 [70, 70]
00000000: 655e d03b c6d7 ce3d a1d6 f13c 0876 153d
00000010: 228e 87bb dea3 ce3d 53cd 1abc c346 2ebd
00000020: d20a 543c 8b54 0a3d 277a 2dbd 3d7a 52bd
00000030: 9a46 a5bd d2fd 993d 815d 73bd 7fb8 653d
00000040: 338b 893c 71f4 4dbd 1962 803d 2c84 a5bc
00000050: 091a 473d ab93 b03d 3c9d ec3c dc86 15bd
00000060: f849 be3d f964 b13b a474 933d b220 003d
00000070: 6908 88bc 1220 dfbb ccdc 98bd e91a 0b3d
00000080: d131 5ebd 6d2f d13d 7e02 03be 04d7 2b3d
00000090: 0fcb 853d 76ca 41bd e618 06bd 8139 80bc
000000a0: b75c 863d d97e 033d d842 1e3e 58cb 953d
000000b0: 0718 24bc cf80 b13d 29e0 833b 3912 763d
000000c0: 658b 45bd 4216 9dbd fad3 71bd 6471 233a
000000d0: e198 ca3b abdd f73d 4ac2 553c d2f9 99bd
000000e0: 2f56 86bd f4de 553d 152e 223d 4ae3 183b
000000f0: 8d57 b2bc 55d3 a53c 3d41 9e3d 07b9 b43d
00000100: b95d a63c d42d eabc 668d af3c e1e6 ad3d
00000110: 08c7 243e 2823 fd3b 4f94 883d e03a 293d
00000120: 286d 24bd 0c1b 373d 8c26 02bd 4924 82bc
00000130: ba25 f2bc baa0 a4bd 0328 823d da5e 1b3d
00000140: 7f06 06bd 1321 79bd 2e95 cfbb 3ce5 69bd
00000150: 2d29 14bd 165c ae3d 3a9f d13c 8c86 d0bc
00000160: 0553 253d 5cc1 32bd 634f fa3c 9b52 ccbd
00000170: 883e 9f3c 842b bf3c a1da dd3a 818b d9bc
00000180: 02a1 f53c 06b6 9cbc cc65 883d e1e5 cb3d
00000190: ff07 63bc aa91 9ebd 279a 9cbd e004 743d
000001a0: ddd2 ccbc dfd7 77bd 6d47 27bd 2430 0b3d
000001b0: c00e 4bbd d407 38bd 4b76 893c a6f4 1d3d
000001c0: 73e3 b0bd d0f3 353d 773c 9bbd 3623 03bc
000001d0: 5760 a0bd 0198 8fbd f2de a4bb 4558 403c
000001e0: 3bab 22bd 5f87 4c3d 8174 1cbd a44e fabc
000001f0: c626 4dbd 9c9b b93d eb0f a13d f1c0 333d
00000200: 40e7 93bd 6aed 4ebd 9723 83bd 06cb 8d3c
00000210: 1ede 3dbd e315 54bc 9707 8a3c 80a3 c9bd
00000220: b759 d0bc 3e04 46bd 8992 583d 2c16 babd
00000230: 4efe cbbc e70c 533d 9f48 60bd 2704 9dbd
00000240: ac7e d4ba 58b0 3f3d 2243 c4bd 9a1a 063d
00000250: 5490 b9bd 865a e13c e865 25bd 1a40 723d
00000260: 2a97 9dbd 7a63 533d 639d 7dbd a223 d63a
00000270: cbc3 7dbd b1f9 24bc 4ec1 8dbb 70cf 3dbd
00000280: 509a 843c de93 0c3d 27fd 94bd 269a 953d
00000290: 8ae0 8dbd 5c7d d03c 300e 0dbd 2d43 97bc
000002a0: 07a8 9cbd a880 b8bd 5946 8fbd 99fc a23d
000002b0: 331d 31bc 6f6b 1dbd 3568 a93d 5872 693d
000002c0: ecef 033d d0ec 9f3c d7b0 403c 227e cc3d
000002d0: 3fc6 d8bc c380 37bd e819 413d 3f74 e8bb
000002e0: 5e27 913d 6370 53bc 3a12 23bd 167b 9f3d
000002f0: af5e a5bd af2c 6b3d 3589 32bd a643 edbd
00000300: 04b9 2d3d 1607 eb3b e5d0 b5bd 0f71 0bbd
00000310: c5e7 cbbb 29ac 64bc 261c 823d 45be 4ebd
00000320: d0e1 753d 7efd 9d3c 1ec1 1fbc 0942 42bd
00000330: 8fe5 633d 7b77 b5bd aacd 203d fa4d 8f3d
00000340: f686 143c 7fe1 09bd e2a5 29bd 3610 a3bd
00000350: c87d e1bc c99c 113d aff5 08bd 2811 ba3d
00000360: ce4b 34bc 0545 28bd 82c8 5e3d 2ee8 b5bd
00000370: 918a 7ebd d8d6 503d 5e5c 1b3d 8cb5 1cbc
00000380: f23f 90bd fdc6 b1bc 0f77 543d f2e4 d9bb
00000390: f05d 9dbd 9400 41bd 6a8a d33d d005 4bbd
000003a0: 2081 de3c eaa8 963d 24f9 a83c e190 0bbe
000003b0: f1e4 07bc 2a31 c83c 67f0 90bd 2699 47bd
000003c0: 48c9 82bd 243e 1cbd 65a6 0bbd 7d5e 7b3c
000003d0: 313c 43bd d08e 92bd 7ab3 73bd eabd 5d3d
000003e0: 09d2 9f3c d162 a4bd adce 81bd 60da e2bd
000003f0: d725 d3bc 15f7 813d 4254 463d 6701 883c
0.006358909 0.10099749 0.029521288 0.036489516 -0.0041368166 0.10089849 -0.009448367 -0.042547952
0.012942033 0.033772033 -0.04235282 -0.051386107 -0.08070107 0.075191155 -0.059415344 0.056084152
0.016790008 -0.050281946 0.06268711 -0.020204626 0.048608813 0.086219154 0.028883569 -0.036505565
0.09291452 0.005413648 0.07199982 0.03128118 -0.016605573 -0.006809243 -0.07463989 0.03396121
-0.054246727 0.10214124 -0.1279392 0.0419531 0.06532871 -0.047312222 -0.03273859 -0.01565242
0.06560653 0.032103393 0.15455186 0.07314175 -0.010015494 0.086671464 0.0040245247 0.060075972
-0.04822864 -0.07670261 -0.059040047 0.0006234853 0.0061827754 0.12102827 0.01304681 -0.075183526
-0.06559407 0.052214578 0.03959473 0.0023328834 -0.021770263 0.020242373 0.07727287 0.08824354
0.020308362 -0.028586306 0.021429729 0.08491302 0.1609155 0.007725138 0.066689126 0.041315913
-0.040143162 0.04470353 -0.031775042 -0.015886443 -0.029559005 -0.08038469 0.06355288 0.037932254
-0.03272104 -0.060822558 -0.0063349223 -0.05710338 -0.03617208 0.08513658 0.02558862 -0.025454782
0.040362377 -0.043641433 0.030555433 -0.09976693 0.019438997 0.02333618 0.0016926118 -0.026555778
0.029984001 -0.019129764 0.06660041 0.09955955 -0.013856887 -0.07742627 -0.0764659 0.05957496
-0.025002891 -0.060508605 -0.0408396 0.033981457 -0.049574614 -0.04492934 0.01678004 0.038563393
-0.086371325 0.04442197 -0.07579892 -0.008004 -0.07830875 -0.07011414 -0.00503146 0.011739795
-0.03971408 0.049933787 -0.038197044 -0.030555077 -0.050085805 0.09062883 0.07864364 0.043885175
-0.07221842 -0.050519384 -0.064032726 0.017308723 -0.046354406 -0.012944671 0.016849322 -0.09845638
-0.025433404 -0.04834389 0.05287412 -0.0908626 -0.024901535 0.051525977 -0.054756757 -0.076668076
-0.0016212068 0.046799034 -0.09583117 0.032740213 -0.090607315 0.027508985 -0.04038039 0.059143163
-0.07694848 0.05160854 -0.061917674 0.0016337524 -0.0619543 -0.010069297 -0.004326022 -0.046340406
0.016186863 0.034320705 -0.072748475 0.07304792 -0.06927593 0.025450401 -0.03443736 -0.01846465
-0.07649236 -0.09008914 -0.069958396 0.079583354 -0.010810184 -0.038432535 0.08271829 0.056993812
0.03221123 0.0195221 0.011760912 0.099849954 -0.026461719 -0.04480053 0.047143847 -0.0070939357
0.07087587 -0.012905213 -0.039812304 0.07787149 -0.080747 0.05741566 -0.043587882 -0.115851685
0.042412773 0.0071724756 -0.08877734 -0.034043368 -0.0062226974 -0.013957062 0.06353025 -0.050474424
0.060029805 0.019285914 -0.009750633 -0.047426257 0.055638846 -0.0886068 0.039258637 0.06997295
0.00906538 -0.033662315 -0.041417964 -0.07962076 -0.027525797 0.035549913 -0.033437427 0.090853035
-0.011004401 -0.041081447 0.054390438 -0.088821754 -0.062143866 0.05098614 0.037929885 -0.0095647685
-0.070434466 -0.02170133 0.051871356 -0.006649607 -0.07683933 -0.047119692 0.10329135 -0.04956609
0.027161181 0.073564366 0.020626612 -0.13629486 -0.00829433 0.024437506 -0.07077103 -0.048730038
-0.063860476 -0.0381452 -0.034094233 0.015342352 -0.047664825 -0.071561456 -0.059497334 0.054136194
0.019509332 -0.0802666 -0.063382484 -0.11076808 -0.02577488 0.06345955 0.0484202 0.016602231

actor.l2.bias f4 [70]
00000000: a898 a93c 3a0b febc d5b7 aabd b0b5 b53c
00000010: b515 6b3c 61b5 a5bd d7aa 80bd 9206 723d
00000020: 6f29 b43d 882f c9bc 2875 94bd 9ba1 90bb
00000030: c78d f6bc e4e9 0d3d 411f 23bd aba7 8b3d
00000040: ce8b 21bd 44dc 86bd 0dc9 d73c 7c35 63bd
00000050: becb 5f3d fa4c ad3b 83a9 b93d 4234 4d3d
00000060: 147f a4bd a2b3 9bbd 6f2a 90bd 5a63 943b
00000070: 0dcf 96bd 924b 2bbc 37ba 67bd 051b 8fbd
00000080: 99bd 703d 4511 dcbc d4bf 4fbd addb 1d3d
00000090: bffe 67bd f370 81ba 963b 0c3c 795b abbd
000000a0: 25bb 88bd b3a8 a0bd 1957 2bbd 2e6b 873d
000000b0: 5322 3c3d 7342 7a3d f37a 513d 1516 1b3d
000000c0: f29f d33c 4cfb 8b3d 87d3 a63d 6c2f adbd
000000d0: 1f58 a7bd 53fe 39bd e257 ed3c b7a3 4f3d
000000e0: 69e2 5ebc b08e 22bc a6fc 46bd 7fdb b4bd
000000f0: 9009 733c c0bc a9bc cf6c 1b3c 1b0b f33d
00000100: 2f30 653d d258 01be 54fc dbbc f3a8 903c
00000110: 8826 283d 0116 33bd
0.020702675 -0.031011213 -0.083358444 0.022181362 0.014348437 -0.08091236 -0.06282585 0.059088297
0.08796965 -0.024558797 -0.07248908 -0.004413796 -0.030096902 0.034646884 -0.039824728 0.068190895
-0.03943997 -0.06584981 0.026340986 -0.05547093 0.054637663 0.0052887173 0.09065535 0.050098665
-0.08032051 -0.076026216 -0.070393436 0.004528445 -0.073637106 -0.010455029 -0.056574073 -0.069875754
0.058774564 -0.026863704 -0.05072005 0.038539577 -0.05663943 -0.000987558 0.008559128 -0.083670564
-0.0667632 -0.07844677 -0.04183111 0.0661224 0.04593117 0.061098527 0.051142644 0.037862856
0.025833104 0.068350405 0.081458144 -0.08456311 -0.08171105 -0.045408558 0.02897257 0.05069324
-0.013603785 -0.009921715 -0.048580788 -0.08830928 0.014833823 -0.020719886 0.009486391 0.118673526
0.055954155 -0.12631539 -0.026853718 0.017658686 0.04105237 -0.043722156

actor.out.weight f4 [8, 70]
00000000: 831f 673c 7fc8 523c ccff 8fba db9a 043d
00000010: 23bd bdbd 15f2 14bd 4487 223c 1aeb 1f3c
00000020: da20 3dbd 7c62 2eba 522c a4bc 8b32 263d
00000030: c323 ea3c 2833 b7bd 43d4 b9bd 937e 1a3d
00000040: 43cf 4ebd 90f2 99bc 9999 b33c 0ee9 e9bc
00000050: 71f9 2dbc be8c 3fbd c1e6 08bd b69e 2fbd
00000060: 8c64 1abe 8482 073d 415c c63c 788c 913d
00000070: 625d 8bbc ac7e 51bd dfed 483d d976 e1bd
00000080: d78b 1fbd 6d22 0a3d e5c7 3bbc c212 063c
00000090: d42a 223d d8f0 35bd 4377 8a3d e5e1 bcbd
000000a0: b43e 59bd fc3d 303c fd18 2fbd 412d 483c
000000b0: 4903 8fbd d815 c03c 25d3 0fbd a1e6 173e
000000c0: bcd1 8abc 0623 7c3d 649c c2bd 97d5 01bd
000000d0: d3b8 a3bd cc18 1d3c e04f 7dbc 15cb a9bc
000000e0: b908 82bd 86f3 07bd d6f1 20bb cc11 c03d
000000f0: d100 303c ac63 183d 3367 993c 3d27 283b
00000100: dd3d 35bd aeba 8f3d 5d44 8a3d 549c 813d
00000110: 2dc7 403d eab3 05bc 40b8 e4bd e04f 493c
00000120: eebe 303d 27e0 223d f384 4b3d 27c2 b83c
00000130: e797 0abc fdf2 183e 781a bebd 56b6 6cbc
00000140: 8ced 1e3d bc2c 20bd 40b9 303b 96b0 8abc
00000150: aaac cabd 31dd 063d b45f bcbd 1132 3fbc
00000160: 7bdd d5bd f396 053c f01f 67bd 8072 413e
00000170: c041 b83d b482 5e3c 541c 35ba ad69 213d
00000180: 51f1 9a3d b724 47bd 29b4 46bc c9e2 12bd
00000190: 70ef 18bd e61a d23c c205 a5bc e24b 92bd
000001a0: 3b89 be3c 967a 4fbd b3ab a63d 3a8b 6dbd
000001b0: 6a9f 783d 2d53 7c3d 45df 37ba c995 b8bd
000001c0: 772a b3bd e6a1 c53d 28f3 1d3d 1f40 973d
000001d0: 6d69 6f3d 5461 2a3e a646 4abd e08f 8e3d
000001e0: 71e2 de3c 3c2b fbbc d524 d73c 5fdd bbbc
000001f0: 4762 3bbd a6d5 033d ee85 023d 834c e7bc
00000200: d665 e3bd 61c7 e2bd 404b c93d 6ac4 7e3c
00000210: 09a7 d93d 6c9b b13d 0ac8 6fbd db4b 473c
00000220: 4834 9b3d f4ae e5bc d414 1c3c 0f26 51bc
00000230: 34f9 543d 2e76 1dbd 57d9 d43d 3e39 efbc
00000240: 576c 733d 6fee cb3d 0260 efbc 654e aebd
00000250: 24db 603d 7222 04bc 73b2 54bc d309 cf3c
00000260: 4473 09bc d817 9b3a 518a 773c f252 aebd
00000270: b6bc fb3c 4b80 a73d 80a3 63bd 544a 553d
00000280: 9b5b a83c 4d7e 52bc 668d 90bc 2b29 8f3c
00000290: 743b 593c f4bf e33c 8c9c a3bd fe78 27bc
000002a0: f86b 293d 4033 2b3c 9f31 8ebb b52e bcbc
000002b0: fc3e 8c3b 0535 87bc e800 5f3c 6d9b 4c3c
000002c0: ca48 07bd 4e4b 8f3d 6cc6 17bd bac7 133d
000002d0: 9d79 d7bb a892 46bd 0dfb 843c a24d aebd
000002e0: 6bd5 e4bc 17b0 bbbd ecfa 1ebc 1cc2 7ebd
000002f0: e286 383d c7b4 963c f0fb 203c 33e2 783d
00000300: 53f6 a2bd 447c 293c 4b82 9a3c bcb1 c8bc
00000310: 5cdb 9bbd 5fc8 9e3d 7f89 21bd 736c 04bd
00000320: 188a e53d 6740 bcbd c3e7 873c 4bca 8bbc
00000330: a2cd a5bd bd79 463d a346 1cbc 6ac9 dc3d
00000340: 0f06 24bd 6256 9d3a 3e13 153d bf7f 88bd
00000350: 82ec d0bc 7bc9 b13b 6314 8f3b cc1d 8d3d
00000360: 78d5 69bb 0c75 3abd c57f 2dbe 00f3 523c
00000370: 83ea a23d c49b 4bbd efbd 2ebd a73a 76bd
00000380: 64d8 acbb f619 fd3b 1438 85bd da53 13bc
00000390: e437 b2bd d01b 3b3c 533d ae3d 8a23 1dbd
000003a0: f3ab 9c3d a2bc 6a3d fbb2 09bc e832 b63d
000003b0: 5d68 96bc c571 003d a24e bdbd 82ee 6a3c
000003c0: 7fe3 98bd cfea db3b 1467 f8bc 9c3f 1ebc
000003d0: 0029 b73d 0cbf 143d 7085 e83c e5ce 8a3d
000003e0: dacb 8dbd 8a6d dcbd 72b7 4f3d eb64 41bd
000003f0: 39b2 69bb d021 c7bb f093 88bc 8f1b d83c
0.014106634 0.012865185 -0.0010986268 0.032374244 -0.092645906 -0.03636368 0.009919945 0.009760642
-0.046173908 -0.00066522486 -0.020040665 0.040575545 0.028581506 -0.08945304 -0.09073689 0.037718367
-0.05049063 -0.01879242 0.021923827 -0.028553512 -0.0106185535 -0.04676508 -0.03342319 -0.042875968
-0.15077418 0.033083454 0.024213912 0.071068704 -0.017012302 -0.051146194 0.049054977 -0.110089965
-0.03895172 0.033724237 -0.011461233 0.008183183 0.039591625 -0.04441914 0.067610286 -0.092227735
-0.053038314 0.010756966 -0.04274844 0.012217821 -0.069830485 0.023447916 -0.035113472 0.14834072
-0.016945712 0.06155684 -0.095024854 -0.031697836 -0.07994237 0.009588432 -0.015460938 -0.02072672
-0.0634932 -0.033191226 -0.0024558208 0.093783945 0.010742382 0.03720443 0.018725967 0.0025658153
-0.04424845 0.07018028 0.067513205 0.06328645 0.04706495 -0.008160571 -0.111679554 0.01228711
0.043150835 0.03976455 0.049687337 0.022553517 -0.008459068 0.14936443 -0.09282392 -0.014447769
0.03880076 -0.039105162 0.0026965886 -0.016929906 -0.09896214 0.03292579 -0.091979414 -0.011669652
-0.10442635 0.008153665 -0.056426942 0.18891335 0.08996916 0.013580967 -0.0006908823 0.03940742
0.07565559 -0.048619 -0.0121279145 -0.03586081 -0.03733772 0.025647592 -0.020144347 -0.0714338
0.023258796 -0.050654016 0.08138218 -0.057994105 0.060698904 0.06160276 -0.0007014166 -0.09012944
-0.08748334 0.0965002 0.03856197 0.07385277 0.05845015 0.1663869 -0.04938378 0.06961036
0.027207585 -0.030660264 0.02626268 -0.022932706 -0.04574802 0.032186173 0.031866007 -0.028234726
-0.11103408 -0.11073185 0.09828806 0.015549758 0.106275626 0.086722225 -0.05854038 0.012164081
0.07578331 -0.028037526 0.00952645 -0.0127654215 0.05199547 -0.038442783 0.10393017 -0.0292021
0.059429493 0.09957587 -0.029220585 -0.08511046 0.05489649 -0.008064853 -0.012981999 0.02527324
-0.008389298 0.0011832668 0.015108661 -0.08511914 0.030729633 0.08178767 -0.055575848 0.052072838
0.020551493 -0.012847495 -0.017645549 0.017475685 0.013258804 0.027801491 -0.07988843 -0.010221718
0.041362733 0.010449231 -0.0043394114 -0.02297149 0.0042799693 -0.016504774 0.013611056 0.012488228
-0.0330284 0.06996785 -0.037054464 0.036079146 -0.0065757767 -0.048479706 0.016232992 -0.08510901
-0.027933797 -0.09164446 -0.009703379 -0.062196836 0.04505051 0.018396748 0.009825692 0.060762595
-0.07957139 0.010344569 0.018860957 -0.024498813 -0.07610199 0.077530615 -0.039437767 -0.032329988
0.1120798 -0.09191971 0.016590005 -0.017064234 -0.08095862 0.048455942 -0.0095383255 0.10780604
-0.04004484 0.0012003893 0.036395304 -0.06664991 -0.0255034 0.0054256297 0.004366444 0.06890449
-0.0035680216 -0.04552178 -0.16943271 0.0128753185 0.07954886 -0.049709097 -0.042661604 -0.06011453
-0.005274819 0.007724042 -0.06504837 -0.00899216 -0.087020665 0.011420205 0.085077904 -0.03836397
0.07649984 0.0573088 -0.008404489 0.08896428 -0.018360311 0.0313585 -0.09243514 0.014339091
-0.074652664 0.006711341 -0.030322589 -0.00965872 0.08943367 0.03631501 0.02838394 0.06777743
-0.06923647 -0.107630804 0.050712056 -0.047215383 -0.0035659207 -0.006077029 -0.016672105 0.026380328

actor.out.bias f4 [8]
00000000: 4168 27be 9315 8b3c da4f 6b3d 4931 873d
00000010: f857 ae3c 66e1 f9bc 2658 c4bd f86e 38bd
-0.16348363 0.01697806 0.0574492 0.06601197 0.021282181 -0.030502986 -0.095871255 -0.045027703
